src/Fun_2/model/model_256_64_64_0.001_400.pt (torch, 309415 bytes, 5 tensors)

weight f4 [64, 1128]
00000000: 5478 dbbd 7ba4 ccbd 16d8 1e3e 356b a7bd
00000010: f94b 873d 4797 e93d 9ab3 383e dc30 fdbd
00000020: 9904 4abe 827b 15bd 6eb5 67bd dd36 acbd
00000030: 89c2 c63d 682b 6b3d 2dfe 583e 3535 ec3d
00000040: 28eb 09be 7ca6 3abe 0178 b5bd 5c78 2ebe
00000050: 002a 863d cd09 d1bd d5d8 f7bd a809 80bd
00000060: 1679 3c3e f955 80bd a4cb 6c3d 7999 5e3c
00000070: f637 923d 71ff df3d a21d 90bd c395 b2bd
00000080: 48ac 85bc 23da 673d b3c6 b3bd 1ddd 85bd
00000090: e6e2 193e 9028 a1bc a693 e23d c92a 0dbe
000000a0: 053e 123e bb1d 603d b674 463d f058 dabc
000000b0: 8838 2d3d 382a d23d bee1 c53d e375 1ebb
000000c0: 6b74 d5bd 5cbb dfbd 57b2 4cbd 16b7 9e3c
000000d0: 4f7a 85bc 3587 823d c204 67bd cef1 ed3c
000000e0: 9712 d63c 1924 803d e35f fbbb b0a9 5c3d
000000f0: 27e1 ccbc fed1 093d e676 6abd f0c7 5d3c
00000100: 6ccb 36bd feb8 b63c 2930 fb3d 10a2 9ebb
00000110: 78e0 013d 143a 283d 6c79 883c 0128 333d
00000120: a347 ec3d 9efb 903d 02e2 c13c fe3f bd3c
00000130: e5b7 753d 85ec e93d ffd8 353b cca6 0dbd
00000140: c8d2 3ebd e5d6 d9bd 925f 3dbc e104 cb3d
00000150: ef8d 70bd 3a07 07bd aa6b 39bd e826 c53d
00000160: 5525 133d e609 613d 6d96 ae3d 21d1 dfbc
00000170: 6769 c3bb 27cd 1c3d 52a4 b83b a829 bf3d
00000180: f434 083d 722c 013e 631e 613b 1d37 623d
00000190: 28e0 8abd 00c1 22bd 6887 37bc c3e2 d13b
000001a0: 43a8 883d c82d 813d 1007 b6bc b79e 72bd
000001b0: 2f7a ce3b b2ee 99bd f8e6 073d 7eee 93bd
000001c0: d0bb 963d 3dbe 63bd c5d6 50bc 1db2 0f3d
000001d0: 437a 153e 5154 84bd 61c7 923b 671e cfbc
000001e0: 7900 5e3d ad2c bb3c 792a aa3d b9b6 b9bc
000001f0: fcc2 d03d 1ba8 e0bd 1082 ef3b d88a b8bc
00000200: 3711 1d3d d716 473d 1433 953d e949 a7bd
00000210: c07e 9c3d 8fc4 c7bc 4ac4 d8bc e885 db3d
00000220: 8322 30bc f151 2fbd fa56 9d3c de44 a9bc
00000230: 5854 e33d 41c5 26bc 7e18 c5bb 4dad edbc
00000240: ffe2 a6bd c1c3 87bc 3426 843d 5025 223d
00000250: aa35 383d 7a8a 30be 41ad bcbd 4820 493d
00000260: 11c6 f63c 3fbe e53d a521 7bbd 964a 42bc
00000270: 9758 d33c 82c4 6d3d 693f d7bc 0c87 083c
00000280: fe04 46bd b020 3bbd d2d3 a8bc 607e cebd
00000290: 4436 b5bd 9f65 8ebd 7302 94bd 27c8 78bd
000002a0: c2b5 95bc 6f54 d9bd 81ff 77bd f331 af3b
000002b0: 1a28 9a3c 8ba3 863d f2a0 c43b d387 40bd
000002c0: fe62 cebd 9a81 d13d ade8 1e3e 23ef 993d
000002d0: 3000 d7bd 0df2 e6bb ee71 93bc 37b5 1a3d
000002e0: 68a8 ec3c f7a8 ff3c f9db 6c3d 121e a93d
000002f0: 0592 b23c 4962 8dbd ec7c 803b 3ff8 98bc
00000300: f98f 73bd 9c04 cb3c 6d1d 9a3d 5f6a b23d
00000310: b96d 3e3c 3a76 b43c 8489 a8bc 662c 93bd
00000320: fbfa 9dbd 9ce3 94bd eed4 2f3d dcc9 0fbe
00000330: 2ef8 04bd 4d4a 10bd c337 cd3d bfc1 113e
00000340: f7da 203d 7b0a 91ba 4891 803d 86a6 013d
00000350: 6833 2b3d 1cbd 29bd c346 6b3b c9dc 003e
00000360: e08e 2e3e f082 3cbd e814 ef3b a475 15bd
00000370: 7424 4dbd 57ca 56bc ac8b 8b3d d3b3 6d3c
00000380: 07f5 55bc 11ba 3f3d 2163 b5bd 7a02 2e3c
00000390: 6bae 99bd e6dd 813b f644 4b3d 1e04 673d
000003a0: 670f 083e a971 813d c578 853d c4ea 0c3e
000003b0: f0c1 a33d 4340 d5bb b759 13bc b710 7a3d
000003c0: b9d6 1b3d 84fb dfbd 5944 25bb 8cb2 95bd
000003d0: 41fc aebd 2c52 763c 65ca 923d c6d1 1abc
000003e0: d11b 3cbd cca7 03bd 165d 153e b879 ff3d
000003f0: b014 1dbd 7af1 dd3d ccdd 14bc f53c cb3d
-0.1071631 -0.0999231 0.15512118 -0.08174745 0.066062875 0.11405807 0.18037263 -0.12362835
-0.19728316 -0.03649474 -0.05656951 -0.08408902 0.097050734 0.057414442 0.2119071 0.11533586
-0.13468611 -0.18227571 -0.088607796 -0.17038101 0.065509796 -0.102069475 -0.12101904 -0.06251842
0.18405566 -0.06266398 0.057811394 0.013586395 0.0713958 0.109373935 -0.07036902 -0.08719971
-0.016317502 0.056604516 -0.08778133 -0.06536315 0.15027961 -0.019672662 0.11063318 -0.13785852
0.14281471 0.054715853 0.048451148 -0.026653737 0.04229024 0.10261959 0.096621975 -0.0024179153
-0.104225956 -0.10924408 -0.049974766 0.019374412 -0.016293673 0.06373445 -0.05640102 0.029045966
0.026131911 0.06256885 -0.0076713427 0.053872764 -0.025009705 0.03364753 -0.057242297 0.013536438
-0.044627592 0.022305008 0.12265045 -0.0048410967 0.03170821 0.041071013 0.016659461 0.043739323
0.11537101 0.07079242 0.02366734 0.023101803 0.05998983 0.11422066 0.0027747748 -0.034582898
-0.046587735 -0.10636691 -0.01155843 0.0991304 -0.05872911 -0.032965876 -0.045268692 0.096265614
0.035924274 0.05494108 0.08524785 -0.0273214 -0.0059634927 0.038281586 0.005634823 0.09334117
0.033253625 0.12614611 0.0034350387 0.05522834 -0.06781036 -0.03973484 -0.011201717 0.006405206
0.066727184 0.0630756 -0.022220165 -0.059233394 0.0063011865 -0.07516231 0.033179253 -0.07223223
0.07360041 -0.055601347 -0.012746518 0.03508197 0.1459742 -0.064613946 0.004479334 -0.025283052
0.05419967 0.022848452 0.08308882 -0.022670137 0.1019344 -0.109695636 0.007309206 -0.022527143
0.038346495 0.048605766 0.07285133 -0.08168394 0.07641363 -0.024385719 -0.026460785 0.107189
-0.010750416 -0.042802755 0.019206513 -0.020662721 0.11100072 -0.010178865 -0.0060148826 -0.0290133
-0.08148765 -0.016572835 0.06452599 0.039586365 0.044973053 -0.17240325 -0.09212733 0.04910305
0.030123742 0.11217927 -0.061311383 -0.011858603 0.025799079 0.058048733 -0.026275354 0.008332979
-0.048344605 -0.04568547 -0.020608816 -0.10082698 -0.08848241 -0.069529764 -0.0722703 -0.060737755
-0.018275145 -0.106118076 -0.060546402 0.0053465306 0.01881795 0.06574162 0.0060006315 -0.047004532
-0.10077475 0.10229798 0.15518446 0.07516315 -0.10498083 -0.0070478977 -0.017998662 0.037770476
0.028888896 0.031208498 0.05782697 0.082576886 0.021798143 -0.06903512 0.003921142 -0.01867306
-0.059463475 0.024782471 0.07525144 0.08711695 0.01162284 0.022029031 -0.020573385 -0.07186203
-0.07713886 -0.072699755 0.042927675 -0.14041847 -0.032463245 -0.03522711 0.10020401 0.14234065
0.03927132 -0.0011065745 0.0627771 0.03165295 0.04179707 -0.041440114 0.0035900332 0.12584223
0.1704669 -0.04602331 0.0072961934 -0.036489144 -0.050083593 -0.013109765 0.0681375 0.0145082055
-0.013058907 0.046808306 -0.08856798 0.010620708 -0.07503971 0.00396322 0.049626313 0.05640041
0.13287126 0.06320507 0.065171756 0.13761431 0.07995975 -0.0065079047 -0.008993558 0.061051097
0.038046572 -0.10936645 -0.002521774 -0.07309446 -0.08544207 0.01503424 0.0716751 -0.009449428
-0.045924965 -0.032142445 0.1458629 0.12474388 -0.038349807 0.108370736 -0.009086084 0.09923736

bias f4 [64]
00000000: 0331 6b3e b716 353d da17 0b3e 095d 743e
00000010: 7d6b 0d3e 8fa7 033d 4410 6f3e 9987 4d3e
00000020: 2610 193e eb2c 6d3e cfaf 2e3e 34fe 99bd
00000030: 50dc e13d 3920 1e3e 9075 443e eaee b63d
00000040: ecdd 433e b98e 663e 760b 20be 88bb 413d
00000050: cd07 9e3d 3d78 f83d d6a6 2e3e 17b3 433e
00000060: 19a5 733e a3a0 243e 838b 243e 2bb5 473e
00000070: 7ab6 0c3e 25dc 253e cd15 5a3d 3293 01be
00000080: 1a7d 4f3e 43ad 713e c336 3f3e 88f2 043e
00000090: fdc5 09be 9736 683d 2977 d63d e233 093e
000000a0: 06dd 253e a421 2e3e 64b8 d8bb b7bb 653e
000000b0: d403 04bc a444 1c3e b7b7 1a3e 0ff9 a83d
000000c0: eb52 4c3e f84d 3f3e 109f 503e 425b 553e
000000d0: 6427 a63d 272e 1e3e 0bc4 cfbb 36a2 e73d
000000e0: 88d4 0b3e 9b78 713e 96ec 313e 7271 113d
000000f0: acce 113e bb2c 4d3e fcf2 4b3e f7e9 4c3e
0.22967915 0.044211116 0.13583317 0.23863615 0.13810535 0.03214222 0.23346049 0.20071258
0.14947566 0.23161666 0.17059253 -0.075191885 0.110283494 0.1544198 0.19185472 0.08932288
0.19127625 0.22515382 -0.15629372 0.047297984 0.07716332 0.12132309 0.1705583 0.19111286
0.23793449 0.16076903 0.16068844 0.19502704 0.13741484 0.1619726 0.053243447 -0.12653807
0.20262566 0.2360125 0.18673234 0.12983143 -0.13454433 0.056692686 0.10471947 0.13398698
0.16197595 0.1700502 -0.006613778 0.22434889 -0.008057553 0.1526056 0.15109144 0.08250629
0.19953506 0.18682086 0.20373178 0.20835593 0.08112982 0.15447293 -0.006340509 0.11310236
0.13655293 0.23581164 0.17375407 0.03550858 0.14238995 0.20036595 0.1991691 0.20011126

weight f4 [64, 64]
00000000: 007b 4bbb ec22 dc3d ec02 cfbc f1fc 533d
00000010: 085e 27bc cb6e f53c acc6 183e 310f 813d
00000020: cc94 023e 47f9 41bd bb05 a83d 5c5b dabd
00000030: 36c6 653b d97e c83d b376 003e dc40 013e
00000040: d7c5 2d3e 77fc f4bb 3255 0b3d 26a1 123e
00000050: 9fe8 ea3c b1bd 0c3e 1a7e c13d d4b5 b33d
00000060: 23ac 11bd 4aed eb3c 020d 213e 4eb5 c53d
00000070: 6c8e 203d 46a8 1f3e c5c8 003e 2f6b 35bd
00000080: c4bc 023e 2ac5 263e 0b97 c53d 9aae be3d
00000090: f53b f6bd ee0c 193d 2b02 96bd 9784 b23d
000000a0: 083c 43bd d55e 003e dd4b 48bd 6259 c93d
000000b0: 97f1 54bd 44bd a7bc 5699 0b3e f3d9 e83d
000000c0: 3996 ffbc 94f7 26bd 00b5 e13d e91a 373e
000000d0: f6cc 94bd c412 073d 6c28 ec3d dfdc aabb
000000e0: 7ea9 a93b 15d3 853d 067f b53c 9070 1b3d
000000f0: f95b 373d 7adf 30bc 30b9 65bd 708f bd3d
00000100: ac81 43be d59e 863d 2f5b a73d 77ad 17be
00000110: 9fc0 9d3c 590f a03b 7abb 4cbc 8000 e5bd
00000120: 06d6 e03c 2102 1d3a 0313 5abe 103a ddbd
00000130: cd36 04bd 029e 8cbd f1f4 8dbe 71fb 423d
00000140: d444 5c3d a2b6 d4bd 28ac 81be ac06 25bd
00000150: a5fb c8bd 7da8 d03d 5457 bebd 429b 5abe
00000160: 4fa6 1ebe ae44 45bd be64 98bb 277c f2bd
00000170: eb0d cd3d 3a2c 4fbe 1838 03bd b97b 57be
00000180: 962b 9abc 769f 3fbe 471d 3c3e edfc 313d
00000190: 3878 cfbd 000a d0bd c57e 253c 3a69 dc3d
000001a0: ebcb d03b 841a ddbd 53c1 c2bc e852 74ba
000001b0: 7db5 33be 48a3 c6bd 6d85 74be 0e8b 12be
000001c0: cd68 11be 50b7 49bc e4e4 e2bd 8044 65bd
000001d0: 1abc f23d 7b23 0c3d a89d 07be 0684 64be
000001e0: 237b 16be ff21 f7bd 62ac 373e 32de 123d
000001f0: aa41 ad3d 5ead d0bd a934 c1be 7bd6 313d
00000200: 1ee8 cfbc 5ea2 073e 2fe3 e93d a34e 333d
00000210: c8c3 063e 0e44 ddbc 0925 fd3d a278 233c
00000220: 5446 fc3d 4329 2e3e 20f1 e33c 52ab 86bc
00000230: 7a35 233e 829d f43d 9ed9 913d a9b8 b93d
00000240: 727b 3abc b762 133e 5b58 99bd ff26 d43d
00000250: 9442 ed3d 8154 23bd fb51 1f3e 11d5 993c
00000260: abdd 843c 0833 033d cb2b 163e 0bbf 213e
00000270: c953 213e 2d68 1e3e c4e5 aebd 64c7 3dbd
00000280: 4bda 503d ebb8 033e 2a83 233e e5e9 993d
00000290: b1a3 c9bd e6b1 163e 7209 a8bb 71dd d33d
000002a0: 6907 023d f1dc c63d d673 7cbd 76be ef3b
000002b0: cd84 193e 29d2 143e 4477 b73d 8845 033e
000002c0: 7657 e73d ee74 ed3d 1140 a33d 7367 20bd
000002d0: c436 0b3e 49ee f43d c494 453c b4be 5a3d
000002e0: faf2 023e 2167 b83d 7179 683d 1815 f63d
000002f0: ea51 1f3e 6b9f 053b ee5b 443c 5493 27bb
00000300: 4ced 9c3d fc3b bd3d 1e1d c23c a44f 0e3e
00000310: cb07 5d3d b3e5 99bd 3323 47bd dbb8 71bd
00000320: 59d7 9b3b 1694 fb3d 1574 003e 61b9 80bd
00000330: 3521 be3d e989 28bb 4e80 4e3d 345d 8fbd
00000340: 955c 0c3e 4809 c63d 3a6a 113e 33fe d43c
00000350: aae2 7e3d 63d1 8cbd 9d47 90bd 1910 8abb
00000360: 3f8a 8cbc 641b b73d 5374 67bd 81db 56bd
00000370: 82a3 303e 4680 fb3b 977c 0b3e 5448 e73c
00000380: 3447 593b 49fd df3a aa65 19bd 359d ce3a
00000390: fa59 e63d 060a fa3d 4f76 093e 9c2b 083e
000003a0: f967 0f3d eda7 cc3d 5cf5 083e 2ba2 ab3c
000003b0: f921 063d c0dd 40bd 8add e33b 8adb b93d
000003c0: 56d2 00bd e7a8 033d d69e 8bbd 7ced 0dbc
000003d0: 686f c7bc ad43 a8bb e585 a8bd b901 a93d
000003e0: 84b7 ae3d 7c60 a53d b844 ee3c 3852 823d
000003f0: b306 cebc 70be be3d 23e6 713d 9dc9 283d
-0.0031048656 0.10748848 -0.025269948 0.051754896 -0.01021529 0.029960057 0.14919537 0.06301726
0.12752074 -0.04735687 0.08204218 -0.10661957 0.003506077 0.09789819 0.1254528 0.12622398
0.16970001 -0.007476385 0.034016795 0.14319286 0.028675376 0.13744237 0.0944788 0.08774915
-0.035564553 0.028799672 0.15727618 0.09653722 0.039198324 0.15591535 0.12576587 -0.04429167
0.12767321 0.1628615 0.0964795 0.09310646 -0.12023155 0.037365846 -0.07324632 0.08716696
-0.047664672 0.12536176 -0.048900474 0.098315015 -0.05198821 -0.020475991 0.13632712 0.113696955
-0.031199561 -0.040763453 0.11020851 0.17881359 -0.07265656 0.03297688 0.11531147 -0.005214318
0.0051776757 0.06534401 0.022155296 0.037949145 0.044765446 -0.010795468 -0.05608481 0.09255874
-0.19092435 0.065732636 0.08171689 -0.14812265 0.019256888 0.004884642 -0.01249587 -0.11181736
0.027445804 0.0005989392 -0.21296315 -0.1080209 -0.032278825 -0.06866075 -0.27725938 0.047603074
0.053776577 -0.10386397 -0.25326657 -0.040289566 -0.098136224 0.101883866 -0.09294 -0.21348289
-0.15493129 -0.0481612 -0.0046506813 -0.118400864 0.1001242 -0.20231715 -0.032035917 -0.2104329
-0.018819612 -0.18713173 0.18370543 0.0434541 -0.10130352 -0.10158157 0.010101025 0.10762258
0.006371965 -0.10796073 -0.023773825 -0.00093202153 -0.17549701 -0.09699112 -0.23879023 -0.14310858
-0.14200135 -0.0123117715 -0.11078814 -0.05597353 0.11852284 0.034213524 -0.13243735 -0.22315988
-0.1469541 -0.12067031 0.17936853 0.035856433 0.0845979 -0.10189317 -0.3773549 0.043417435
-0.025379237 0.13245532 0.11420285 0.043776166 0.13160622 -0.02700999 0.123605795 0.009977492
0.123181015 0.17007928 0.027824938 -0.016439114 0.15938368 0.11944105 0.07121585 0.09068424
-0.011381971 0.14393125 -0.074875556 0.103590004 0.115849644 -0.03987551 0.15558617 0.018778356
0.01621898 0.03203109 0.14665143 0.15795533 0.15754618 0.15469427 -0.08539918 -0.04633273
0.05098943 0.1286351 0.15968004 0.07515315 -0.09845675 0.147163 -0.005128079 0.10344971
0.031745348 0.0971011 -0.061633907 0.007316406 0.14992066 0.14533295 0.08958295 0.12819493
0.11295979 0.11594568 0.07971204 -0.039161157 0.1359511 0.11959512 0.012059394 0.053404525
0.12788 0.09004045 0.05675644 0.12015742 0.15558591 0.002038921 0.011984808 -0.0025569992
0.07662448 0.09239957 0.023695525 0.13897568 0.05396251 -0.07514515 -0.048617553 -0.059014183
0.004755896 0.122841045 0.12544282 -0.06285358 0.092836775 -0.0025716966 0.05041533 -0.07000199
0.13707192 0.09669739 0.14200678 0.026000118 0.062227882 -0.06875875 -0.07044909 -0.004213345
-0.017155765 0.08940771 -0.05650742 -0.05245543 0.17249873 0.0076752035 0.13621746 0.02823273
0.0033154013 0.0017089035 -0.03745047 0.0015763404 0.112476304 0.12208943 0.13424037 0.13297886
0.035011265 0.09992967 0.13374847 0.020951351 0.032747243 -0.047086477 0.0069538997 0.09075077
-0.031450592 0.0321435 -0.06817405 -0.008662578 -0.024345115 -0.0051350207 -0.08228663 0.08252282
0.085310966 0.080750436 0.029085502 0.06363338 -0.025149679 0.09313667 0.059057366 0.0412079

bias f4 [64]
00000000: e3fe 373e 6b66 323e fc77 183e 5cac 453e
00000010: 4ab8 87bd 5473 833e 0224 303e 1f50 4c3e
00000020: f9bc 7f3e b81c 503e 5075 8e3e a62e 653e
00000030: 8601 49be 5844 153e 3281 7e3e c983 883e
00000040: ffeb e33d 6064 db3d 4f20 15bf ae7d df3d
00000050: acff 563e 3246 a0bd b70c 863e ea47 31bd
00000060: 90c6 863e be78 47bd 19aa 8f3e 2a5b 753e
00000070: dc2b 6c3e c03b b43e d021 953e fef3 083e
00000080: 2aee debd 7f36 0cbe 2eee 15bd ccc7 b5be
00000090: a876 a03e 9da2 d1bd 2b61 823e 7087 093e
000000a0: bde1 91bd 82c0 033e 3b93 8c3e 27d6 a13d
000000b0: 016d 203e 83c1 2c3e 9a28 953e 0c26 d23d
000000c0: f1a1 8d3e 037e 0fbe 5761 803e 64ac 973e
000000d0: d426 423e 9b6e 203e b6f7 083e 0d94 e2bc
000000e0: fa09 663e 60d4 8ebd 243a 6d3e 987d 933e
000000f0: 14e2 10be d203 4d3e c252 f63d 9b4e 2ebe
0.17968325 0.17421882 0.1488952 0.19304031 -0.06626947 0.25673926 0.17201236 0.19952439
0.24974431 0.20323455 0.27823877 0.22381076 -0.19629487 0.14576852 0.24853972 0.26663044
0.11128997 0.107125044 -0.58252424 0.109126434 0.20995969 -0.07825889 0.26181576 -0.043281473
0.26323366 -0.048699133 0.28059462 0.23960558 0.23063606 0.35201836 0.2912736 0.13374326
-0.1088527 -0.13692664 -0.0366041 -0.35503995 0.31340528 -0.10236094 0.25464758 0.13430572
-0.07123134 0.12866405 0.27456078 0.079021744 0.15666582 0.16870694 0.2913254 0.10261163
0.27662614 -0.14012913 0.25074264 0.2962371 0.18960124 0.15667193 0.13375744 -0.027658487
0.22464743 -0.06974101 0.2316671 0.28806758 -0.14148742 0.20020989 0.120275036 -0.17022173

weight f4 [1, 64]
00000000: 5c66 383e 741f febd d2fa d53d 96c3 343e
00000010: 88d1 b13a 2857 ce3d 0e23 f03d 5c6f f03d
00000020: 5246 103e 5d49 11bf 9316 413e 9bc7 093e
00000030: ffba ebbd 65d0 de3d 4220 e23d aa72 0e3e
00000040: 4fa9 b0bd 5b8f 713d e0b9 60bf 289d 5fbe
00000050: 9363 023e 2186 d0bc 30ad a43d b25f df3b
00000060: 4639 f53d d1ce 1abd ba76 ce3d e424 463e
00000070: 6e72 523e 4fce 343e 7ca9 4d3e 69b7 843d
00000080: e2fa 9b3d d02f 93bd fe4b 12bd 48de 3dbe
00000090: 54b7 253e c33b 0fbd 9ed1 123e 7522 4abe
000000a0: f0d4 a9bd 98a6 be3d bea9 ca3d b322 2d3c
000000b0: e2f0 b43d e80f b3be 48a2 2c3e 617b cbbd
000000c0: 7c50 c03d 7974 8f3c 9f56 2b3e 8407 523e
000000d0: 2f1d 133e 39d8 933d 1efd 8bbe 6942 0abd
000000e0: 50bd fd3d b445 c4bc f41c 593e 8a1c cb3d
000000f0: 9efd 18bb 92b7 193e fc6f 42be 8b2f a9bc
0.18007797 -0.12408343 0.10448231 0.17652735 0.0013566473 0.100752175 0.11725436 0.1173999
0.14089325 -0.5675257 0.18856268 0.1345505 -0.11510276 0.10879592 0.11041309 0.13910928
-0.08626043 0.058974605 -0.8778362 -0.21837294 0.12733297 -0.025454583 0.080408454 0.0068168277
0.11973815 -0.03779489 0.10081239 0.1935001 0.20551464 0.17656825 0.20084184 0.06480295
0.076162115 -0.07186854 -0.035717003 -0.18541825 0.16183215 -0.034969103 0.14337775 -0.19739707
-0.08292568 0.09309119 0.09895657 0.010567355 0.08835007 -0.34973073 0.1685878 -0.09935642
0.09390351 0.017511593 0.16732262 0.2051068 0.14366601 0.072189756 -0.2734155 -0.03375474
0.12389624 -0.023959018 0.21202451 0.09917553 -0.0023344527 0.15011433 -0.18988031 -0.020652553
