src/Fun_2/model/model_512_64_64_0.01_400.pt (torch, 309407 bytes, 5 tensors)

weight f4 [64, 1128]
0	0xbd97c8ca	-0.07411344
1	0xbd4ff690	-0.05077225
2	0xbd18bc80	-0.037289143
3	0xbdb40550	-0.08790076
4	0xbd7a626f	-0.06112903
5	0xbd9e1c3f	-0.07720231
6	0xbd2ebd97	-0.042661276
7	0xbd67e70c	-0.056616828
8	0xbd6d3e34	-0.05792065
9	0xbd3346cd	-0.043768693
10	0xbd31ec6f	-0.04343837
11	0xbd7ef0d2	-0.062241383
12	0xbd48a99e	-0.048989885
13	0xbd301f4f	-0.04299861
14	0xbdb0e486	-0.086373374
15	0xbd8eef6c	-0.0697926
16	0xbd6f035d	-0.058352817
17	0xbdb2b63f	-0.08726167
18	0xbd144472	-0.036198087
19	0xbd02b1cf	-0.031907853
20	0xbd81f0f6	-0.06344788
21	0xbdb4936f	-0.08817183
22	0xbd9ff62a	-0.07810624
23	0xbd22e60b	-0.039770167
24	0xbdb02415	-0.08600632
25	0xbda3416b	-0.07971462
26	0xbd38135e	-0.044940345
27	0xbd2bbe16	-0.041929327
28	0xbd57f97c	-0.05272816
29	0xbd4e9013	-0.05043037
30	0xbda8bfa7	-0.0823968
31	0xbdb28668	-0.08717042
32	0xbd99362f	-0.07481038
33	0xbd1e43b2	-0.038638778
34	0xbd5ae25e	-0.053438537
35	0xbd0d0175	-0.034425218
36	0xbd9f8ff5	-0.077911295
37	0xbda82ddd	-0.08211873
38	0xbd0e7fd8	-0.03478989
39	0xbd5dd401	-0.05415726
40	0xbdaf7943	-0.08568051
41	0xbd5ea69a	-0.054358102
42	0xbd510771	-0.051032487
43	0xbcfae874	-0.03062842
44	0xbda853d3	-0.08219113
45	0xbd068410	-0.03284079
46	0xbd2c2906	-0.04203131
47	0xbd14300f	-0.036178645
48	0xbd749b52	-0.059718437
49	0xbd0a4888	-0.033760577
50	0xbd96b226	-0.07358198
51	0xbda715df	-0.081584685
52	0xbd98d3d3	-0.07462277
53	0xbd8bbb0d	-0.068227865
54	0xbd4bb389	-0.049731765
55	0xbd2f6286	-0.04281857
56	0xbdadce4e	-0.08486615
57	0xbd879729	-0.066206284
58	0xbd588c65	-0.052868266
59	0xbdb4b4e5	-0.088235654
60	0xbd6f58c9	-0.05843428
61	0xbd2a7a54	-0.041620567
62	0xbdad80f5	-0.08471862
63	0xbdaad12c	-0.083406776
64	0xbd7b5a21	-0.06136525
65	0xbd56ff6c	-0.052489683
66	0xbd84fa49	-0.064930506
67	0xbd872d37	-0.06600421
68	0xbd8c3235	-0.06845514
69	0xbd22748b	-0.039661925
70	0xbd9465a4	-0.07245949
71	0xbd07bd13	-0.0331393
72	0xbd299d0e	-0.041409545
73	0xbdac3e25	-0.08410291
74	0xbd17ba26	-0.03704276
75	0xbd00cd1d	-0.03144561
76	0xbda9f69d	-0.08298991
77	0xbd09c6a6	-0.03363671
78	0xbd98d88f	-0.0746318
79	0xbd82bc8c	-0.06383619
80	0xbd007d31	-0.03136939
81	0xbdab418e	-0.08362113
82	0xbd967792	-0.07347025
83	0xbd40d50f	-0.04707819
84	0xbda94e5b	-0.08266898
85	0xbdb0148f	-0.08597671
86	0xbd9a1f50	-0.07525504
87	0xbd9b6881	-0.07588292
88	0xbda9b942	-0.08287288
89	0xbd15786d	-0.0364918
90	0xbd4bd29c	-0.0497614
91	0xbda94444	-0.08264974
92	0xbda8c0e8	-0.08239919
93	0xbd94b84a	-0.07261713
94	0xbda0df18	-0.07855052
95	0xbd8ea2be	-0.06964634
96	0xbdaebe7b	-0.08532425
97	0xbd90fd6f	-0.070795886
98	0xbd0e0663	-0.03467406
99	0xbd0f3e31	-0.03497142
100	0xbd057e4d	-0.032591153
101	0xbdaa8277	-0.083256654
102	0xbd7205ca	-0.059087552
103	0xbd6f2a08	-0.058389693
104	0xbd3ed82f	-0.046592887
105	0xbd06b4fc	-0.032887444
106	0xbd5549ef	-0.05207246
107	0xbd4f48bc	-0.050606474
108	0xbd2ae015	-0.041717608
109	0xbd83650e	-0.06415759
110	0xbd6507a3	-0.055915486
111	0xbda7d87d	-0.08195589
112	0xbd89b093	-0.06723132
113	0xbd824b84	-0.0636206
114	0xbd504a82	-0.050852306
115	0xbd74b71f	-0.05974495
116	0xbdb443a5	-0.08801965
117	0xbd942795	-0.07234112
118	0xbd82e9ca	-0.06392248
119	0xbd94d6ac	-0.07267508
120	0xbd1234bc	-0.035694823
121	0xbd981a17	-0.07426851
122	0xbd3e3893	-0.046440672
123	0xbcffeaf2	-0.03123996
124	0xbdaa8817	-0.08326738
125	0xbd8ff87b	-0.07029816
126	0xbd161d38	-0.03664896
127	0xbd589a8c	-0.052881762
128	0xbd64165c	-0.055685386
129	0xbdac2349	-0.084051676
130	0xbd9562be	-0.07294224
131	0xbd8b1125	-0.067903794
132	0xbda567ac	-0.080764145
133	0xbd8eff45	-0.069822825
134	0xbd7df112	-0.06199748
135	0xbcfc6ea7	-0.030814482
136	0xbd786073	-0.060638856
137	0xbd72cb0c	-0.05927567
138	0xbd61c566	-0.055119894
139	0xbd3d60b6	-0.04623481
140	0xbd9cd942	-0.07658626
141	0xbd0fff57	-0.03515562
142	0xbdb00b7b	-0.0859594
143	0xbdb12d0f	-0.08651172
144	0xbda8c851	-0.08241332
145	0xbd75aa59	-0.05997691
146	0xbd83627f	-0.06415271
147	0xbd72dc76	-0.05929228
148	0xbd677d06	-0.056515716
149	0xbd94a11f	-0.07257294
150	0xbd129413	-0.035785746
151	0xbd889e4a	-0.06670816
152	0xbd09aca2	-0.0336119
153	0xbd9691e3	-0.073520444
154	0xbd971129	-0.0737632
155	0xbd889b62	-0.06670262
156	0xbd97a9d0	-0.07405436
157	0xbd273443	-0.040821325
158	0xbdad5b5b	-0.0846469
159	0xbda56740	-0.08076334
160	0xbdb2a1dd	-0.08722279
161	0xbd84cfde	-0.0648496
162	0xbd12c54a	-0.03583268
163	0xbd40db1c	-0.04708396
164	0xbd89307f	-0.06698703
165	0xbd807f50	-0.06274283
166	0xbd7f03b2	-0.062259383
167	0xbdb481e3	-0.088138364
168	0xbd3818ce	-0.04494553
169	0xbda9038f	-0.08252632
170	0xbd9ecf92	-0.07754435
171	0xbdb5a7c3	-0.08869889
172	0xbda0eef8	-0.0785808
173	0xbd2410ce	-0.04005509
174	0xbd96e07a	-0.07367034
175	0xbd12f9bf	-0.035882708
176	0xbd74abe1	-0.05973423
177	0xbd534147	-0.051575925
178	0xbd85c8ee	-0.06532465
179	0xbd4fd363	-0.050738703
180	0xbd2db07f	-0.042404648
181	0xbd4d9c0b	-0.050197642
182	0xbd6130fb	-0.054978352
183	0xbd092d16	-0.033490263
184	0xbd4ad2ac	-0.04951732
185	0xbd8c1495	-0.06839863
186	0xbd316581	-0.043309692
187	0xbd1d4442	-0.038395174
188	0xbd961d8c	-0.07329854
189	0xbd61b6e9	-0.055106077
190	0xbd113fdc	-0.03546129
191	0xbd6c681e	-0.05771648
192	0xbd454035	-0.048156936
193	0xbdaf027f	-0.08545398
194	0xbd0dc013	-0.034607004
195	0xbd8209d8	-0.06349534
196	0xbd2ccbbf	-0.042186495
197	0xbd9e30f3	-0.0772418
198	0xbd6f9d7c	-0.0584998
199	0xbd84d402	-0.0648575
200	0xbd84ac1e	-0.06478141
201	0xbd14326e	-0.036180906
202	0xbdb43a8c	-0.088002294
203	0xbd84f4af	-0.06491982
204	0xbd0839c0	-0.0332582
205	0xbdb2cc1c	-0.08730337
206	0xbda30ca6	-0.07961397
207	0xbda7c739	-0.081922956
208	0xbda3250f	-0.07966053
209	0xbd564ca0	-0.05231917
210	0xbd6d4877	-0.057930436
211	0xbd0a30e2	-0.033738025
212	0xbd6f86b4	-0.058478072
213	0xbd5c6616	-0.053808294
214	0xbd224839	-0.03961966
215	0xbd5a5d13	-0.05331142
216	0xbd1e37a4	-0.03862728
217	0xbdb1ff5c	-0.08691284
218	0xbd4855c7	-0.04890993
219	0xbd4d3da2	-0.050107606
220	0xbd891e43	-0.06695225
221	0xbd8cd4f2	-0.068765536
222	0xbd66bd1d	-0.056332696
223	0xbd8eb47d	-0.06968019
224	0xbd5f4a52	-0.054514237
225	0xbd27309b	-0.04081784
226	0xbd2e4a51	-0.042551342
227	0xbdb3f6a9	-0.08787281
228	0xbd84840e	-0.064705
229	0xbd25933d	-0.04042362
230	0xbd98e314	-0.07465187
231	0xbd4e2610	-0.050329268
232	0xbd4424e2	-0.047886737
233	0xbd0b7a41	-0.034052137
234	0xbdb78133	-0.0896019
235	0xbd52f536	-0.051503383
236	0xbd21bf7a	-0.039489247
237	0xbd8980ce	-0.06714021
238	0xbda2afc5	-0.07943682
239	0xbd37fdaa	-0.044919647
240	0xbd749281	-0.05971003
241	0xbd874fdb	-0.06607028
242	0xbd2bde86	-0.04196026
243	0xbd8c3c30	-0.06847417
244	0xbdb3f4ec	-0.087869495
245	0xbd104f06	-0.035231613
246	0xbd68f89d	-0.05687772
247	0xbd99dd33	-0.075128935
248	0xbd45b6ab	-0.04826991
249	0xbdb4cba9	-0.088279076
250	0xbd278689	-0.040899787
251	0xbd1413c6	-0.03615167
252	0xbd57ca13	-0.052682947
253	0xbd4ba142	-0.049714334
254	0xbdaa038c	-0.08301458
255	0xbd3f881c	-0.046760663

bias f4 [64]
0	0xbd7ca98f	-0.06168514
1	0x3e578cef	0.21049856
2	0x3f286222	0.6577474
3	0xbd9fc0bc	-0.07800433
4	0xbd2a447d	-0.04156922
5	0xbda378bf	-0.07982015
6	0xbd5b0a53	-0.053476643
7	0x3ec2edf9	0.38072184
8	0xbd82a5ab	-0.06379255
9	0xbda3dd79	-0.08001227
10	0x3f5c7559	0.8611656
11	0x3efae1bf	0.49000356
12	0xbd6af98c	-0.057366893
13	0x3f33d70f	0.7025003
14	0xbd47f9de	-0.048822276
15	0x3f2de8df	0.6793346
16	0xbd4c055f	-0.04980981
17	0xbdafd3f3	-0.08585348
18	0xbd87321a	-0.06601353
19	0xbd4585c3	-0.04822327
20	0x3f075f88	0.52880144
21	0xbd38490f	-0.04499155
22	0xbd8ec14f	-0.069704644
23	0xbd0446c0	-0.032294035
24	0x3e86d513	0.26334438
25	0xbd25186c	-0.040306494
26	0x3eedfb57	0.4648082
27	0xbd77f34e	-0.060534768
28	0xbd8e9431	-0.06961859
29	0xbd9c17e2	-0.07621743
30	0xbdb7de40	-0.08977938
31	0x3e747449	0.23872484
32	0x3ed20bea	0.41024715
33	0xbda34fed	-0.07974229
34	0x3f31757d	0.693199
35	0x3f6f95f5	0.9358819
36	0xbd96a7ec	-0.07356247
37	0x3f4a2b8e	0.7897271
38	0x3ee9d4a3	0.4567004
39	0xbd1400e9	-0.03613368
40	0xbd18a48f	-0.03726631
41	0xbd3c8ef5	-0.046034772
42	0x3f15545a	0.58331835
43	0x3ebe12df	0.37123773
44	0xbda70667	-0.08155518
45	0xbd8cac3e	-0.0686879
46	0x3ef77273	0.48329505
47	0xbdb5559c	-0.08854219
48	0xbd36c717	-0.04462346
49	0x3eca7c4a	0.3954795
50	0x3f0cd63e	0.5501441
51	0x3db81667	0.08988648
52	0xbd6895fb	-0.056783658
53	0x3f406fba	0.7517048
54	0xbdb6bae6	-0.08922367
55	0x3f708033	0.93945616
56	0x3f24e351	0.6440936
57	0xbc8bcce7	-0.017065478
58	0xbbc1e85b	-0.0059175915
59	0xbd36ba5f	-0.04461133
60	0xbd378b6f	-0.04481071
61	0xbd516e86	-0.051130794
62	0x3ed6de26	0.4196636
63	0x3ec6ced9	0.38829687

weight f4 [64, 64]
0	0x3bb0be58	0.0053937845
1	0xbe32c962	-0.17459634
2	0xbe28e3a9	-0.16493095
3	0x3c656a6b	0.014002423
4	0xbdbd3c7b	-0.09240051
5	0xbe1ac972	-0.15115908
6	0xbdaaec31	-0.08345831
7	0xbe4b9088	-0.19879353
8	0xbd99d69b	-0.07511636
9	0xbdfbf596	-0.12302701
10	0x3cc6eef1	0.024283858
11	0xbf18578a	-0.59508574
12	0x3d1ca545	0.03824355
13	0xbdf6df0b	-0.12054261
14	0xbc9d2e60	-0.019187152
15	0x3de312a0	0.11087537
16	0xbe271fd4	-0.16320735
17	0xbe1bce15	-0.15215333
18	0x3d5291ae	0.051408462
19	0xbc0aba21	-0.008467228
20	0x3e3de018	0.18542516
21	0xbd03d73c	-0.032187685
22	0xbcf4f27e	-0.029900786
23	0x3cb86460	0.0225088
24	0x3c94daa9	0.018170672
25	0xbd8b1a18	-0.06792086
26	0xbe03bbf4	-0.12864667
27	0xbdc9c280	-0.09851551
28	0x3d7d1888	0.061790973
29	0xbe3600b1	-0.17773701
30	0xbda42471	-0.08014763
31	0xbd9f648f	-0.07782852
32	0xbeb94a75	-0.3618962
33	0x3d3b7845	0.045768995
34	0x3d802c0b	0.062584005
35	0xbd82cc5e	-0.06386636
36	0x3d005c39	0.03133795
37	0xbea382f2	-0.3193584
38	0xbebac170	-0.36475706
39	0xbca060b8	-0.01957737
40	0x3d317323	0.043322694
41	0xbd8239f4	-0.0635871
42	0xbd00e7bc	-0.031471
43	0xbe086250	-0.13318753
44	0x3d0f1466	0.034931563
45	0xbe25f13d	-0.16205306
46	0xbdefe272	-0.11713113
47	0xbd92d54e	-0.07169591
48	0xbe1269f6	-0.14298233
49	0xbe077be2	-0.13230851
50	0x3d996fc1	0.074920185
51	0x3d3be696	0.0458742
52	0xbdd8a20e	-0.105777845
53	0xbdcd6dc7	-0.10030704
54	0xbd93e720	-0.07221818
55	0xbde0a758	-0.10969418
56	0xbe6e403d	-0.23266692
57	0x3d4bb7e5	0.049735922
58	0xbd8d960a	-0.06913383
59	0x3c056eff	0.008144139
60	0xbc71c5b6	-0.014756611
61	0x3a88286f	0.0010388027
62	0xbe7d0749	-0.2470981
63	0xbd77ee50	-0.060530007
64	0xbd4e21a9	-0.05032507
65	0x3d86cd60	0.06582141
66	0x3dda88f2	0.106706515
67	0x3d6b020f	0.05737501
68	0x3e08e52d	0.13368674
69	0x3d903948	0.070421755
70	0x3dcbb0bf	0.09945821
71	0x3df5ee1b	0.12008306
72	0xbdf6b5dc	-0.12046406
73	0xbd46a44f	-0.04849654
74	0x3d1f8e62	0.038954146
75	0xbdd10562	-0.10206105
76	0xbbb1a692	-0.005421468
77	0xbd9e5546	-0.07731108
78	0x3da77a9f	0.08177685
79	0xbbf0dbfc	-0.007350443
80	0x3d8d1e64	0.06890562
81	0x3d5bc7fa	0.05365751
82	0x3db4b2c7	0.088231616
83	0xbc912ea3	-0.017722433
84	0x3c59d8e8	0.013296343
85	0x3e171913	0.14755659
86	0x3c1f72c6	0.009731954
87	0x3e285ada	0.16440907
88	0xbd5164d9	-0.051121566
89	0x3d2d7301	0.042346004
90	0x3d0cc306	0.034365676
91	0xbd6fa1d2	-0.058503933
92	0x3e21de89	0.15807547
93	0xbd858c1d	-0.06520865
94	0xbd48d627	-0.049032357
95	0x3d74d3db	0.059772354
96	0x3d8dee12	0.06930174
97	0x3c8b0425	0.01696975
98	0x3da8e64f	0.08247053
99	0x3d4c9ded	0.049955297
100	0x3c0cc9be	0.008593021
101	0xbd933b6c	-0.07189068
102	0x3d375142	0.044755228
103	0xbb978e16	-0.0046250923
104	0x3e1d6a28	0.15372527
105	0xbd615299	-0.055010412
106	0xbceccb9c	-0.028905682
107	0x3d9cf3c7	0.07663684
108	0xbd5a3d54	-0.053281143
109	0x3ccde65d	0.02513426
110	0x3e1c7ef8	0.1528281
111	0x3df2b1d8	0.11850327
112	0x3d8bdd1a	0.06829281
113	0x3c3d5a52	0.011557179
114	0xbc0855c5	-0.00832123
115	0x3b9c2e8d	0.0047662915
116	0x3d51bcad	0.051205326
117	0xbd3a8718	-0.04553899
118	0x3d5e951a	0.054341413
119	0x3d3e6fcf	0.046493348
120	0xbcf41eec	-0.029799901
121	0x3cc5b4cd	0.024134064
122	0x3d41a2eb	0.04727451
123	0x3de37d8d	0.11107931
124	0x3e096edd	0.13421197
125	0x3e1d995a	0.1539053
126	0x3dafe3e4	0.085883886
127	0x3e00b449	0.12568773
128	0x3d5f9367	0.054583933
129	0xbe007600	-0.12545013
130	0xbcde8e84	-0.027167566
131	0xbdeb89a9	-0.11500866
132	0xbd532a71	-0.051554147
133	0xbc87ef96	-0.016593736
134	0xbe3b9615	-0.1831897
135	0xbc94072b	-0.018069824
136	0xbdc779ec	-0.097400516
137	0xbd608235	-0.054811675
138	0xbc36e1bc	-0.011162218
139	0xbcce74ac	-0.025202118
140	0xbd9061be	-0.07049893
141	0xbd8b4f53	-0.06802239
142	0x3d7ac6c4	0.061224714
143	0xbdcaaebf	-0.098966114
144	0x3d84c7fe	0.06483458
145	0xbdf6183f	-0.12016343
146	0xbdee67e6	-0.11640911
147	0x3c2991f1	0.010349737
148	0x3ce716b4	0.028209068
149	0xbc611eb6	-0.013740232
150	0x3be4b969	0.0069801104
151	0xbd9a927e	-0.075474724
152	0xb9649cf8	-0.0002180225
153	0xbe35b979	-0.17746533
154	0xbd0f6fff	-0.035018917
155	0xbd887587	-0.066630416
156	0xbdf15c20	-0.117851496
157	0xbd9dcb56	-0.07704799
158	0xbd947d81	-0.072505005
159	0x3d6774bb	0.056507807
160	0xbd226cbe	-0.039654486
161	0xbd5d7c53	-0.054073643
162	0xbddd0bec	-0.107932895
163	0xbcaaf58c	-0.020869039
164	0x3c6a06fa	0.01428389
165	0xbe209480	-0.15681648
166	0x3c80463e	0.015658494
167	0xbd859dbc	-0.06524226
168	0xbd5edf96	-0.054412447
169	0xbe17e4e8	-0.14833415
170	0xbdedb8a6	-0.116074845
171	0xbdd2c268	-0.10290986
172	0x3cbc0d1e	0.022955474
173	0xbd5d5107	-0.05403235
174	0xbe2da4c5	-0.16957386
175	0xbdc1ba03	-0.09459307
176	0x3d4b6cd5	0.049664337
177	0xbe366245	-0.17810924
178	0xbe552653	-0.20815401
179	0xbe38d341	-0.18049337
180	0xbddee1ba	-0.10882898
181	0xbe3daef0	-0.18523765
182	0x3d318c25	0.043346543
183	0xbe98e429	-0.29861572
184	0xbe258ae2	-0.16166261
185	0xbdf80b62	-0.12111546
186	0xbceed620	-0.029154837
187	0xbdd53b55	-0.10411707
188	0x3d40848c	0.047001407
189	0xbce53c59	-0.027982878
190	0x3cc4672d	0.02397498
191	0xbe0308fe	-0.12796399
192	0x3de365ea	0.11103423
193	0xbe25f107	-0.16205226
194	0xbe8c2bc0	-0.2737713
195	0xbda1b90c	-0.07896623
196	0x3d5745c0	0.052556753
197	0xbd994ffe	-0.074859604
198	0x3ca0cb08	0.019628063
199	0xbe99c075	-0.30029646
200	0x3d70b9c8	0.058770925
201	0x3c6da450	0.014504507
202	0xbe8b4bf4	-0.27206385
203	0xbe394395	-0.18092187
204	0x3c8008a8	0.015629128
205	0xbe8ffda8	-0.28123212
206	0x3c0a2e40	0.008433878
207	0xbdfbd64d	-0.12296734
208	0x3af39380	0.0018583387
209	0xbd4cc5c0	-0.049993277
210	0x3c5e8d70	0.013583526
211	0xbde2b0b2	-0.11068858
212	0xbe9355ab	-0.28776297
213	0x3d91f22e	0.0712627
214	0xbcf8c698	-0.030368134
215	0xbd37bac0	-0.044855833
216	0xbd4242eb	-0.0474271
217	0x3bdf8320	0.0068210512
218	0xbe6e1049	-0.232484
219	0xbd5805dc	-0.052739963
220	0xbd3dfa64	-0.04638137
221	0xbdc76608	-0.09736258
222	0xbd63dc7c	-0.055630192
223	0xbe9675f2	-0.2938686
224	0xbe431081	-0.19049264
225	0xbd8d34ac	-0.06894812
226	0xbe15381e	-0.14572188
227	0xbe327e79	-0.17431058
228	0x3c2ffc80	0.010741353
229	0xbd1e5e9d	-0.03866445
230	0xbe9290a1	-0.28625968
231	0x3d02a868	0.031898886
232	0xbdc1b2e6	-0.0945795
233	0x3c829270	0.015938967
234	0xbe33d433	-0.17561416
235	0xbe69580c	-0.22787493
236	0x3cb15c48	0.021650448
237	0xbccc3490	-0.024927408
238	0xbe741522	-0.23836187
239	0xbd397d1c	-0.04528533
240	0xbd6c0344	-0.0576203
241	0xbe4a7449	-0.19770922
242	0xbe041245	-0.12897594
243	0xbca8ef10	-0.020621806
244	0x3df77518	0.12082881
245	0xbd8f3e6d	-0.06994329
246	0xbdfa16d6	-0.12211387
247	0xbd0983fa	-0.03357313
248	0xbe47ab86	-0.19499025
249	0xbd9d299e	-0.076739535
250	0x3d168894	0.036751345
251	0x3d759244	0.059953943
252	0xbcd40140	-0.025879502
253	0xbd378c78	-0.044811696
254	0xbe081aac	-0.13291425
255	0xbe508b37	-0.20365606

bias f4 [64]
0	0xbe2de842	-0.1698313
1	0x3f15d13f	0.5852241
2	0xbae73d94	-0.0017642253
3	0xbe410ec6	-0.18853292
4	0xbce9bb57	-0.028531713
5	0x3f398e78	0.72483015
6	0x3f83fd75	1.0311724
7	0x3eba8feb	0.36437926
8	0x3f2bc1fd	0.6709288
9	0xbd5ed7ab	-0.054404896
10	0x3f3e48da	0.7432991
11	0x3ee88fce	0.45422214
12	0x3e62a9b9	0.22135057
13	0xbe21cfa5	-0.15801866
14	0x3cab2127	0.020889832
15	0xbf13e0fc	-0.57765174
16	0xbd200c3e	-0.039074175
17	0xbf787f32	-0.97069085
18	0xbccfd5e4	-0.025370546
19	0xbe38bbb6	-0.18040356
20	0xbd50f30a	-0.05101303
21	0xbd5e1ba1	-0.054225568
22	0xbe2e1850	-0.17001462
23	0xbda960c5	-0.082704104
24	0xbefcade7	-0.49351427
25	0x3f45baee	0.7723836
26	0xbc805a45	-0.015668044
27	0xbd2c2d65	-0.04203548
28	0x3f2e9f8a	0.6821219
29	0x3f92b7c5	1.1462332
30	0x3f47e0c1	0.7807732
31	0xbeda0e6a	-0.42589122
32	0xbe23bdf7	-0.15990435
33	0x3f33d0f0	0.7024069
34	0xbd10ba34	-0.035333827
35	0x3ecbd32e	0.39809555
36	0xbedb10cb	-0.4278625
37	0xbd01d522	-0.0316974
38	0xbe2437c3	-0.16036896
39	0xbc7dcc70	-0.015490636
40	0x3ed219c7	0.41035292
41	0xbd2d4c2e	-0.04230898
42	0x3e5dda64	0.2166534
43	0xbba43212	-0.0050108517
44	0xbf68a234	-0.908725
45	0x3f8197fb	1.0124506
46	0x3e05913e	0.13043687
47	0x3ebcb514	0.36856902
48	0xbe046506	-0.12929162
49	0x3e9da8aa	0.30792743
50	0xbcac6a0a	-0.021046657
51	0xbc230d24	-0.009951863
52	0x3f44f044	0.76929116
53	0xbe353c7e	-0.17698857
54	0xbcd41faa	-0.025894005
55	0xbed58e0c	-0.41709936
56	0xbee7ae73	-0.45250282
57	0xbe8cb032	-0.27478176
58	0x3ec9d3de	0.39419454
59	0x3e7804f6	0.24220642
60	0x3f573f54	0.84081006
61	0x3f2cbcd7	0.67475647
62	0xbec34f1a	-0.38146287
63	0xbe38ef6f	-0.18060087

weight f4 [1, 64]
0	0x3e2bc53d	0.16774459
1	0x3dc9676f	0.098341815
2	0x3d0da0b7	0.034577098
3	0x3ddaf0c0	0.10690451
4	0x3d4ff61b	0.050771814
5	0x3e15009c	0.14551014
6	0x3e4c6311	0.19959666
7	0xbeb197ee	-0.34686226
8	0x3e0d78fe	0.13815686
9	0x3d303cb0	0.043026626
10	0x3e25f4e3	0.16206698
11	0xbe24688a	-0.16055503
12	0xbec1ea96	-0.37874287
13	0x3b0b03dd	0.002121202
14	0xbc60c8ea	-0.013719777
15	0xbdb6dab7	-0.08928435
16	0x3bebe502	0.0071989307
17	0xbe6be8db	-0.23038046
18	0x3caba458	0.020952389
19	0xba6a7153	-0.0008943278
20	0xbc3759a6	-0.011190807
21	0xbd61ac67	-0.055096056
22	0x3d06c394	0.03290136
23	0xbde15e10	-0.11004269
24	0xbe68d2c8	-0.22736657
25	0x3e40a9a9	0.1881472
26	0xbd5691cc	-0.052385136
27	0x3d4dfd1d	0.050290216
28	0x3e16c907	0.14725123
29	0xbed096d6	-0.4074008
30	0x3dea59a1	0.114428766
31	0xbe584d63	-0.2112327
32	0x3c0398a5	0.008031999
33	0x3e0b3962	0.13596109
34	0xbcd0ecf6	-0.025503617
35	0xbdaf3b12	-0.08556189
36	0x3c80b5c1	0.015711667
37	0xbc8aee0e	-0.016959216
38	0x3d01b1dd	0.031663764
39	0xbcb14fbe	-0.02164447
40	0xbe384cb3	-0.17998008
41	0x3cc57e1e	0.024107989
42	0xbbc3c01e	-0.00597383
43	0x3cf58f04	0.029975422
44	0xbea1381f	-0.3148813
45	0x3e627421	0.22114612
46	0xbd8b84dd	-0.06812451
47	0xbe85c916	-0.2612998
48	0xbd4c30be	-0.04985117
49	0xbd768f8e	-0.0601955
50	0xbc89d871	-0.01682684
51	0x3c9e42b8	0.019318923
52	0x3e11fd43	0.14256768
53	0x3c8d81b9	0.01727377
54	0xbc9b4579	-0.018954026
55	0xbd5b8fb8	-0.053603858
56	0xbe8913a2	-0.2677279
57	0xbe4f6590	-0.20253587
58	0xbccc6cc1	-0.024954202
59	0xbe9e9de9	-0.3097985
60	0x3e3416ce	0.17586824
61	0x3e3ed109	0.18634428
62	0x3e362bac	0.17790097
63	0xbbe1b54e	-0.0068880683
