src/Fun_2/model/model_1024_64_64_0.01_400.pt (torch, 309415 bytes, 5 tensors)

weight f4 [64, 1128]
000000 27 2a 89 bd 05 9a 3f 3d 87 5f e3 3c c3 d9 3b bd
       -0.06697493 0.046777744 0.027755512 -0.04586197
000010 ce 30 20 3b cc 22 28 3d a3 03 50 3c a1 ea 06 3c
       0.0024443152 0.04104881 0.01269618 0.008234651
000020 83 5d 41 3b 2e d0 ce bb 40 31 b5 3b 71 5f 09 bd
       0.00295052 -0.006311438 0.0055295527 -0.033538286
000030 9c 3a 1f 3d 67 1a 14 3d 34 11 b9 bb c4 e0 48 3d
       0.038874254 0.03615799 -0.0056478027 0.04904248
000040 46 fd 68 bd 58 c9 87 bd 51 63 91 bd 9a 4d 00 bd
       -0.056882165 -0.066302 -0.07099021 -0.031324007
000050 24 cd 12 3d be 39 73 bc 01 a9 41 bd 02 9a 30 bd
       0.03584017 -0.01484531 -0.047280315 -0.043115623
000060 f6 c2 8c 3c 9a 2c 2f 3d a9 83 de bc e1 77 5a ba
       0.017182808 0.042767145 -0.02716239 -0.00083339034
000070 ac 88 02 bc a4 2f 4f bd 67 2b 84 bb 55 93 89 3d
       -0.007967155 -0.050582543 -0.0040334943 0.067175545
000080 7e 02 b0 bd f5 3a b9 bb 48 43 8d 3d 23 7e 91 bc
       -0.08594225 -0.00565278 0.068975985 -0.017760342
000090 1e 91 5f 3d 8a cd ce bc 27 8b b5 bd 64 46 3e 3d
       0.054581754 -0.025244493 -0.08864432 0.04645385
0000a0 30 58 02 bd 86 d6 22 3c 05 bf 96 3c ae 28 b8 bd
       -0.031822383 0.009938842 0.018401632 -0.08992134
0000b0 9d cf 3c bd 6b 34 38 3c b5 fb f4 bc 72 7e ef 3d
       -0.046096433 0.011242966 -0.02990518 0.116940394
0000c0 fa 28 42 3c 0d a5 9a 3c 4b 75 38 bd 0c 2a 3d 3d
       0.01185059 0.01887753 -0.045033734 0.046182677
0000d0 fa b6 e9 bc 8b b9 94 bd 82 34 a9 bd cf ea 02 bd
       -0.028529633 -0.07261952 -0.08261968 -0.031962212
0000e0 30 63 9a 3c 3c 36 fe bd 5e a1 d9 3b 72 92 09 bd
       0.018846124 -0.12412688 0.006641551 -0.033586927
0000f0 ca 76 74 bd c8 df a6 3c 94 8b 6d 3d e3 73 d9 bd
       -0.0596836 0.02037038 0.05799444 -0.10617807
000100 62 0a 0c 3e e7 fd 2e be 6d 55 23 bc 32 81 f3 bd
       0.13675836 -0.17089044 -0.009969098 -0.118898764
000110 6d 51 3f bc 82 7b 8d 3d 1a 79 95 3c 7a ad dd 3c
       -0.011677128 0.06908323 0.018246222 0.02706026
000120 a5 f1 f9 bd d2 4f 82 bd b4 e5 4d bd 39 5a 4e 3d
       -0.12204293 -0.06362881 -0.05026789 0.05037901
000130 a0 e0 54 3c 1d 29 97 bd 75 c0 17 3e 5e 88 4b 3d
       0.012993008 -0.073808886 0.1481951 0.049690597
000140 79 17 28 3c 8a f0 0d bd b2 b2 59 bc 66 17 8d bd
       0.010259503 -0.034653224 -0.013287233 -0.068892285
000150 29 e2 e1 bc 80 d2 3b bd cb 48 62 bd 4c 41 16 3d
       -0.027573662 -0.045855045 -0.055245202 0.036683366
000160 c2 12 25 bc df b1 30 bd 5b e9 85 bd be e6 80 b9
       -0.010075273 -0.04313838 -0.0653865 -0.0002458598
000170 c9 37 06 3c 48 16 a4 3d c7 76 de bd ae 70 7d bd
       0.008192011 0.08012062 -0.10862499 -0.061875038
000180 4e b8 b2 3d 48 3f a8 3c 05 c0 81 3c d4 be 1a 3d
       0.087265596 0.020537987 0.015838632 0.037779644
000190 53 f0 95 3c 60 f0 ea bc b9 4d f5 b8 dd 8f d3 bb
       0.018303072 -0.028679073 -0.00011696987 -0.006456359
0001a0 8c a5 38 bd f2 ad 3c 3c db bd 2d bc 42 c1 1d bd
       -0.045079753 0.011516081 -0.010604347 -0.038514383
0001b0 96 18 b7 bc a9 c7 f7 bc b6 2a 67 3b 1e d5 17 3d
       -0.02235059 -0.030246573 0.003527326 0.03706848
0001c0 79 c9 b8 3d bc 4b e6 3a 0e 2a cc bd 04 46 eb 3a
       0.09022803 0.0017570178 -0.09968959 0.0017949943
0001d0 8b 82 8d bc 29 b0 30 bc dc a8 34 bb 52 17 fa 3c
       -0.017274162 -0.010784187 -0.0027566468 0.030528698
0001e0 9d 9e 12 bc d4 d8 53 bc e5 64 00 be da 18 af 3c
       -0.008948949 -0.012930114 -0.12538488 0.021374155
0001f0 bc 6f 09 bd a2 eb 0d be 11 80 9a bb 12 f7 b4 3d
       -0.033553824 -0.13859418 -0.0047149737 0.088361874
000200 fe 59 e1 bb 0b ed fc 3d 8d 1d 7c bc e4 ec 15 be
       -0.006877183 0.123499 -0.015387905 -0.14641148
000210 73 19 b8 bd d0 e6 97 3c 8c 70 68 3d 67 63 94 3d
       -0.08989229 0.018542677 0.056747958 0.07245522
000220 69 9b ac 3c d0 d8 1b bd 23 f0 bc 3d c5 eb 98 bc
       0.0210702 -0.038048565 0.0922549 -0.018667111
000230 d9 e1 2a 3d 7b b0 e0 bc 90 61 7b 3d 98 d2 14 bd
       0.04171929 -0.027427902 0.06137234 -0.03633365
000240 31 1a 1e 3c 09 1e 88 bd 62 ab e9 bd d4 a2 cf bc
       0.009649799 -0.06646354 -0.11409642 -0.025346197
000250 ac 65 e2 3d 6c 01 08 3d fa a7 9a 3c c5 d3 22 be
       0.110545486 0.03320448 0.018878926 -0.15901096
000260 6f af 23 3e a6 7d b2 3d 8d b7 34 bd 64 e2 98 3d
       0.15984891 0.08715372 -0.04412036 0.074650556
000270 26 ab 7f bc 05 76 15 bc 44 cd 89 bc ae 74 bd bd
       -0.01560477 -0.009122376 -0.016821511 -0.092507705
000280 ec 30 2f 3d 63 4c 82 bd 72 e0 62 bd 33 96 15 3c
       0.042771265 -0.06362226 -0.05538983 0.009130049
000290 e5 08 c9 bc 63 28 ba 3c bf b9 c5 3b b1 17 d1 bc
       -0.024540374 0.022724336 0.0060341056 -0.025523992
0002a0 87 fe ae 3d a7 65 21 3d 4b 08 d5 bb b7 05 9a 3d
       0.08544641 0.039403584 -0.0065012327 0.07520621
0002b0 93 78 ca 3d 54 b8 a0 3d 1a 05 86 3d aa 87 b4 3d
       0.09886279 0.07847658 0.06543942 0.08814938
0002c0 5b fa 74 3c 3b ce bf 3b b1 f7 a9 3d df 07 e3 3d
       0.0149522675 0.005853442 0.082991965 0.11085486
0002d0 1a f3 53 3c 98 d6 b5 3d cb 08 06 3d 3e 13 99 bc
       0.012936378 0.08878821 0.03272323 -0.018685933
0002e0 59 74 8b 3d 86 8b 1a bd 38 a4 08 bd f8 e1 85 3c
       0.06809301 -0.037730716 -0.033359736 0.016343102
0002f0 be 6b 15 3d 12 53 81 bd e7 97 59 3b 4b 40 87 bd
       0.036479704 -0.063146725 0.0033202113 -0.0660406
000300 c4 51 10 bd 52 60 c2 3d b9 33 f4 bc 0c ee c9 bc
       -0.035234228 0.09491028 -0.02980982 -0.024649642
000310 cd 43 37 bd 6b 1c f5 3c 41 7d 08 bd 35 ed 0a be
       -0.044742394 0.029920777 -0.033322576 -0.1356705
000320 23 eb be 3c e1 01 da 3c 29 cc ce bd 29 8b 01 3e
       0.023305481 0.026612224 -0.10097534 0.12650742
000330 2a 9f 7b bd 3d 48 5d bd 71 ef 57 3d c0 6e 73 bd
       -0.061431088 -0.05402397 0.052718583 -0.05943179
000340 91 cd 9c bd 74 ce 8a 3d 82 9c 2f bd 1c 4f 93 bd
       -0.07656396 0.06777659 -0.042873867 -0.07192823
000350 ef a7 1e bb 6c 19 d0 3d 5e 1c 3c bc ed f9 0c 3d
       -0.0024208983 0.10161099 -0.011481373 0.034418035
000360 fa c8 ad 3c ab 16 57 bd ef 94 34 3d 9a 01 e7 bd
       0.021213997 -0.052511852 0.044087347 -0.11279602
000370 d3 22 81 3d 83 27 84 3c c2 86 9e 3d f6 08 64 3c
       0.0630547 0.016132122 0.07740547 0.013918152
000380 11 fa 12 3e 1e 48 20 3c c9 ae e6 3a 58 af 22 3d
       0.14353205 0.009782819 0.0017599697 0.039718002
000390 be ca 94 3d c4 a5 ea bc 6e c9 7c bd 92 b7 92 bc
       0.072652325 -0.028643496 -0.061715536 -0.017909799
0003a0 5a 74 a4 3d 40 4a 19 bd 69 03 98 bd 70 ca 81 3d
       0.08030005 -0.037424326 -0.074225254 0.0633744
0003b0 94 e9 1e bc 30 9c 06 be 4d ff 0d bd b4 88 12 3d
       -0.009699244 -0.13145518 -0.034667302 0.0357749
0003c0 63 2b 12 3b b9 09 af 3d f1 1d cb 3c 97 f9 9b 3d
       0.0022303693 0.08546776 0.02479455 0.07615965
0003d0 42 ae 84 3c bd 75 c7 bd 5f fa e5 3c 4e 0f de bc
       0.016196374 -0.09739254 0.028073488 -0.027106907
0003e0 6a 5a 7a bd 66 ad f7 3d f8 d6 08 3d 01 ab 39 3d
       -0.06112138 0.1209362 0.033408135 0.045329098
0003f0 98 92 9d 3b 01 eb e3 3d 3c 61 80 3c 86 71 28 bd
       0.004808735 0.11128808 0.015671365 -0.04112389

bias f4 [64]
000000 56 a5 c8 bd 24 2f 5a 3e f3 e1 54 3e e1 e7 8a 3d
       -0.0979716 0.21307045 0.20789318 0.06782509
000010 4b 5f 95 3d 3e dd 13 bd 94 08 72 bd 79 fd 2d 3e
       0.07293566 -0.036099665 -0.059090212 0.16991223
000020 88 e2 fe 3d 88 f6 62 bd 1f 21 40 3e 48 2f 46 3e
       0.12445551 -0.05541089 0.18762635 0.19353974
000030 42 22 a4 3d 4e 5d 56 3e 33 fb 04 3d a0 2f 1e 3e
       0.08014347 0.2093403 0.032466125 0.15447855
000040 ec b2 e2 3d 08 ef 43 3d c7 2a 9e 3d 92 4a c0 3d
       0.11069283 0.04783538 0.07723003 0.09389223
000050 4d e4 71 3e 66 fd 76 bc 4e 5e 2e 3e 94 a8 81 3c
       0.23622246 -0.015075063 0.17028162 0.015827455
000060 49 1c 0b 3e aa a3 5c 3e 7b 64 72 3e f5 4e 25 be
       0.13585009 0.21546808 0.23671143 -0.16143401
000070 c7 bd 97 3d 9f a5 21 3e f7 51 92 bd 05 2a 4c 3e
       0.07409244 0.15785836 -0.0714454 0.19937904
000080 c7 34 74 3e 0d 82 3c bd 6b fd 5b 3e b0 c3 88 3e
       0.23848258 -0.046022464 0.2148339 0.26711798
000090 34 55 b2 3c 64 9f 50 3e b2 37 86 3e b7 8b 6f 3e
       0.021769144 0.20373303 0.26214367 0.2339314
0000a0 80 c5 fe 3d c3 9a d6 3d df 62 84 3e 46 2c 28 3e
       0.12440014 0.10478737 0.25856683 0.16423139
0000b0 15 3d 3e 3c fa 28 3a be 52 38 6a 3e a3 5a b5 bc
       0.011611243 -0.18179694 0.22873047 -0.022137946
0000c0 65 67 18 3e 54 db 2b 3e 8f 6a 52 3e 61 9a 2c 3e
       0.14883192 0.16782886 0.20548461 0.16855766
0000d0 20 f8 fe 3d da da 62 3e e7 f7 42 bc cd 2e 71 3e
       0.1244967 0.22153798 -0.011899925 0.2355301
0000e0 92 72 5a 3e d8 4c ee 3d cc 02 2c 3e 29 85 4e 3e
       0.21332768 0.116357505 0.16797942 0.20167984
0000f0 be 35 7a bd f7 d1 2e bd d3 38 49 3e 6b c7 72 3e
       -0.06108641 -0.042680707 0.19650583 0.23708884

weight f4 [64, 64]
000000 81 52 eb 39 f4 2c 36 be 61 fc 2d be de 31 10 3c
       0.00044884163 -0.17790586 -0.16990806 0.008800952
000010 8b 39 c7 bd 11 d2 1d be 2d e1 b3 bd 67 3c 2d be
       -0.09727772 -0.15412165 -0.08783183 -0.16917573
000020 88 f2 a0 bd 75 27 00 be da 09 93 3c 65 3c 2b be
       -0.07858759 -0.12515052 0.017949034 -0.16722257
000030 3e 61 05 3d 31 83 d3 bd 35 a7 aa bd 53 12 91 bb
       0.03256344 -0.10327757 -0.083326735 -0.0044272332
000040 4d 31 2b be 62 e8 20 be 34 a5 47 3d ee 8f 6a bc
       -0.16718026 -0.15713647 0.048741534 -0.014316542
000050 f2 f3 16 3d 56 a9 15 bd 63 a3 06 bd 43 51 9d 3c
       0.036853738 -0.036538444 -0.03287066 0.019203788
000060 d4 c9 a4 3b 24 2c 9b bd 84 e8 0a be 4e c9 ce bd
       0.0050289426 -0.075767785 -0.1356526 -0.100969896
000070 19 8f 72 3d 30 c9 39 be cb 49 a7 bd 45 96 ae bd
       0.0592185 -0.18143153 -0.08168372 -0.085247554
000080 82 5a e4 ba 3a a5 28 3d 8a 2e ca 3c 17 d2 92 bd
       -0.0017421993 0.041173197 0.024680395 -0.07168978
000090 b7 ba e2 3c cb 74 17 be ed dc bb bd 42 12 b0 bd
       0.027676923 -0.14790647 -0.091729976 -0.085972324
0000a0 10 4f 1d 3d d0 5e 89 bd dc cd 22 bd b7 37 b2 3c
       0.038405478 -0.06707537 -0.039747104 0.021755083
0000b0 25 c2 00 3d 64 98 28 be 16 d3 47 bd e1 65 99 bd
       0.03143515 -0.16464382 -0.04878529 -0.07490135
0000c0 11 72 17 be 19 78 08 be d6 7e 2e 3d dc b5 0b 3d
       -0.14789607 -0.13327064 0.04260143 0.03410898
0000d0 2c 23 ec bd 58 38 c3 bd 98 50 9a bd fd 4c 02 be
       -0.11530146 -0.09532231 -0.07534903 -0.12724681
0000e0 0c 06 2a be 79 29 2e 3d 70 c5 95 bd fe 0e 88 3b
       -0.16603869 0.04252002 -0.07313049 0.004152178
0000f0 3f 8f a5 bc 61 05 2f bb 0a e2 11 be 8e 00 86 bd
       -0.020209907 -0.0026706087 -0.14246383 -0.065430745
000100 5b b6 a7 bd 3f 85 90 3d ce 27 11 3e a7 f6 7d 3d
       -0.081890784 0.07056665 0.1417534 0.062002804
000110 e5 cf b7 3d 9a 33 f9 3c 8e 74 8b 3d 8f df f6 3d
       0.089751996 0.030420113 0.068093404 0.12054359
000120 74 55 ec bc 5b 2c c5 bd 42 49 0e 3d d3 1a 96 bd
       -0.028849341 -0.09627601 0.034737833 -0.07329335
000130 3b ab 11 bd 9f ac a5 bd 64 ef 2c 3d 82 b2 49 3c
       -0.03556369 -0.080895655 0.04222049 0.012310626
000140 35 63 19 3d 50 f5 18 3d cc ab 49 3d 1b 40 3a bd
       0.037448127 0.037343323 0.049236104 -0.045471292
000150 30 31 9f 3d 43 12 ee 3d 7e 5c 5a bc 27 a1 07 3e
       0.07773054 0.11624577 -0.013327716 0.13245068
000160 47 14 50 bd 42 9a ab 3c 72 4e 74 3d 35 04 be bd
       -0.050800588 0.02094758 0.059645124 -0.09278146
000170 c2 dd e3 3d 83 a1 a8 bd d2 d1 b4 bd 95 c0 8f 3d
       0.11126281 -0.08233931 -0.088290825 0.07019154
000180 14 fe e2 3d 7d 37 c2 bc 52 28 02 3e 4e 4b 91 3d
       0.11083618 -0.0237081 0.12710693 0.07094441
000190 15 db e8 bc d2 f5 c4 bd 9a 2a 42 3d 0e 91 d3 bc
       -0.028424779 -0.09617199 0.04740391 -0.025826003
0001a0 af c0 d7 3d 3f 46 c0 bd 4a a0 0b 3c 2a 88 ff 3d
       0.10534798 -0.093883984 0.008522103 0.12477143
0001b0 36 9e cb bd d5 7f be bc 83 b4 1b 3e 86 bd a0 3d
       -0.09942286 -0.023254314 0.15205579 0.07848649
0001c0 2a c1 5b 3d e1 59 69 3d 54 0d 25 3d 8b 18 a5 3c
       0.053651012 0.05697048 0.040295914 0.020153305
0001d0 33 ea 11 3d 01 e5 f1 bc 58 3c 5d 3b 1d 13 70 3d
       0.03562374 -0.029528143 0.0033757892 0.058611978
0001e0 78 b8 cc 3c e8 a5 91 3d 70 26 c3 3d de 17 b6 3d
       0.024990305 0.07111722 0.09528816 0.08891271
0001f0 85 7e cf 3d 4d fd ed 3d d5 88 00 3e c1 d5 06 3e
       0.101315536 0.11620579 0.12552197 0.13167478
000200 cc 8a 24 3d fc 6d 14 be 52 f3 2e bd 5d 42 04 be
       0.04017143 -0.1449508 -0.042712517 -0.1291594
000210 2e 12 8a bd de 73 cd bc ca af 4b be 2b ec 1b bd
       -0.06741749 -0.025079664 -0.19891277 -0.038067024
000220 1c a0 da bd a2 8d 88 bd d8 95 10 bd c6 9d 44 bd
       -0.1067507 -0.06667639 -0.035299152 -0.048002027
000230 83 27 b0 bd e2 36 c1 bd 1a ce 5b bc 16 98 da bd
       -0.08601286 -0.09434296 -0.013415838 -0.10673539
000240 06 97 68 3d ed 8f 0d be 0e 1b 02 be 9b 1a 1c bc
       0.056784652 -0.13824435 -0.12705633 -0.009527828
000250 da bb bf 3c 0a 44 f4 bc 59 01 d8 bb 94 b5 bc bd
       0.023405004 -0.0298176 -0.0065919575 -0.09214321
000260 c6 e6 97 bc e8 61 4c be 45 e6 bb bc 81 7b a9 bd
       -0.018542659 -0.19959223 -0.02293695 -0.082755096
000270 00 5c 04 be 6b 9e a8 bd f0 e2 a4 bd eb dc 2f 3c
       -0.1292572 -0.08233341 -0.080510974 0.010733823
000280 2c af 83 bd 03 d7 8b bd ad 23 36 bd 98 3f e4 bc
       -0.06429896 -0.068281196 -0.044467617 -0.027862355
000290 5d 2b f3 3a 54 5a 39 be 61 4d 54 bb af 5b 11 be
       0.0018552352 -0.18100864 -0.0032394754 -0.14195131
0002a0 65 5e 8c bd 6d cb 28 be dd 9b 0b be 59 62 fe bd
       -0.06853942 -0.16483851 -0.13633676 -0.12421102
0002b0 ef f5 37 3c 02 1e 90 bd ff 9f 46 be 3b 9e d8 bd
       0.011228069 -0.070369735 -0.19396971 -0.10577055
0002c0 9f 13 5e 3d 58 8e 4d be 81 b2 02 be 97 7a 51 be
       0.05421793 -0.20073831 -0.12763406 -0.2045692
0002d0 4b 58 08 be 2c ce 13 be c2 a0 05 3d 93 44 7f bc
       -0.13314931 -0.14434117 0.032624014 -0.015580314
0002e0 a4 ed 3b be 84 6f 11 be 1a 82 33 bd 35 4b e9 bd
       -0.18352371 -0.14202696 -0.043825246 -0.11391298
0002f0 c4 49 02 3d fb 89 31 bd 51 f0 04 3d b9 08 16 be
       0.03180863 -0.04334448 0.032455746 -0.14651765
000300 ca 07 51 3d 18 f0 c4 bc 15 20 27 be 6d 05 0e be
       0.05103282 -0.024040267 -0.16320832 -0.13869257
000310 51 21 f5 bb 80 0c 0a be e3 8a 25 bd e5 58 27 be
       -0.0074807783 -0.13481331 -0.040415656 -0.16342504
000320 ba eb a4 ba 44 73 3a bd 0c 50 45 bd fb 63 3e bb
       -0.0012582459 -0.045520082 -0.04817204 -0.0029051292
000330 0e eb 33 bd 2d b5 11 be 12 5f 53 bd 1a ed bc 38
       -0.043925337 -0.1422927 -0.051604338 9.008702e-05
000340 d1 a8 6d bd e5 42 e1 bd 66 fb 3d bd 17 d3 2e be
       -0.058022324 -0.10999087 -0.04638233 -0.17072712
000350 87 f8 1b be 85 b8 37 3c c6 1d b9 bd a0 d4 d6 bd
       -0.15231524 0.0112134265 -0.09038882 -0.10489774
000360 60 dc 12 3d e1 02 5a bd 2a ba cc bd cb fa e6 bd
       0.035854697 -0.0532254 -0.099964455 -0.11278304
000370 93 f3 d9 bd 08 66 c7 bd f6 70 ec bd 52 a0 20 be
       -0.10642161 -0.09736258 -0.11544983 -0.15686157
000380 98 da 94 bc 12 fe 03 be 7d 6c 11 bd ae 3c 92 bd
       -0.01817064 -0.12889889 -0.035503853 -0.0714048
000390 f7 e2 49 bd 0e 09 81 bc be e3 f3 bd 66 81 e6 bc
       -0.049288716 -0.015751388 -0.11908673 -0.028137874
0003a0 f6 2e 1e be 75 99 34 bd 18 00 2f bd e2 12 bc bd
       -0.15447602 -0.04409166 -0.0427247 -0.09183289
0003b0 48 5c b1 3c 7a 74 ad bd d9 fd d1 bd 1c 7d 39 bd
       0.021650448 -0.08469482 -0.10253496 -0.04528533
0003c0 fa ea f0 bd 12 6b b7 bd 61 d0 11 3c 10 ef a8 bc
       -0.11763568 -0.08955969 0.008899779 -0.020621806
0003d0 b1 00 79 3d 23 1c 0f 3d f7 78 3a be 3f cb fe 3c
       0.060791675 0.034938943 -0.18210207 0.031102775
0003e0 a6 21 6c bd 16 0a 0c be bf 78 bd bc ee 93 b1 b8
       -0.057649277 -0.13675722 -0.023128865 -8.467572e-05
0003f0 7e f7 af bd 50 bb d6 bd 15 bb 87 39 91 ab 89 bd
       -0.08592127 -0.10484946 0.00025888594 -0.06722177

bias f4 [64]
000000 b7 9b 95 bd a2 20 86 3e 51 df c5 3c 97 dc c3 bd
       -0.07305091 0.26196772 0.024154337 -0.095635585
000010 e9 33 f8 bc 51 e1 e7 3e 73 75 09 3f ab 02 35 bc
       -0.03029819 0.4528909 0.5369484 -0.011047999
000020 c9 7e cb 3e 8e 71 68 bd 13 dd e0 3e 5f a0 7e bc
       0.39745167 -0.05674892 0.43918666 -0.015541165
000030 58 92 8e bc 0c 4a 2f be 6b 86 dd 3c 97 29 b8 bc
       -0.017403767 -0.1711809 0.027041635 -0.02248077
000040 7f 02 7b bd 76 b1 6c be a0 39 0f bd 5b d9 35 be
       -0.061281677 -0.23114571 -0.034967065 -0.17758696
000050 f5 35 d8 3e e2 94 76 bd 45 3d 46 be e0 3e a1 bd
       0.42228666 -0.06020058 -0.1935931 -0.078733206
000060 45 76 bd bd 45 f8 f8 3e bb 6b ad bc 03 9c 0f bd
       -0.09251074 0.48626915 -0.021169534 -0.035060894
000070 a7 69 b7 3e cf ca 0c be fb 1b e2 3e 4c be f4 bd
       0.35822794 -0.1374924 0.44161972 -0.11950359
000080 ee 62 40 be 70 2b b5 3e b3 ba 5c bd ec 3b 10 3e
       -0.18787739 0.35384703 -0.053888988 0.14085358
000090 b6 91 bd be 58 8f 45 bd f4 c5 00 3d 72 71 d4 3e
       -0.3702523 -0.048232406 0.031438783 0.41492802
0000a0 44 3a a0 bc ab 34 83 3e 34 d0 15 3d fd a8 c4 bc
       -0.019559033 0.2562612 0.03657551 -0.024006361
0000b0 3c cd 63 be 6b 76 84 3d 1d aa 02 3c 39 a9 84 bd
       -0.2224626 0.06467899 0.0079751285 -0.06477589
0000c0 5c 4f b6 bd 53 1c 63 3e ab c0 fe bc ae f0 2b 3d
       -0.08901855 0.22178774 -0.03109773 0.041977577
0000d0 57 5d ff 3e 89 0a 56 be e2 88 0e bd 2f 0b 15 3e
       0.498759 -0.20902456 -0.03479851 0.14555047
0000e0 64 a0 0e be ec 08 e5 bd e4 69 8b 3e e5 4e 15 3b
       -0.13928372 -0.11183342 0.27229226 0.002278262
0000f0 43 91 f4 3e b8 ff bc 3e ff ac 01 be c0 d9 21 be
       0.47767076 0.36913848 -0.12663649 -0.15805721

weight f4 [1, 64]
000000 e4 6a 30 bb 1f 33 fe 3d ec d4 90 3d a9 75 9f bc
       -0.002691918 0.12412094 0.070718616 -0.019465284
000010 c3 c3 72 bc 42 91 38 3e 74 9b 0f 3e 11 73 f9 bb
       -0.014817181 0.18024161 0.14024144 -0.007612594
000020 50 43 2e 3e 35 2a 43 3d 57 e5 44 3e 22 59 5c 3c
       0.17017865 0.047647674 0.19228111 0.013448985
000030 7c e2 67 3c c5 8e b3 bb 7f 41 8a 3d c0 53 15 3c
       0.014153119 -0.005479666 0.06750774 0.009114206
000040 41 b8 bc 3c 81 61 82 3c 0b b4 11 bc 06 8b 1a 3d
       0.023037078 0.015915634 -0.008893023 0.03773024
000050 3a 00 13 3e b3 14 58 bd df 53 73 3d 27 12 40 3c
       0.14355555 -0.052754115 0.059406158 0.011723078
000060 8e dd 9b 3c b5 3a 66 3e 5b 88 4a bd e6 3f 78 3d
       0.019026544 0.22483332 -0.049446445 0.060607813
000070 7f 08 2b 3e f3 e0 61 bc 96 9c 08 3e 30 3e 4b 3d
       0.1670246 -0.013786542 0.13340983 0.049619853
000080 61 d3 1f 3d 5b c1 11 3e bd ba 6d bc d0 34 f0 3c
       0.039019946 0.14233916 -0.014509854 0.029322058
000090 88 50 44 be 36 ec f3 bb 16 3b 53 3d 7f 59 f1 3d
       -0.19171345 -0.00744393 0.05157002 0.11784648
0000a0 21 24 0f 3d 01 3e 68 3d c9 98 87 3c 1c cc 7b 3d
       0.034946565 0.056699757 0.016552346 0.06147395
0000b0 a0 57 39 be 44 2d ce 3c 04 b7 94 3c ef b2 26 bb
       -0.18099833 0.025168069 0.018153675 -0.0025436243
0000c0 6b 4b c2 bb b6 c6 47 3d 69 a1 47 bc 20 de 97 3d
       -0.0059294007 0.04877349 -0.012184479 0.07415414
0000d0 17 f7 3f 3e 65 50 36 3d dd 67 fa bb c3 b9 ea 3c
       0.18746601 0.044510264 -0.007641776 0.028653031
0000e0 92 d5 33 3d 2a d9 07 3d d6 4d 9f 3d 42 c2 0a 3a
       0.04390485 0.03316609 0.07778518 0.0005293229
0000f0 60 0c 2a 3e 79 49 3c 3e cc 1e 70 bd 2c 8d f1 bc
       0.16606283 0.18387403 -0.05862312 -0.029486261
