src/Fun_2/model/model_128_64_64_0.01_200.pt (torch, 309343 bytes, 5 tensors)

weight f4 [64, 1128]
0.33227128 -0.30121973 1.3918463 0.54046434 0.6447688 -0.3711095 0.15591925 0.7763417
-0.12306256 0.09513837 -0.5294908 0.18044786 0.30430296 1.6578403 -0.7770693 -0.6699826
0.12015477 0.009930202 0.41807088 -0.101806395 0.11530808 -0.14167826 0.9017901 -0.06354582
0.09296416 0.103059396 -0.053506 0.9511328 -0.23082346 -0.8113822 -0.59591275 -0.28781375
0.81558657 -0.45296532 -0.724322 0.065871045 -1.2006099 -0.53821474 -0.48159605 0.80495465
-0.56719273 -1.1591018 -0.35050902 0.1833648 0.0050956663 -0.12322511 -0.2633515 0.08068801
0.16670685 -0.51994973 0.057557486 -0.21445261 -0.2952145 -0.072661236 0.3082622 1.007891
-0.679674 -0.875899 -0.023912001 -0.3249299 -0.20218031 0.22925861 -0.33934307 -0.18843482
0.5511438 0.6978901 0.17027773 -0.13739312 -0.2437658 -0.21337715 -0.016892236 1.6648215
-0.24349022 -0.047683205 0.014655605 0.027935602 0.80905586 -0.06289626 0.13807938 1.4195561
-0.116136715 0.315845 -0.24773057 -0.6970909 -0.082824394 0.014005203 -0.66079545 -0.29147613
0.50083286 -1.5480425 0.894024 0.46185818 0.35200363 -0.3765553 0.4584326 0.037791934
0.35893542 -0.13592431 0.12290005 0.26256028 0.22410326 -0.8254423 0.6987428 -1.2991492
-0.39622742 0.6479675 0.2968604 -0.5180057 0.5104457 -0.17398235 0.82760966 -0.08310485
0.09371401 -0.46397078 0.3206329 0.1418957 1.593086 -0.22544464 -3.161019 -0.5155373
-0.35703152 0.30311003 0.5278393 -0.6482908 0.67816454 0.38522878 1.0124528 -0.08006407
0.64695567 -0.35656935 -0.60352546 -0.0023307516 -0.8545143 0.009527057 -0.41869253 0.06125206
0.43528086 -0.05209516 -0.024064472 -0.055853274 -0.18046512 -0.54860204 -0.35214204 0.36683705
-0.05600347 0.13953719 -0.27136308 0.8845916 0.15921181 -0.4401578 0.37325403 -0.07681948
-0.2846189 -0.13169211 -0.6672535 0.25388023 -0.28713632 -0.21641482 -0.99158597 0.09088465
0.1669868 0.054800108 -0.5749509 -0.24045953 0.5043005 -0.8493738 -0.47168902 0.09459122
0.11888991 -0.2273228 0.25728083 0.100829154 -2.4284081 -2.120541 0.21873353 0.6391505
-0.39908323 -0.5146158 -0.033782512 0.26949343 0.94523937 -0.955064 0.062067706 0.12914
0.46949998 -0.21640386 -1.1629037 0.8884661 -0.2357281 -0.09936536 -0.033688255 0.19709897
-1.017076 0.25815827 0.6261569 0.79647404 0.05637363 0.41255212 0.041601144 0.28172663
-0.7056248 -0.09007767 -0.1443874 0.24191919 0.41991714 -0.40145078 0.48537445 0.42890224
-0.8114182 -0.67770475 0.5741151 -0.16958357 -0.37341928 -0.5456942 0.002381754 0.06852594
0.47810838 0.20065528 -0.274704 -0.0057508633 -0.12112713 -0.37268758 -0.103779994 -0.21791314
1.7933532 0.7742499 0.10407554 0.8761287 0.14104883 0.17916831 0.67977124 0.020661943
-1.3123473 0.41909873 -0.64508295 0.29349998 0.5038384 0.055491302 -0.29473612 0.36211446
-0.8821264 0.13178846 -0.33551243 0.16337006 0.106539994 -1.0032641 0.34578866 1.676166
-1.3825234 0.03460673 -0.38871124 -0.030360613 0.45213968 -0.733901 -0.11614883 0.7301124
00000000: 761f aa3e 7939 9abe 0528 b23f df5b 0a3f
00000010: 910f 253f 1002 bebe 4ca9 1f3e 54be 463f
00000020: 3908 fcbd e8d7 c23d b68c 07bf 53c7 383e
00000030: 99cd 9b3e 1c34 d43f 03ee 46bf fb83 2bbf
00000040: b413 f63d 49b2 223c 630d d63e df7f d0bd
00000050: a526 ec3d 1b14 11be b7db 663f 5024 82bd
00000060: fe63 be3d ce10 d33d 1c29 5bbd 707d 733f
00000070: fc5c 6cbe beb6 4fbf bd8d 18bf 535c 93be
00000080: 48ca 503f 12eb e7be 2b6d 39bf 66e7 863d
00000090: 96ad 99bf 71c8 09bf c293 f6be 8211 4e3f
000000a0: 8b33 11bf 735d 94bf eb75 b3be fbc3 3b3e
000000b0: 8cf9 a63b 725d fcbd 02d6 86be c13f a53d
000000c0: 33b5 2a3e 6d1b 05bf 66c1 6b3d 7799 5bbe
000000d0: 5b26 97be 6acf 94bd 8bd4 9d3e 9302 813f
000000e0: 1eff 2dbf eb3a 60bf 1ae3 c3bc 365d a6be
000000f0: 5b08 4fbe c5c2 6a3e 60be adbe 0ff5 40be
00000100: c317 0d3f eda8 323f 495d 2e3e c8b0 0cbe
00000110: be9d 79be 8a7f 5abe 9661 8abc df18 d53f
00000120: 8055 79be 774f 43bd 101e 703c 34d9 e43c
00000130: 491e 4f3f c1cf 80bd ae64 0d3e 04b4 b53f
00000140: 16d9 edbd 70b6 a13e 15ad 7dbe 8d74 32bf
00000150: d69f a9bd 1476 653c e429 29bf 5c3c 95be
00000160: 9536 003f 4226 c6bf c2de 643f ad78 ec3e
00000170: d239 b43e dbcb c0be aeb7 ea3e b7cb 1a3d
00000180: 62c6 b73e be2f 0bbe 05b3 fb3d 4d6e 863e
00000190: 537b 653e 3050 53bf cfe0 323f 854a a6bf
000001a0: 52de cabe 33e1 253f 16fe 973e 069c 04bf
000001b0: 92ac 023f 6e28 32be 3ade 533f e032 aabd
000001c0: 22ed bf3d 948d edbe ff29 a43e 1b4d 113e
000001d0: 3eea cb3f f6da 66be 234e 4ac0 41fa 03bf
000001e0: d6cc b6be 3d31 9b3e 7a20 073f 63f6 25bf
000001f0: 319c 2d3f b53c c53e 0e98 813f a2f8 a3bd
00000200: e39e 253f 4290 b6be a580 1abf 86bf 18bb
00000210: 73c1 5abf 6017 1c3c de5e d6be 71e3 7a3d
00000220: 22dd de3e bc61 55bd db22 c5bc 67c6 64bd
00000230: d9cb 38be 2f71 0cbf f64b b4be 11d2 bb3e
00000240: e563 65bd d6e2 0e3e 1af0 8abe 9874 623f
00000250: 6c08 233e 5d5c e1be 271b bf3e 8853 9dbd
00000260: 92b9 91be 4cda 06be 20d1 2abf 97fc 813e
00000270: 8803 93be d99b 5dbe 94d8 7dbf bb21 ba3d
00000280: 96fe 2a3e 1476 603d fb2f 13bf 063b 76be
00000290: d619 013f 9070 59bf 3981 f1be 0bb9 c13d
000002a0: 8e7c f33d 4fc7 68be 50ba 833e 847f ce3d
000002b0: 0a6b 1bc0 f2b6 07c0 affb 5f3e 5e9f 233f
000002c0: a354 ccbe dcbd 03bf 885f 0abd 0bfb 893e
000002d0: 35fb 713f 137f 74bf b53a 7e3d 473d 043e
000002e0: 4d62 f03e f998 5dbe 07da 94bf 8472 633f
000002f0: b562 71be 1180 cbbd b2fc 09bd 50d4 493e
00000300: 8c2f 82bf 522d 843e d24b 203f b9e5 4b3f
00000310: 09e8 663d 083a d33e f665 2a3d 793e 903e
00000320: d4a3 34bf a47a b8bd 4ada 13be aab9 773e
00000330: 61ff d63e f58a cdbe 0083 f83e 1399 db3e
00000340: 1ab9 4fbf 0f7e 2dbf 35f9 123f 51a7 2dbe
00000350: d030 bfbe 9db2 0bbf 3417 1c3b 5457 8c3d
00000360: 9fca f43e 9478 4d3e 01a6 8cbe bd71 bcbb
00000370: 8011 f8bd e8d0 bebe 9b8a d4bd 9f24 5fbe
00000380: 998c e53f 3e35 463f 8f25 d53d f849 603f
00000390: 1b6f 103e e677 373e 7d05 2e3f 3c43 a93c
000003a0: fffa a7bf 1c94 d63e 2824 25bf a145 963e
000003b0: 8efb 003f d94a 633d a7e7 96be 1167 b93e
000003c0: 09d3 61bf 8ef3 063e 49c8 abbe 7b4a 273e
000003d0: a431 da3d f56a 80bf 360b b13e 9c8c d63f
000003e0: 87f6 b0bf c9bf 0d3d 2905 c7be d2b6 f8bc
000003f0: da7e e73e f0e0 3bbf 70df edbd a5e8 3a3f

bias f4 [64]
1.2429944 -0.06089026 0.8324985 0.43652108 -0.08912714 -0.08691679 -0.026111294 -0.05199858
-0.046909314 0.51638967 -0.034976043 0.4436324 -0.087760635 1.2222652 -0.08823342 -0.08853895
-0.053875137 0.44397888 -0.046369478 1.2747234 -0.033040658 -0.056251336 -0.064340085 0.57739776
0.98186916 1.0345224 0.59317905 -0.033019118 0.5563998 -0.062420238 -0.03368093 -0.081352524
-0.08553691 0.007956765 -0.06569003 0.42387015 1.3435464 0.695331 -0.04094886 -0.050710462
0.3595052 -0.009085457 -0.08224741 0.34764996 -0.08065707 0.7083858 -0.05412711 -0.06666568
-0.04456074 0.97414494 -0.04147081 -0.016266245 0.61198497 1.4185162 0.88798463 -0.086438976
0.0051064617 -0.037200607 0.5912437 0.63722914 1.6239005 1.3365753 0.69739515 0.44288573
00000000: 711a 9f3f 1168 79bd 9f1e 553f b17f df3e
00000010: 4a88 b6bd 6e01 b2bd 5ae7 d5bc 77fc 54bd
00000020: fb23 40bd 1d32 043f 0a43 0fbd c923 e33e
00000030: d9bb b3bd 3073 9c3f b9b3 b4bd e953 b5bd
00000040: 2dac 5cbd 3351 e33e eced 3dbd 232a a33f
00000050: a455 07bd cd67 66bd bcc4 83bd 57d0 133f
00000060: c75b 7b3f 3b6b 843f 95da 173f 0e3f 07bd
00000070: 3870 0e3f 5dac 7fbd 04f5 09bd 279c a6bd
00000080: fa2d afbd 175d 023c 7f88 86bd 8205 d93e
00000090: 54f9 ab3f 3601 323f feb9 27bd c6b5 4fbd
000000a0: 1111 b83e 2bdb 14bc 5571 a8bd 2dff b13e
000000b0: 892f a5bd c658 353f 63b4 5dbd 0488 88bd
000000c0: 5385 36bd 9061 793f 4cdd 29bd ca40 85bc
000000d0: 0cab 1c3f f091 b53f f652 633f eb06 b1bd
000000e0: 1b54 a73b aa5f 18bd bf5b 173f 7321 233f
000000f0: f9db cf3f e614 ab3f 7d88 323f ebc1 e23e

weight f4 [64, 64]
-0.034842443 -0.06829721 -0.1458336 -0.1210942 -0.053839788 0.012410918 -0.1481123 0.009745537
-0.013327172 0.027592998 -0.09481723 -0.13561945 0.044148225 0.054537896 -0.10443572 -0.07043104
0.026116395 0.0489941 -0.08437695 -0.096751705 0.045560017 -0.15592349 -0.001826652 0.0646001
0.03586708 -0.119490206 -0.05834752 -0.13999937 -0.032872897 -0.13723809 -0.15095745 -0.046870574
-0.15315844 -0.016876861 0.048811063 -0.0020461085 0.0299274 -0.092424914 -0.14647193 0.04059582
-0.09511482 -0.060556374 0.010431078 -0.1361 -0.016699776 -0.11013646 -0.08258259 -0.15294676
0.0028293887 -0.05017385 -0.053633694 -0.02446672 -0.12891513 -0.0352716 -0.16681063 0.0401966
-0.09370145 -0.05161546 -0.101686046 -0.0649646 -0.15221375 0.004493838 -0.061869837 -0.18293871
-0.5509591 -0.022854805 -0.0019489502 -0.026811516 -0.10845436 -0.11102247 -0.023983797 0.11422177
-0.017953798 0.08287146 -0.09395288 0.11958047 0.09437367 -0.13969049 0.05035749 0.06540689
-0.10842663 0.008819774 -0.10240035 -0.049383234 0.039901182 -0.061722547 0.118977755 0.021930214
0.030343138 0.049407557 -0.046191745 -0.03771627 0.049803704 0.11452553 -0.09250586 0.042007044
0.033865392 -0.07374835 0.025936753 0.07583228 0.15921208 -0.067334 0.07944579 -0.053418234
-0.116064146 -0.062056895 0.09123939 0.06788317 0.087099075 -0.013482391 0.040396586 -0.062268615
-0.09689927 0.0950072 -0.024563044 -0.06634088 -0.15843429 -0.08433009 -0.36972302 0.101586
0.00036842117 0.01977253 0.04003833 0.017096648 -0.33703488 -0.2867147 -0.06757072 0.06314925
-0.015047593 0.11375352 -0.06984977 0.03453289 0.04401514 -0.01905848 -0.05703416 0.09741323
0.18484569 -0.0858075 0.024465365 -0.0061272476 0.005270168 0.012794736 0.04626721 -0.0390983
-0.12095785 0.105406456 0.054254215 0.039606027 0.11677263 -0.09403782 0.099938616 -0.13099927
-0.017384678 -0.07466736 -0.013232223 0.10473459 -0.068587355 0.02568555 0.08974817 -0.05465606
-0.04380588 -0.0047929883 0.14159533 0.0161956 -0.01740237 -0.013731744 0.045284376 0.013769794
0.09100424 -0.114014 0.12499385 -0.031021548 0.13582581 0.11669925 0.1391359 0.064666525
0.15465277 0.12524462 0.052827813 -0.058239717 -0.13633509 0.015326824 -0.11749381 0.094612405
-0.008585037 -0.0414265 0.031556133 -0.020319598 0.025791718 -0.008769039 0.071261086 0.045454066
-0.074765675 -0.033790678 -0.005229581 -0.13401552 0.06492752 0.026425388 0.07344622 0.05824765
-0.010520418 0.021328527 0.18504399 0.01660508 0.053148672 -0.07832856 0.033033926 0.15373369
0.08728765 -0.04906094 -0.01598849 0.048277635 0.18181966 -0.10361568 0.016062083 0.04635786
0.014604705 -0.103533864 -0.13037246 0.1727843 -0.010939521 0.11578465 0.035589352 -0.059380725
0.09209937 -0.08593476 -0.021506194 -0.11975854 0.06390285 -0.0032316875 -0.02260723 0.041765254
-0.13554598 0.011095475 0.10258686 -0.082166255 -0.03674942 -0.15688051 -0.015610779 0.12307273
-0.008504699 0.07391204 0.05048341 0.09368496 -0.072588734 0.05084688 0.008204934 0.02610486
-0.037975624 -0.02506901 -0.14403456 -0.13365057 -0.10833597 0.0482005 -0.104589745 -0.07130309
00000000: f3b6 0ebd 68df 8bbd 6755 15be 3c00 f8bd
00000010: 1c87 5cbd 2a57 4b3c c0aa 17be bfab 1f3c
00000020: 365a 5abc b60a e23c 892f c2bd d3df 0abe
00000030: c5d4 343d 2163 5f3d 65e2 d5bd 263e 90bd
00000040: 0df2 d53c 0aae 483d d3cd acbd c225 c6bd
00000050: 249d 3a3d 68aa 1fbe 456c efba 0f4d 843d
00000060: 5ce9 123d 48b7 f4bd cffd 6ebd ff5b 0fbe
00000070: bba5 06bd 2488 0cbe 9794 1abe 5cfb 3fbd
00000080: 91d5 1cbe 5841 8abc 1cee 473d 0118 06bb
00000090: 4f2a f53c 4649 bdbd bdfc 15be cd47 263d
000000a0: 8fcb c2bd f609 78bd 1de7 2a3c cc5d 0bbe
000000b0: f8cd 88bc 398f e1bd 1021 a9bd 139e 1cbe
000000c0: 446d 393b 1883 4dbd 01af 5bbd 6e6e c8bc
000000d0: 5402 04be f478 10bd 68d0 2abe 31a5 243d
000000e0: 8ce6 bfbd bc6a 53bd c640 d0bd 290c 85bd
000000f0: ecdd 1bbe 0c41 933b 3a6b 7dbd 4954 3bbe
00000100: a80b 0dbf 003a bbbc eb73 ffba d3a3 dbbc
00000110: 521d debd c05f e3bd ab79 c4bc 1aed e93d
00000120: d813 93bc 83b8 a93d 5e6a c0bd 9be6 f43d
00000130: fc46 c13d 060b 0fbe a843 4e3d 0cf4 853d
00000140: c80e debd d080 103c 46b7 d1bd 1346 4abd
00000150: 6c6f 233d c8d0 7cbd 9caa f33d fea6 b33c
00000160: 2c92 f83c 945f 4a3d 8e33 3dbd 607c 1abd
00000170: f8fe 4b3d 5c8c ea3d b673 bdbd 940f 2c3d
00000180: 70b6 0a3d 6009 97bd 5079 d43c f44d 9b3d
00000190: 7e08 233e 68e6 89bd 79b4 a23d 14cd 5abd
000001a0: 0ab3 edbd 5f2f 7ebd b8db ba3d 5506 8b3d
000001b0: 0061 b23d 3fe5 5cbc e476 253d 600d 7fbd
000001c0: 2073 c6bd 2393 c23d 7038 c9bc badd 87bd
000001d0: 993c 22be 41b5 acbd 564c bdbe 520c d03d
000001e0: a728 c139 00fa a13c 3bff 233d 450e 8c3c
000001f0: d68f acbe 45cc 92be 8562 8abd 6554 813d
00000200: 2e8a 76bc 9bf7 e83d 650d 8fbd 5c72 0d3d
00000210: 3849 343d 8820 9cbc a79c 69bd 9680 c73d
00000220: 3048 3d3e d8bb afbd 976b c83c 14c7 c8bb
00000230: 60b1 ac3b 03a1 513c b082 3d3d 8a25 20bd
00000240: c0b8 f7bd 57df d73d ab39 5e3d ee39 223d
00000250: 7d26 ef3d e796 c0bd 9eac cc3d ac24 06be
00000260: 506a 8ebc 33eb 98bd f7cb 58bc 177f d63d
00000270: 8777 8cbd 816a d23c e3cd b73d 08df 5fbd
00000280: cb6d 33bd 800e 9dbb 5efe 103e a3ac 843c
00000290: 6a8f 8ebc 1cfb 60bc 1c7c 393d b49a 613c
000002a0: 6e60 ba3d 2c80 e9bd c7fc ff3d e720 febc
000002b0: ec15 0b3e 0400 ef3d a479 0e3e e26f 843d
000002c0: 4c5d 1e3e 2040 003e fa61 583d c58c 6ebd
000002d0: 6d9b 0bbe 5c1d 7b3c 98a0 f0bd 26c4 c13d
000002e0: 41a8 0cbc d5ae 29bd 0141 013d 4975 a6bc
000002f0: 2749 d33c 04ac 0fbc 55f1 913d 0b2e 3a3d
00000300: bf1e 99bd 1868 0abd e85c abbb 5d3b 09be
00000310: b8f8 843d 0e7a d83c f96a 963d 1695 6e3d
00000320: d55d 2cbc 2ab9 ae3c 2c7c 3d3e 6007 883c
00000330: 6cb2 593d b96a a0bd 954e 073d 5d6c 1d3e
00000340: dec3 b23d 20f4 48bd 4bfa 82bc c5be 453d
00000350: ef2e 3a3e 7534 d4bd a194 833c bde1 3d3d
00000360: 9348 6f3c 9009 d4bd 5c80 05be 5eee 303e
00000370: ad3b 33bc 8120 ed3d 24c6 113d 3439 73bd
00000380: 989e bc3d 90fe afbd c22d b0bc f743 f5bd
00000390: 7fdf 823d b8ca 53bb cc32 b9bc 0b12 2b3d
000003a0: 91cc 0abe ccc9 353c 0f19 d23d c846 a8bd
000003b0: 8f86 16bd 49a5 20be 5ac4 7fbc 8e0d fc3d
000003c0: 4b57 0bbc 325f 973d b1c7 4e3d e6dd bf3d
000003d0: 67a9 94bd d144 503d fd6d 063c dcd9 d53c
000003e0: 548c 1bbd 865d cdbc cc7d 13be b2db 08be
000003f0: 40df ddbd e36d 453d 2633 d6bd 5b07 92bd

bias f4 [64]
-0.012611155 -0.111080505 0.8356709 -0.15831389 -0.29515925 -0.14565799 -0.0044452506 -0.42792624
-0.4025696 0.3169412 0.31088954 -0.09694012 0.87561834 1.1343856 -0.45315215 -0.7151157
-0.14117944 0.9069445 -0.32981205 -0.17657016 0.10207817 -0.2467285 -1.052764 -1.6241671
-0.0017947219 1.2003579 -0.12918858 1.0122342 0.7014394 -0.037684467 1.1504726 -0.41819373
0.59902596 -0.119895704 -0.2061006 0.7233415 -0.12535621 -0.18949428 0.8378773 -1.9975401
-0.27459443 0.3788735 0.8935609 -0.17158194 -0.12147333 -0.19631107 -0.37802723 1.0960616
0.18454933 -0.06063501 -0.31409463 0.6688204 0.3191792 -0.10154692 0.9368688 0.04149968
-0.39002994 -0.7959526 0.65192276 1.0262246 -0.11625941 -0.16861051 1.5271331 -0.4891172
00000000: 059f 4ebc 2d7e e3bd 87ee 553f 091d 22be
00000010: 1d1f 97be 5e27 15be 77a9 91bb 2619 dbbe
00000020: 9a1d cebe 1e46 a23e ea2c 9f3e 8b88 c6bd
00000030: 8628 603f 8c33 913f 8f03 e8be d311 37bf
00000040: 5891 10be 842d 683f 20dd a8be cfce 34be
00000050: 5c0e d13d 65a6 7cbe f9c0 86bf b5e4 cfbf
00000060: e03c ebba 54a5 993f 034a 04be e490 813f
00000070: 8891 333f 075b 1abd b042 933f 7d1d d6be
00000080: c459 193f e18b f5bd 090c 53be e92c 393f
00000090: 615d 00be ca0a 42be 207f 563f 65af ffbf
000000a0: a497 8cbe b5fb c13e 68c0 643f 2db3 2fbe
000000b0: 02c7 f8bd c505 49be c98c c1be bf4b 8c3f
000000c0: 80fa 3c3e 6b5c 78bd 03d1 a0be d037 2b3f
000000d0: 756b a33e d5f7 cfbd a2d6 6f3f 92fb 293d
000000e0: 01b2 c7be 8dc3 4bbf 69e4 263f 545b 833f
000000f0: 6a19 eebd 3ca8 2cbe 1979 c33f 926d fabe

weight f4 [1, 64]
-0.037490025 0.011284516 0.08631886 -0.023187011 0.056459595 -0.023865826 -0.061774068 0.057220567
0.21024054 -0.096690014 -0.39011353 0.02965123 -0.07075029 0.26094335 0.25058743 -0.053085886
0.058615368 0.027992148 -0.16353835 0.25858706 -0.024515739 -0.14251679 0.19884859 -0.13743058
-0.027989952 -0.123024896 0.01651063 0.059104063 -0.04879695 -0.03986063 0.24965128 -0.27918458
-0.04318899 -0.051788922 0.11698099 -0.038988996 0.010468348 -0.0022352992 0.0064024525 -0.16868235
0.13138364 -0.039112177 -0.08260798 0.02384595 0.009530794 -0.004724978 0.15072787 0.14902818
-0.03974763 0.05068621 -0.040109623 -0.039126612 -0.06937303 0.03152201 0.045616806 -0.037383035
0.0024013515 0.011704044 -0.048588205 0.06230464 0.033823945 -0.09538889 -0.16616005 0.2358124
00000000: 248f 19bd b1e2 383c f1c7 b03d b0f2 bdbc
00000010: 2d42 673d 4482 c3bc ce06 7dbd 1d60 6a3d
00000020: 4c49 573e 6a05 c6bd f6bc c7be 23e7 f23c
00000030: 87e5 90bd 5e9a 853e ff4c 803e 9670 59bd
00000040: ab16 703d ca4f e53c 9976 27be 8665 843e
00000050: 3bd5 c8bc ecef 11be f79e 4b3e 9aba 0cbe
00000060: 2f4b e5bc 7af4 fbbd 4d41 873c 1a17 723d
00000070: 50df 47bd e644 23bd 96a4 7f3e 48f1 8ebe
00000080: f0e6 30bd 9f20 54bd bb93 ef3d edb2 1fbd
00000090: 6f83 2b3c 197e 12bb aacb d13b 11bb 2cbe
000000a0: 6f89 063e 1734 20bd 5f2e a9bd 9558 c33c
000000b0: 0c27 1c3c fdd3 9abb 6858 1a3e d89a 183e
000000c0: 69ce 22bd 589c 4f3d fd49 24bd 3a43 20bd
000000d0: 7213 8ebd 391d 013d b0d8 3a3d f41e 19bd
000000e0: fe5f 1d3b 52c2 3f3c 6d04 47bd 2633 7f3d
000000f0: fa8a 0a3d 405b c3bd dc25 2abe ce78 713e
