src/Fun_2/model/model_1024_64_64_0.0001_200.pt (torch, 309431 bytes, 5 tensors)

weight f4 [64, 1128]
0	0x3d91da43	0.07121708
1	0xbd9c85fd	-0.07642744
2	0x3dac64cb	0.08417662
3	0x3d737ba0	0.05944407
4	0x3d927f59	0.07153196
5	0xbdaad9bc	-0.08342311
6	0x3d6c9bef	0.057765897
7	0xbdaefdb1	-0.085444815
8	0x3d7daa7f	0.061930176
9	0xbd9c7836	-0.07640116
10	0xbda81d12	-0.0820867
11	0x3d35ec12	0.044414587
12	0x3c20baa5	0.0098101245
13	0xbda06161	-0.078310736
14	0x3da3284a	0.07966669
15	0x3d7659a8	0.060144097
16	0x3d274412	0.0408364
17	0x3d7b0508	0.061284095
18	0x3d1016c8	0.035177976
19	0xbd975dd2	-0.07390942
20	0xbda6c6bb	-0.081433736
21	0x3d871728	0.065962136
22	0xbd84184b	-0.06449946
23	0xbdad96c3	-0.08476021
24	0x3dae4a41	0.085102566
25	0xbd6846cb	-0.05670814
26	0xbd0bb484	-0.0341077
27	0x3d1f246a	0.038853087
28	0xbc26f4c8	-0.010190196
29	0x3d8b130e	0.06790744
30	0x3d5d7e81	0.05407572
31	0xbd932492	-0.071847096
32	0x3b654259	0.0034982173
33	0x3d826e8f	0.06368744
34	0xbd813c7e	-0.06310366
35	0xbcfec01b	-0.031097462
36	0xbd64138a	-0.055682696
37	0xbcd5d9d4	-0.026104845
38	0xbd97d976	-0.07414524
39	0x3d791b87	0.060817268
40	0xbd9e1d27	-0.07720404
41	0xbd83c8fe	-0.064348206
42	0x3c86137e	0.016366716
43	0x3c87f5f2	0.016596768
44	0xbd85d3d2	-0.06534542
45	0x3d431deb	0.047635954
46	0xbd90ee1e	-0.07076667
47	0x3d91a2ba	0.07111116
48	0x3d8f0e12	0.069851056
49	0xbd88491c	-0.066545695
50	0xbd7d9b7b	-0.061915856
51	0x3d6bcd92	0.057569094
52	0xbd0699a5	-0.03286137
53	0xbda1227c	-0.078679055
54	0xbd4843da	-0.048892833
55	0x3a8ec8b3	0.0010893553
56	0x3c741471	0.014897452
57	0xbd881844	-0.06645253
58	0x3cefbecc	0.029265784
59	0x3c9aa31e	0.018876608
60	0xbc7b9e40	-0.015357554
61	0x3baf986e	0.005358747
62	0x3d4c4666	0.049871825
63	0xbd97a0c0	-0.074037075
64	0x3ce5b6a2	0.028041188
65	0x3d5666c5	0.052344102
66	0x3d1e29ed	0.038614202
67	0x3d094855	0.033516247
68	0xbd42d2aa	-0.047564186
69	0x3d211078	0.039322346
70	0x3c53de78	0.012931459
71	0xbc1284ee	-0.008942826
72	0x3d381277	0.044939484
73	0x3d5c7932	0.05382652
74	0x3cca691d	0.024708325
75	0xbd4084ba	-0.047001578
76	0x3d167dad	0.036740948
77	0x3d30428c	0.043032214
78	0xbd140538	-0.03613779
79	0x3bc7f904	0.006102683
80	0xbc8058de	-0.015667375
81	0xbd72bdf5	-0.05926319
82	0x3d2f286b	0.042763155
83	0xbd75b139	-0.059983466
84	0xbd51f5d6	-0.051259838
85	0x3c356093	0.011070388
86	0x3d8a337c	0.06748101
87	0xbd8a12b8	-0.067418516
88	0xbd94ef7f	-0.07272243
89	0xbd8591d4	-0.06521955
90	0x3a7fcf4c	0.00097583677
91	0x3bcc241f	0.006229892
92	0xbd55f0a1	-0.052231435
93	0xbc72bcc2	-0.014815511
94	0x3d4119a9	0.047143612
95	0xbd806889	-0.062699385
96	0xbd2af0c7	-0.04173353
97	0x3c4bc6f8	0.012437575
98	0xbcee4be0	-0.029088914
99	0xbb6a7dee	-0.0035780626
100	0x3cdddcd5	0.02708284
101	0xbca11a7a	-0.019665945
102	0x3d0911f7	0.0334644
103	0xbd5e8138	-0.05432245
104	0x3ce24a1b	0.027623227
105	0x3d5df01d	0.054184068
106	0xbcea6725	-0.028613636
107	0x3cb11662	0.021617118
108	0x3d6e37ef	0.05815881
109	0x3cd0dc01	0.025495531
110	0xbd81bb53	-0.063345574
111	0x3c1d008e	0.009582652
112	0x3bab6871	0.0052309562
113	0x3d3cd570	0.046101987
114	0x3c9ce2b2	0.019151065
115	0x3d812f94	0.06307903
116	0x3cebbcd1	0.028776558
117	0x3c83cdc1	0.016089322
118	0x3cccda2f	0.025006382
119	0xbd2abc38	-0.041683406
120	0x3d4c116b	0.0498213
121	0x3d80e9f4	0.06294623
122	0xbcd0f8ef	-0.025509326
123	0xbd729c55	-0.05923112
124	0xbc2eb275	-0.010662665
125	0x3c94ed50	0.018179566
126	0x3d1af1bb	0.03782819
127	0x3d49e09f	0.04928648
128	0xbd2c59bf	-0.042077776
129	0xbc329fb8	-0.010902338
130	0xbd0324d1	-0.032017533
131	0x3cf4887a	0.029850233
132	0xbd5a956a	-0.05336515
133	0xbc9daa55	-0.01924626
134	0x3d999a8f	0.07500183
135	0xbb9c89c3	-0.0047771647
136	0x3bfd56af	0.0077312808
137	0xbd0c2d7e	-0.034223072
138	0x3d627ed3	0.05529673
139	0x3c861b7c	0.016370527
140	0x3d841a48	0.06450325
141	0xbb88c409	-0.00417376
142	0x3c8071c5	0.01567925
143	0x3d803370	0.06259811
144	0xbd2daed6	-0.042403065
145	0xbc83a746	-0.016070973
146	0xbbb8de3c	-0.005641727
147	0x3cfa10f6	0.030525666
148	0xbcbac88f	-0.022800712
149	0x3d4a6f34	0.049422458
150	0x3d3d07d7	0.046150055
151	0xbd8790de	-0.06619428
152	0x3d9707ff	0.07374572
153	0xbd453a4e	-0.048151307
154	0xbd25b2f4	-0.040453866
155	0x3c822c16	0.015890162
156	0x3c62c6fd	0.013841388
157	0xbc9d1233	-0.019173717
158	0xbcfe1b25	-0.031018803
159	0x3d11b1df	0.03557002
160	0x3d453b99	0.04815254
161	0x3d660cb5	0.056164462
162	0xbc00af59	-0.007854306
163	0x3c8a1032	0.016853426
164	0xbbda597d	-0.0066635
165	0x3bf51a09	0.0074799103
166	0x3c4df2ab	0.012570064
167	0xbb2c6756	-0.002630671
168	0xbab187e8	-0.0013544532
169	0xbd47d0e4	-0.048783198
170	0x3d4671b8	0.048448294
171	0xbd815ada	-0.06316157
172	0xbc333e95	-0.010940214
173	0xbcd80da3	-0.02637369
174	0x3d241800	0.04006195
175	0x3d3c7f5b	0.046019893
176	0xbc81a15d	-0.015824014
177	0x3bfffebd	0.0078123496
178	0x3d20301d	0.039108384
179	0xbb83633a	-0.0040096315
180	0xbd3b4b5f	-0.045726176
181	0x3ce3e9aa	0.02782138
182	0x3c54e98c	0.012995135
183	0x3d10b955	0.035332996
184	0x3cf73fbb	0.030181756
185	0x3d099406	0.03358843
186	0xbd09a620	-0.033605695
187	0xbce35a20	-0.027752936
188	0x3c4a265e	0.012338249
189	0xbd201f54	-0.039092377
190	0xbccbd732	-0.024882887
191	0xbcfdd925	-0.030987332
192	0x3c1046da	0.008805955
193	0xbc8c87ce	-0.0171546
194	0x3d09fc89	0.033688102
195	0xbd4d56ef	-0.050131734
196	0x3c9ca1d8	0.019120142
197	0xbcdb4780	-0.026767492
198	0x3ba158e9	0.004923929
199	0xbcde95b4	-0.027170993
200	0x3b1bfc37	0.0023801455
201	0xbd13d456	-0.03609117
202	0xbd507dba	-0.050901152
203	0x3d077853	0.033073734
204	0x3b1611a4	0.0022898698
205	0xbd04492f	-0.032296356
206	0xbbb05b54	-0.005381981
207	0xbc418639	-0.011811786
208	0x3bba7ccf	0.005691148
209	0xbd25e4c6	-0.04050138
210	0x3c4359e8	0.011923291
211	0x3bc42bb0	0.0059866533
212	0xbcacfd7d	-0.021116966
213	0xbd06eb46	-0.032939218
214	0xbd15cad9	-0.036570404
215	0x3d2610d2	0.040543385
216	0x3d32d1a7	0.04365697
217	0x3ba90ee2	0.005159245
218	0x3c8e8e13	0.01740173
219	0x3caaff61	0.020873727
220	0x3ce7d4f3	0.028299784
221	0xbcd32611	-0.025774987
222	0x3b57d67b	0.0032934237
223	0xbc416bb5	-0.0118054645
224	0x3d4f1b1a	0.050562955
225	0x3cc9c98a	0.024632234
226	0xbd1859f1	-0.03719515
227	0xbd45c033	-0.048279
228	0x3cca1deb	0.02467247
229	0x3c97ffe7	0.018554641
230	0x3d2301e3	0.03979672
231	0xbc48f10f	-0.012264504
232	0xbc890ddf	-0.016730247
233	0x3a92279a	0.0011150718
234	0x3d26e525	0.040745873
235	0xbba549e6	-0.00504421
236	0x3c132d0a	0.008982906
237	0x3c6bd46d	0.014393908
238	0x3b40d260	0.0029422268
239	0xbd09c588	-0.033635646
240	0x3cb7034b	0.022340437
241	0xbd34fb87	-0.044185188
242	0x3c414df9	0.011798375
243	0x3d3d0b20	0.046153188
244	0x3c81f397	0.015863223
245	0x3d4f5257	0.050615635
246	0xbd0b848c	-0.034061953
247	0x3d273848	0.04082516
248	0xbc85d5db	-0.016337326
249	0xbd1f8e66	-0.03895416
250	0xbd3106f3	-0.043219518
251	0xbccfa9fc	-0.02534961
252	0xbbbf0f81	-0.0058307056
253	0x3b9c28ff	0.0047656293
254	0x3c998940	0.018742204
255	0x3d41e187	0.04733422

bias f4 [64]
0	0x3d8285d6	0.063731834
1	0x3d82cde8	0.0638693
2	0x3db9f15d	0.090792395
3	0x3dbc3a7d	0.09190843
4	0x3d1e005c	0.03857456
5	0x3cf67dc3	0.030089265
6	0x3dba32a0	0.09091687
7	0x3db0b718	0.08628672
8	0x3d9485ff	0.0725212
9	0x3dbf3701	0.09336663
10	0x3d482dc1	0.04887176
11	0x3d96f301	0.07370568
12	0x3d0db956	0.03460058
13	0x3dabaa90	0.083821416
14	0x3d05c53c	0.0326588
15	0x3cb66b98	0.022268102
16	0x3d93ac35	0.0721058
17	0x3d97750f	0.07395374
18	0x3d0d0202	0.034425743
19	0x3d932c97	0.07186239
20	0x3dd903e8	0.10596448
21	0x3d3b7a67	0.04577103
22	0x3d4f1f85	0.05056717
23	0x3d8b0b18	0.06789225
24	0x3d8d35bb	0.06895014
25	0x3d5299e2	0.051416285
26	0x3d943a53	0.07237687
27	0x3dbaa346	0.09113173
28	0x3d2b8f9e	0.04188501
29	0x3d93e3ca	0.07221182
30	0x3dd39fcb	0.103332125
31	0x3d2312f4	0.039812997
32	0x3cecc1d7	0.028901024
33	0x3dc244d4	0.09485784
34	0x3d842e65	0.064541616
35	0x3d4a2179	0.04934833
36	0x3da08a22	0.07838847
37	0x3db2284d	0.08699093
38	0x3d9c6ce2	0.07637955
39	0x3d827a06	0.063709304
40	0x3d48a39f	0.048984166
41	0x3d808702	0.06275751
42	0x3d17a58d	0.037023116
43	0x3d79160b	0.060812037
44	0x3d394aec	0.045237467
45	0x3d6eba61	0.058283214
46	0x3d9937ba	0.07481332
47	0x3d32aa18	0.043619245
48	0x3da6311c	0.081148356
49	0x3dbdbcec	0.092645496
50	0x3da7e9df	0.08198904
51	0x3dbb9219	0.09158725
52	0x3d9e6a2d	0.07735095
53	0x3d83511c	0.06411955
54	0x3db4f4a2	0.088357225
55	0x3d418db7	0.04725429
56	0x3dd25b09	0.1027127
57	0x3d8b63b7	0.068061285
58	0x3d8aef50	0.067839265
59	0x3dc8a0c7	0.09796291
60	0x3dc107ac	0.094252914
61	0x3d80c2f6	0.06287186
62	0x3dc9bcaf	0.09850442
63	0x3d5a9092	0.05336053

weight f4 [64, 64]
0	0x3aafe804	0.0013420586
1	0xbcedb603	-0.029017454
2	0xbdd0bdf2	-0.10192479
3	0xbdab047c	-0.08350465
4	0xbc9f0358	-0.019410774
5	0x3d61af1e	0.055098645
6	0xbdd8f1ab	-0.105929695
7	0x3d4288c9	0.04749373
8	0x3cd22de9	0.025656657
9	0x3d8c5e1b	0.06853887
10	0xbd4397ad	-0.04775207
11	0xbdc0e6b7	-0.09419005
12	0x3db927f8	0.090408266
13	0x3db7c100	0.08972359
14	0xbd7c85c3	-0.061651003
15	0xbca9f0e6	-0.020744752
16	0x3d909129	0.07058937
17	0x3d946655	0.07246081
18	0xbd1bfd12	-0.038083144
19	0xbd719f62	-0.05898989
20	0x3dad3362	0.08457066
21	0xbdede759	-0.11616392
22	0x3d31b8a3	0.043388974
23	0x3dcbe77f	0.09956264
24	0x3d9471c4	0.072482616
25	0xbdadf7c3	-0.084945224
26	0xbc814199	-0.01577835
27	0xbdc91b18	-0.09819621
28	0x3bfd1ffc	0.00772476
29	0xbdcb5717	-0.099287204
30	0xbde2ccfd	-0.11074255
31	0x3b081ab0	0.002076786
32	0xbdd333a5	-0.10312585
33	0x3caa1a1f	0.020764409
34	0x3daaf6e8	0.08347875
35	0x3d05db7c	0.03268002
36	0x3d87cd89	0.066309996
37	0xbd5c6db8	-0.053815573
38	0xbdd3d5fd	-0.103435494
39	0x3db35ad0	0.087575555
40	0xbd6e02aa	-0.05810801
41	0xbcb310c5	-0.021858582
42	0x3d601d0a	0.054715194
43	0xbdc55cb6	-0.09636824
44	0x3cb172eb	0.021661242
45	0xbd953178	-0.07284826
46	0xbd2fd85f	-0.042930957
47	0xbdd7cb84	-0.105368644
48	0x3d3d0488	0.0461469
49	0xbc344060	-0.011001676
50	0xbc7b1c72	-0.015326606
51	0x3c50d247	0.0127454465
52	0xbdb2974b	-0.08720263
53	0xb9b99bed	-0.00035402123
54	0xbdfe24dc	-0.12409374
55	0x3d928185	0.0715361
56	0xbd54d5e3	-0.05196179
57	0xbba3c65e	-0.0049980124
58	0xbd7b1d12	-0.06130702
59	0xbce1d203	-0.027565962
60	0xbde4c6e9	-0.111707516
61	0x3d293f59	0.04132018
62	0xbcd6f34e	-0.026239064
63	0xbe10d95f	-0.1414542
64	0x3c8fce87	0.017554535
65	0x3d78939c	0.060687646
66	0x3e2df33e	0.16987321
67	0x3d513e5d	0.051084865
68	0xbccf29ed	-0.025288546
69	0xbc839131	-0.016060444
70	0x3d034bb0	0.032054603
71	0x3e45fe4a	0.19335285
72	0x3d8347d3	0.06410184
73	0x3e1d2843	0.1534739
74	0xbb7dbb9e	-0.0038716565
75	0x3e4622f0	0.19349265
76	0x3e3b9839	0.18319787
77	0xbcf9af61	-0.030479135
78	0x3e0c2118	0.136845
79	0x3e2bbc94	0.16771156
80	0xbcca7724	-0.024715014
81	0x3dd92866	0.106034085
82	0xbc1061d7	-0.008812389
83	0x3df11f2a	0.11773522
84	0x3df0a0d3	0.11749425
85	0x3d079a97	0.033106413
86	0x3e52157e	0.20516011
87	0x3e07aed1	0.13250281
88	0x3e1b4990	0.1516478
89	0x3e197899	0.1498741
90	0x3d3fc13e	0.04681515
91	0x3d3e1987	0.046411064
92	0x3e12a9dd	0.1432261
93	0x3e487f73	0.19579868
94	0xbc76141c	-0.015019443
95	0x3e075aeb	0.13218276
96	0x3e098fd9	0.1343378
97	0x3c601634	0.013677169
98	0x3dd78aed	0.10524545
99	0x3e3731a2	0.17890027
100	0x3e19db79	0.15025128
101	0x3c9bc5b7	0.019015176
102	0x3de5b76c	0.112166256
103	0x3d02cee5	0.03193559
104	0xbcb9c27c	-0.022675745
105	0x3ce4036a	0.02783366
106	0x3e3a1285	0.18171127
107	0x3e29b139	0.16571511
108	0x3e305a80	0.17222023
109	0x3ddb49f5	0.107074656
110	0x3df5c83e	0.12001084
111	0x3d055bb7	0.03255817
112	0xbc569830	-0.013097808
113	0x3e1348b7	0.14383207
114	0x3d6cb330	0.057788074
115	0xbc1de2ad	-0.009636563
116	0xbd2d073c	-0.042243227
117	0x3dee508b	0.11636456
118	0x3df514db	0.119668685
119	0x3e38605d	0.1800551
120	0x3d9ee74b	0.077589594
121	0x3dd926a5	0.10603074
122	0x3e1714c4	0.14754015
123	0x3e00fcad	0.12596388
124	0x3d6db5b0	0.0580346
125	0xbd26e942	-0.040749796
126	0x3d76a692	0.060217448
127	0x3e3c6829	0.18399109
128	0x3db63a2b	0.088978134
129	0x3e0529c7	0.13004218
130	0x3c597132	0.013271617
131	0x3db73bac	0.089469284
132	0x3dfdce70	0.123928905
133	0x3be23cfb	0.006904242
134	0xbc9a57ee	-0.018840756
135	0x3dd7be1f	0.105343096
136	0x3e49d129	0.19708695
137	0xbc6b3a39	-0.014357143
138	0x3d162797	0.03665885
139	0x3da7c7a2	0.08192374
140	0x3dbcdbbf	0.09221601
141	0x3e10c9bb	0.14139454
142	0x3e03a8a6	0.12857303
143	0xbbc5b36f	-0.006033353
144	0xbd2d5b08	-0.042323142
145	0x3e40fafd	0.18845744
146	0x3d861d5b	0.06548568
147	0x3e253c29	0.1613623
148	0x3e02d9e4	0.12778431
149	0xbc445f26	-0.011985576
150	0x3df4052f	0.11915051
151	0xba9a4e54	-0.0011772611
152	0x3dfe27c8	0.124099314
153	0xbb15dc40	-0.0022866875
154	0x3d9acaee	0.07558237
155	0x3df39505	0.118936576
156	0xbd328cc0	-0.04359126
157	0x3d3084c3	0.04309536
158	0x3dc8bce0	0.0980165
159	0xbcddd08f	-0.027076988
160	0xbc80d30e	-0.015725639
161	0x3d7d511f	0.06184494
162	0x3e1ec52a	0.155049
163	0x3dcd3568	0.10019952
164	0x3dd351f1	0.103183635
165	0x3d2b7c05	0.04186632
166	0x3d77bd62	0.060483344
167	0x3d05eace	0.03269463
168	0x3e32c3c9	0.17457499
169	0xbd087f67	-0.033324625
170	0x3e1a2983	0.15054898
171	0x3d4afccf	0.049557503
172	0x3e20dfc6	0.15710363
173	0x3e23e0cf	0.16003726
174	0x3e1abcc4	0.15111071
175	0x3db2833d	0.08716438
176	0x3e2c9ff5	0.16857894
177	0x3e2f656c	0.17128533
178	0x3d8bf368	0.068335354
179	0xbca3e7a2	-0.020007912
180	0xbc56422b	-0.013077299
181	0x3e3901ec	0.1806714
182	0xbd279d7c	-0.040921673
183	0x3e2b731d	0.16743131
184	0x3d447a29	0.047968064
185	0xbcb877e6	-0.02251811
186	0x3e071736	0.13192448
187	0x3d4ed0ac	0.050491974
188	0x3e04b347	0.12959014
189	0x3ddb14e1	0.10697342
190	0x3e3d0b41	0.18461324
191	0x3dd42d8f	0.10360252
192	0x3d14fe13	0.036375117
193	0xbc60edd9	-0.013728582
194	0x3de6d80e	0.11271678
195	0xbccf7de6	-0.025328588
196	0x3da7bc42	0.08190204
197	0x3d4a84d8	0.049443096
198	0x3e33bedb	0.17553274
199	0x3d95bb37	0.07311099
200	0x3c5c1fa5	0.013435279
201	0x3e07f891	0.13278414
202	0x3e62c64e	0.2214596
203	0x3dfdece7	0.12398701
204	0x3e0490ef	0.12945913
205	0x3d0d1620	0.03444493
206	0x3d498802	0.049201973
207	0x3e44661c	0.19179577
208	0x3dd3b424	0.103370935
209	0x3d7349fa	0.05939672
210	0x3cd427de	0.025897916
211	0x3e2de146	0.16980466
212	0x3e4ff682	0.20308879
213	0xbbba944a	-0.005693947
214	0x3d2162cb	0.039400857
215	0x3e2464fa	0.16054145
216	0x3e0c9a0c	0.13730639
217	0x3c62e09f	0.013847499
218	0xbcec7158	-0.02886264
219	0x3e4baa37	0.1988915
220	0x3dbe1e9e	0.092831835
221	0x3e0cced3	0.13750772
222	0x3d5fcb4c	0.05463724
223	0x3ccf1d2b	0.025282463
224	0x3df90606	0.12159352
225	0x3c8c9c59	0.017164396
226	0xb9b840c6	-0.00035143475
227	0xbc29e178	-0.010368697
228	0x3e4f1754	0.20223743
229	0x3de4af73	0.11166277
230	0x3ac32955	0.0014889637
231	0x3d6f8714	0.05847843
232	0xbd1088d6	-0.035286747
233	0x3e040e6b	0.12896125
234	0x3dff9e3a	0.12481351
235	0x3cea73dd	0.028619701
236	0xbc61cd4f	-0.01378186
237	0xbd2c8387	-0.04211762
238	0x3b5c057d	0.0033572607
239	0x3e1ca58c	0.15297526
240	0x3c34d3d0	0.011036828
241	0x3e427d00	0.18992996
242	0x3d8f0143	0.069826625
243	0x3e19b10b	0.15008943
244	0x3d354cdb	0.04426275
245	0x3e414890	0.18875337
246	0x3de4a2d8	0.111638725
247	0x3d37761f	0.044790383
248	0x3d7dc469	0.06195489
249	0x3b2994b2	0.0025875983
250	0xbd0a9ca4	-0.03384079
251	0xbd008b15	-0.03138264
252	0x3d51c7a5	0.051215786
253	0x3e332c2d	0.1749732
254	0x3bc742e9	0.0060809744
255	0x3d126be9	0.035747442

bias f4 [64]
0	0x3cf049b3	0.029332018
1	0xbcd16eb0	-0.025565475
2	0x3c2deb09	0.010615119
3	0xbd2210f3	-0.039566945
4	0x3dadec2b	0.08492311
5	0x3dc0a8a9	0.09407169
6	0x3d96eb7b	0.07369133
7	0xbe0f6969	-0.14005055
8	0xbe118774	-0.14211828
9	0x3ddb0e24	0.106960565
10	0x3d99b653	0.07505479
11	0x3dbd0e39	0.092312284
12	0x3ded9251	0.11600173
13	0x3e0ca11b	0.13733332
14	0x3c8beb1f	0.017079888
15	0xbd52f1be	-0.051500075
16	0xbc8006ff	-0.015628336
17	0x3e034603	0.12819676
18	0xbcdadd08	-0.026716724
19	0xbc992b5e	-0.018697437
20	0x3d76e810	0.060279906
21	0xbc886034	-0.016647436
22	0xbda1674f	-0.07881033
23	0xbe27353d	-0.16328903
24	0x3d973b41	0.07384349
25	0x3dad0ace	0.084493265
26	0x3b539731	0.0032286162
27	0x3e2f2152	0.17102554
28	0x3e1249d8	0.14285982
29	0x3c37694f	0.011194541
30	0x3e1c2b86	0.15250978
31	0xbc1c1590	-0.009526625
32	0x3d570cf3	0.052502584
33	0xbd973322	-0.073828
34	0xbd4fc878	-0.05072829
35	0x3e271fc5	0.16320713
36	0xbd7633fb	-0.060108166
37	0xbe261646	-0.16219434
38	0x3e123d5a	0.14281216
39	0xbd26120d	-0.04054456
40	0xbe5d701a	-0.21624795
41	0x3d1cead8	0.038309902
42	0x3de771e6	0.11301021
43	0xbe03eeb0	-0.12884021
44	0xbd233060	-0.039841056
45	0xbe4a3386	-0.19746217
46	0xbdfb50fa	-0.122713044
47	0x3e24e773	0.16103916
48	0xbcd01fe2	-0.025405828
49	0x3d5e7e82	0.054319866
50	0xbce4b691	-0.027919086
51	0x3da1667d	0.07880876
52	0x3dcc830a	0.09985931
53	0xbd5e6e34	-0.054304317
54	0x3dc21f8c	0.09478673
55	0x3d9521e3	0.07281854
56	0xbdcb3425	-0.09922055
57	0x3bff2ea1	0.007787541
58	0x3e175f03	0.14782338
59	0x3e2ae441	0.16688634
60	0xbd5d4f5e	-0.05403077
61	0x3cbdd976	0.023174983
62	0x3db8f169	0.0903042
63	0xbd500f85	-0.05079605

weight f4 [1, 64]
0	0xbda75dd3	-0.081721924
1	0x3e2fecb8	0.17180145
2	0x3e4bf14e	0.19916269
3	0x3dda2e5d	0.10653374
4	0x3d9d5dd8	0.07683915
5	0xbdb0eb30	-0.086386085
6	0xbd83f734	-0.06443635
7	0xbdbd3b24	-0.09239796
8	0xbe36d432	-0.17854384
9	0xbdd96814	-0.106155545
10	0xbd4b0127	-0.049561646
11	0xbb3d12ca	-0.002885031
12	0x3d9e3de9	0.07726652
13	0x3e387ada	0.18015614
14	0x3dd24f7a	0.10269065
15	0x3d9ff52c	0.07810435
16	0x3e4eff18	0.20214498
17	0x3dd4120b	0.10355004
18	0x3e15006a	0.14550939
19	0x3d99b677	0.075055055
20	0x3e228d53	0.15874223
21	0x3dd17a8c	0.10228452
22	0xbce0b24a	-0.027428765
23	0xbdf6ef95	-0.120574154
24	0xbdbd9461	-0.09256817
25	0x3d95ab3b	0.0730805
26	0x3e28630f	0.16444038
27	0x3e0d9376	0.13825783
28	0x3dc2a6df	0.095044844
29	0xbd9549dd	-0.07289479
30	0x3e2948d9	0.16531695
31	0xbc41a5d2	-0.01181932
32	0x3e28cbaf	0.16483949
33	0xbdc9edb3	-0.09859791
34	0xbd394560	-0.045232177
35	0x3dfb2377	0.12262624
36	0xbd8715c3	-0.065959476
37	0xbe59cc67	-0.2126938
38	0x3e0af453	0.13569765
39	0x3dc891e6	0.09793453
40	0xbe75bfa8	-0.23998892
41	0x3e381816	0.17977938
42	0x3d86fecf	0.0659157
43	0xbc8496ec	-0.016185246
44	0x3c420db5	0.011844088
45	0xbe681466	-0.22664031
46	0xbdcf6fa0	-0.10128713
47	0x3e25f8f8	0.16208255
48	0x3df74857	0.120743446
49	0x3d94b36a	0.07260783
50	0x3e1cf1cc	0.15326613
51	0x3e1111e5	0.14166982
52	0x3dccc518	0.0999853
53	0xbc43f6d3	-0.011960703
54	0x3e268ef8	0.16265476
55	0x3df8ea37	0.12154048
56	0xbe1bcf46	-0.15215787
57	0x3dd280ab	0.10278448
58	0x3db911ff	0.090366356
59	0x3e001578	0.1250819
60	0xbdb38a08	-0.08766562
61	0xbcdfefe1	-0.027336063
62	0x3da43631	0.08018149
63	0xbda0aa76	-0.07845013
