src/Fun_2/model/model_1024_64_128_0.01_400.pt (torch, 326319 bytes, 5 tensors)

weight f4 [64, 1128]
00000000: 7dd3 26bc 028c 7fbc f9f3 14bd da15 753c
00000010: 3d6f 37bd da3c 48bc d299 bd3b a972 82ba
00000020: 95e1 76bc 02e6 21bd fe2c ca3c 0b80 223d
00000030: a97e 443c 7049 7ebd 65ee 25bd 19e7 80bb
00000040: ac6e 52bd 46ff 1cbd 75fc 4a3d 7be3 05bc
00000050: 7974 dfbc c258 cdbc de1d c93c 2f4a a53d
00000060: 4c8e 9b3d 8d1d 9abd d592 febb f6e9 d5bc
00000070: 0973 0ebe b904 d33c 777b 8dbd e9f0 03bd
00000080: 28cc c1bc e41a 823d aa19 0c3d fd7c 2c3d
00000090: 12b6 fe3c 38df 523d 70f5 b63d 6bc2 8f3d
000000a0: 2674 27bc e7fa 5bbd a7f9 1abd 3db7 35bc
000000b0: 9a70 c5bd 3500 e63c 7329 25bc dd30 573d
000000c0: b2e2 83bd ba1d d23c 7591 b0bc 6039 ac3d
000000d0: f881 053c 13d8 5bbd d09f 22bd be4f d33c
000000e0: 67d9 f4bd e840 4dbd 247a f7bc c590 3d3d
000000f0: 36f2 403e 31cf 543c 8bc8 283a 23a3 25bd
00000100: d94d d9bd ed3e 1e3c 0c0b 753c e88e 0cbb
00000110: 2cec 91bd 0bbb 0e3d 3693 e73d 6f3b 13bd
00000120: 9ddb 893c 50a7 8b3d f6f5 5138 e814 373c
00000130: 7f65 9abc 8134 fd3d f93c 93bc dd22 a6bc
00000140: fd24 6d3c 8277 783d a858 a13d b1db 7b3d
00000150: 8b30 0e3e 7a58 093e 62a2 b03b 2873 233d
00000160: f658 0abe 5d22 01bd 0754 9dbd 8070 263d
00000170: b76c 9d3d 7773 69bd 3a15 1cbd 0242 c23d
00000180: 66f8 c33c 41e1 f93d 8d8e 113d 9149 a4bb
00000190: 5dd0 00be 1b88 133d 9e0f 49bd ec44 213d
000001a0: 4268 cc3c c2e9 c4bd dd73 d6bc be2a 0cbd
000001b0: 5bf3 0b3e f576 abbd d47a 3e3e 5d62 95bd
000001c0: 0a67 473d 9922 c1bc e752 b7bd c4c6 debc
000001d0: 4857 963c a5b2 993c 589b 54bd 4590 d8bd
000001e0: 9bd3 d03d d156 f9bc bb63 083e f05f 143e
000001f0: d8c0 353d 37e7 09bc 8914 debc 23f3 0e3e
00000200: 8ab0 f4bd c224 873d 3ad3 efbc 68f3 a1bc
00000210: 9ef9 6b3d 82c5 98bd 4094 703c b89d a93d
00000220: 0e3e 8b3d 50cd cd3d f6e1 273d 9340 98bc
00000230: 32ca 483d 47f3 2b3d ab8f e7bc 7883 943c
00000240: 0d51 7bbc 707c 183b 27ec 0bbd 7874 36be
00000250: 13b9 013e cc8e c8bd b8e5 443d 4f30 d33d
00000260: 5e5f cb3d ec27 6abc b7e3 b0bd b889 f63c
00000270: 3c09 a93c 2f63 06be 8de7 79bd 3183 3e3d
00000280: ca6e 713d 5a59 7e3d 6eb2 de3d 63b0 953d
00000290: afa7 52bd a635 2fbd f5bf 84bd 2bc2 58bc
000002a0: 4575 363d adda 153e fd70 0abd 8418 433d
000002b0: ca9c cf3d 388e 0fbe 1bc0 313d ab84 0ebd
000002c0: b26c 5fbe 0886 b93d ad82 553c ca7a 383d
000002d0: c5c1 af3d a058 0abd f1b1 9ebd 44e6 043d
000002e0: f2d9 183d f517 7bbd 4411 01bd 65ce 45bc
000002f0: 8374 483d 6809 73bd 99d1 c2bd 5cb7 db3d
00000300: 333c 313b 6c1b 74bb de5c 893d bdcd a03d
00000310: 549c 9cbd d0f4 fc3b 8530 c93d 46e5 173c
00000320: d1e3 a2bc 93ee ac3d 692d 123e 7700 16be
00000330: 2434 ea3c 96fa b63b ff54 e73c 4c16 78bd
00000340: 75b1 0f3e 0363 2a3c f97c 923d 5703 29bd
00000350: 3a53 3e3d caed 113e ec60 78bc 39d8 803d
00000360: 6a5d a83d 9506 813d a664 2bbd c498 8bbc
00000370: e770 d8bc 044e 1dbe 014f 09bd 29bb 76bd
00000380: 80bc e43d d647 e5bd 5074 273e b8c0 ab3d
00000390: 6dcd 363e ae32 afbc cb81 a3bc 0025 313b
000003a0: 1e95 953d 013e 8ebb 4b05 f6b7 b11b 57bc
000003b0: 15af 94bc 52bd 6d3d d318 a8bd bd8f f8bc
000003c0: a6e2 843d 1350 003d c70d 28be a947 843d
000003d0: b85b 213d f74f c4ba 4616 673d 2412 d4bd
000003e0: 1986 013e 8bdf 413d d7ef 8d3d 1e8b 963c
000003f0: 3034 c93c 822a 31bc aac6 bebc 7b9b 66bd
-0.010182259 -0.015597345 -0.036365483 0.014958823 -0.04478382 -0.012221539 0.005786159 -0.0009952384
-0.015068431 -0.039525993 0.024679657 0.039672893 0.011993089 -0.062081754 -0.040510554 -0.003933799
-0.051375076 -0.038329385 0.049557168 -0.008171911 -0.027277218 -0.025066737 0.024550375 0.0807079
0.075955 -0.075251676 -0.0077689686 -0.026112538 -0.1391107 0.025759088 -0.06908315 -0.03221217
-0.02365692 0.06352785 0.034204163 0.042111386 0.031092677 0.05148241 0.08933532 0.07019504
-0.010220563 -0.053706076 -0.037835743 -0.011091051 -0.09640618 0.02807627 -0.010080683 0.052536834
-0.06439723 0.02564894 -0.021553734 0.08409381 0.008148663 -0.05367286 -0.03970319 0.02579486
-0.11955529 -0.050110728 -0.030209608 0.04628064 0.18842396 0.012988851 0.00064385746 -0.040438782
-0.106105514 0.009658557 0.014956247 -0.0021447483 -0.07125124 0.034846347 0.11307375 -0.035945352
0.016828353 0.06819022 5.0058552e-05 0.011174418 -0.018847225 0.1236353 -0.01797341 -0.020280296
0.014474151 0.060660847 0.07878238 0.06148881 0.13885705 0.13412657 0.0053904513 0.039904743
-0.13510498 -0.031526912 -0.076820426 0.040634632 0.07686751 -0.05699488 -0.03810618 0.09485246
0.023922157 0.12201167 0.035536338 -0.0050136526 -0.12579484 0.036018472 -0.04908716 0.03937237
0.024952058 -0.09614898 -0.026178295 -0.03422045 0.13667051 -0.08372299 0.18601543 -0.07294152
0.04868225 -0.023576068 -0.08951359 -0.027194388 0.018352166 0.018761942 -0.05190596 -0.10574392
0.101966105 -0.030436905 0.13319294 0.14489722 0.044373363 -0.008416942 -0.027109401 0.13959937
-0.11947735 0.06598808 -0.029275525 -0.019769385 0.0576111 -0.074595466 0.014683783 0.082820356
0.06798945 0.10048926 0.040986978 -0.018585479 0.049020953 0.041980054 -0.028266748 0.018129095
-0.015339148 0.002326753 -0.03416076 -0.17817867 0.12668256 -0.09792861 0.04807064 0.103119485
0.09930299 -0.014291745 -0.08637183 0.030094966 0.020634286 -0.13123773 -0.06101184 0.046511833
0.058943547 0.06209693 0.108738765 0.07309034 -0.051429447 -0.042775773 -0.064819254 -0.013229887
0.04454543 0.146342 -0.03379916 0.0476308 0.10137327 -0.14019096 0.043396097 -0.03479449
-0.21818808 0.090587676 0.013031644 0.045038976 0.085818805 -0.033775926 -0.077487834 0.03244616
0.037317224 -0.061302144 -0.031510606 -0.012073134 0.04893924 -0.059335142 -0.09512634 0.107283324
0.0027043938 -0.003724779 0.06707166 0.078517415 -0.07647005 0.0077196136 0.098237075 0.009270972
-0.019884022 0.08443942 0.14275135 -0.14648615 0.028589316 0.0055840714 0.028238771 -0.06056814
0.14032538 0.010399583 0.07152743 -0.04126295 0.04646609 0.14250866 -0.015159827 0.06291241
0.08220942 0.063000835 -0.041844033 -0.017040618 -0.026421024 -0.15361792 -0.03352261 -0.060237084
0.11168766 -0.11195342 0.16352963 0.083863676 0.17851801 -0.02138647 -0.019959351 0.002703011
0.073038325 -0.0043408875 -2.932795e-05 -0.013129161 -0.018149892 0.058041878 -0.0820786 -0.030341977
0.06488542 0.031326365 -0.16411506 0.064589806 0.03939411 -0.0014977445 0.056417726 -0.103550225
0.1264881 0.047332328 0.069305114 0.018376883 0.024561018 -0.010813357 -0.02328809 -0.05630062

bias f4 [64]
00000000: a0a5 46bd 70d5 c5bb de48 223e b07a 9bbd
00000010: 2345 283d f951 8bbd d47f b9bd 9965 cd3d
00000020: a24c 4d3d 4b69 89bc ab92 343c 16dd 863d
00000030: c7db 23bb 836a e13d 1732 d63b a7bf 8dbd
00000040: 40b1 ca3d b5e9 b33c 5c7c 87bc ce86 bbbd
00000050: a3f3 86be e095 f73c 648c f1bd 91d8 c33d
00000060: 3169 293e 54c8 f0bc 08db 08bd aa7b e93d
00000070: 201d 0a3e 8b92 943d eeba 233e 41b7 84bb
00000080: 17b2 23bd 6bdb 393d 0aa2 7a3d ab85 383e
00000090: d900 8ebd 811f d93d e00b 2b3d 6419 8c3d
000000a0: 8a9f c13d 05a0 813d 9e81 f9bd c218 95bd
000000b0: 1a69 d5bd 9659 8ebd b11c cfbc c1ed febc
000000c0: 4b46 d93b 2551 30bd 4772 bdbd 8e9d c23c
000000d0: 27b6 f73d ff0c 0a3e d747 ca3d 1b4e 4dbd
000000e0: 3038 16be bec3 103e 1de5 5bbc 9629 95bd
000000f0: 7ad0 b9bd ae1a 12bd 1e2a a23d 335b 48bd
-0.048497796 -0.0060374066 0.15848109 -0.0759176 0.04108156 -0.068027444 -0.090575844 0.10029144
0.05012191 -0.01677384 0.0110212965 0.065851375 -0.0025002824 0.110066436 0.006536733 -0.069213204
0.09897089 0.021962026 -0.016538791 -0.09156571 -0.26357755 0.030222833 -0.117943555 0.09562791
0.16544034 -0.029392399 -0.03341201 0.1140054 0.13487673 0.07254513 0.15989277 -0.004050166
-0.03996476 0.04537527 0.06118969 0.1801974 -0.069337554 0.10601712 0.04175937 0.068407804
0.09454258 0.063293494 -0.12182926 -0.07280113 -0.10420437 -0.06950681 -0.025282236 -0.03111923
0.006630694 -0.043046135 -0.09250312 0.023756769 0.1209529 0.1348152 0.098769836 -0.050123315
-0.14669871 0.1413717 -0.013421324 -0.072833225 -0.09072967 -0.035669975 0.079181895 -0.0489151

weight f4 [128, 64]
00000000: 08cb aabd 2d9a 5dbd cb11 e7bd a812 e8bd
00000010: ec81 08be 8c4d 88bd bc5a 9b3c f4b4 2cbd
00000020: a8b1 333d 6a1c ce3d c010 50bc e2de 66bd
00000030: 4a50 c2bd 1679 c0bd b1ac 27be 5c6c c9bd
00000040: c0a7 3cbe c48b dabd 6540 8ebd 6014 b43b
00000050: fd89 26bd 15e4 c93c 32b8 55bd 36a6 99bb
00000060: 2fa0 303d 0948 81bd d23d 82bd 28f9 dbbd
00000070: 8f2b a1bd 43f5 21bd 9ca1 9f3c b37b 173d
00000080: 3bd0 f5bd 1661 babd dbac e2bb c4b6 fd3c
00000090: e5f0 8abd a5d8 8dbd fb78 9abd b026 073d
000000a0: 4033 51be 80c2 1ebe 63c6 39be 1a2e dcbd
000000b0: 56fb fbbd 6cd4 4bbd cedd cb3d 0813 c8bc
000000c0: cee1 f23c d45d 03be 243b c2bd 8c33 b13d
000000d0: 68e4 65bd 8ef4 19bb cd1d 82bc f0fb 523c
000000e0: 64c9 9a3d b663 663c 73a1 ef3c d8fd d8bd
000000f0: 9eac 9f3c 1086 fa3c 9f16 46be d07c a9bd
00000100: 9bab fc3d 07d6 083e ce0a a1bd 225e 9a3d
00000110: 31da e7bd 3320 dcbd 32b7 e03d c6b8 8dbd
00000120: 46fb b6bb e70f 8a3d e12b 123e b8a9 96bc
00000130: a6ce fabc 2c05 e53d 8905 fe3d cadc 763d
00000140: 9036 d23d 6b3c 8d3d 5a95 78bd 7ae6 93bd
00000150: 16c7 38b8 11a3 8cbd 935f b03d 87d7 913d
00000160: f8c8 9b3d f626 5c3d 2875 2f3d 1855 8fbc
00000170: 754e a43d 3d25 883c a2de 323d 41d0 a6bd
00000180: bdf7 75bd 192d d0bd 09b7 963d a49c b63c
00000190: 0410 2e3c 00fc d1bd 2134 98bd fd82 7ebd
000001a0: ada2 bb3d 2aa0 043e 6c31 dfbc 50f0 bd3c
000001b0: 5cc7 113d 72da 163d 158f 8b3b dd6b 87b8
000001c0: 66f9 023e 3f5b a6bd 14f9 493d 57e1 cb3d
000001d0: b036 b83d 53f5 bd3d 15ec bcbd fa2f f73d
000001e0: 1c92 e5bd 0363 7ebd 44e1 063e 4d16 a93d
000001f0: 8962 8e3d 98da bbbd 7e7e 663d ce1d 20bd
00000200: bdc2 31be e09b 09bc 44bf c8bd 5b02 45bd
00000210: d34a 253c d4e2 a23d e31c 32bc 2d0e b5bd
00000220: b483 35be d35e 04be b6e1 1abe 026e f6bd
00000230: 621c e43b 2f73 13be 86b0 2abe 05e0 913c
00000240: 195c a1bd 84a7 1e3d a2e8 683c 054d 9b3b
00000250: c2ca 9f3d 1e20 473c be5f 8bbd 5c81 58bc
00000260: 6757 3bbe eda5 b8bd 5720 d7bd 5c0a fabd
00000270: 0428 81bd 3f0f c5bd 8fdb fcbc c58f 0ebc
00000280: deda 26be 3c43 e83c 781d 593d 89be 98bd
00000290: 1940 783c 0183 25be 1367 62bd 1644 f1bd
000002a0: e028 f6bd 0a85 20bd 187c 6c3d 5f7f 003d
000002b0: f89d 903d b0c8 353b b249 9fbd 376e 443d
000002c0: fa0d 50bd 0119 52bd 534c dcbd bc0a c2bd
000002d0: 4120 1fbd 3ee2 20bd 3b81 02be bb57 8e3d
000002e0: 3cd8 debc 2349 02be be92 d53c 1a58 083d
000002f0: 2d6e a3bc 1af0 1c3d 35f7 ebbc 23cd 1cbd
00000300: 20e7 043c eb4e 953d adba 273d 60ce b0bc
00000310: 0922 133d 5e1e dbbd c022 933d 5949 8e3d
00000320: f078 6cbd f837 febd 04c2 14be 60ce 30bd
00000330: 4cc2 babd 3770 923d aa1d 88bd a00b 5e3c
00000340: 34e9 60bd 4ae9 9fbd d6c3 443d 3832 013d
00000350: a6de 053d 96b8 13bb 50f6 9abc 058c 1cbe
00000360: 7a9e 2abe c0cc 753b 319c 473d 1888 8cbd
00000370: c44b 33bd 44ad 063d 281f d0bc 202c f3bd
00000380: 2b69 433d 3387 803d 8c45 2bbd 9896 2dbe
00000390: e05d 343d e8ef 27bd 019b 30bd 4995 06be
000003a0: 0ae2 a83c b72a 05bd 06d0 c8bc ebf4 09be
000003b0: 4adb a73d 2aa5 1dbc 8e37 843d fe42 9abd
000003c0: 26be 0abe cc47 ecbc c3e5 293e ff1c c83c
000003d0: 006e 12be 0815 483d 063a febd af8d 27be
000003e0: 6469 3ebd bf2c a2bd b9e5 eebd 3643 3c3d
000003f0: 006c 70bc c049 023e 89fa 29be bbb9 7c3d
-0.083395064 -0.05410211 -0.112826906 -0.113316834 -0.13330811 -0.06655416 0.018964164 -0.042164758
0.043870598 0.10064013 -0.012699306 -0.0563649 -0.0948797 -0.09398095 -0.1637447 -0.09835121
-0.18423367 -0.106711894 -0.06945876 0.005495593 -0.04065894 0.02464489 -0.052177615 -0.0046890033
0.043121513 -0.06312568 -0.063594475 -0.10740882 -0.07869636 -0.03954054 0.019486241 0.036983203
-0.120026074 -0.09100549 -0.0069175786 0.030970939 -0.06784228 -0.06926087 -0.075426064 0.03299588
-0.20429707 -0.15503883 -0.18142085 -0.10750981 -0.12303798 -0.04976313 0.09954415 -0.024423137
0.029648688 -0.12828761 -0.094839364 0.0865241 -0.05612603 -0.0023491713 -0.01588335 0.012877449
0.075579435 0.014061859 0.02925179 -0.10595292 0.01949149 0.030581504 -0.19344567 -0.08275759
0.12337419 0.13362895 -0.07863389 0.07537486 -0.113209136 -0.10748329 0.10972442 -0.06920008
-0.0055841533 0.067413144 0.14274551 -0.018391475 -0.030616116 0.11182627 0.124033995 0.060269155
0.10264313 0.068962894 -0.060689308 -0.07221694 -4.405443e-05 -0.0686704 0.08611979 0.07121187
0.07606691 0.053748094 0.04283634 -0.01749663 0.08022777 0.01661932 0.04366935 -0.0814519
-0.060050715 -0.10164852 0.0735913 0.022291489 0.010623936 -0.10253143 -0.07431818 -0.06213664
0.09161887 0.12951723 -0.027245246 0.023185879 0.035590515 0.03682942 0.004259 -6.457393e-05
0.1279045 -0.081228726 0.049309805 0.099550895 0.08994806 0.092753075 -0.092247166 0.12069698
-0.11209509 -0.062106144 0.1317187 0.08256207 0.06952388 -0.09172553 0.056272976 -0.039090924
-0.17359443 -0.00839898 -0.09802106 -0.04809795 0.01008864 0.0795342 -0.010871145 -0.088405944
-0.17726022 -0.12926798 -0.15125164 -0.12032701 0.0069613913 -0.14399408 -0.16668901 0.017807016
-0.07878894 0.038733974 0.01421562 0.004739406 0.07802345 0.012153653 -0.06805371 -0.013214435
-0.1829506 -0.09016023 -0.10504215 -0.12209007 -0.063064605 -0.096220486 -0.030866412 -0.0087012695
-0.16294429 0.028352372 0.05300662 -0.07458217 0.015152001 -0.16163255 -0.05527408 -0.117805645
-0.12019515 -0.039189376 0.057735533 0.03137147 0.0706138 0.0027738027 -0.07777728 0.04795667
-0.05079458 -0.051293377 -0.10756745 -0.09474704 -0.03884912 -0.03927826 -0.1274461 0.06950327
-0.027202718 -0.12723212 0.026070949 0.033287145 -0.019949997 0.038314916 -0.028804401 -0.03828157
0.008111745 0.07290443 0.040949512 -0.021582782 0.03592113 -0.106991515 0.071843624 0.06947584
-0.057732522 -0.12413019 -0.14527136 -0.043165565 -0.091190904 0.071503095 -0.06646283 0.013552576
-0.0549099 -0.07808168 0.048038326 0.031542033 0.032683037 -0.0022540442 -0.01891628 -0.15287788
-0.16662017 0.0037506074 0.04873294 -0.06861895 -0.043773428 0.032880083 -0.025405481 -0.118736506
0.047707718 0.06275787 -0.041814372 -0.16951978 0.04403484 -0.041000277 -0.043116573 -0.13142885
0.020615596 -0.03251144 -0.024513256 -0.13472335 0.08196123 -0.009621898 0.06455909 -0.07532309
-0.13549098 -0.02884283 0.16591553 0.024427889 -0.14299774 0.048848182 -0.12413411 -0.16362642
-0.046487227 -0.07918691 -0.1166491 0.045962535 -0.014674187 0.12723446 -0.16599478 0.061700564

bias f4 [128]
00000000: 21ed 39be a1dd dd3e c03d 3ebe c6aa 31be
00000010: 6bf4 ba3d 2aa3 3bbe c9b1 77bd 3ce1 dfbb
00000020: 5c75 0ebe 029a 8fbd 9ee9 b93d 36bd 38bd
00000030: dc0d 0abe d025 6c3e effc 67bd 1b38 e1bc
00000040: 4d78 fe3c 8cd3 12be 6aa8 90bd 3182 203e
00000050: 2e99 e53e 9cb9 40be 45f6 e3bd d11b e43e
00000060: 2b72 983e d301 da3e 8621 b93e bed7 b1b7
00000070: 383d 303c c3fc 2fbe 6f59 0dbe eecc 31be
00000080: f831 da3e 053d dc3e a779 3ebe 50e6 ba3e
00000090: b356 33bd 6e69 993e f279 edbc 9c32 d53e
000000a0: f6e4 3dbe 26ad 633b b5fa 20bd dc3f 15bd
000000b0: 3ca0 2fbe bb54 21be d814 893e 0155 3b3e
000000c0: 38f7 e73e bfc3 c53e 4fb4 0e3e 7e0a 893e
000000d0: 217d b6be 390f c9bd 14c4 c4bd 9c37 7ebd
000000e0: f304 2f3e b64f ec3a 1da7 e5bd dd56 40be
000000f0: 4622 073d a637 1f3e de18 b73e eeed df3e
00000100: c128 94bd 88f5 5cbd 1619 b1bd a3db 913e
00000110: 8cf5 97bd 58e0 ba3d e439 703e ad7f 06be
00000120: 9885 843e 4ec0 21be d369 4bbe f6b3 843e
00000130: 5e98 ec3e 2157 12be 259e 3dbe 797a 7f3e
00000140: 57f7 8e3e 30c5 0d3e f1bc c9bd 3c7c 65bd
00000150: 4022 0f3e 9450 a6bb dbc5 5ebc 9863 f0bd
00000160: 008c ea3e 2a25 72bd 2bb8 91bb 4558 573d
00000170: 8f0d b33e b20d 3fbe 811b b93e 7559 e33e
00000180: 6fb6 db3e cc5c 2d3e 3106 be3e 666d dc3e
00000190: 24cb d63e 478f bd3e 833b a9bd cbbc ba3e
000001a0: 35a2 583e 9b95 46bd f14a b3bd 74ed 31be
000001b0: 86c0 d13e cb1b 5bbe dd12 56bd ab43 24bd
000001c0: f886 2bbe e653 b83e 3bc6 9b3c a3da b53e
000001d0: 2740 2d3e 6d1f ea3e 0bba c9bd 50f5 e23d
000001e0: 7254 24be cda3 323e 1ba5 ef3e 58b4 ca3e
000001f0: 1d85 26bd 19ba ac3e 9536 59be 7f15 3cbe
-0.18156864 0.43333152 -0.18578243 -0.17350301 0.0912865 -0.18323961 -0.060472284 -0.00683227
-0.13911957 -0.070117965 0.09077762 -0.04510232 -0.1348185 0.230613 -0.0566377 -0.027492573
0.031063223 -0.14338511 -0.070633724 0.15674664 0.4484343 -0.18820804 -0.111309566 0.44552472
0.29774603 0.42579517 0.3615839 -2.1200507e-05 0.010756783 -0.17186265 -0.13803647 -0.1736333
0.42616248 0.43015304 -0.18601094 0.3650384 -0.043783855 0.2996325 -0.028988812 0.41640174
-0.18544373 0.0034740656 -0.039301593 -0.036437854 -0.17150968 -0.15754978 0.26773715 0.18294145
0.453058 0.38625905 0.1393597 0.26765817 -0.3564234 -0.098173566 -0.096077114 -0.062064752
0.17091732 0.0018029127 -0.11213515 -0.18783136 0.03299167 0.15548572 0.3576116 0.43736213
-0.07234336 -0.053945094 -0.08647363 0.28487882 -0.07419881 0.091248214 0.23459584 -0.13134642
0.25883174 -0.15796015 -0.19864587 0.2591855 0.46209997 -0.1429105 -0.18517359 0.24949063
0.2792308 0.13844752 -0.09850491 -0.056026682 0.13977909 -0.0050755236 -0.013596977 -0.11737746
0.45809937 -0.059117474 -0.0044470034 0.052574415 0.34971282 -0.18657568 0.36153796 0.44404188
0.42912623 0.1692993 0.371141 0.43052214 0.4195186 0.37023374 -0.08263304 0.36472163
0.21155627 -0.04848252 -0.08754528 -0.17375737 0.40967196 -0.21397321 -0.052264083 -0.040103596
-0.16750705 0.3600151 0.019015422 0.3551837 0.16919003 0.457271 -0.09849938 0.11081946
-0.16047838 0.17445298 0.46805653 0.39590716 -0.04065429 0.3373573 -0.21212228 -0.18367575

weight f4 [1, 128]
00000000: c81b cfba 6822 263e 6074 b33c 38f0 babc
00000010: e545 073d 05b3 043a c8a2 453c 10ab 363d
00000020: 70e6 65bd 8e06 b3bc 4d04 8f3c 8ad4 08bc
00000030: 9348 233d 407d c23d 9f44 833c 8c51 8b3c
00000040: 064b 5b3d 6770 11bd d8c9 3a3c 4d4b 233d
00000050: 661a 473e 46a2 d03c 6452 193d 26ce 2a3e
00000060: 8e1d 9c3d ca61 433e e3c3 1c3e c83b 403d
00000070: 4076 8f3d c5f5 3f3d 876c 153d fe5d ffba
00000080: 4197 f23d a5fe fa3d 87d4 973a d20b fb3d
00000090: a950 5a3d c2e1 db3d 1977 0e3d b44a 233e
000000a0: 811a 11bc 81c8 193c 262f f53c 44db 093d
000000b0: c1d9 323d 9543 fd3b 667b a53d 0ce0 4c3d
000000c0: 35c8 2e3e 8959 d43d f793 4d3d 2f4b c93d
000000d0: 0437 edbd dab1 033d 7501 05bd 1d12 603d
000000e0: 1a0c 5b3d 0194 743d aee3 1fbc 2538 a0bb
000000f0: d804 913c d375 bc3c e29f 1d3e e1e2 493e
00000100: e639 25bc b28e 9cbc baed 993c c4bf 733d
00000110: ec9d 443d a11b ca3c 208c 7f3d 11cf eabc
00000120: 78ab 7f3d 9f8e dbbc fb99 203d 8da7 7b3d
00000130: 58b9 033e 9340 5d3c 0d64 9a3c 0873 943d
00000140: 4dba 343d 0b44 b63c f86a be3c 7616 2abc
00000150: 99d6 f03c 30f0 743d a673 4d3d 7855 483b
00000160: b58a e23d e061 9b3c 20c0 973d ae3f 3f3d
00000170: 19fb 063e 1e77 d93c e4d1 183e 155f 4c3e
00000180: 09a0 f53d 83ba 2b3d 63f6 043e 3b93 383e
00000190: adc5 063e b5ee 1e3e 6092 5f3d 4b12 003e
000001a0: be27 8b3d 56a4 1f3c fa84 023d 3cfb f53a
000001b0: e8e1 c43d 49ee 443d c920 afba 6362 c4bc
000001c0: b82f 8dbc 2a17 033e 71fd 823d 4c4e 0a3e
000001d0: c430 5e3d 55fb 2b3e 9d6d 0d3d 7570 d53c
000001e0: b7d6 af3c 6c65 783d 40b4 143e 315a bc3d
000001f0: 3c73 513c 1739 e73d f8f1 7e3d 1369 80bc
-0.0015801126 0.16224062 0.021906078 -0.022819623 0.03302564 0.00050620764 0.012062736 0.04459673
-0.056127965 -0.021853711 0.017458105 -0.0083514545 0.039864134 0.09496546 0.016023932 0.017006658
0.053538345 -0.035507586 0.011400662 0.039866734 0.19443664 0.025468003 0.03743209 0.16680202
0.076228246 0.19080272 0.153091 0.04693201 0.07004976 0.046865243 0.036480453 -0.0019482968
0.11845256 0.12255601 0.0011583724 0.12258114 0.05329958 0.10736419 0.03478155 0.15946466
-0.008856417 0.009386183 0.029929709 0.033656374 0.043664698 0.0077290037 0.08080177 0.050018355
0.1706856 0.1036864 0.05018994 0.09828793 -0.11582759 0.032152034 -0.032472093 0.054704774
0.053478338 0.05971146 -0.009758873 -0.0048895054 0.017702505 0.023005402 0.15393022 0.19715454
-0.010084605 -0.019111011 0.018790115 0.059509054 0.04800217 0.024671378 0.062389493 -0.02866319
0.062419385 -0.026801405 0.039209347 0.061439086 0.12863672 0.013504165 0.018846536 0.07248503
0.044122983 0.022249242 0.023244366 -0.010381332 0.029399203 0.059799373 0.05015912 0.0030568521
0.110616125 0.018967569 0.07409692 0.04669159 0.13181724 0.026546057 0.14923817 0.19958146
0.11993415 0.04192592 0.12984614 0.18024914 0.13161345 0.15520747 0.054582953 0.12506978
0.067946896 0.009743771 0.031865098 0.001876689 0.09613401 0.04807881 -0.0013361211 -0.023972696
-0.017234668 0.12801805 0.06395996 0.1350643 0.054245725 0.16795094 0.034528363 0.0260546
0.021464689 0.0606436 0.14521885 0.0919689 0.012783822 0.11290186 0.062242478 -0.015675103
