src/Fun_2/model/model_1024_64_64_0.001_400.pt (torch, 309423 bytes, 5 tensors)

weight f4 [64, 1128]
-0.005284601 0.024079653 -0.0008645343 0.033282533 0.019474007 -0.017581172 0.020337356 -0.03068259
-0.017935287 -0.04042511 0.0129459705 0.017483132 -0.017697692 0.009220268 0.028364295 0.024230206
0.013483965 -0.04233148 -0.04927095 -0.030284064 0.007948594 -0.019042468 -0.03340601 -0.03553392
0.016517503 0.00033504402 -0.0026467573 -0.019215282 0.021490209 0.022149015 -0.0005378467 0.013648862
-0.024948223 -0.059464067 0.049014494 -0.009742196 0.01725809 0.08719361 -0.039019346 -0.010206239
0.03753143 -0.0012250239 -0.043938916 0.016020855 0.11157469 0.014879756 0.012987263 -0.027036488
-0.065086156 -0.018048942 -0.02435026 0.02424275 -0.00089599146 -0.0027027205 -0.012413537 -0.06547698
0.06036754 0.022372467 -0.09525238 -0.078788586 -0.013990214 -0.019650614 0.018723287 0.016234558
0.021178475 -0.0358426 -0.014638052 -0.005702029 -0.047007106 0.022854151 -0.018621279 -0.021401417
0.008155349 0.08616177 -0.007473274 0.025838833 0.08807831 0.047205318 0.009876054 -0.032099433
0.047800798 0.012612816 0.020058447 1.3430682e-05 -0.035139397 -0.005568754 0.0066886437 0.062124882
-0.023672245 -0.033472635 0.025516838 0.051890887 0.040664367 -0.02134789 0.060650565 -0.01399592
0.023872124 0.034512665 -0.01490952 -0.028201247 -0.13140263 0.07033268 0.035469208 0.013496165
-0.012567076 -0.03896131 -0.011675227 0.0011752405 -0.010018018 0.027317265 0.030598735 -0.106092654
-0.008871566 0.072855525 0.0016681467 0.07027721 0.045849245 0.068258606 0.016608572 0.013692011
0.022478689 0.013564858 -0.011668761 0.006106708 -0.010461584 -0.0021083152 -0.03326907 0.00025626275
0.030981451 0.021465404 -0.028328985 0.0015439197 -0.02259058 -0.082023986 -0.042460565 0.02634531
-0.0122427875 0.0356853 0.029387647 -0.018829256 0.025880516 -0.03862015 -0.020070456 0.028428188
-0.020740708 0.0013404199 0.058512885 0.045171566 0.037155155 -0.032603897 0.035317324 0.01761565
-0.020859228 -0.0075145 -0.05222297 0.021192549 0.0011708767 0.013892938 -0.0038919358 0.033707246
-0.023865491 0.021949781 -0.025248466 -0.0073798755 -0.024084538 0.025317041 -0.014807157 -0.034475066
-0.027983595 -0.081695795 -0.013598537 -0.014375224 0.010112989 -0.035624254 -0.029076183 -0.06618601
-0.06469599 0.013068705 0.02225046 0.011510934 -0.022843955 -0.014760573 0.05658346 -0.022921026
0.012522085 0.023932017 0.07373316 0.12959175 0.015035 -0.039238375 -0.015185635 -0.005092806
-0.0065774634 0.008695376 -0.012719262 -0.011914566 -0.0038115608 -0.037112948 0.029114006 0.017331636
0.024300957 -0.01805215 -0.010360683 -0.024360806 0.03340464 0.022952681 -0.040995248 0.030051239
0.034177374 0.058460247 0.046561982 -0.02228142 0.021687143 -0.049120393 0.020864438 0.04506173
0.010992183 0.00010719713 0.040249866 0.0072069243 -0.060003724 0.027852362 -0.051685486 -0.053647608
-0.082901075 -0.031115336 -0.006917456 -0.06981644 0.009049784 -0.023717351 0.012904011 0.04256948
0.020451773 0.001079157 -0.0068166503 0.010352942 0.023721237 -0.008077356 -0.02640127 0.011657267
0.019079579 -0.032917056 0.0101553295 0.016113441 0.0005330427 0.026518716 0.04662741 0.042437423
0.025441688 -0.039835136 0.014484844 0.009248514 0.011153713 -0.002563516 -0.019395959 -0.011047581
00000000: 722a adbb b142 c53c eaa1 62ba 4453 083d
00000010: f487 9f3c 6406 90bc 879a a63c 0e5a fbbc
00000020: 06ed 92bc cd94 25bd 561b 543c c938 8f3c
00000030: c0fa 90bc 9b10 173c 3d5c e83c 6d7e c63c
00000040: d9eb 5c3c c663 2dbd 56d0 49bd 4916 f8bc
00000050: d23a 023c f3fe 9bbc bed4 08bd 048c 11bd
00000060: b74f 873c d9a8 af39 3875 2dbb 5e69 9dbc
00000070: 3c0c b03c da71 b53c 48fe 0cba 7a9f 5f3c
00000080: 3760 ccbc 9890 73bd 6cc3 483d bb9d 1fbc
00000090: d760 8d3c 9092 b23d c0d2 1fbd 1238 27bc
000000a0: 8fba 193d fb90 a0ba 4bf9 33bd 2b3e 833c
000000b0: 4581 e43d 38ca 733c 87c8 543c a07b ddbc
000000c0: e44b 85bd 60db 93bc 327a c7bc bb98 c63c
000000d0: f8e0 6aba 2020 31bb 2662 4bbc cb18 86bd
000000e0: f443 773d 7746 b73c ae13 c3bd e95b a1bd
000000f0: 3637 65bc 53fa a0bc 9461 993c 56fe 843c
00000100: 7b7e ad3c b1cf 12bd 71d4 6fbc 16d8 babb
00000110: 868a 40bd a138 bb3c a78b 98bc 0652 afbc
00000120: 039e 053c 9575 b03d 5ee2 f4bb f6ab d33c
00000130: 6762 b43d 5d5a 413d 2ccf 213c b27a 03bd
00000140: c5ca 433d fca5 4e3c 9d51 a43c 5754 6137
00000150: 54ee 0fbd 187a b6bb 692c db3b a976 7e3d
00000160: 4cec c1bc 9a1a 09bd b008 d13c 8a8b 543d
00000170: ae8f 263d c5e1 aebc ba6c 783d 254f 65bc
00000180: 798f c33c 275d 0d3d 0f47 74bc 4d06 e7bc
00000190: 698e 06be 950a 903d 2948 113d 051f 5d3c
000001a0: 23e6 4dbc e595 1fbd 7449 3fbc 870a 9a3a
000001b0: 9d22 24bc 75c8 df3c 33aa fa3c 1b47 d9bd
000001c0: 0b5a 11bc 4735 953d b7a5 da3a 7fed 8f3d
000001d0: 6bcc 3b3d 2bcb 8b3d b30e 883c 7554 603c
000001e0: 3a25 b83c 233f 5e3c 552e 3fbc c81a c83b
000001f0: 1067 2bbc a92b 0abb 2645 08bd 015b 8639
00000200: d0cc fd3c 37d8 af3c 3012 e8bc 595d ca3a
00000210: e10f b9bc 31fc a7bd 21eb 2dbd 1fd2 d73c
00000220: f995 48bc c02a 123d 5dbe f03c d03f 9abc
00000230: 6003 d43c 2a30 1ebd cc6a a4bc 3be2 e83c
00000240: 6be8 a9bc 07b1 af3a 35ab 6f3d d205 393d
00000250: 0130 183d aa8b 05bd e6a8 103d b24e 903c
00000260: f9e0 aabc 323c f6bb c1e7 55bd ff9b ad3c
00000270: 1a78 993a 359f 633c d90f 7fbb 9c10 0a3d
00000280: 9081 c3bc 07d0 b33c dfd5 cebc e2d2 f1bb
00000290: f04c c5bc af65 cf3c b899 72bc ba35 0dbd
000002a0: da3d e5bc 2050 a7bd 66cc 5ebc 0f86 6bbc
000002b0: f3b0 253c bdea 11bd 2d31 eebc 888c 87bd
000002c0: 557f 84bd 1f1e 563c 9946 b63c 5b98 3c3c
000002d0: 3f23 bbbc 55d6 71bc 0fc4 673d e0c4 bbbc
000002e0: 6e29 4d3c 140d c43c 6901 973d b3b3 043e
000002f0: 5c55 763c 6bb8 20bd 2bcd 78bc 8ee1 a6bb
00000300: c387 d7bb 0d77 0e3c 7464 50bc 5035 43bc
00000310: 61cb 79bb bf03 18bd 7f80 ee3c 13fb 8d3c
00000320: cd12 c73c 1ae2 93bc dbbf 29bc 5090 c7bc
00000330: 4ed3 083d 4307 bc3c a2ea 27bd 042e f63c
00000340: 93fd 0b3d 0374 6f3d c7b7 3e3d 8687 b6bc
00000350: 3ca9 b13c 7732 49bd e6eb aa3c a692 383d
00000360: 8f18 343c 05cf e038 0bdd 243d 1028 ec3b
00000370: 77c6 75bd a32a e43c 29b4 53bd 98bd 5bbd
00000380: 0ac8 a9bd 97e5 febc d4ab e2bb ecfb 8ebd
00000390: 8c45 143c e44a c2bc 586b 533c 565d 2e3d
000003a0: 7a8a a73c 8072 8d3a 355e dfbb 639f 293c
000003b0: 0a53 c23c e356 04bc 7a47 d8bc 1ffe 3e3c
000003c0: c74c 9c3c 09d4 06bd 8a62 263c 5600 843c
000003d0: e4bb 0b3a c73d d93c 62fc 3e3d ddd2 2d3d
000003e0: 166b d03c 2b2a 23bd d751 6d3c 1487 173c
000003f0: 10be 363c a900 28bb 46e4 9ebc ea00 35bc

bias f4 [64]
0.3413698 -0.013333036 0.028902687 0.012061198 -0.03511167 -0.03495707 0.23036657 0.102672786
0.08777908 0.02253465 0.1507426 -0.01313513 -0.027912071 0.1603952 -0.0015454964 -0.023720935
0.21574253 0.16059905 -0.010647655 -0.0020551584 -0.0021624295 -0.025500216 -0.018030634 0.15255912
0.57705 0.17855912 0.02113661 0.26315916 0.020005971 0.10458159 -0.0002364495 -0.011208809
-0.0009130533 0.01117303 0.00078910764 0.022658316 -0.02776977 -0.034245096 -0.010490919 -0.02737695
0.14639227 -0.017142797 -0.0047311867 0.29007328 -0.03233515 -0.03086958 -0.012545423 -0.0308102
0.014888861 0.010704142 0.082578555 0.14439619 -0.048633054 0.15510789 -0.006601627 -0.016429773
-0.0013207159 0.51633734 0.22541927 -0.032510377 -0.030831022 -0.0045283553 0.079913445 0.13000286
00000000: 06c8 ae3e ce72 5abc 54c5 ec3c 559c 453c
00000010: 41d1 0fbd 252f 0fbd 37e5 6b3e 1c46 d23d
00000020: 85c5 b33d 969a b83c 455c 1a3e ba34 57bc
00000030: dba7 e4bc a43e 243e 4192 caba 6852 c2bc
00000040: 9ceb 5c3e 1474 243e 8173 2ebc d6af 06bb
00000050: 8cb7 0dbb d4e5 d0bc fbb4 93bc 7538 1c3e
00000060: 8cb9 133f 34d8 363e af26 ad3c ccbc 863e
00000070: 90e3 a33c df2e d63d 6eef 77b9 27a5 37bc
00000080: f859 6fba 160f 373c 1edc 4e3a ef9d b93c
00000090: 6e7d e3bc 9644 0cbd 1be2 2bbc a045 e0bc
000000a0: dbe7 153e 0d6f 8cbc 1208 9bbb 7c84 943e
000000b0: dd71 04bd 34e2 fcbc 518b 4dbc ac65 fcbc
000000c0: 69f0 733c 6d60 2f3c f21e a93d 98dc 133e
000000d0: 7433 47bd 9ad4 1e3e 7652 d8bb bb97 86bc
000000e0: df1b adba af2e 043f 4fd4 663e 9a29 05bd
000000f0: 5791 fcbc 9962 94bb a9a9 a33d 781f 053e

weight f4 [64, 64]
-0.023770588 0.073354326 -0.059661306 0.008313859 -0.055614155 0.010718688 0.121683665 0.027321842
0.09401967 -0.08913179 0.06377342 -0.11302172 -0.02956859 0.07271743 0.08600148 0.0935382
0.14442523 -0.036115125 0.02917429 0.12052998 -0.00012030567 0.1071733 0.061851 0.05833767
-0.02096321 0.006611223 0.12669662 0.08592102 0.0023053575 0.13174565 0.09989956 -0.050200686
0.0774421 0.11996034 0.056721155 0.063896716 -0.10430442 0.014370359 -0.11101962 0.042816617
-0.0680469 0.08132263 -0.071618 0.07449704 -0.0724939 -0.0727439 0.09445473 0.085664965
-0.06269517 -0.07614408 0.08390482 0.14081378 -0.10576722 -0.0012840831 0.09890633 -0.04441963
-0.03642038 0.086204864 -0.0019400408 -0.0047620013 0.010256091 -0.0437713 -0.084685326 0.060600437
-0.07411123 0.09243904 0.026071278 -0.12057513 -0.08326874 0.10104633 0.114708096 -0.0673674
-0.021454025 -0.102574654 -0.12104931 0.07976206 0.025897637 -0.0050483304 -0.11038161 0.033436812
0.0735914 -0.12043546 -0.045284536 -0.050691787 0.053267676 0.0647055 0.07520403 -0.119078495
0.0013681962 0.023059718 -0.032356244 -0.053652257 0.031979054 -0.0846626 -0.06991131 -0.028124208
0.073921114 -0.10262361 0.024479143 0.08677089 0.10349204 -0.07860221 0.070094466 0.04948552
-0.0906376 0.03431239 -0.055802193 0.10929201 -0.08352027 -0.058705688 -0.12643434 -0.014812357
-0.120219186 0.10627032 -0.024230994 0.059271123 0.10574083 -0.041609425 -0.07209513 -0.05305997
-0.13120613 -0.09565082 0.059690088 0.095931314 0.11113851 -0.097885884 -0.11868881 0.010051917
-0.04610589 0.094737545 0.07994245 -0.00066664955 0.08744961 -0.045539465 0.09586097 -0.02624761
0.09011502 0.12775412 0.009654853 -0.02486739 0.12793636 0.094345674 0.03236738 0.057861056
-0.037281938 0.11496649 -0.077522926 0.07585305 0.086643554 -0.06789408 0.12442097 -0.011684251
0.031533092 0.010362087 0.11676143 0.14792983 0.120174624 0.13034579 -0.1111692 -0.05364859
0.00093510473 0.08462691 0.12043924 0.043792393 -0.081261486 0.1243685 -0.04242137 0.059743427
0.01161381 0.053667795 -0.089453936 -0.016783778 0.12332673 0.09432667 0.04824429 0.10140011
0.0823303 0.080549225 0.05329227 -0.07967133 0.10325927 0.08554371 -0.010998849 0.013786912
0.08544416 0.10974897 0.0326687 0.07462163 0.12142127 -0.030350072 -0.016669342 -0.035127502
0.023520142 0.04292667 -0.02015832 0.0853097 -0.0046730638 -0.10810205 -0.10208008 -0.1135371
-0.039171696 0.06525411 0.09365085 -0.09395778 0.05608034 -0.045068473 0.008379534 -0.11285652
0.090975896 0.04672399 0.12346721 -0.01847212 0.019535467 -0.09606208 -0.111157656 -0.050200015
-0.06854254 0.05197385 -0.09473558 -0.09141697 0.12252563 -0.028568551 0.09984207 -0.009721607
-0.054439574 -0.05099246 -0.08328201 -0.043537304 0.09708929 0.09243496 0.087285995 0.08177525
0.0027395785 0.04755217 0.086136594 -0.026956126 -0.016844511 -0.10058297 -0.045079753 0.054705665
-0.081836075 -0.014428765 -0.112524 -0.069003195 -0.06546517 -0.051964685 -0.123487756 0.041202873
0.035030946 0.027411088 -0.02449137 0.011753678 -0.080760434 0.042984605 0.013797209 -0.007854566
00000000: 89ba c2bc cb3a 963d 6a5f 74bd da36 083c
00000010: abcb 63bd 709d 2f3c 4935 f93d 0ed2 df3c
00000020: 628d c03d ba8a b6bd a49b 823d ee77 e7bd
00000030: d439 f2bc e0ec 943d 8b21 b03d f590 bf3d
00000040: 35e4 133e 74ed 13bd ecfe ee3c 6cd8 f63d
00000050: 9d4c fcb8 ad7d db3d 7957 7d3d 7bf3 6e3d
00000060: 0abb abbc f5a2 d83b c2bc 013e 5cf7 af3d
00000070: 7b15 173b 55e8 063e 2498 cc3d 3c9f 4dbd
00000080: f799 9e3d c4ad f53d 7154 683d 48dc 823d
00000090: 8e9d d5bd a771 6b3c 415e e3bd 7a60 2f3d
000000a0: 2c5c 8bbd 7b8c a63d 75ac 92bd e791 983d
000000b0: af77 94bd c1fa 94bd 7b71 c13d 1d71 af3d
000000c0: 5366 80bd 6df1 9bbd 4ad6 ab3d 7d31 103e
000000d0: 7c9c d8bd ae4e a8ba 678f ca3d 5cf1 35bd
000000e0: 892d 15bd 2d8c b03d f848 feba 900a 9cbb
000000f0: 2a09 283c 8949 33bd 806f adbd 2a38 783d
00000100: a1c7 97bd ae50 bd3d 6f93 d53c 18f0 f6bd
00000110: cd88 aabd 61f1 ce3d 14ec ea3d ebf7 89bd
00000120: 5ac0 afbc a912 d2bd b3e8 f7bd 4a5a a33d
00000130: 4827 d43c 776c a5bb c10f e2bd 0af5 083d
00000140: 17b7 963d dea6 f6bd 477c 39bd 31a2 4fbd
00000150: 352f 5a3d 5184 843d 9204 9a3d 6ddf f3bd
00000160: 0c55 b33a bce7 bc3c fb87 04bd 78c2 5bbd
00000170: 78fc 023d 9663 adbd a92d 8fbd bd64 e6bc
00000180: f463 973d 542c d2bd 7c88 c83c f0b4 b13d
00000190: a2f3 d33d 32fa a0bd b08d 8f3d 54b1 4a3d
000001a0: 35a0 b9bd 268b 0c3d d790 64bd 7dd4 df3d
000001b0: ad0c abbd 6075 70bd 0178 01be 87af 72bc
000001c0: 7a35 f6bd 41a4 d93d 1480 c6bc 47c6 723d
000001d0: a68e d83d a56e 2abd 9da6 93bd 6955 59bd
000001e0: e65a 06be 94e4 c3bd 987d 743d a377 c43d
000001f0: 969c e33d 6578 c8bd 1e13 f3bd ccb0 243c
00000200: 88d9 3cbd c205 c23d deb8 a33d 18c2 2eba
00000210: c818 b33d 9787 3abd c252 c43d 3a05 d7bc
00000220: 398e b83d fad1 023e 632f 1e3c b2b6 cbbc
00000230: c001 033e 4e38 c13d a893 043d b7ff 6c3d
00000240: f2b4 18bd 8d73 eb3d 57c4 9ebd d858 9b3d
00000250: 2d72 b13d 0d0c 8bbd 6cd0 fe3d 4d6f 3fbc
00000260: d828 013d bec5 293c 9e20 ef3d eb7a 173e
00000270: 1d1e f63d 5e79 053e adac e3bd a0be 5bbd
00000280: d121 753a e050 ad3d d9a8 f63d a75f 333d
00000290: 6c6c a6bd eab4 fe3d 08c2 2dbd 86b5 743d
000002a0: da47 3e3c c3d2 5b3d a033 b7bd 227e 89bc
000002b0: ba92 fc3d 572e c13d ce9b 453d dcaa cf3d
000002c0: ca9c a83d fef6 a43d ff48 5a3d b92a a3bd
000002d0: 9979 d33d 8a31 af3d 8434 34bc 80e2 613c
000002e0: 59fd ae3d 11c4 e03d 9dcf 053d 3ad3 983d
000002f0: b7ab f83d b7a0 f8bc 258e 88bc dbe1 0fbd
00000300: 50ad c03c e0d3 2f3d 1023 a5bc dab6 ae3d
00000310: 8020 99bb 9c64 ddbd 5c0f d1bd 2486 e8bd
00000320: 8072 20bd f2a3 853d 04cc bf3d f06c c0bd
00000330: 80b4 653d b899 38bd 504a 093c 5221 e7bd
00000340: 9251 ba3d a861 3f3d 60dc fc3d d852 97bc
00000350: d808 a03c 32bc c4bd a0a6 e3bd 889e 4dbd
00000360: 0860 8cbd 88e2 543d ba04 c2bd d238 bbbd
00000370: b8ee fa3d 9808 eabc 007a cc3d 6047 1fbc
00000380: 08fc 5ebd 78dd 50bd c28f aabd 2c54 32bd
00000390: c0d6 c63d 8a4e bd3d 00c3 b23d c879 a73d
000003a0: 808a 333b 10c6 423d 6268 b03d 18d3 dcbc
000003b0: 80fd 89bc 72fe cdbd 8ca5 38bd 0c13 603d
000003c0: ac99 a7bd a066 6cbc fc72 e6bd 8c51 8dbd
000003d0: 9a12 86bd ecd8 54bd 26e7 fcbd 58c4 283d
000003e0: 9c7c 0f3d 388d e03c 20a2 c8bc 8092 403c
000003f0: ba65 a5bd a010 303d b00d 623c 70b0 00bc

bias f4 [64]
0.08194572 0.09877173 0.041971974 -0.034725428 -0.089268 0.5210778 0.06888761 0.08207932
0.15064776 0.027124483 0.18067761 0.73955953 -0.08885772 -0.08179547 0.14574775 0.16665559
0.10566408 -0.013027168 -0.10761113 0.081805415 0.11302938 -0.051457923 0.08882591 -0.03033312
0.049454994 -0.040107146 0.05826269 0.14242919 0.14753185 0.072532974 0.194478 0.0018806085
-0.107331365 -0.113851994 -0.021327024 -0.117768735 0.21657471 -0.08486634 0.15737118 0.120548375
-0.04890003 -0.11615877 0.19414653 -0.014916795 0.03372696 0.047438413 0.19121319 0.08771165
0.20017706 -0.42113382 0.15174805 0.21847251 -0.026225287 0.046280753 0.05821522 -0.013055871
0.012769328 -0.06330847 -0.011886151 0.19749446 -0.12995885 0.16151413 0.06474042 -0.18394162
00000000: 28d3 a73d d548 ca3d ceea 2b3d 403c 0ebd
00000010: 24d2 b6bd 5b65 053f f314 8d3d 3419 a83d
00000020: 6843 1a3e 2a34 de3c 8d03 393e c653 3d3f
00000030: 09fb b5bd 6284 a7bd e63e 153e c3a7 2a3e
00000040: 6966 d83d e76f 55bc 3963 dcbd 9989 a73d
00000050: f37b e73d 8bc5 52bd 5cea b53d 2a7d f8bc
00000060: 5291 4a3d 6447 24bd dca4 6e3d f5d8 113e
00000070: 9712 173e 2b8c 943d 3e25 473e c07e f63a
00000080: 8cd0 dbbd 3c2b e9bd 03b6 aebc bc30 f1bd
00000090: c3c5 5d3e 67ce adbd e925 213e 11e2 f63d
000000a0: 664b 48bd a6e4 edbd 59ce 463e 9365 74bc
000000b0: 4825 0a3d c84e 423d 64cd 433e 2aa2 b33d
000000c0: 37fb 4c3e da9e d7be d763 1b3e 42b7 5f3e
000000d0: 6ad6 d6bc e390 3d3d 1573 6e3d 4be8 55bc
000000e0: 7236 513c dfa7 81bd 21be 42bc fd3b 4a3e
000000f0: ef13 05be f663 253e a096 843d 315b 3cbe

weight f4 [1, 64]
0.13517965 -0.030834643 0.064403266 0.10516247 0.034528203 0.26009092 0.08433937 0.06417986
0.08804162 -0.10111856 0.13351315 0.5910471 -0.032465782 0.058046844 0.057783827 0.089134686
-0.03193404 0.10078349 -0.10525134 -0.17375876 0.08558381 -0.080928035 0.018373342 -0.026841532
0.03145877 -0.056929886 0.00015192064 0.14376977 0.14759073 -0.005084746 0.15022565 0.05714738
0.08092423 -0.07119599 -0.0184434 0.0017945601 0.11217722 -0.042361982 0.09996444 -0.33893767
-0.10317446 0.09224203 0.059355166 0.05067666 0.037747003 -0.051356133 0.11196885 -0.05785172
0.055920925 -0.3145915 0.11676861 0.16279869 0.082726255 0.030420141 -0.03759554 -0.05196597
0.04516792 -0.058753416 0.11292062 0.051284987 -0.014172096 0.13318622 -0.086216815 -0.15708987
00000000: 896c 0a3e ef98 fcbc dce5 833d 6c5f d73d
00000010: 726d 0d3d a32a 853e 1fba ac3d bb70 833d
00000020: 2a4f b43d 3f17 cfbd acb7 083e dd4e 173f
00000030: d7fa 04bd 87c2 6d3d bcae 6c3d 3f8c b63d
00000040: 45cd 02bd 9367 ce3d 048e d7bd d1ed 31be
00000050: 9146 af3d 99bd a5bd b183 963c c6e2 dbbc
00000060: e9da 003d 502f 69bd e34c 1f39 6238 133e
00000070: 0622 173e f19d a6bb c1d4 193e 5f13 6a3d
00000080: 9abb a53d 34cf 91bd 9d16 97bc 7237 eb3a
00000090: 2cbd e53d c283 2dbd 28ba cc3d 3d89 adbe
000000a0: 224d d3bd 64e9 bc3d 671e 733d 5492 4f3d
000000b0: 9a9c 1a3d cf5a 52bd ed4f e53d edf5 6cbd
000000c0: 570d 653d 2312 a1be 6224 ef3d b3b4 263e
000000d0: 626c a93d a933 f93c c8fd 19bd 45da 54bd
000000e0: ff01 393d 6ca7 70bd ed42 e73d 3510 523d
000000f0: 1432 68bc f861 083e 7192 b0bd 2bdc 20be
