src/Fun_2/model/model_128_64_64_0.0001_200.pt (torch, 309423 bytes, 5 tensors)

weight f4 [64, 1128]
000000 ad dc 2c 3d 7a fa 4e 3c 0a 69 2f 3d 68 16 d7 3c
       0.04220264 0.01263296 0.042824782 0.026255801
000010 95 e8 36 3d 18 02 3c b9 19 11 27 3d 3f cd 14 bc
       0.0446554 -0.00017929857 0.04078779 -0.009082138
000020 27 57 d4 3c 2b 9d 3c bc c8 78 aa bc 20 8a 13 3d
       0.025920464 -0.011512081 -0.020809546 0.0360204
000030 84 c9 df 3c db 24 ba bb 75 f2 50 3d 22 8a ed 3c
       0.02731777 -0.005680663 0.051012475 0.02899653
000040 5e df 5f 3c 98 b0 b7 3c a7 90 07 3d 18 d5 1d 3c
       0.013664095 0.022423074 0.033096936 0.009633325
000050 9e fe 57 bb 1b 41 af 3c 68 8d 7f 3c d0 57 c3 3b
       -0.003295816 0.02139335 0.015597679 0.005961396
000060 96 8e 31 3d 17 fb 09 3c a4 c1 9b 3c 52 e4 d1 3c
       0.04334887 0.008421681 0.019013233 0.025621567
000070 75 74 03 3c f5 b0 19 3d f9 6b 13 3d 6b ec 00 bc
       0.008023371 0.037522275 0.035991643 -0.007868866
000080 eb 9b 69 ba 87 b4 37 3d 77 9d 10 bc 73 6d cf 3b
       -0.0008911478 0.0448499 -0.008826605 0.006330186
000090 bc d5 1f 3c 99 14 91 3c a2 a0 a0 bc 1e de 54 3d
       0.009755548 0.017710017 -0.019607846 0.05196964
0000a0 03 3f b5 3b 09 cb de bb 5e c6 df 3c 49 21 09 3d
       0.005531193 -0.006799106 0.027316269 0.03347901
0000b0 55 60 cd bc 4f ac b0 3c 0d 5a a4 bb 88 68 43 3d
       -0.025070349 0.021566538 -0.0050156177 0.04770711
0000c0 8f be 4e 3d 06 4f 65 3b 69 0e 3b 3c bd ec 47 3d
       0.0504747 0.0034989729 0.01141701 0.048809756
0000d0 ae cd 15 ba c8 b1 65 bc 61 58 eb bb 42 0d 95 3c
       -0.00057145476 -0.014019437 -0.0071821664 0.018194798
0000e0 31 da 05 3d 2d 13 b6 3c 9c 62 5f 3d 8d 66 82 3b
       0.032678787 0.02222594 0.0545374 0.00397951
0000f0 9c 79 18 3d c1 b1 41 3d 9c c8 f1 3c 51 1a e8 ba
       0.03722535 0.04728866 0.029514603 -0.0017708038
000100 db c8 0d 3d b9 0d 58 3d 42 5c a5 3c b7 ff d6 3c
       0.03461538 0.052747462 0.020185594 0.026244981
000110 ff f6 dd 3b c9 61 b9 3c ae 4d fb 3c 7d b3 d2 3c
       0.006773829 0.022629635 0.030676689 0.025720352
000120 2f 34 5f 3d 8a ba 3f 3d 2f 7f 44 3d 09 a3 46 3c
       0.054493126 0.046808757 0.047972854 0.012123832
000130 11 7f 52 3b e4 3f 33 3d 7d df 36 3a 7c 08 9c 3c
       0.0032119195 0.043762103 0.00069760514 0.019047014
000140 58 2d 92 3c 4c 99 3b bc 5d 5c 3c 3d b6 fa 85 bc
       0.017843887 -0.011450123 0.045986522 -0.0163549
000150 38 02 39 bb 1b 2e 48 3c f6 be 53 3d db ca 9a bc
       -0.0028230082 0.012218024 0.051695786 -0.018895557
000160 e6 f6 ba 3c 8b 7e 69 b9 2d 0a 27 3d 6e 92 e0 3b
       0.022822808 -0.00022267753 0.04078119 0.0068533933
000170 c7 69 41 bc be 93 04 3c b7 84 15 3d 57 53 78 3c
       -0.011805004 0.008091865 0.03650352 0.0151565885
000180 1d 25 51 bb 00 98 27 3d 59 c5 82 3c b7 d1 90 3c
       -0.003191299 0.040916443 0.015963243 0.017678125
000190 6c 9f 3f 3d 72 f6 94 3c ee 67 42 3c 93 f2 a7 3a
       0.046782896 0.01818392 0.011865599 0.0012813382
0001a0 bd f8 f3 3c 69 3c 99 3c 98 07 cd 3b 4b 0d b6 3c
       0.029781694 0.018705564 0.0062570088 0.022223135
0001b0 52 ff 67 3d 45 5c 0c 3d e2 85 0c bc 00 c4 39 3d
       0.056639977 0.034267683 -0.008576842 0.045352936
0001c0 48 9a ac 3c e6 1e 68 3c 69 0a 63 3d 62 63 20 3d
       0.02106966 0.014167523 0.05542985 0.03915728
0001d0 b9 b6 43 3d 54 72 36 3d 61 e7 db 3c 59 a6 c5 3b
       0.04778168 0.044542626 0.026843728 0.006031793
0001e0 72 5e 26 3d a0 83 3e 3d a7 22 89 3b bf fb 01 bc
       0.040617414 0.046512246 0.004185039 -0.007933556
0001f0 26 00 d5 3c 1c 12 2d 3d fe f2 29 3d 55 64 5f 3d
       0.026001047 0.0422536 0.0414915 0.054539043
000200 66 be 13 bd 0e 84 8f 3c 6c 76 30 bc 3a e0 db 3c
       -0.03607025 0.017519023 -0.0107704215 0.026840318
000210 c3 77 24 bc c3 d0 ab bb 5c e5 eb 3c b1 bf af 3c
       -0.010038319 -0.005243392 0.02879589 0.02145371
000220 bb da d9 3c a1 96 0e bc 64 35 2c 3d f5 a2 05 3d
       0.026593557 -0.008702905 0.042043105 0.03262611
000230 2f 5f 17 3d 7c b7 65 3c 96 9f be 3c c2 9a 54 3d
       0.03695601 0.014020797 0.023269456 0.0519054
000240 22 48 60 bb c6 d8 70 3c a2 a3 81 3c b9 17 31 3d
       -0.0034222682 0.01470012 0.015825097 0.043235514
000250 42 c6 d2 3b 7d 5d 49 3d 74 34 13 3d e8 76 29 bc
       0.0064323256 0.049161423 0.035938695 -0.010343291
000260 5b 48 22 3d 22 38 9f 3c 33 13 4c 3c dc 3f 0a 3d
       0.039619785 0.019435946 0.012455749 0.033752307
000270 d0 1e 46 3c 96 bf d2 3c 6e 8d 36 bc 2d 6c b3 3c
       0.012092307 0.02572612 -0.011142118 0.021902168
000280 a9 56 25 3d 6e 61 4b 3d 5f 25 0a 3d 02 0e 38 3d
       0.04036585 0.049653463 0.033727046 0.044935234
000290 5a 66 e8 3c 40 4a 0c 3d 93 72 e9 3c 4e a0 a5 3c
       0.028369118 0.034250498 0.028497016 0.02021804
0002a0 18 89 ef 3c 77 ab 84 bc c1 01 15 3d f4 c5 00 bc
       0.029240176 -0.016195042 0.036378626 -0.007859696
0002b0 1d ba 9a bb e8 f4 5e 3c 7a 9e bd 3c 11 82 de 3c
       -0.0047218935 0.013608195 0.023146857 0.02716163
0002c0 1d a0 1c 3d 5b 60 01 3d ab 4c 2f 3d 7f 88 5b 3c
       0.038238633 0.031586032 0.042797726 0.013399242
0002d0 ea ae bd bb de e0 21 3d 16 09 f0 3c e3 54 36 3d
       -0.0057886736 0.03952109 0.029301208 0.044514548
0002e0 9c 7f 1a 3d 46 63 35 3d 76 65 c0 bb 73 8d 86 bd
       0.037719354 0.044284128 -0.00587147 -0.06569948
0002f0 d6 d9 8d 3c fc 42 81 3c e2 b6 4a bc 9d 5f 15 3b
       0.017315786 0.015779011 -0.012372704 0.0022792586
000300 7e 65 05 3c 06 f4 15 3c c4 46 c7 3c 5c 16 87 bb
       0.008141873 0.009152418 0.024325736 -0.0041225385
000310 aa 27 d3 3c 37 a6 07 bb ce 55 42 3d 72 6e 3a 3b
       0.02577575 -0.0020698437 0.04744511 0.0028447178
000320 c3 6e 8d 3c 69 2e 92 3c 6a 38 a4 3b 65 75 3a 3d
       0.01726473 0.017844396 0.005011608 0.045522112
000330 f7 36 9e 3c 5e 86 61 3c 2b 42 8a 3a e1 28 88 3c
       0.019313319 0.013764946 0.0010548284 0.016621055
000340 39 fb be 3c dc aa aa bb 80 8e b5 3c ce 93 58 3c
       0.023313152 -0.0052083563 0.022162676 0.013218833
000350 33 0c 99 3c 64 d7 29 3c da db 13 ba 4e cb 7b 3d
       0.018682575 0.0103662945 -0.00056403654 0.061473183
000360 82 b8 e4 3c 81 09 0c 3c 41 49 f3 3c de 4e 25 3c
       0.027920011 0.008547188 0.029698016 0.010089604
000370 bb bc 20 3d a5 f1 27 3b 86 1e 25 3d 48 1c 9f 3c
       0.039242487 0.002562621 0.040312313 0.019422665
000380 2a 18 01 3d 47 6b fd 3c d8 60 ae 3c 12 7b 8b 3b
       0.031517185 0.030934943 0.021286413 0.0042566145
000390 a6 3f 5c 3c 71 86 d6 3c d6 dc 37 3d 93 3e cc ba
       0.013442909 0.026187154 0.04488834 -0.0015582613
0003a0 70 17 41 3c 97 06 27 3d 6d 79 37 3d b4 67 43 3c
       0.011785373 0.04077777 0.044793535 0.01192658
0003b0 01 92 15 3d 2f 6b fe 3c d5 1e 04 3d 16 a4 12 bc
       0.036516193 0.031056968 0.032255966 -0.008950254
0003c0 4d 18 35 3d df 4b 8d bc 73 44 0f 3d dd 35 42 3d
       0.04421263 -0.017248092 0.034977388 0.04741465
0003d0 30 11 ff 3c d9 e3 3b 3d 21 72 58 bb ee 4a 0f 3d
       0.031136125 0.04587159 -0.003302701 0.034983568
0003e0 0c 10 ba 3b 04 a5 4d bc 3d 7c 11 bc 62 28 af ba
       0.0056781825 -0.01255155 -0.008879718 -0.0013363475
0003f0 2c e2 75 3c e1 32 cc 3c 58 54 1c 3d b5 c0 00 3d
       0.015007537 0.024926605 0.038166374 0.03143378

bias f4 [64]
000000 c7 86 01 be da 37 74 bd 06 6d fd 3d 91 60 d1 bc
       -0.1264907 -0.059623577 0.1237431 -0.025558742
000010 cd f7 f7 bc 9d 1d ee bc c6 e8 54 bc fa ef c3 bd
       -0.030269528 -0.029066855 -0.012994951 -0.09567256
000020 ba 0f 79 3e e9 c4 03 3e 47 b3 32 3c a5 a9 e9 3d
       0.24322405 0.12868084 0.010907001 0.1140931
000030 7a 1a ed bc 49 8e 06 3e cc 81 f1 bc 20 bc 86 bd
       -0.02894329 0.13140215 -0.029480837 -0.06578851
000040 fb 3c 9a 3b a8 ea bd bc 8c 29 2f bd bb eb 9e 3d
       0.0047069765 -0.023183182 -0.04276423 0.07759806
000050 a5 04 5d 3e f8 e1 c3 bd 45 45 69 3e 3c 68 d9 3d
       0.21583803 -0.095645845 0.2278033 0.10615584
000060 8b 80 92 3d 74 a5 01 bd c6 1f d9 3d 57 5d e4 3b
       0.07153424 -0.03165193 0.106017634 0.006969135
000070 18 a8 14 3d 72 6c 22 3e 22 fd 18 3c 20 27 bb bc
       0.03629312 0.15861681 0.009337695 -0.022845805
000080 20 d8 85 be 88 bb 1a 3e fb f2 21 3e 6f 12 7d 3d
       -0.26141453 0.151106 0.15815346 0.061785158
000090 69 2d f1 3d 9c 95 0f 3e ff 6a 20 3e aa f4 16 bc
       0.117762394 0.14021915 0.15665816 -0.009213606
0000a0 d8 55 83 3d 8e a6 50 bc 38 ef c0 bc 01 21 d4 3d
       0.06412858 -0.012735022 -0.023551568 0.103578575
0000b0 f6 11 b5 bc 7f f9 22 bd cd e6 e1 3d 36 04 08 bc
       -0.022103291 -0.03978872 0.1103035 -0.008301785
0000c0 d6 34 15 3e 56 34 ae 3d c0 a8 8a 3e bf 24 99 bc
       0.14570937 0.08506076 0.2708187 -0.01869428
0000d0 46 4d df 3d e3 ba c9 3d 3a ed 07 3b 95 24 9a 3d
       0.109034106 0.09850099 0.0020740763 0.07526509
0000e0 5d f4 78 3d c0 e5 34 3c 59 14 f2 3d 61 26 d7 3d
       0.060779918 0.011041105 0.11820287 0.10505367
0000f0 3f f9 00 3e b4 d2 ed bd dd bd 02 3e 6a 42 8b 3d
       0.1259508 -0.11612454 0.1276774 0.06799777

weight f4 [64, 64]
000000 d7 7b 70 3c 50 6c 1e bc a6 4c c8 bd a1 fe 9d bd
       0.014677963 -0.009669378 -0.097802445 -0.07714582
000010 a1 5a ac 3b 7d 59 91 3d d0 0e bc bd ed ec 55 3d
       0.0052598272 0.07097147 -0.09182513 0.052227903
000020 cc 40 75 bb b0 79 9a 3d 39 2d 15 bd 3b 80 b7 bd
       -0.0037422655 0.07542741 -0.03642008 -0.08960005
000030 6b ee d2 3d 00 74 ce 3d 2f e9 3a bd 5f 84 47 bc
       0.10299381 0.10080719 -0.045632537 -0.012177556
000040 6d 37 ae 3d 3d c1 ae 3d 86 23 d0 bc 8f 8c 44 bd
       0.085066654 0.08532951 -0.025407564 -0.04798561
000050 3a 08 c1 3d 63 85 c9 bd 77 93 4e 3d 29 b7 e4 3d
       0.09425397 -0.098398946 0.050433602 0.111677475
000060 1c d6 ad 3d 4d 37 95 bd bb 87 22 bc c8 9c a8 bd
       0.08488104 -0.072859384 -0.009920056 -0.08233029
000070 e1 c1 63 3c 63 af a1 bd be bd bd bd 75 32 44 3c
       0.013901205 -0.078947805 -0.09264706 0.0119749205
000080 be da c2 bd 11 15 ee 3c f4 f0 b2 3d 5f b8 35 3d
       -0.09514378 0.02906278 0.087373644 0.044365283
000090 b7 1a 98 3d 7f b0 2e bd 30 2a b5 bd 89 2e cb 3d
       0.074269705 -0.04264879 -0.08845937 0.09920985
0000a0 d3 c0 4b bd ac f8 20 bb 1b 91 8d 3d ca 4b b4 bd
       -0.04974444 -0.0024562282 0.06912442 -0.08803518
0000b0 e5 75 2c 3d 4a 5d 85 bd c7 4e 36 bd 4e 3b c1 bd
       0.04210462 -0.06511934 -0.04450872 -0.094351396
0000c0 d5 3b 7a 3d 7c e8 c2 ba 5e 46 26 bd 8a 27 08 3d
       0.061092217 -0.0014870311 -0.04059445 0.033240832
0000d0 99 3e a8 bd 9b 0e 71 3c e7 90 e2 bd c5 5a a3 3d
       -0.082150646 0.014712955 -0.11062794 0.07976297
0000e0 97 5a 1a bd 99 5b d4 3b 0b e3 57 bd d3 5f 8f bc
       -0.03768405 0.006480646 -0.05270676 -0.017501747
0000f0 79 80 d2 bd b0 18 68 3d 13 96 94 bc 85 ab 0a be
       -0.102784105 0.05666417 -0.018137967 -0.13541992
000100 ac cd 67 bd da 28 74 be db a2 e3 3d 76 b3 4b bc
       -0.05659263 -0.23843709 0.111150466 -0.012432924
000110 1f 33 dc bd c6 6f dd bd e0 c2 2b be b0 a6 04 3e
       -0.10751938 -0.10812335 -0.16773558 0.12954211
000120 5d c2 a0 3d 97 a8 c4 3d 8d 2c a1 be 0f 61 0d 3e
       0.07849572 0.096024685 -0.31479302 0.13806556
000130 b4 8b c2 3d 32 3f b6 bd d4 76 50 3d dd d3 0c be
       0.094993025 -0.08898772 0.050894573 -0.13752694
000140 61 c7 dc bd f4 2c 25 3d 99 a7 8a be 84 36 5e 3d
       -0.10780216 0.040326074 -0.27080992 0.05425121
000150 b0 34 ae 3d b3 8a 44 be cb 33 8f 3e a6 14 91 3d
       0.08506143 -0.19193535 0.27969202 0.070840165
000160 16 c8 b8 3d cf 50 a9 3d 66 99 2d bc 3e 4c 61 be
       0.09022538 0.08267366 -0.010595655 -0.2200174
000170 f3 89 a5 3d 0d 7b a2 3e 0a 0f 93 be 38 e2 30 3d
       0.08082952 0.31734505 -0.2872241 0.04318449
000180 71 8b 86 bd 48 32 33 bd f1 cf 8c 3d 30 6d ee 3d
       -0.06569565 -0.043749124 0.06875599 0.116419196
000190 bc b4 bb 3d 8b dc 21 bd 62 37 6e 3e 7b 2c 98 be
       0.09165332 -0.039516967 0.23263314 -0.29721436
0001a0 c1 73 b1 bd 2b 04 52 bd 8b 22 bd 3d ba 83 d5 3d
       -0.086646564 -0.051273506 0.09235104 0.104255155
0001b0 cd 17 b5 3d cf 51 38 3d c3 1e 87 3d 3b de 76 bd
       0.0884243 0.044999894 0.06597664 -0.06027053
0001c0 78 3b 6a 3d a5 18 ab 3d ae 28 02 3e 51 90 9c be
       0.05718562 0.0835431 0.1271083 -0.30578855
0001d0 f4 99 cd bd 05 20 56 3d 18 80 2f 3d 2e d2 f2 3d
       -0.1003913 0.05227663 0.04284677 0.11856495
0001e0 96 2e ed 3d fb 8d 1f be 23 66 b0 3d 91 6a 84 3d
       0.11581151 -0.15581505 0.08613231 0.064656384
0001f0 2d 38 8d ba 64 63 f1 bd d9 68 36 3b 9f 99 fa 3d
       -0.0010774188 -0.117865354 0.002783349 0.12236332
000200 6d 38 d2 3c d0 5b 13 be 58 f1 21 bd 96 48 16 3d
       0.025661672 -0.14390492 -0.039536804 0.036690317
000210 66 1f 38 3d 1c fc 9a bd 94 7d 51 be ec f2 54 3d
       0.04495182 -0.07567617 -0.2045806 0.05198948
000220 be e0 60 3e b0 b6 89 bd e2 b8 74 be d4 8d 0a 3d
       0.21960732 -0.06724298 -0.23898652 0.033826664
000230 00 88 c1 3b c6 2a bf 3d 33 96 41 3d 7f 9a 91 be
       0.005906105 0.0933433 0.04726238 -0.28438184
000240 b4 c6 f5 bd 4e fb 08 3e 9c b7 30 be 0a 3a da 3d
       -0.1200079 0.13377115 -0.17257541 0.10655601
000250 ed 93 cf 3d 04 f2 5d be 4e 9f 43 3e 82 3c 67 bd
       0.101356365 -0.21674353 0.19103739 -0.05645419
000260 3d 5f 92 3d 49 73 7d bd df 76 d3 3c a7 cb e3 bd
       0.071470715 -0.061877523 0.025813518 -0.11122828
000270 f7 4c d2 bd d4 bc 18 3e 4e 6b 08 be 59 69 e7 bd
       -0.10268586 0.14915782 -0.13322183 -0.1129939
000280 53 0b 50 be e9 8d 5e 3c 05 52 fa 3d 5a 7e 35 3d
       -0.2031682 0.013583639 0.12222675 0.04430995
000290 bc 22 50 3d f0 6f 03 bc d2 5f 33 3e a8 84 92 be
       0.050814375 -0.008022293 0.17517021 -0.28616834
0002a0 55 5f f5 3d cb 77 d9 bd 6b 2a 88 3d 8e 3d f3 bb
       0.11981074 -0.10618552 0.066487156 -0.0074231094
0002b0 04 f4 9e 3d 94 ab da 3d 22 55 d6 3d 37 b7 db 3b
       0.07761386 0.10677257 0.104654565 0.0067051905
0002c0 fe ec 68 3e d1 64 f7 3d 48 a7 12 3e 34 62 8f be
       0.22746655 0.12079776 0.14321625 -0.2800461
0002d0 38 33 84 bd 44 9f 01 3e 15 22 e7 bd 21 e0 e4 3d
       -0.06455082 0.12658411 -0.112857975 0.11175562
0002e0 91 76 be 3d b8 1e 88 be 9d e1 98 3d 9f 57 36 bb
       0.092999585 -0.26585937 0.07464907 -0.0027823222
0002f0 2e cd a2 3d a1 09 20 3d 43 4e 09 3e 74 0e 49 3d
       0.07949291 0.039071683 0.1340876 0.04908605
000300 21 8d 26 bd 69 0e be bd ee a4 12 3d de c2 d3 bd
       -0.040661935 -0.09280092 0.03580182 -0.10339902
000310 dc c7 c9 3b c8 70 04 bd ea ac be 3d 97 e3 a7 b9
       0.0061578583 -0.03233412 0.093103245 -0.0003202229
000320 54 2b 8e bd 7f a8 5a 3d 5c 9f 01 3e e6 6d 3e 3d
       -0.06941858 0.053383347 0.12658447 0.046491526
000330 6c b2 59 3d cc bd 2a bd 0e c5 d7 bc f3 88 c3 3d
       0.053148672 -0.04168491 -0.02633908 0.09547605
000340 b0 3c e4 3c d7 1e 94 bc c7 f5 94 bd 3a 98 bc 3d
       0.02786097 -0.018081112 -0.07273441 0.092087224
000350 7a 46 fe 3d 4e 8c ac bd d8 0b 30 bd 2d 54 a8 3d
       0.12415786 -0.084251985 -0.042980045 0.0821918
000360 81 a3 7d 3d 63 a1 80 bd 45 0b cc bd 71 9c ea 3d
       0.061923508 -0.06280782 -0.09963087 0.1145562
000370 dd 63 a3 3c da 10 6a 3d 0b 48 bb bc 8a 66 6f bd
       0.01994508 0.057144977 -0.022861501 -0.0584474
000380 30 35 0b 3d 9a 08 64 bd 10 8e a4 bd e6 50 b7 bd
       0.03398627 -0.055672266 -0.08034909 -0.08950977
000390 27 69 00 3e 6a 39 0d 3d 33 c1 a5 bd b3 3c 8d bc
       0.12540112 0.034478582 -0.080934905 -0.017240858
0003a0 0d 4f d9 bd 12 8e 4c 3d 50 25 31 3d 5d 46 55 bd
       -0.10610781 0.049940176 0.043248475 -0.052069057
0003b0 cd 05 c4 bd f2 d3 ef bd 0d d6 98 bd 6e a9 83 3d
       -0.09571419 -0.11710347 -0.07462702 0.064288005
0003c0 96 1c 89 bd 94 4a e4 3d bf 7e 0e bc 03 5f 88 3d
       -0.066949055 0.11147037 -0.008697211 0.06658747
0003d0 55 e1 03 bd 03 8c dd 3d 63 03 0c 3d 1c b7 06 bd
       -0.032197315 0.10817721 0.034182917 -0.03288947
0003e0 97 e4 aa bc 39 f7 aa bd 34 51 e8 bd dc 02 d4 bd
       -0.020860953 -0.08347935 -0.11343613 -0.10352108
0003f0 e2 64 c2 bc e8 0d ca 3d c8 e8 96 bd 8c f1 1d bd
       -0.023729745 0.09865934 -0.07368618 -0.038560435

bias f4 [64]
000000 a1 70 23 3d f2 dc ab bc fc 77 dc 3c 53 e6 f5 bd
       0.039902333 -0.020979378 0.026912682 -0.120068215
000010 66 6d 3a 3e d8 b1 e0 3d c8 dc c1 3d 80 5c fe bd
       0.18205795 0.10971421 0.09465939 -0.12419987
000020 34 7b f5 bd 33 d9 fa 3d 33 66 c2 3d 69 d7 d8 3d
       -0.1198639 0.12248459 0.09492149 0.10587961
000030 73 60 1d 3e f2 87 29 3e 2e f5 84 bd 41 3c 99 be
       0.15368824 0.16555765 -0.06492077 -0.29928783
000040 35 cf 8e 3c 16 b2 21 3e fa a5 d5 bd 05 68 99 be
       0.017432788 0.1579059 -0.10432048 -0.29962173
000050 ac ef c2 3d 46 64 d9 bd 38 3b 77 bd 1c 20 fe bd
       0.0951837 -0.10614829 -0.06035921 -0.12408468
000060 33 25 b6 3d 56 31 11 3e e4 74 19 3d f2 98 4c 3e
       0.08893814 0.14178976 0.03746499 0.19980219
000070 c9 5c 30 3e 47 3e b0 3c c3 d0 39 3e 01 ad 74 bb
       0.17222895 0.021514071 0.18146043 -0.0037334564
000080 a4 2a a4 3d a6 40 11 be 84 bb 11 bd 27 11 48 3e
       0.080159456 -0.14184818 -0.03557922 0.19537793
000090 16 a1 38 bd dd bc 51 be df bd 2f 3e 36 4c 05 ba
       -0.0450755 -0.20482202 0.17162274 -0.00050849037
0000a0 ea 4c da bd 47 0b 82 3d 8e 46 30 3e e0 b6 f5 bd
       -0.106592014 0.06349807 0.17214414 -0.11997771
0000b0 e8 f3 1f bd 39 c3 a3 be c1 bc 99 be 60 f6 41 3e
       -0.039050967 -0.3198488 -0.3002682 0.18941641
0000c0 be 26 d2 bd 84 97 e7 ba 36 03 45 bc dc a3 d9 3d
       -0.10261296 -0.0017669057 -0.012024691 0.10626957
0000d0 7d 19 04 3e 9c 35 33 bd 71 bf ff 3d a7 cf d2 3d
       0.12900348 -0.043752298 0.124876864 0.10293513
0000e0 f6 60 8c be 51 34 08 3d 92 93 35 3e 8f b8 48 3e
       -0.27417725 0.033253018 0.17732075 0.19601654
0000f0 d8 21 3d be fd c9 fb 3c cd df 0c 3e 2d 04 26 bd
       -0.18469942 0.030735964 0.13757248 -0.040531326

weight f4 [1, 64]
000000 44 cd b7 bd 50 d2 d1 3d e3 b4 0f 3e 75 4b 87 3c
       -0.08974698 0.10245192 0.14033847 0.016515473
000010 55 29 3c 3d 8d b2 c9 bd 96 07 e3 bd 8c dd d5 bd
       0.045937855 -0.09848509 -0.11085431 -0.10442647
000020 74 3a 65 bd a4 9b f0 bd 8f e5 84 bd 55 06 aa bc
       -0.05596395 -0.11748436 -0.06489097 -0.020754972
000030 e1 51 36 3d ef 86 14 3e e0 ca fb 3b d8 6b 1b be
       0.04451168 0.14504598 0.0076840967 -0.15177858
000040 54 01 15 3e a7 a4 91 3d 2c d5 78 3d 2c 00 3f be
       0.14551288 0.07111483 0.06075017 -0.1865241
000050 81 0e f2 3d c3 16 85 3b 08 ff 43 bd 2c 24 3c bd
       0.11819173 0.0040615513 -0.04785064 -0.045932934
000060 aa d8 d3 bd 01 a8 d5 3c 12 85 f3 3d ba cc dd 3d
       -0.1034406 0.026081087 0.118906155 0.10830064
000070 be be 7e 3d 3a 2e a4 bd c5 36 09 3e 37 05 9b bc
       0.062193625 -0.080166295 0.13399799 -0.018923385
000080 ee 08 f3 3d 47 f2 40 be f0 e8 78 bd 32 d2 d5 3d
       0.118669376 -0.18842421 -0.06076902 0.10440482
000090 98 22 a7 bd 9f 0b 43 be 84 e1 d7 3d 79 db 1b 3d
       -0.08160895 -0.19047402 0.105410606 0.038051102
0000a0 78 de 1f bd 6c 12 08 3e 2b 7e ef 3c f0 2d e3 bc
       -0.039030522 0.13288277 0.029234966 -0.027731866
0000b0 dc 98 83 bc 0b b3 83 be a8 70 97 be 13 2b 05 3e
       -0.0160641 -0.25722536 -0.29578137 0.13004713
0000c0 5c bc 03 3d 88 99 08 bc cb 4b b3 3d a7 8c cc 3d
       0.032162055 -0.008337386 0.08754691 0.09987765
0000d0 ba f2 7a 3d 15 6d da bc f5 8f 02 3e 52 8e b2 3d
       0.06126664 -0.026663342 0.12750228 0.08718552
0000e0 62 de 67 be 02 15 13 3d 42 df 75 3d d2 05 c3 3d
       -0.22643426 0.035908706 0.06002737 0.095225945
0000f0 24 34 80 be 1f 95 0c bd fa df 2f 3d e5 46 bb bd
       -0.2503978 -0.0343219 0.04293821 -0.091443814
