src/Fun_2/model/model_256_64_64_0.001_200.pt (torch, 309415 bytes, 5 tensors)

weight f4 [64, 1128]
000000 6a 0f 34 bc 7a 03 97 3c ca 5c ca bc 16 19 e3 bc
       -0.010990003 0.018434275 -0.024702448 -0.027721923
000010 39 1f 6e bb da b2 4a 3c ae 09 02 bd 4f 37 8e 3c
       -0.0036334528 0.012371743 -0.031747513 0.017360358
000020 58 40 6c bc e8 f5 92 bc f5 97 1e 3c c8 1d 83 bc
       -0.014419638 -0.017939523 0.009679784 -0.016005412
000030 db 7e 94 bc 6a 8f 94 bc 66 d8 e2 3b 08 82 d9 bc
       -0.018126896 -0.018134791 0.0069227694 -0.026551262
000040 1f d5 82 bc 5a e4 7a bc e7 15 82 3c 0e 19 83 bc
       -0.015970765 -0.015313232 0.015879584 -0.016003158
000050 05 f7 8b bc d0 9a a3 bc fe ab dd 3b ff 9e 8e bc
       -0.017085562 -0.019971281 0.006764888 -0.0174098
000060 54 37 35 bb 5e d9 a0 bc e7 f1 8f bc 4e bb 39 bc
       -0.0027651386 -0.019634899 -0.017571403 -0.011336161
000070 b3 4d 6b bc b9 f6 8e bc 37 38 25 bc 25 e4 f9 bc
       -0.014361787 -0.01745163 -0.010084203 -0.030504296
000080 c2 a5 50 bc ee c5 54 ba d5 ca bf bc c0 a6 47 3c
       -0.012734832 -0.0008116652 -0.023412148 0.012185752
000090 59 8e 02 bd 5f ea 0a bd 3c cd 10 bd ad 93 07 bd
       -0.031874035 -0.03391492 -0.035351977 -0.03309982
0000a0 70 d0 15 ba 0e db 6f 3c f2 72 8d bb f2 62 01 bd
       -0.00057149585 0.014639629 -0.004316681 -0.031588502
0000b0 b4 36 82 bc 4b f3 30 3c 61 d9 3d 3c 38 c5 09 3c
       -0.015895225 0.010800193 0.011587472 0.008408837
0000c0 ac 89 ad 3c 17 27 85 bc e2 5c 95 ba f7 5b e5 bc
       0.021183811 -0.016253991 -0.0011395479 -0.027997954
0000d0 09 2b 06 bb 6b 63 d6 bc 37 ae 40 3c 0a 01 8b bc
       -0.0020472428 -0.026170453 0.011760286 -0.016968269
0000e0 21 e4 69 bc 13 b3 2c bc 1d 3a 07 3c 81 70 98 bc
       -0.014275582 -0.0105407415 0.008253601 -0.018608334
0000f0 8f 2c eb bb f4 b6 1f bc 53 ae 6f 3b 74 11 f7 bc
       -0.0071769427 -0.009748209 0.0036572411 -0.03015969
000100 ef 6a 67 3c e2 13 6a 3c b0 b4 25 3b b1 ed d6 bc
       0.014124616 0.014286967 0.00252847 -0.026236387
000110 91 72 a0 3c 54 b4 66 3b 19 d0 ed bc c4 70 88 bc
       0.01958588 0.0035202699 -0.029029893 -0.016655333
000120 d7 a5 88 bc 06 03 0c 3b 7d eb 87 bb 5b 96 90 bc
       -0.016680641 0.0021364107 -0.0041479454 -0.01764982
000130 68 10 6f 3b d0 f0 c9 bc 38 34 60 bc 5c 05 d0 bb
       0.0036478285 -0.024650961 -0.013684325 -0.006348295
000140 36 cb af bc 8b 78 a3 3b 28 82 98 bc 70 0d f3 3b
       -0.021459203 0.004988735 -0.01861675 0.0074173734
000150 fb 8a 2f bc 30 95 7d ba 10 ac 97 3b 48 44 80 3c
       -0.010714288 -0.0009673415 0.0046286657 0.015657559
000160 5c ac 4d bc 37 2e a9 3c 10 c8 90 3b 3a 7a e6 bc
       -0.012553301 0.02065192 0.0044183806 -0.028134454
000170 d0 61 0d bd d2 18 bb 3c 84 76 1e 3c 30 c3 be bc
       -0.03451711 0.022838984 0.009671811 -0.023286432
000180 e5 8d 83 bc 42 96 b9 bc d7 c9 9f bc 8c a8 87 bc
       -0.016058872 -0.022654656 -0.019505424 -0.016559862
000190 52 5b 7c 3c 28 7c 8c 3c 5a eb 82 3b 32 ea 3a 3c
       0.015402632 0.017149046 0.0039953412 0.011408376
0001a0 79 b3 0e bd 34 33 b8 3c fe 11 ae bc 0d 4a a1 3c
       -0.034839127 0.022485353 -0.021248814 0.01968863
0001b0 3d df df bb 16 3b 7f bc 4b 77 0b bd ad 5a a3 3c
       -0.006832032 -0.015578052 -0.034049314 0.019940699
0001c0 e2 44 ab ba 88 f7 a0 3b af e9 8c bc 3e ea 10 bd
       -0.0013066793 0.0049123205 -0.017201273 -0.03537964
0001d0 37 5f 3e bc 7e 9c 98 bc 1b 43 00 3b bb b4 8c bc
       -0.011619381 -0.018629309 0.0019571248 -0.017176023
0001e0 f6 ad b9 3c a2 b2 04 bb d3 8e 4b bc 0f a1 47 3b
       0.022665959 -0.0020248075 -0.012424189 0.0030460989
0001f0 96 43 aa 3c 93 6e f0 bc 12 2c 81 bc 91 2a 0b bd
       0.02078418 -0.0293496 -0.015768085 -0.03397614
000200 fe 56 9e bc 76 4a a8 bc 49 cc f0 bb 2d b0 f5 bc
       -0.01932859 -0.020543318 -0.0073485714 -0.029991234
000210 d1 10 b3 bb 5a 70 96 3c 2a 59 21 bb 69 34 46 3c
       -0.005464651 0.01836412 -0.0024619796 0.0120974565
000220 d2 3d 8f bb c1 7f b8 3c 03 93 e4 ba 4c 57 36 bb
       -0.004371383 0.022521855 -0.0017438832 -0.002782303
000230 28 81 e1 bc 48 47 be bc 6a a4 62 bc e7 7f 78 3c
       -0.027527407 -0.023227349 -0.013833145 0.015167213
000240 92 aa 00 bc 3a 54 e7 bc 4a ab 39 bc c4 12 2a bc
       -0.007853167 -0.028238405 -0.011332342 -0.010380451
000250 d5 85 3f 3b a4 c8 51 3b 56 ec b6 ba c4 9d 4f bc
       0.0029224057 0.003201046 -0.0013955932 -0.012671892
000260 f2 d4 41 bc 89 15 88 ba f3 11 f0 bc 37 ac 8f 3b
       -0.011830555 -0.0010382395 -0.029305434 0.0043845433
000270 c8 0d 3d 3c f2 ef bb bc 8b 24 0c bd fb a0 83 3c
       0.01153893 -0.022941563 -0.034214538 0.016067972
000280 bf c4 c8 3b 00 53 0f bd 40 e9 c8 3b 53 e5 8c bc
       0.0061269696 -0.034991264 0.006131321 -0.017199194
000290 2c ff be 3c 26 1b 5c bc 6b 10 14 bb 1e 0b 50 3c
       0.023315035 -0.013434207 -0.0022592794 0.012697963
0002a0 4e e1 75 ba a7 cb b1 bc ad bc 95 bc f5 63 a4 bc
       -0.00093795813 -0.021703554 -0.018278444 -0.020067194
0002b0 d7 ef 4b 3c 51 7a 31 bc 62 67 81 bc f9 75 05 3b
       0.012447319 -0.010832385 -0.015796367 0.0020364507
0002c0 41 c9 86 3c b8 9a ea bc b3 34 2a bc f6 b8 f0 bc
       0.016453387 -0.028638229 -0.010388541 -0.029385071
0002d0 4d 6d 48 3b 4d c1 29 b9 24 76 dd bc e9 5c fa bb
       0.0030582726 -0.00016189106 -0.027033873 -0.0076404703
0002e0 d4 96 40 bc e5 5b db 3b 2b f7 32 3c 1d d2 91 bb
       -0.01175471 0.0066943043 0.010923187 -0.0044500963
0002f0 b5 dc 85 37 c1 f7 21 3c 04 d5 bf bc 73 48 0c bd
       1.595761e-05 0.009885729 -0.023417003 -0.03424878
000300 c6 0c a5 bb 0e b2 71 bc d5 0e b2 3c a8 aa 4a bc
       -0.005036923 -0.014751924 0.021735588 -0.012369789
000310 d2 2b 44 3c ba 23 fc bc dd f7 a1 bc 65 84 21 3c
       0.011973338 -0.030778755 -0.01977151 0.0098582255
000320 20 ad d9 bc 1d 3c e1 bc 18 fc 1f 3c aa 3d 17 3b
       -0.02657181 -0.027494485 0.009764694 0.0023077526
000330 66 73 da bc b5 8a e8 bc d0 bf 4c bc 8a 72 a3 bc
       -0.026666354 -0.028386453 -0.012496904 -0.019952077
000340 5f 6c e4 bc c0 62 3d 3c 9e ef 2b 3c 26 ae 57 3c
       -0.027883707 0.011559188 0.010494141 0.013164079
000350 62 cc 11 bd 9d 16 cd bc 8d 16 c7 bc 8a 4a b6 3c
       -0.035595305 -0.025035197 -0.024302745 0.02225234
000360 e9 7c ec 3b 9e f7 31 bc f4 aa 6e bb 0f 1c 0a bd
       0.007217039 -0.010862259 -0.0036417814 -0.033718165
000370 01 cf 39 3c fa 51 15 3c 3c 72 00 bc b2 56 e2 bb
       0.0113408575 0.009113783 -0.007839736 -0.0069073075
000380 f8 13 80 3b 71 e5 76 bc 70 41 ba 3b 1d 42 3d ba
       0.0039086305 -0.0150693515 0.0056840703 -0.00072196295
000390 f6 fe 15 3c d4 a1 72 bc d1 04 04 3b 99 a0 af 3c
       0.009155026 -0.014809091 0.0020144472 0.021438884
0003a0 d4 4a 4c bc 0f de 91 ba 75 ac 9a 3c ca 20 0b bd
       -0.012469012 -0.0011128801 0.018881062 -0.033966817
0003b0 e6 7f 7d bb 6f 2c 20 bc f1 c3 a5 3c 33 d5 ea 3b
       -0.003868097 -0.009776219 0.020235034 0.0071665286
0003c0 f4 2b b9 ba 9e d4 d6 bc 2a 3a 34 3c 63 dd 5f bc
       -0.0014127479 -0.02622443 0.0110001955 -0.013663623
0003d0 6e f7 ee bb 30 61 a4 3c 2e 18 42 3b 27 32 53 bc
       -0.0072926795 0.020065874 0.0029616463 -0.012890375
0003e0 b8 8f 46 3c 3c 5b 11 bc 23 9a 07 bd 7b d3 63 bc
       0.012119226 -0.00887185 -0.03310598 -0.013905401
0003f0 f6 12 13 bc 6e 77 ba bb ae 5b 22 bc 2e c8 4c 3c
       -0.008976689 -0.0056905067 -0.009909553 0.012498898

bias f4 [64]
000000 9a 2f 74 bc 3d 6b 09 bd 05 0c 8a bc f5 11 c8 3e
       -0.014903927 -0.033549536 -0.016851434 0.390762
000010 d8 ac 01 bd 3d 7a 13 bc 50 d4 8e 3c 9b 27 d6 3e
       -0.031658977 -0.009001312 0.017435223 0.41827092
000020 ac 6d 2d 3b 26 03 9d bc ac 9c 3e bc 8c cb 95 bc
       0.0026463075 -0.01916654 -0.011634033 -0.018285535
000030 78 57 12 3b d3 f8 12 bd a0 65 a7 bc 88 c9 87 bc
       0.0022329967 -0.03588183 -0.0204342 -0.01657559
000040 60 f2 83 3e 4d 31 78 bc c4 5b af bc 05 df 72 3c
       0.25770855 -0.015148473 -0.021406062 0.01482368
000050 e7 00 cc bb 81 c0 66 bc ee 38 7a 3e 2f 58 08 bd
       -0.0062256935 -0.014083982 0.2443578 -0.033287223
000060 a7 17 13 bd e4 b9 06 bd 6d b1 30 3c e5 eb 0e 3f
       -0.03591123 -0.032892123 0.010784489 0.55828696
000070 47 b2 28 3e bc 2b 01 3f 6f af ef 3e d9 ff 45 bb
       0.16474257 0.5045736 0.46813533 -0.0030212312
000080 1f d0 8a 3e 2f b3 66 be a8 9c 50 3b 2d 8b 66 3e
       0.2711191 -0.2252929 0.0031831656 0.22514029
000090 59 64 fb bc 7e a1 27 bc ab ef 6c 3c f4 b7 c7 bc
       -0.030687498 -0.010231374 0.014461438 -0.024379708
0000a0 97 23 0c bd 77 11 c7 bb f6 08 19 3f 30 22 51 bc
       -0.03421363 -0.00607508 0.597793 -0.012764499
0000b0 3f b8 8e 3e d6 a7 b2 bc 81 5c e7 bc 2d 95 44 3c
       0.27874944 -0.021808546 -0.028242351 0.011998457
0000c0 21 6f 4f b9 fe 89 02 3e 78 b0 c7 3c ef 86 15 3c
       -0.00019782457 0.12747952 0.024376139 0.009126409
0000d0 fe ca f2 3b 4d 5e 92 3c 6f fa db bc df 34 7b 3e
       0.0074094525 0.017867232 -0.026852814 0.24531887
0000e0 3e 0d 9d bb a9 a5 c9 bc 86 fb bf 3d 94 5f 99 bc
       -0.0047928384 -0.024615126 0.09374146 -0.018722333
0000f0 97 0f 97 3c ee 8e 05 3e 27 2f c6 bc 43 ee 96 3e
       0.018440051 0.13042805 -0.024192406 0.29478654

weight f4 [64, 64]
000000 ec e5 a9 3c 65 fe da 3b 63 00 a0 3d da 80 34 3e
       0.020739518 0.006683158 0.07812574 0.17627278
000010 66 85 cc 3d 1a ff a6 bc 74 17 c9 bd ba 8d 91 3a
       0.09986381 -0.020385314 -0.098189265 0.001110486
000020 92 44 8b 3d a3 c9 78 bc f9 b5 e7 bd ef d7 cd bd
       0.06800188 -0.015184793 -0.113140054 -0.10050952
000030 f6 60 d9 bd 83 2d ec bd 3d 97 89 3d f6 3b e8 3d
       -0.10614197 -0.11532118 0.067182995 0.11339562
000040 f4 f8 8b bd 57 9f fc 3c 75 b0 e8 3d e2 29 5c bc
       -0.068345934 0.030837698 0.113617815 -0.01343772
000050 3d 9d e5 3d fe 9c e1 3d 5d 8e 09 bd 48 e3 60 bd
       0.112116314 0.11016272 -0.033583034 -0.054904252
000060 12 db 04 3e 69 d0 fb bb a1 eb a6 bd 43 78 e3 3d
       0.12974194 -0.0076847565 -0.081504114 0.111069225
000070 49 7a f6 bc 3b a5 98 3c ca 89 58 bd 60 cb 30 3d
       -0.030087607 0.018633476 -0.05286578 0.043162704
000080 fb fb 90 3d 61 26 38 bb 56 5a 72 3d ce ce 41 3b
       0.070793115 -0.0028099047 0.059168182 0.0029572728
000090 9a 8b 7b bd fc f9 0b 3d 91 d2 c1 bd 09 3f 37 bd
       -0.06141243 0.03417395 -0.094639905 -0.04473785
0000a0 85 33 7a bd b3 09 64 3d 49 e4 07 3e 8f 7b d6 bc
       -0.06108429 0.055673312 0.13270678 -0.026181964
0000b0 9d 9b e5 3c cf f9 9a bd d5 71 ac 3d 32 f5 e1 3b
       0.028028304 -0.075671785 0.08420149 0.0068956846
0000c0 5f a1 9a 3d e3 3d 36 3d 83 ba 27 bd 84 f5 c9 bd
       0.0755031 0.044492614 -0.040949356 -0.098612815
0000d0 16 70 ee bd 8e 88 af bc 84 71 07 bc f6 6b 4c bd
       -0.116424724 -0.021427419 -0.00826681 -0.049907647
0000e0 9a 27 c4 3d 37 69 ed b8 67 ec fa 3b 06 50 dd bd
       0.09577866 -0.000113206384 0.007657576 -0.10806279
0000f0 8d 4e 4c 3d 62 50 a7 bd 54 eb 98 3d 74 58 a2 3c
       0.0498796 -0.08169629 0.0746676 0.019817568
000100 98 02 b0 3d 7b 01 bc bc 2d e0 74 3d 46 f0 f0 38
       0.08594245 -0.022949925 0.059784103 0.00011488846
000110 04 45 6d bd 78 a5 48 bd 7c c3 c9 3a b7 a9 c6 3d
       -0.057927147 -0.04898593 0.0015393342 0.09700339
000120 d4 be 06 bd 50 5b a0 3d e5 f2 b7 3c b0 35 18 3c
       -0.03289683 0.078299165 0.022454688 0.009290144
000130 40 b9 0f 3c 82 5b 93 3d 46 13 d7 3c ec 38 8d bd
       0.008772194 0.07195188 0.026254307 -0.068956226
000140 0d 8d c2 3d 46 c6 9d 3a 26 e3 87 bd 49 ff cb bd
       0.094995596 0.001203724 -0.06635122 -0.09960801
000150 5a 1d ff 3d 0b 0a 2b 3c 1f 33 ac 3d c8 cf 49 bd
       0.1245677 0.010439406 0.08408188 -0.04927042
000160 f0 30 f7 bc 96 7d c5 bd 1c cd 8f bd 49 c9 4d bd
       -0.030174702 -0.09643094 -0.070215434 -0.05024079
000170 34 35 f4 bd 48 47 40 3d 7b 6c 6e 3d a2 f6 d1 3d
       -0.1192421 0.04694298 0.058208924 0.102521196
000180 8f 8d 5f bd 03 10 9d bd 89 b3 b9 b9 db b5 db 3c
       -0.05457836 -0.076690696 -0.00035419714 0.026820114
000190 74 62 69 3d fe 8c f1 3d dc 80 a3 3d 80 81 d0 3d
       0.056978658 0.1179447 0.07983562 0.1018095
0001a0 36 64 b8 3d b0 00 62 bd ac 64 5d bd a4 df 8b 3d
       0.09003489 -0.055176437 -0.054051086 0.068297654
0001b0 63 7f 80 bd f8 91 62 bd 8b 4e 66 bd 01 75 b6 bd
       -0.06274297 -0.055314988 -0.05622725 -0.089090355
0001c0 ea c9 98 bd 37 b4 97 3c 4f a4 19 3d 0e 01 c7 bd
       -0.07460387 0.01851855 0.037510213 -0.09716998
0001d0 e2 c4 bd ba 53 65 f2 bd e0 42 1f bd dc 3d 2b 3d
       -0.0014478231 -0.11835732 -0.038882136 0.04180704
0001e0 14 aa 65 3d 04 96 57 bd 93 76 14 be 06 f4 94 bd
       0.056070402 -0.0526333 -0.14498357 -0.07273106
0001f0 2a 65 7b 3d 37 31 c1 3d 65 34 e2 3d d2 87 63 bd
       0.061375774 0.09433215 0.1104515 -0.05554945
000200 40 1e 2a 3c 17 2b 02 3e 34 37 be bd 17 3a 2c 3e
       0.010383189 0.1271175 -0.09287873 0.16819035
000210 d7 7b ba 3d f3 dc dc 3d cc cb f0 3d 72 f7 92 3c
       0.09105652 0.1078433 0.11757621 0.017940257
000220 e0 17 e3 bd 1f 26 ed 3d c5 54 86 bd a9 12 72 bd
       -0.11088538 0.11579537 -0.06559137 -0.059099827
000230 25 88 ad bd 8a 05 81 bb e7 09 18 bd fc 8f d2 bc
       -0.08473233 -0.003937428 -0.03711882 -0.025703423
000240 80 74 f1 3d ad 16 61 bd 99 8c 38 bd db 88 c8 bd
       0.11789799 -0.054953266 -0.04505596 -0.09791728
000250 1f a4 a2 bd 06 f2 33 bd 7c a3 e5 3c 3c e2 ae bc
       -0.0794146 -0.043931983 0.028032057 -0.021348111
000260 d9 c9 2b bd 9e 67 92 bd bc 58 80 3d 6c 81 63 3d
       -0.041940544 -0.0714867 0.06266925 0.05554335
000270 f1 75 bb bd ff fb 2a 39 aa 10 29 3e 12 57 b1 bd
       -0.09153355 0.00016306339 0.16510263 -0.086591855
000280 af 3f db bc a3 8c 9c 3c 61 fc e9 bd 0f 20 3f bd
       -0.026763765 0.01911003 -0.114250906 -0.046661433
000290 7d 11 ac bd 9b 0d 76 3d d0 fa f1 bd 8b 31 70 bd
       -0.08401773 0.06007157 -0.11815417 -0.058640998
0002a0 59 89 a2 3d 82 f3 d2 3d 00 e9 92 3c 92 9e 12 bd
       0.07936353 0.10300352 0.017933369 -0.035795756
0002b0 ca c7 67 3d 5a 17 ef bc 82 64 40 bd 2a 15 43 3d
       0.056587018 -0.02918594 -0.04697085 0.047627605
0002c0 8b 65 a5 3b 27 43 61 bd 80 37 ad bd 76 1d b4 bd
       0.0050475053 -0.054995682 -0.084578514 -0.08794682
0002d0 65 76 a7 3d 0b d0 c4 3c 7a 4f 0e 3e fd 3f fe 3d
       0.08176879 0.024024984 0.13897505 0.124145485
0002e0 a7 3e c6 3d 0f 8e de 3d 9c b9 18 3e bf 8e a4 3d
       0.09679919 0.10866939 0.14914554 0.08035039
0002f0 a8 b4 71 bd 13 bf 3c bd 75 2c d5 bd 11 75 54 bd
       -0.059010178 -0.04608066 -0.1040887 -0.051869456
000300 80 1f 34 3d ce a7 b4 3d 40 d1 bf 3c 3c f0 a6 3d
       0.043975353 0.08821069 0.023415208 0.0815129
000310 9c 89 81 bd e4 ec 55 bd 30 76 8a 3c 70 63 d3 3c
       -0.06325075 -0.05222787 0.01690206 0.025804251
000320 20 cc 02 3c d8 02 d3 3d 8c e7 07 3d 82 dc 9c 3d
       0.0079832375 0.10303277 0.033179805 0.07659246
000330 16 be 82 bd c6 cb 8e 3d 58 3a b6 3d e8 e1 b0 3d
       -0.06383912 0.069724604 0.08897847 0.08636838
000340 30 e3 79 3d 36 38 b8 3d 00 f7 99 3a d8 1f df 3d
       0.06100768 0.089950964 0.0011746585 0.108947456
000350 92 75 8b 3d 38 09 cd 3c c0 e9 15 bd c8 fb a6 bc
       0.06809534 0.02502881 -0.036599874 -0.02038373
000360 ac f1 18 bd 7c d4 24 bd 08 58 db bd 12 1c b2 3d
       -0.03733985 -0.040241703 -0.1071015 0.0869676
000370 00 ec e5 bb 00 00 78 38 fc be 71 bd ba 34 af 3d
       -0.007016659 5.9127808e-05 -0.059020028 0.08554979
000380 58 52 d9 bd 60 7c b8 bd 30 7d 12 3c da fb 8a 3d
       -0.10611409 -0.09008098 0.00894098 0.06786318
000390 40 3a b3 3c 32 8f cc bd 28 ee 92 bd b4 5c e5 bd
       0.021878362 -0.0998825 -0.07174331 -0.11199322
0003a0 9a 2c f4 3d 54 e9 1c 3d e4 c5 f4 bd 58 f0 81 bc
       0.119225696 0.038308457 -0.11951807 -0.015861675
0003b0 58 e7 b2 bc a0 94 d7 bd 58 e4 86 bc f8 2c a7 bd
       -0.021838829 -0.10526395 -0.016466305 -0.08162874
0003c0 c2 37 80 3d 4c 24 4b 3d 08 68 e8 bc 0c 21 01 bd
       0.06260635 0.049595162 -0.028369918 -0.031525657
0003d0 f0 ca 51 3d 40 43 41 3c fc 57 53 bd 06 c7 cd bd
       0.051218927 0.011795819 -0.05159758 -0.10047726
0003e0 50 96 78 3d a0 dd 7d bc 08 1d e5 3c b4 b9 e0 3d
       0.060690224 -0.015494734 0.027967945 0.1097292
0003f0 00 46 33 3b 9a 72 a9 3d d8 06 35 3d 28 7c 34 3d
       0.0027354956 0.08273812 0.04419598 0.044063717

bias f4 [64]
000000 ef a9 cb 3e 94 4d c5 bd fc 35 ae 3e 18 fa ec bd
       0.39778087 -0.096339375 0.34025562 -0.11571139
000010 ea 89 1b 3e 19 09 0f 3f 6b 16 18 3d e8 7f 24 bf
       0.15189329 0.55873257 0.037130754 -0.6425767
000020 d8 96 94 3d d3 39 93 3d f0 74 29 3d 7f a6 5b bd
       0.07255334 0.071887635 0.041371286 -0.05362558
000030 b4 d6 cd be 87 ad 02 3e 8c 43 c9 3e 14 ae 33 3e
       -0.40202868 0.12761508 0.39309347 0.17546874
000040 29 46 57 bd 29 43 2f 3d c8 e5 ac bc e3 33 c4 bd
       -0.052557144 0.04278866 -0.021105662 -0.09580209
000050 24 32 b3 3d 16 cc 9c 3e b4 69 6d 3d 4a d1 a3 3e
       0.08749798 0.30624455 0.057962134 0.31995612
000060 8e 2b e0 bd 5b 01 87 3e 8b 05 a4 be e7 5f 5f 3e
       -0.109458074 0.26368222 -0.3203548 0.21813928
000070 03 ec 8e 3e 65 61 f9 bd 77 f3 70 3e 9a f6 ff bd
       0.27914438 -0.1217678 0.23530374 -0.124982074
000080 cb c2 47 bd 5d 2f 93 3e da 83 87 3e 78 69 4f 3e
       -0.048769753 0.28747073 0.26467782 0.20255077
000090 34 6a 41 3d 7d 20 0b 3d 0c 40 9d bd e6 b1 ea 3d
       0.047220424 0.03396653 -0.076782316 0.11459713
0000a0 0a dd 75 3d bd 24 18 3e fc ec 9c bd eb b7 47 3e
       0.060025252 0.14857765 -0.07662389 0.19503753
0000b0 6f 2c 5b 3e 80 7a f3 3e 6c 2d 49 3e 24 c7 8c 3e
       0.21403669 0.47554398 0.19646233 0.27495682
0000c0 8d da 9f bd 48 cc 80 3d 08 12 83 3e 55 47 cb 3d
       -0.07805357 0.062889636 0.25599694 0.09925715
0000d0 09 c9 18 3e 45 dd ff bd dc 46 25 3e 19 d3 67 3e
       0.14920439 -0.12493376 0.16140312 0.22639121
0000e0 f0 7b 6a 3e c8 7e 4c 3e 3d d4 9e bc ca 22 a5 bd
       0.22898841 0.19970238 -0.019388312 -0.08063276
0000f0 8a 5c d6 bd 64 09 a6 3d 28 e5 3f 3e 85 44 82 bd
       -0.10466869 0.0810726 0.1873976 -0.06360725

weight f4 [1, 64]
000000 1e ce 56 3e 70 81 c0 bd d9 5a e8 3d b4 f1 a2 bd
       0.20977065 -0.09399688 0.11345453 -0.079562575
000010 a0 2b 0e 3e a1 eb 1b 3e 68 06 87 bd aa b1 09 bf
       0.13883829 0.15226604 -0.06593019 -0.5378672
000020 e4 73 0c 3d 86 db cb bd 93 f6 6f bd 07 fc f8 3d
       0.03429021 -0.0995398 -0.05858476 0.121574454
000030 43 56 be be 9f e8 67 be da a7 a7 3d 24 40 a1 3d
       -0.37175187 -0.22647332 0.08186312 0.07873562
000040 25 55 99 bd 42 07 ba bb d2 59 6e 3d 92 81 01 be
       -0.07486943 -0.0056771347 0.058191128 -0.12647083
000050 ab 0d eb 3d b7 f5 1c 3e cc be bf bd 36 10 38 3e
       0.11477216 0.15328108 -0.093625635 0.17974934
000060 84 ac ae bd f4 65 03 3e 44 31 a2 be 6d 15 81 3d
       -0.085289985 0.12831861 -0.31678212 0.06302915
000070 f5 a3 20 3e 06 a9 b1 bd a0 18 11 3e 56 0a d2 3d
       0.15687545 -0.08674817 0.1416955 0.10255878
000080 00 40 d5 3a 01 fe a5 3d f9 b2 bc 3d 92 62 12 3e
       0.0016269684 0.08105088 0.09213824 0.14295414
000090 df 30 8b bd e6 30 79 3d 98 da 88 bd ef a4 8f bc
       -0.06796431 0.06083765 -0.066823184 -0.017534701
0000a0 cf 4d db bd 56 3c d6 be be 57 2f bd 50 f6 dc 3d
       -0.107082 -0.41842908 -0.042808287 0.10789168
0000b0 41 e1 9b 3d 27 4f 9e 3d ad 22 fd 3c 46 b1 0b 3e
       0.07611323 0.07729941 0.030900324 0.13641843
0000c0 31 66 2f bc 1a ef 35 bd 83 90 d3 3d 59 ef ca bd
       -0.010705517 -0.04441748 0.10330298 -0.09908933
0000d0 ac e9 f2 3d fe 99 76 bd b3 01 f3 3d 8e da 98 3d
       0.118609756 -0.060205452 0.118655585 0.07463561
0000e0 9f b6 00 3e fd 1d 0a 3d 1c 2b 89 bd 38 cf a8 bb
       0.12569664 0.033720005 -0.066976756 -0.0051516555
0000f0 8d e9 c4 bb 64 75 7b bd a2 3c d0 3d e8 9c d2 3c
       -0.0060092867 -0.06139125 0.10167815 0.025709584
