src/Fun_2/model/model_128_64_128_0.01_200.pt (torch, 326247 bytes, 5 tensors)

weight f4 [64, 1128]
-0.17394094 0.24563216 -0.12538853 -0.38767147 -0.19542867 0.19434643 0.32093814 0.28391117
0.09173469 0.20814118 0.023683926 -0.26474983 -0.37210396 0.84432226 0.6833662 -0.12817657
0.6786685 0.20242453 -0.11489681 -0.12102792 0.36111987 0.20811339 -0.45451677 0.097649276
0.0881642 0.13086262 0.2100742 0.049980186 -0.42582285 -0.07806391 -1.0670241 -0.018197203
0.5806908 0.130119 -0.4122488 -0.11960411 -0.6878556 0.39412284 -0.6235402 0.1167892
0.5709424 0.5814348 0.17545001 -0.10344954 0.20583418 -0.16238466 -1.7807765 -0.025291504
0.061692122 -0.5901832 -0.1439971 -0.5752241 -0.16024761 -0.09106287 -0.1617831 -0.06195509
0.73538804 -0.29135495 -0.5001918 0.5434206 -0.092879355 0.08324188 0.42176893 0.24209769
-0.20303711 0.80166745 -0.15756792 -0.2773357 0.89350426 0.3037478 0.3493128 0.14481755
0.2948924 -0.18986663 0.31102413 -0.6122212 0.10937196 0.06854295 -0.05839605 -0.88968337
0.3751458 0.04614372 -0.18591869 -0.2930273 0.2312767 0.28701085 0.20461802 -0.3388384
0.12945494 -0.65650797 1.2734138 -0.18915287 0.615802 0.14244749 -0.17766443 -0.3690629
-0.11500635 -0.32672352 0.13666365 -0.1409151 -0.6555421 0.14003697 -0.11073847 -0.034869958
0.19587375 0.23456034 -0.43190685 0.28850046 0.057474073 0.30860063 -0.09432596 -0.41701815
-0.3791643 -0.13404973 -0.46626273 0.103782825 -0.09433013 -0.11008934 -0.32817793 -0.77809125
-0.22546943 -0.32656503 -0.077590674 0.51503056 0.33753288 0.016224073 0.25236467 0.28316355
0.88812757 0.4006535 -0.31239727 0.16473258 0.0033522714 -0.5560789 0.23015605 -0.03521349
-0.14713523 -0.07945939 -0.19838086 -0.1555599 0.35964552 -0.30984464 0.417296 0.27863413
-0.30606622 0.032603115 0.15916109 -0.574045 0.368021 0.2039259 -0.7691402 -0.20089893
0.15809758 -0.00078622624 -0.34497833 0.7746595 0.8753757 0.44224685 -0.35936913 0.09013988
1.0801901 0.10707286 -0.80367905 -0.14203389 0.46434036 -0.30730706 -0.23149799 0.028071864
0.09411315 0.20682609 0.09879324 -0.283388 0.055521492 0.88136935 -0.39289984 -0.12991908
0.26779342 -0.27315602 0.10091228 0.19094981 0.10689361 0.06718503 0.016315399 0.15794317
-0.29623735 -0.16218242 0.07226333 1.4635137 -0.259256 0.75816315 0.0818169 0.18205772
-0.14224143 -0.026737193 0.22847079 -0.19809751 -0.10681612 0.16030714 -1.0409561 0.39816523
-0.13000348 -0.64499164 0.046734136 0.2221395 -1.1801033 -0.2997529 0.46113303 0.45516944
0.81765014 0.0014462199 0.06108632 0.38323128 -0.03884935 0.21942952 0.3711176 -0.5096922
-0.1746506 -0.23622851 0.43847033 0.54906195 -0.27959722 0.18546712 0.1551276 -0.32919472
1.5771375 -0.47376296 -0.22192727 -0.13816886 -0.85570985 -0.07862386 0.73301125 0.14649187
0.10933537 -0.6989704 -0.32245618 0.25544697 -0.35524055 -0.4595134 0.02077166 0.23679581
-0.21105209 0.3567395 -0.73021555 0.06870527 -0.489482 0.1879708 0.851866 0.14831558
0.06610577 0.9404654 -0.21860442 -0.58575046 -0.16275346 1.1969303 0.19617023 -0.11249147
00000000: 931d 32be ff86 7b3e da65 00be e07c c6be
00000010: 741e 48be c002 473e 0152 a43e ce5c 913e
00000020: 66df bb3d f622 553e cb04 c23c 4a8d 87be
00000030: 6984 bebe 8125 583f 16f1 2e3f b840 03be
00000040: 38bd 2d3f 6048 4f3e 054f ebbd 7cdd f7bd
00000050: b4e4 b83e ad1b 553e 6cb6 e8be 58fc c73d
00000060: 6f8f b43d da00 063e b11d 573e 06b8 4c3d
00000070: 7405 dabe f9df 9fbd 3f94 88bf 4d12 95bc
00000080: 27a8 143f ea3d 053e 4612 d3be 00f3 f4bd
00000090: 4e17 30bf 78ca c93e 55a0 1fbf 2d2f ef3d
000000a0: 4829 123f e9d8 143f 2ba9 333e 5add d3bd
000000b0: 32c6 523e 2a48 26be 7cf0 e3bf 2130 cfbc
000000c0: e1b0 7c3d 3f16 17bf fa73 13be e341 13bf
000000d0: f317 24be 2c7f babd 78aa 25be 9fc4 7dbd
000000e0: 6442 3c3f 7a2c 95be 920c 00bf 9d1d 0b3f
000000f0: 8837 bebd b87a aa3d 19f2 d73e 75e8 773e
00000100: f6e8 4fbe 143a 4d3f 7c59 21be f2fe 8dbe
00000110: b2bc 643f d584 9b3e 21d9 b23e 0d4b 143e
00000120: 23fc 963e 666c 42be 8e3e 9f3e 87ba 1cbf
00000130: 68fe df3d 3f60 8c3d b230 6fbd 4ac2 63bf
00000140: 1c13 c03e 3301 3d3d 7861 3ebe ad07 96be
00000150: cdd3 6c3e 16f3 923e 6387 513e 3a7c adbe
00000160: d68f 043e e810 28bf 39ff a23f 4ab1 41be
00000170: 33a5 1d3f c1dd 113e aaed 35be d0f5 bcbe
00000180: 7388 ebbd 4e48 a7be 8ef1 0b3e 0c4c 10be
00000190: 9bd1 27bf da65 0f3e daca e2bd cdd3 0ebd
000001a0: 2193 483e 9630 703e e522 ddbe 55b6 933e
000001b0: ef69 6b3d e700 9e3e f82d c1bd 6783 d5be
000001c0: d321 c2be 5544 09be fdb9 eebe 178c d43d
000001d0: 2830 c1bd 8576 e1bd f006 a8be fd30 47bf
000001e0: 75e1 66be 8833 a7be dce7 9ebd 0bd9 033f
000001f0: 1cd1 ac3e 59e8 843c f135 813e d0fa 903e
00000200: 545c 633f 7522 cd3e 89f2 9fbe a8af 283e
00000210: c8b1 5b3b 305b 0ebf 07ae 6b3e 053c 10bd
00000220: 9eaa 16be 9bbb a2bd 5a24 4bbe 184b 1fbe
00000230: 7523 b83e f5a3 9ebe d2a7 d53e 22a9 8e3e
00000240: b6b4 9cbe d88a 053d 20fb 223e 9df4 12bf
00000250: 406d bc3e f3d1 503e 5fe6 44bf 73b8 4dbe
00000260: 55e4 213e c01a 4eba 00a1 b0be 1650 463f
00000270: 9f18 603f 2e6e e23e 3bff b7be 429b b83d
00000280: ab43 8a3f 0449 db3d e9bd 4dbf 5571 11be
00000290: 05be ed3e 5a57 9dbe cf0d 6dbe f7f6 e53c
000002a0: 65be c03d 38ca 533e 1c54 ca3d 3b18 91be
000002b0: 816a 633d 6ca1 613f 2b2a c9be 8209 05be
000002c0: 381c 893e 1bdb 8bbe 19ab ce3d 5988 433e
000002d0: 09eb da3d 4e98 893d dfa7 853c dbbb 213e
000002e0: 6cac 97be 2613 26be ccfe 933d 6b54 bb3f
000002f0: 34bd 84be fb16 423f 9e8f a73d 576d 3a3e
00000300: bda7 11be f507 dbbc 3ff4 693e 13da 4abe
00000310: 69c2 dabd 8e27 243e 0d3e 85bf 50dc cb3e
00000320: a21f 05be 2c1e 25bf 4b6c 3f3d 8978 633e
00000330: a00d 97bf 3679 99be a119 ec3e f80b e93e
00000340: 8551 513f 168f bd3a a635 7a3d e436 c43e
00000350: 7f20 1fbd 22b2 603e 2003 be3e 307b 02bf
00000360: 9bd7 32be e3e5 71be 2f7f e03e 538f 0c3f
00000370: 5e27 8fbe 18eb 3d3e c5d9 1e3e 368c a8be
00000380: a4df c93f 0f91 f2be e740 63be 237c 0dbe
00000390: cd0f 5bbf 8c05 a1bd a0a6 3b3f f701 163e
000003a0: 39eb df3d b9ef 32bf fa18 a5be f2c9 823e
000003b0: 17e2 b5be 5745 ebbe 5429 aa3c 9a7a 723e
000003c0: 0a1e 58be 8fa6 b63e 68ef 3abf 59b5 8c3d
000003d0: 629d fabe 6b7b 403e e413 5a3f 0ae0 173e
000003e0: 7662 873d 57c2 703f d6d9 5fbe bef3 15bf
000003f0: d8a8 26be 0335 993f d9e0 483e ee61 e6bd

bias f4 [64]
1.554388 -0.03302289 -0.074158445 -0.01627736 -0.05806238 -0.08012775 -0.07530417 0.42941058
-0.08635281 0.8632944 -0.06419195 -0.12541805 -0.038617454 -0.08193286 0.2682733 -0.03985121
-0.043508526 0.010030713 0.91236365 -0.037523415 -0.049410455 -0.049176745 -0.08231359 -0.049166676
-0.07886224 -0.080780275 0.38681027 -0.070904784 -0.089412406 -0.041534875 0.52642626 -0.042795237
0.2828913 -0.08462187 0.88429993 1.0510123 -0.04485479 -0.057329316 -0.083297364 -0.05921681
-0.049027365 -0.050712366 0.36885947 -0.043957423 -0.006161155 0.8730666 -0.033956695 0.01797116
-0.063463606 -0.055875383 -0.056128707 0.004868096 -0.015724529 1.0927012 0.9609696 0.8204479
-0.06886337 1.5056862 0.17242573 -0.081513375 -0.04426593 -0.0036103649 -0.048937827 0.65104246
00000000: 30f6 c63f 0343 07bd 62e0 97bd 1958 85bc
00000010: d1d2 6dbd 051a a4bd 1339 9abd b4db db3e
00000020: bed9 b0bd dd00 5d3f 1277 83bd 976d 00be
00000030: 562d 1ebd 6acc a7bd 1e5b 893e 063b 23bd
00000040: ff35 32bd dc57 243c aa90 693f 27b2 19bd
00000050: 9e62 4abd 8e6d 49bd 0794 a8bd ff62 49bd
00000060: 8782 a1bd 2170 a5bd ff0b c63e 8736 91bd
00000070: da1d b7bd 7920 2abd dfc3 063f 0f4a 2fbd
00000080: 21d7 903e 3b4e adbd 7b61 623f 9287 863f
00000090: a8b9 37bd 25d2 6abd cf97 aabd 538d 72bd
000000a0: ebd0 48bd c5b7 4fbd 26db bc3e b30c 34bd
000000b0: 84e3 c9bb 4b81 5f3f 2d16 0bbd 4138 933c
000000c0: 35f9 81bd 96dd 64bd 37e7 65bd 8d84 9f3b
000000d0: bad0 80bc a2dd 8b3f 1b02 763f e008 523f
000000e0: 3d08 8dbd 53ba c03f 5f90 303e 7cf0 a6bd
000000f0: 3150 35bd df9b 6cbb 0873 48bd b8aa 263f

weight f4 [128, 64]
-0.23951726 0.09396089 -0.042918336 0.085631445 0.04690034 0.05892378 -0.064444534 0.0739805
0.0059372694 0.006720827 0.16329609 -0.106054895 -0.040800545 0.16375269 -0.08012882 0.059475914
0.021772176 -0.049790557 -0.0626804 -0.04442235 0.13928774 0.09464516 0.043127026 -0.02768005
-0.04694017 -0.041933928 -0.015193478 -0.022683525 0.029280378 -0.093224555 0.061766982 -0.0030296708
-0.057252724 0.015048131 -0.08885111 -0.10637866 0.021804746 -0.017670773 -0.04782211 -0.008683169
0.17962965 -0.023735087 0.009006994 -0.09879001 -0.06558186 -0.0512883 0.11660131 0.035338808
0.09259255 -0.046899147 0.12434876 -0.0026405978 0.091040626 -0.052848563 -0.00907236 -0.031937808
-0.019157644 0.006444553 -0.09366499 0.046621248 -0.053781 -0.034930225 0.05799003 -0.058245163
-0.12837492 -0.07597436 -0.044310495 0.018247664 0.11418156 0.09910324 -0.10533306 -0.15551531
0.07598752 -0.15920937 -0.016668662 -0.047250077 0.06842682 -0.03918253 -0.08330334 -0.034997523
-0.09492241 -0.09818782 0.035708427 0.12193626 -0.052982718 0.06457555 0.06446922 -0.11709677
0.05067244 0.045111373 0.011001439 -0.05153519 0.061343476 0.08384515 -0.14194249 -0.11912677
0.10355204 -0.1235763 -0.10452978 -0.2252445 0.05524844 -0.06060934 -0.021604642 -0.11099748
-0.033533767 0.023242354 0.045754876 0.072256446 0.0057426095 -0.27542916 0.06356688 0.10618876
-0.10234393 -0.10926889 0.07315822 -0.10580027 0.061231256 -0.0464112 -0.13498291 -0.10627627
-0.110750034 -0.1536635 -0.14018509 -0.0026716143 -0.05733539 -0.054615274 -0.035564914 -0.13511048
-0.23194957 -0.18462065 0.042182982 -0.002806185 0.021852326 0.058061935 -0.009373797 0.036980648
-0.17987092 -0.2951632 -0.16086566 -0.16203524 -0.032230835 -0.025238208 -0.12993869 -0.017807223
-0.005420292 -0.16209486 -0.19368073 0.022708764 -0.14721426 0.05823072 -0.043403447 0.052853383
-0.15649605 -0.048772473 -0.38806698 -0.09990385 -0.0026337 -0.15006189 0.011642316 -0.06268031
-0.43257698 0.055538647 -0.13859302 -0.9734045 -0.12971851 0.0061850934 0.020475127 -0.08430231
-0.119945325 -0.009620012 -0.22062165 -0.1632253 -0.12528415 -0.7688228 -0.12013923 0.05849559
-0.061481867 -0.17302793 0.06191025 0.046372574 -0.17072366 -0.6255594 -0.16518833 -0.043796733
-0.039088573 -0.29692268 0.15607734 -0.015873378 -0.14168431 -0.14275679 -0.11613 -0.13291079
-0.13237232 0.047078248 -0.13912481 -0.13704202 0.035382606 -0.007527801 -0.14930883 0.027551169
0.023239627 -1.0579255 -0.08663392 -0.1149279 0.010133794 -0.16972603 -0.012746494 -0.07576883
0.03387221 -0.0638504 -0.84734607 0.028640784 -0.023195406 -0.06123042 -0.10243462 -0.14780618
-0.15778565 0.058938347 0.11009876 -0.090462506 -0.13239577 -0.1599672 0.25022814 0.04780853
0.06880316 -0.17776966 -0.2666053 -0.5753444 0.059641525 -0.100109495 -0.16498761 0.023725055
0.018162722 -0.048885882 0.020220619 -0.0339183 -0.0004456089 -2.8574188 -0.13949955 -0.11330756
0.006367007 0.006686452 -0.06715823 -0.04872486 0.023973059 -2.1894772 -0.12723958 -0.9531939
-0.11247847 -3.0419157 -0.17469536 -0.17056261 -0.066467844 -0.15356292 -0.09936131 -0.6548314
00000000: 0344 75be 916e c03d 23cb 2fbd 8a5f af3d
00000010: 921a 403d 105a 713d 7ffb 83bd 1783 973d
00000020: 6d8d c23b 623a dc3b 1737 273e 4f33 d9bd
00000030: 791e 27bd c9ae 273e 941a a4bd 049d 733d
00000040: 905b b23c 2ff1 4bbd 955e 80bd 36f4 35bd
00000050: 72a1 0e3e 52d5 c13d f7a5 303d 46c1 e2bc
00000060: 5644 40bd e9c2 2bbd 11ee 78bc cdd2 b9bc
00000070: 67dd ef3c 84ec bebd 60ff 7c3d 718d 46bb
00000080: d581 6abd 708c 763c 92f7 b5bd 0edd d9bd
00000090: de9f b23c 4cc2 90bc 1ee1 43bd da43 0ebc
000000a0: d6f0 373e 1670 c2bc 1292 133c 6b52 cabd
000000b0: c84f 86bd ae13 52bd abcc ee3d 6dbf 103d
000000c0: 2aa1 bd3d 5219 40bd 90aa fe3d e10d 2dbb
000000d0: 8273 ba3d bc77 58bd 3ca4 14bc 38d1 02bd
000000e0: 7ef0 9cbc d42c d33b 6ed3 bfbd ecf5 3e3d
000000f0: 7749 5cbd ff12 0fbd f486 6d3d 7b92 6ebd
00000100: b774 03be 7298 9bbd ec7e 35bd 207c 953c
00000110: 06d8 e93d a4f6 ca3d dcb8 d7bd 683f 1fbe
00000120: 589f 9b3d c807 23be b88c 88bc 4c89 41bd
00000130: 5c23 8c3d dc7d 20bd f19a aabd 9059 0fbd
00000140: ae66 c2bd b216 c9bd 0043 123d b8b9 f93d
00000150: 6804 59bd 3040 843d 7008 843d 6ed0 efbd
00000160: e88d 4f3d b4c6 383d 613f 343c 9016 53bd
00000170: 4c43 7b3d 02b7 ab3d 5f59 11be bcf8 f3bd
00000180: 1813 d43d 9215 fdbd b613 d6bd 7fa6 66be
00000190: 304c 623d 8041 78bd 38fc b0bc a652 e3bd
000001a0: b45a 09bd c066 be3c 7769 3b3d 30fb 933d
000001b0: 802c bc3b 0d05 8dbe 5a2f 823d 7e79 d93d
000001c0: b299 d1bd 5ec8 dfbd fad3 953d d0ad d8bd
000001d0: a0cd 7a3d ac19 3ebd f638 0abe 5fa7 d9bd
000001e0: ead0 e2bd f759 1dbe ae8c 0fbe 4016 2fbb
000001f0: 84d8 6abd 44b4 5fbd 84ac 11bd 675a 0abe
00000200: 3084 6dbe 320d 3dbe 10c8 2c3d f9e7 37bb
00000210: a603 b33c 5ad2 6d3d 8e94 19bc 0579 173d
00000220: 1530 38be a21f 97be f8b9 24be 91ec 25be
00000230: 7b04 04bd 5cc0 cebc a60e 05be 74e0 91bc
00000240: b49c b1bb 32fc 25be 3e54 46be bb07 ba3c
00000250: 56bf 16be 5683 6e3d d0c7 31bd ca7c 583d
00000260: 8040 20be a5c5 47bd b7b0 c6be 649a ccbd
00000270: 279a 2cbb d3a9 19be 6abf 3e3c 895e 80bd
00000280: bb7a ddbe 7e7c 633d 54eb 0dbe 0a31 79bf
00000290: eed4 04be 53ac ca3b 74bb a73c b1a6 acbd
000002a0: e5a5 f5bd 419d 1dbc a4ea 61be 8824 27be
000002b0: 7d4a 00be 92d1 44bf 8e0b f6bd 1299 6f3d
000002c0: 69d4 7bbd 3c2e 31be 9a95 7d3d 2bf1 3d3d
000002d0: 2fd2 2ebe a924 20bf 2127 29be 3464 33bd
000002e0: 571b 20bd 4006 98be bdd2 1f3e e308 82bc
000002f0: b115 11be d62e 12be 91d5 edbd c419 08be
00000300: 9c8c 07be 1fd5 403d bc76 0ebe be54 0cbe
00000310: 5aed 103d c6ab f6bb 6ae4 18be fdb2 e13c
00000320: 0861 be3c 1a6a 87bf 206d b1bd 525f ebbd
00000330: 3608 263c a9cc 2dbe acd6 50bc b02c 9bbd
00000340: 96bd 0a3d 00c4 82bd aceb 58bf 14a0 ea3c
00000350: 4b04 bebc c0cc 7abd 3ec9 d1bd 815a 17be
00000360: 9092 21be 5669 713d 757b e13d 6844 b9bd
00000370: c292 07be 71ce 23be e71d 803e e1d2 433d
00000380: ace8 8c3d 4009 36be 7d80 88be c549 13bf
00000390: ac4a 743d 3506 cdbd 83f2 28be 0c5b c23c
000003a0: fdc9 943c 903c 48bd b6a5 a53c eaed 0abd
000003b0: 9da0 e9b9 f3df 36c0 f8d8 0ebe cb0d e8bd
000003c0: 53a2 d03b 061a db3b 418a 89bd b893 47bd
000003d0: 2663 c43c 6520 0cc0 184b 02be 8404 74bf
000003e0: 1d5b e6bd bfae 42c0 57e3 32be f7a7 2ebe
000003f0: 4b20 88bd 993f 1dbe f17d cbbd 08a3 27bf

bias f4 [128]
0.2844504 -0.37981266 -0.016493311 0.7338667 -0.3769327 -0.10136594 -0.02916063 -0.099096246
-0.17552261 -0.010617448 -0.063621484 -0.0027376192 -0.15427072 -0.12297422 -0.03829328 -0.1570805
-0.093141854 -0.048771523 -0.030729776 -1.7588903 0.59394044 -0.04528745 -0.36419412 -0.57398677
0.7401597 0.26969817 0.051984813 0.6121982 -0.64728886 -0.11011761 -0.038785458 0.95673496
0.9268014 0.3754865 -0.0031237635 -0.0026132488 -0.11333233 0.45022538 -0.14138906 -0.01544122
-0.040634185 0.97463334 -0.04670517 0.09405908 -0.31747314 0.30853334 -0.0019103349 -0.015604399
-0.033681467 -0.24409576 -0.20297101 0.0029083097 0.80277896 -0.10401223 -0.30562267 -1.619995
-0.07646489 -0.08405801 -0.19662772 -2.0794373e-06 -0.114790894 -0.017022891 0.48086518 0.28892887
-0.1291269 -0.030374093 -0.002994928 -0.56852996 1.2061951 -0.1440104 -0.34214452 -0.0076366942
0.63290745 -0.24632409 -0.13093378 0.0018893529 -0.060423594 -0.06151307 -0.0021435693 -0.00016376596
-0.124840885 -0.0002493583 -0.021640152 -0.18433225 0.0016537152 -0.09448999 -0.026309062 -0.017280323
0.9345916 -0.0046700053 -0.058402546 -0.0009142729 -0.078826964 -0.0039469968 0.5253906 0.9243405
-0.08718512 -0.11375445 -0.07902493 -0.29709792 -0.053172115 0.044894118 0.121055044 -0.38198543
0.06875445 -0.07204534 -0.096443266 -0.24586381 -0.049882177 0.05480407 -0.14304389 -0.049904466
-0.017126195 -0.10723651 -0.13645566 -0.04681011 -0.043871067 -0.22481535 -0.1278845 0.5029291
-3.2343145e-05 -0.1023511 -0.08969602 -0.113823675 -0.28429177 -0.0005267741 -0.058942296 0.79466134
00000000: 7ca3 913e ce76 c2be fb1c 87bc b0de 3b3f
00000010: 53fd c0be f298 cfbd 46e2 eebc f9f2 cabd
00000020: 33bc 33be cef4 2dbc fb4b 82bd a169 33bb
00000030: 25f9 1dbe e8d9 fbbd 6ad9 1cbd b6d9 20be
00000040: 28c1 bebd a6c4 47bd 03bd fbbc 5123 e1bf
00000050: 7b0c 183f 557f 39bd a777 babe ccf0 12bf
00000060: 1b7b 3d3f e115 8a3e 07ee 543d 05b9 1c3f
00000070: b9b4 25bf 5785 e1bd 80dd 1ebd 95ec 743f
00000080: db42 6d3f c43f c03e 0eb8 4cbb 0a43 2bbb
00000090: c81a e8bd f183 e63e 4bc8 10be 2cfd 7cbc
000000a0: 0870 26bd 9281 793f ec4d 3fbd 0ca2 c03d
000000b0: d78b a2be 15f8 9d3e 3464 faba 98a9 7fbc
000000c0: 94f5 09bd 3df4 79be a2d7 4fbe 5799 3e3b
000000d0: ec82 4d3f 5d04 d5bd 937a 9cbe ff5b cfbf
000000e0: a099 9cbd 9b26 acbd c758 49be 768c 0bb6
000000f0: 7d17 ebbd 9773 8bbc f633 f63e 7cee 933e
00000100: d839 04be 17d3 f8bc 8e46 44bb 2e8b 11bf
00000110: 9a64 9a3f 7677 13be 912d afbe 3c3d fabb
00000120: 3906 223f 623c 7cbe 8113 06be 2aa4 f73a
00000130: bb7e 77bd 21f5 7bbd 207b 0cbb 97b8 2bb9
00000140: 94ac ffbd 4ebc 82b9 b046 b1bc 98c1 3cbe
00000150: 79c1 d83a f883 c1bd 1a86 d7bc 778f 8dbc
00000160: 6541 6f3f d806 99bb 8237 6fbd d1ab 6fba
00000170: 0870 a1bd cf55 81bb 0080 063f 94a1 6c3f
00000180: 1d8e b2bd 18f8 e8bd d3d7 a1bd 381d 98be
00000190: 01cb 59bd e5e2 373d b5eb f73d 9893 c3be
000001a0: 22cf 8c3d 828c 93bd 0c84 c5bd b9c3 7bbe
000001b0: 4151 4cbd 3c7a 603d 197a 12be a068 4cbd
000001c0: 3c4c 8cbc d19e dbbd 08bb 0bbe f5bb 3fbd
000001d0: 26b2 33bd ff35 66be 28f4 02be f6bf 003f
000001e0: 30a8 07b8 749d d1bd 8cb2 b7bd 631c e9bd
000001f0: b18e 91be 3617 0aba 7a6d 71bd ed6e 4b3f

weight f4 [1, 128]
-0.008165758 -0.18820621 0.0020583193 -0.104685165 0.2479617 0.05207457 0.016109768 0.03625296
0.0022846754 -0.000850367 0.05120539 -0.053536296 0.037649523 -0.21917896 0.04076151 0.0022777398
-0.088155456 0.030213263 0.020233192 -0.18417208 -0.04799997 0.02438689 -0.18912204 0.06576599
0.015295357 -0.09901015 -0.013298696 0.02680358 0.039780654 0.027018636 -0.02297208 0.14598984
0.1310756 -0.016030531 0.01811397 0.04623202 0.024578484 -0.067638345 0.02799881 -0.016911095
0.052456167 0.1644385 0.0012074662 -0.004749146 -0.042346235 -0.028562339 0.032421954 0.0409912
-0.13182984 0.047420762 0.016690448 -0.0007750688 -0.11029213 0.053631574 0.23946758 -0.2582326
-0.011508502 -0.013367276 -0.009590294 6.260607e-07 0.017528614 0.024518982 -0.04550063 -0.49760595
-0.038783327 0.019278608 -0.009478272 -0.1375483 0.31284854 -0.0015420855 -0.17639582 -0.00039033894
-0.03880598 -0.009863925 0.008062963 -0.001749392 -0.0011967419 0.0025843254 -0.0017923857 4.943474e-05
-0.039320387 0.0003235024 0.0026729188 0.033374965 -0.00046659255 0.009964716 -0.0018723173 -0.018262686
0.17006713 0.020588702 -0.018524371 -0.0022794467 0.008554644 -0.0014310369 -0.056360073 -0.16897784
0.020963637 -0.0032006814 0.03901195 -0.24165672 0.005207622 -0.012339339 -0.027104026 -0.16420646
-0.013974794 0.05489613 0.07391629 0.048241425 0.01385864 -0.014900064 0.039443523 0.023099614
-0.027751986 0.017170101 0.041467443 0.032225925 -0.005687388 -0.16144362 -0.02698057 -0.03433177
3.920058e-05 0.022771534 0.0071769366 -0.039541025 0.024753869 -8.521715e-06 0.027858071 -0.123300284
00000000: acc9 05bc 21b9 40be dee4 063b 2d65 d6bd
00000010: ace9 7d3e 254c 553d a2f8 833c fc7d 143d
00000020: 7eba 153b 2aeb 5eba bebc 513d e048 5bbd
00000030: 6336 1a3d 7370 60be 8bf5 263d 2246 153b
00000040: d98a b4bd ce81 f73c 14c0 a53c 9b97 3cbe
00000050: 9e9b 44bd 04c7 c73c 35a9 41be 52b0 863d
00000060: 6199 7a3c d5c5 cabd c6e2 59bc 2e93 db3c
00000070: 0af1 223d 3056 dd3c f22f bcbc 5c7e 153e
00000080: af38 063e 7652 83bc c063 943c c95d 3d3d
00000090: d158 c93c f985 8abd c35d e53c 2389 8abc
000000a0: 47dc 563d 9162 283e d843 9e3a b99e 9bbb
000000b0: 3f73 2dbd 91fb e9bc e2cc 043d 63e6 273d
000000c0: 67fe 06be 463c 423d 68ba 883c fd2d 4bba
000000d0: d7e0 e1bd c8ac 5b3d fd36 753e 1037 84be
000000e0: 288e 3cbc 6b02 5bbc 9c20 1dbc 900e 2835
000000f0: 2b98 8f3c 08dc c83c de5e 3abd 35c6 febe
00000100: 44db 1ebd 2cee 9d3c c14a 1bbc 76d9 0cbe
00000110: af2d a03e ce1f caba 1ba1 34be 68a6 ccb9
00000120: 05f3 1ebd 4d9c 21bc 851a 043c db4b e5ba
00000130: ffdb 9cba c95d 293b 7cee eaba 2658 4f38
00000140: 6a0e 21bd c29b a939 232c 2f3b 30b4 083d
00000150: fea0 f4b9 0c43 233c 8b68 f5ba a19b 95bc
00000160: 1426 2e3e a3a9 a83c 6cc0 97bc c562 15bb
00000170: c728 0c3c a191 bbba d2d9 66bd 8708 2dbe
00000180: efbb ab3c 86c2 51bb ffca 1f3d dc74 77be
00000190: b3a4 aa3b f02a 4abc 4309 debc bd25 28be
000001a0: 89f6 64bc c4da 603d 6d61 973d cd98 453d
000001b0: 590f 633c 661f 74bc 888f 213d 673b bd3c
000001c0: 2258 e3bc 50a8 8c3c c4d9 293d 55ff 033d
000001d0: 455d babb 7a51 25be 5b06 ddbc 789f 0cbd
000001e0: 4d6b 2438 5e8b ba3c 822c eb3b c5f5 21bd
000001f0: a0c8 ca3c 7df8 0eb7 9c36 e43c dc84 fcbd
