src/Fun_2/model/model_1024_64_64_0.001_200.pt (torch, 309423 bytes, 5 tensors)

weight f4 [64, 1128]
00000000: 92ae 31bc 5fe8 973c 46be c8bc 7d4d e1bc
00000010: b138 68bb 65de 4f3c e3ea 00bd c4b0 903c
00000020: b06f 67bc 2d1a 91bc fcac 253c f568 80bc
00000030: bf8c 92bc c2bd 93bc dd76 e73b 8c40 d8bc
00000040: fec9 81bc 2d09 78bc 0554 843c c7c9 80bc
00000050: 686d 8abc e72d a2bc 8652 e83b 0ede 8cbc
00000060: 4150 31bb bdc5 9fbc 11f5 8ebc 00cf 30bc
00000070: 0fdc 67bc 7d77 8dbc 49f4 21bc 005a f7bc
00000080: a213 4cbc a07f 34ba b5be bebc 1f55 4e3c
00000090: d4c9 01bd 7fd7 09bd e8ae 0ebd bd38 07bd
000000a0: 4877 e0b9 4d04 703c 7ed3 7dbb 9155 00bd
000000b0: 6c2e 80bc 4eeb 323c c0e0 403c ae4d 0f3c
000000c0: 6b3d af3c d02d 84bc 6bc6 5bba afa2 e2bc
000000d0: 5e8b d5ba 9c53 d5bc 498a 433c 3141 89bc
000000e0: cd2a 67bc f060 2dbc c907 0b3c 08fd 96bc
000000f0: 5f13 e7bb 4537 1dbc 8e0a 733b c358 f6bc
00000100: b368 693c ef86 6c3c 6c16 303b 9b93 d6bc
00000110: 7525 a13c 1bc0 7d3b 6c32 ecbc 937a 87bc
00000120: 6b48 87bc ba93 1f3b a2a6 7dbb 8955 8ebc
00000130: af31 7b3b 2e54 c7bc f8be 5cbc c6d8 cbbb
00000140: 809c aebc 0e39 a83b 8d01 96bc 8422 f93b
00000150: 60f1 2cbc a74c 4eba 97ff 953b e50e 7d3c
00000160: 3ad2 4abc 351a aa3c 561f 943b e8d1 e4bc
00000170: bed5 0cbd f479 bc3c 81e6 1f3c 8893 bdbc
00000180: a219 82bc 3835 b7bc 9dbd 9ebc 4747 86bc
00000190: 95d9 7f3c aff6 8e3c 08a9 923b 3845 3c3c
000001a0: 58af 0dbd fc6c b83c 9b09 adbc 7c61 a53c
000001b0: 7924 d2bb 0519 7cbc 3f08 0bbd 1f0b a63c
000001c0: c50c 9dba aeff b23b e68d 8bbc 143f 10bd
000001d0: a0ec 3bbc b4fd 96bc 66af 163b 2dec 8abc
000001e0: 4500 bb3c b5c1 f3ba 77b3 4abc 8d05 463b
000001f0: 0a7c ab3c 9561 efbc 64b1 80bc 0010 0abd
00000200: 32e0 9cbc c996 a7bc eaef eabb 498d f3bc
00000210: e516 acbb 2783 993c c4eb 0fbb 7098 4a3c
00000220: 254f 85bb 1b87 ba3c 83ae d4ba 40ce 2ebb
00000230: 0104 e0bc 93a9 bdbc cf95 5fbc 608d 7b3c
00000240: ace6 f7bb f4f1 e5bc deb8 38bc 7e25 28bc
00000250: f8fd 443b 1896 563b a264 a5ba 3493 4cbc
00000260: 93e4 3fbc dcd5 58ba d4c4 eebc a28b 993b
00000270: 35dd 3d3c 287f babc 209f 0bbd fa92 843c
00000280: 63df cf3b 67a3 0ebd 1a89 ca3b d99b 8bbc
00000290: 5f79 bf3c a543 56bc 66e8 09bb ce13 513c
000002a0: 3f18 4bba d845 aebc cda5 94bc 7394 a3bc
000002b0: e50a 513c 98d4 31bc 127a 7fbc 4b2b 103b
000002c0: 2add 873c 4a1e eabc 82d6 27bc de15 f0bc
000002d0: 057c 4f3b 54fa c938 0f64 dcbc 39a5 f4bb
000002e0: 11fc 3dbc bb88 e13b 6ac8 343c 93e3 8bbb
000002f0: 1530 a239 4196 263c f066 bebc 87bc 0bbd
00000300: c542 9abb 3514 6fbc d7d6 b33c 111a 43bc
00000310: e3fa 453c cbc7 fabc 2158 9fbc c398 243c
00000320: adaf d7bc 99b3 e0bc b47a 213c 578d 283b
00000330: 31cf d9bc d0d9 e5bc 59fa 4abc 3dcf a2bc
00000340: 6e3a e3bc d91f 3e3c 4fb2 2e3c 479c 5a3c
00000350: 824d 11bd 6686 cbbc 185f c6bc a3a0 b73c
00000360: a137 e93b 2280 2ebc b196 5bbb 3433 09bd
00000370: 5ef5 3e3c 903a 1a3c 91ed febb e5c2 bfbb
00000380: 8626 a03b 2774 72bc 6383 c13b ebc7 17ba
00000390: 4117 1a3c b5dc 70bc b4cc 0d3b f3f3 b23c
000003a0: 8b8e 49bc ddd3 6dba 2c69 9b3c 49e5 0abd
000003b0: daad 7abb 3887 1fbc 7229 a63c f9ca ef3b
000003c0: cf9c b0ba 2c15 d6bc 16c0 353c 3d70 5dbc
000003d0: 865c debb 2871 a63c 395c 473b 98f7 51bc
000003e0: 6310 493c d727 0fbc 6312 07bd 2107 61bc
000003f0: 277e 11bc a912 b6bb a79c 1dbc 13b8 4c3c
-0.010844843 0.01854342 -0.024504792 -0.02750277 -0.0035434181 0.0126873 -0.031474005 0.017662413
-0.0141257495 -0.017712677 0.0101120435 -0.015675047 -0.017889379 -0.01803482 0.00706373 -0.026397966
-0.015843388 -0.015138906 0.016153345 -0.015721215 -0.016897872 -0.019797279 0.0070899157 -0.017195728
-0.0027055892 -0.019503469 -0.017450841 -0.01079154 -0.014151587 -0.01726889 -0.009884902 -0.030194283
-0.012455853 -0.00068854727 -0.023284296 0.012593537 -0.03168662 -0.03365278 -0.034834772 -0.033013094
-0.0004281348 0.014649463 -0.0038730795 -0.031331602 -0.015647136 0.010920359 0.011772335 0.008746548
0.021391591 -0.016135126 -0.00083837536 -0.027665464 -0.0016292145 -0.026040845 0.011934825 -0.016754718
-0.014109326 -0.010582194 0.008485743 -0.018431202 -0.0070518698 -0.009595697 0.0037085149 -0.030071622
0.014246154 0.014436468 0.0026868833 -0.02619343 0.019671181 0.003871924 -0.028832637 -0.01653794
-0.016514024 0.0024349527 -0.0038704057 -0.01737477 0.0038329174 -0.024332132 -0.013473265 -0.0062209098
-0.02131486 0.0051337546 -0.018311286 0.0076029915 -0.010555595 -0.00078696985 0.004577588 0.015445446
-0.0123792235 0.02076445 0.004520337 -0.027932122 -0.034383528 0.02300737 0.009759546 -0.023141637
-0.015881363 -0.022364244 -0.019377524 -0.01639141 0.01561584 0.017451612 0.0044757165 0.011491112
-0.03459105 0.022512905 -0.021122744 0.020188086 -0.0064130393 -0.0153868245 -0.03394341 0.020268975
-0.0011981955 0.0054626083 -0.017035436 -0.035216406 -0.01146999 -0.018431522 0.002299273 -0.01695832
0.022827277 -0.0018597158 -0.012371889 0.003021571 0.02093317 -0.029221335 -0.015709586 -0.033706665
-0.019149873 -0.020457642 -0.0071697133 -0.029730456 -0.0052517527 0.018739296 -0.0021960596 0.0123654455
-0.0040682727 0.022769501 -0.0016226325 -0.0026673228 -0.02734566 -0.023152148 -0.013646557 0.015353531
-0.00756534 -0.028069474 -0.0112745445 -0.010262845 0.0030058604 0.0032743271 -0.0012618492 -0.012486268
-0.011712211 -0.00082716136 -0.02914659 0.004685835 0.011588384 -0.022765711 -0.0340873 0.016183365
0.0063437684 -0.0348238 0.0061808946 -0.017042087 0.023373304 -0.013077651 -0.0021043061 0.012761069
-0.00077474484 -0.021273538 -0.018145466 -0.019968247 0.012758945 -0.010853909 -0.015593069 0.002199846
0.016584951 -0.028578896 -0.010244014 -0.029307302 0.0031659615 9.631054e-05 -0.02690318 -0.007465985
-0.011595742 0.0068827546 0.011034111 -0.0042690723 0.00030934872 0.010167659 -0.023242444 -0.03411534
-0.0047076666 -0.01459222 0.02195303 -0.01190807 0.012083742 -0.030612847 -0.019451203 0.010046187
-0.026328886 -0.027429389 0.009855915 0.002571901 -0.026588054 -0.028057963 -0.012388789 -0.01987421
-0.027737822 0.011604273 0.010662629 0.0133429235 -0.035474308 -0.02484436 -0.024215266 0.022415465
0.007117227 -0.010650666 -0.0033506567 -0.033496097 0.01165518 0.009413376 -0.007779785 -0.0058520907
0.004887405 -0.014798201 0.005905555 -0.0005789983 0.009404958 -0.014701058 0.0021636905 0.02184484
-0.012302051 -0.00090724026 0.018971048 -0.03391007 -0.0038250596 -0.0097368285 0.020283435 0.0073178974
-0.0013474467 -0.026133142 0.01109316 -0.013515529 -0.006785932 0.020317629 0.003041996 -0.012815379
0.012271973 -0.008737526 -0.03297652 -0.01373461 -0.008880175 -0.0055564237 -0.009619868 0.012495059

bias f4 [64]
00000000: 3a84 71bc c956 08bd da72 89bc c40f ba3e
00000010: 5ff2 f5bc 02b8 1a3d ae3b 8e3c 6cfe 7b3e
00000020: cd7b 383b 86ff 9cbc 8654 39bc 4e04 97bc
00000030: 891b 933b 206c 12bd e919 a6bc a4f1 87bc
00000040: d7a4 083e 837c 7dbc 4438 afbc c715 713c
00000050: 0e39 d0bb d235 68bc ff1d e93d 0b64 09bd
00000060: 63fc 12bd dbb9 06bd 29b3 2d3c 3edf dc3e
00000070: 9cd2 c93d ce52 bd3e 3740 a53e d19c 47bb
00000080: e8fb 023e 881b c6bd 3f77 5c3b 21c7 ee3d
00000090: 69aa f6bc 9514 32bc 9744 6c3c 585f c9bc
000000a0: 4b2f 0fbd 4608 c8bb 401c 9e3c 0117 52bc
000000b0: 5c13 0b3e 65a6 b4bc bd1c e5bc a76b 463c
000000c0: 17cf 5eb9 0a2a a23d 332e ce3c 8577 be3b
000000d0: 1ba4 e93b 72ee 8b3c bc69 633d 168a df3d
000000e0: 5ea0 753e a8a5 c9bc 3ecb 863d 4d21 97bc
000000f0: b31c 973c 5495 0b3e b3ca c5bc c408 343e
-0.014740998 -0.03328589 -0.016778398 0.36340153 -0.030022798 0.03777314 0.017362442 0.24608773
0.0028149963 -0.019164812 -0.011311656 -0.01843467 0.0044893664 -0.035747647 -0.020276027 -0.016594715
0.13344131 -0.01547158 -0.021389134 0.014714665 -0.0063544577 -0.014172988 0.113826744 -0.033542674
-0.035885226 -0.03289209 0.010601797 0.4313907 0.09854624 0.36977237 0.32275555 -0.003045846
0.12791407 -0.0967322 0.0033640412 0.116590746 -0.030110555 -0.010869165 0.01442065 -0.024581596
-0.03495721 -0.006104502 0.01930058 -0.012822867 0.13581604 -0.022052 -0.027967805 0.012110627
-0.00021248717 0.079181746 0.025168514 0.0058125877 0.0071301586 0.017081473 0.055520758 0.1091501
0.23986956 -0.024615124 0.06581734 -0.018448496 0.018446302 0.13631183 -0.024144506 0.17581469

weight f4 [64, 64]
00000000: ee65 a93c 0e4a eb3b adf7 9f3d b841 f83d
00000010: afb4 cd3d abd3 21bd 5315 c9bd b612 b63b
00000020: d725 8b3d 4ee2 78bc c1ba e7bd c981 cdbd
00000030: 7648 d8bd cd58 ecbd a68b 893d 7654 e83d
00000040: b0d7 96bd aace fd3c 70c5 e83d bfde 5bbc
00000050: 62b7 e53d dd37 e13d 918d 3cbd e351 60bd
00000060: 8ddf 043e fb10 fcbb 8ad7 a6bd c406 a73d
00000070: 5e78 54bd 6806 893b 567a babd 8de2 303d
00000080: aa5c 8d3d 8ba1 0cbd 8372 713d ce29 d0bb
00000090: e3d0 7cbd 65ae 0c3d d8bb c1bd 428f 37bd
000000a0: a7ae 78bd 4b1d 633d e08c cb3d 5145 d6bc
000000b0: 1cef be3c 62cc 9abd 6a1b ac3d 72cc e63b
000000c0: c89d 9a3d 83ec ca3c 6ddc 27bd 6152 cebd
000000d0: 876f eebd 378c b3bc 7cc7 11bd 02e2 4cbd
000000e0: c62a b23d ae95 edb8 44f2 babc 7a82 ddbd
000000f0: a28d 4c3d 03fc a0bd fb9f 993d 3b73 a13c
00000100: 110b b43d ac82 c6bc ed90 723d f112 593a
00000110: 79b8 71bd af3a 42bd 14d1 ee3a 921f ca3d
00000120: f3f2 00bd 505b a03d 7cb7 c43c 8873 d63a
00000130: 55fa fb3b d3dc 933d 68e4 cf3c 430c 9cbd
00000140: 20eb c53d c087 f23a de3c 87bd dc04 d2bd
00000150: 5a1d ff3d 26a8 293c b86c af3d dcaa 52bd
00000160: 6856 12bd 967d c5bd 5c88 90bd 33b4 49bd
00000170: a7d9 f0bd 432c 493d bf0c 753d 1b98 c63d
00000180: 7fdd 58bd 1ce3 99bd fb5e 1cbb 0b14 e93c
00000190: 1927 633d 882d f13d 9d48 9f3d 84a2 d03d
000001a0: c5c4 b73d f492 60bd 805d 47bd a4df 8b3d
000001b0: 8da9 7ebd 7d51 79bd 5f4b 66bd 2bbb b7bd
000001c0: d896 9dbd 03c1 a43c e335 183d f6fc c6bd
000001d0: 4287 d2ba c0a5 f0bd af67 18bd f16a 2e3d
000001e0: 18af 113d bf1f 70bd fed9 12be d239 a6bd
000001f0: 822d 773d a2cc c43d d591 df3d 8bfd 60bd
00000200: 7f21 293c 22ac 023e 7540 bebd cb5a 273e
00000210: 0ecd bc3d 8f26 db3d abcb f03d 4451 ec3c
00000220: 663a e3bd 8e24 ed3d 835a 86bd 386d 71bd
00000230: 6bee aabd ff98 83bb c021 18bd c930 d2bc
00000240: 9ac5 033e 3685 60bd a864 38bd 877f c8bd
00000250: 9c8a a2bd b1bd 34bd 24c3 0c3d 74cb adbc
00000260: 8fb8 2bbd aa69 92bd 576a 803d ddb6 743d
00000270: 0f59 c3bd 3970 673c 2611 1d3e d44b b1bd
00000280: ef66 8ebc a5a8 693c 926e eabd 7745 17bd
00000290: 6fb1 acbd cfca 763d bbe5 f1bd 574d 70bd
000002a0: 185f a33d 808d d23d 629e 86bd fd83 12bd
000002b0: 771a 893d 5f6f eebc d40e 41bd 3ca9 433d
000002c0: f813 a53b deb1 69bd 6760 acbd b071 b8bd
000002d0: 3079 a73d 8ae0 c03c df29 053e 1b36 0c3e
000002e0: e23e 203e 0c8e de3d fcad 113e e15b a43d
000002f0: a177 71bd 57bc 0bbd b76f d4bd 3c14 1fbd
00000300: 801f 343d cea7 b43d 40d1 bf3c 3cf0 a63d
00000310: 9c89 81bd e4ec 55bd 3076 8a3c 7063 d33c
00000320: 20cc 023c d802 d33d 8ce7 073d 82dc 9c3d
00000330: 16be 82bd c6cb 8e3d 583a b63d e8e1 b03d
00000340: 30e3 793d 3638 b83d 00f7 993a d81f df3d
00000350: 9275 8b3d 3809 cd3c c0e9 15bd c8fb a6bc
00000360: acf1 18bd 7cd4 24bd 0858 dbbd 121c b23d
00000370: 00ec e5bb 0000 7838 fcbe 71bd ba34 af3d
00000380: 5852 d9bd 607c b8bd 307d 123c dafb 8a3d
00000390: 403a b33c 328f ccbd 28ee 92bd b45c e5bd
000003a0: 9a2c f43d 54e9 1c3d e4c5 f4bd 58f0 81bc
000003b0: 58e7 b2bc a094 d7bd 58e4 86bc f82c a7bd
000003c0: c237 803d 4c24 4b3d 0868 e8bc 0c21 01bd
000003d0: f0ca 513d 4043 413c fc57 53bd 06c7 cdbd
000003e0: 5096 783d a0dd 7dbc 081d e53c b4b9 e03d
000003f0: 0046 333b 9a72 a93d d806 353d 287c 343d
0.020678487 0.007180459 0.07810912 0.1212191 0.10044228 -0.039508503 -0.098185204 0.0055564297
0.06794327 -0.015190674 -0.11314917 -0.1003452 -0.10560696 -0.11540375 0.06716089 0.11344235
-0.07365358 0.030982334 0.11365783 -0.013419806 0.11216618 0.10996983 -0.046033446 -0.054765593
0.12975903 -0.007692454 -0.081465796 0.08155587 -0.051872604 0.004181672 -0.09105365 0.043184806
0.0690244 -0.034333747 0.058947098 -0.0063526398 -0.061722647 0.034346003 -0.094596565 -0.044814356
-0.060713436 0.055447858 0.09938979 -0.0261561 0.023307376 -0.07558514 0.08403666 0.0070434147
0.07549626 0.02477098 -0.0409817 -0.10074306 -0.11642366 -0.021917446 -0.035590634 -0.050020225
0.08699565 -0.00011328921 -0.0228206 -0.10815902 0.04993976 -0.078605674 0.07501217 0.019708266
0.08791173 -0.024232231 0.059220243 0.00082807156 -0.059013817 -0.047419246 0.0018220269 0.09869303
-0.031481694 0.078299165 0.024013273 0.0016361335 0.007689754 0.07219853 0.025377467 -0.07619526
0.09663987 0.0018503591 -0.06603406 -0.10254833 0.1245677 0.010355031 0.08565658 -0.051432475
-0.035726935 -0.09643094 -0.070572585 -0.049244117 -0.11760264 0.049114477 0.05982661 0.096969806
-0.05294561 -0.07514021 -0.0023860324 0.02845194 0.05545721 0.117762625 0.07777522 0.101872474
0.08973078 -0.054827645 -0.048673153 0.068297654 -0.062173415 -0.06086873 -0.056224223 -0.08971246
-0.07694787 0.020111566 0.037160765 -0.09716217 -0.0016062038 -0.11750364 -0.037208255 0.042582456
0.035567373 -0.058624025 -0.1434097 -0.08116497 0.060346134 0.09609343 0.10916487 -0.054929297
0.0103229275 0.12760976 -0.09289638 0.16343229 0.092187986 0.10700714 0.117575966 0.028847344
-0.11095123 0.11579238 -0.065602325 -0.05894205 -0.08346256 -0.0040160413 -0.03714156 -0.025658028
0.12868348 -0.05481454 -0.04501787 -0.09789949 -0.07936594 -0.044126216 0.034365788 -0.021215178
-0.041924056 -0.0714906 0.06270283 0.059744705 -0.09538471 0.014125877 0.15338573 -0.08657041
-0.017383067 0.014261399 -0.11446871 -0.03693148 -0.0843228 0.060252007 -0.11811396 -0.058667507
0.07977122 0.10280895 -0.06573178 -0.035770405 0.06694501 -0.02910584 -0.04713328 0.047768816
0.005037781 -0.057054393 -0.08416825 -0.09006059 0.081774116 0.023544569 0.13004254 0.13692515
0.15648988 0.10866937 0.14226526 0.08025337 -0.058951978 -0.03411516 -0.103728704 -0.038837656
0.043975353 0.08821069 0.023415208 0.0815129 -0.06325075 -0.05222787 0.01690206 0.025804251
0.0079832375 0.10303277 0.033179805 0.07659246 -0.06383912 0.069724604 0.08897847 0.08636838
0.06100768 0.089950964 0.0011746585 0.108947456 0.06809534 0.02502881 -0.036599874 -0.02038373
-0.03733985 -0.040241703 -0.1071015 0.0869676 -0.007016659 5.9127808e-05 -0.059020028 0.08554979
-0.10611409 -0.09008098 0.00894098 0.06786318 0.021878362 -0.0998825 -0.07174331 -0.11199322
0.119225696 0.038308457 -0.11951807 -0.015861675 -0.021838829 -0.10526395 -0.016466305 -0.08162874
0.06260635 0.049595162 -0.028369918 -0.031525657 0.051218927 0.011795819 -0.05159758 -0.10047726
0.060690224 -0.015494734 0.027967945 0.1097292 0.0027354956 0.08273812 0.04419598 0.044063717

bias f4 [64]
00000000: 7600 0f3e a661 c4bd 5c18 533e 18fa ecbd
00000010: 30f7 0d3d 004e bd3e 4a73 193d 00cb 2fbf
00000020: 313f 983d 89af 933d 0486 283d 7fa6 5bbd
00000030: 0b62 65bc e3a7 b13d dc1f 623e 32d4 203d
00000040: f1ed 54bd 937f 2c3d d1df adbc c990 2f3d
00000050: b1f8 f0bc a044 3c3e a532 6d3d 2a0f 4e3e
00000060: 19d5 d6bd 7243 003e c04c 32be 626f a43d
00000070: f3d6 203e 321d f9bd 148b e43d 9af6 ffbd
00000080: d055 24bd fcec 083e aaf0 d53d 17a7 a13d
00000090: d908 433d ea62 093d 0c40 9dbd 88dd ea3d
000000a0: 9701 763d 3078 963d be7f 9dbd 5e6c 8d3d
000000b0: 3366 b73d c9b8 873e 3842 69bb ff2a 183e
000000c0: 81da 9fbd d2c9 803d 72c1 fc3d c230 cb3d
000000d0: 851f 68bb 0407 99bd 5fd4 383d eab2 973d
000000e0: 9abc dc3d 46d7 2f3d 35b8 9fbc dfbf a3bd
000000f0: 5947 d6bd b30a a63d 3076 7d3d f6c0 81bd
0.1396502 -0.095889375 0.20614761 -0.11571139 0.034659564 0.36973572 0.037463464 -0.6866913
0.07433928 0.07211215 0.041143432 -0.05362558 -0.014000426 0.086746 0.22082466 0.039264865
-0.05198473 0.04211385 -0.021224888 0.042862687 -0.02941546 0.18385553 0.057909627 0.20122972
-0.10489864 0.12525728 -0.1741209 0.08029057 0.15706997 -0.12163772 0.111593395 -0.124982074
-0.0401209 0.13371652 0.10446294 0.07893198 0.04761586 0.033541597 -0.076782316 0.11468035
0.06006011 0.07347143 -0.076903805 0.06905435 0.0895504 0.26508167 -0.0035592448 0.14860152
-0.07805348 0.06288494 0.12341584 0.09921409 -0.0035419178 -0.07472041 0.045124408 0.07407172
0.107781604 0.04292991 -0.019497016 -0.07995581 -0.10462827 0.081075095 0.06188029 -0.063356325

weight f4 [1, 64]
00000000: ec90 033d 39fa bfbd eda7 bb3d b4f1 a2bd
00000010: d71f 0d3e 2eea af3d 06cc 87bd d1ae 26bf
00000020: d696 293d 8145 ccbd 4656 70bd 08fc f83d
00000030: c3e9 95bd a821 5bbd dcba 593d 3af0 a43d
00000040: 69da 9dbd 7343 92bb 21b1 6d3d 84c5 11be
00000050: 63fe ee3d a533 0b3e 3ca6 bfbd 1059 273e
00000060: a505 d2bd e225 d33d 643a b2be 5eb8 773d
00000070: ea14 133e f83e b2bd 2b54 003e 560a d23d
00000080: 23e6 463b adb0 803d b60e 8b3d 5763 093e
00000090: b1ad 8bbd 04ce 773d 98da 88bd b8fe 8fbc
000000a0: 915d dbbd 7c6b f1bc 95f8 31bd 1483 d43d
000000b0: e0c1 903d ee5b 283d a1cd 893c a8b2 ea3d
000000c0: 0867 2fbc b0be 35bd 0fd7 ab3d dfc9 cabd
000000d0: b9b6 f33d 2630 05bf 3b17 ef3d 875b 803d
000000e0: f22a f13d fa29 c93c 6825 88bd 7982 ccbb
000000f0: 39c3 cdbb f458 7bbd 3416 ba3d 35a9 d33c
0.03212063 -0.09373898 0.09162889 -0.079562575 0.13781677 0.08589588 -0.06630711 -0.651105
0.041403614 -0.09974194 -0.058676027 0.12157446 -0.07319977 -0.053498894 0.05315672 0.08053632
-0.07707674 -0.004463607 0.05803025 -0.14235502 0.11669614 0.1359392 -0.093578786 0.16342568
-0.10254983 0.1030996 -0.34810174 0.06047856 0.14363447 -0.087034166 0.12532108 0.10255878
0.0030349575 0.06283698 0.06789915 0.13416801 -0.068202384 0.060499206 -0.066823184 -0.017577514
-0.10711206 -0.029470198 -0.043449957 0.10376564 0.07068229 0.041103296 0.016821684 0.11459857
-0.010705717 -0.044371307 0.083906285 -0.09901785 0.11900086 -0.52026594 0.11674353 0.062674575
0.11775769 0.024556149 -0.0664776 -0.0062411395 -0.006279376 -0.06136413 0.09086266 0.02583752
