src/Fun_2/model/model_1024_64_128_0.01_400.pt (torch, 326319 bytes, 5 tensors)

weight f4 [64, 1128]
00000000: 1796 a8bd aa07 aabd c0ef 88bd 95d6 7abd
00000010: 30f9 a0bd 5d08 b4bd 1865 16bd 703b a2bd
00000020: f2f2 8dbd 2b6e 82bd 1af5 02bd 0489 09bd
00000030: 9220 8ebd 2111 96bd e795 55bd 9ecb 66bd
00000040: d77f 77bd b2a8 39bd fbf1 acbd 7ba3 52bd
00000050: 6c51 40bd 092d adbd 73d1 a9bd 63c8 1cbd
00000060: b599 08bd 4b8b 1dbd f2c9 31bd 95c7 58bd
00000070: e71e 27bd 0857 1ebd 4e83 95bd f13c 81bd
00000080: aab6 7abd e483 57bd 2e41 48bd 417d 84bd
00000090: 347d 2cbd 19d8 67bd f130 34bd 4d4b 25bd
000000a0: c63b 74bd 2201 98bd 4814 a3bd 5ef2 0ebd
000000b0: 15d0 38bd 1217 a8bd b46a a5bd c3a4 6cbd
000000c0: 8266 a5bd 756e 65bd 3304 91bd c940 51bd
000000d0: f4cd 7fbd 868a 42bd cdf1 a3bd 355d 97bd
000000e0: f7aa 3dbd d954 8cbd 2f67 18bd 23a2 44bd
000000f0: 1ade 31bd bbd1 84bd a374 a0bd e82f 74bd
00000100: 470f 89bd faba 6dbd 15c3 acbd 2a0d 59bd
00000110: 44fe 03bd 8716 acbd 0523 5dbd 7615 8abd
00000120: bd61 55bd 8fc6 71bd 3e44 a0bd dae7 39bd
00000130: d8d6 93bd 6e66 39bd e5f7 b6bd decc 56bd
00000140: 611e 18bd 5c87 8dbd 8707 8cbd 33cf 68bd
00000150: 45bb 0bbd 06b6 a3bd dd31 b6bd e1d0 30bd
00000160: d587 24bd 8ec8 a6bd bc7c 45bd 2a41 7fbd
00000170: 4815 b4bd 5975 4bbd 0b93 b5bd b971 febc
00000180: 5021 1bbd bcf5 09bd 6d8b a3bd abaf 97bd
00000190: b0e5 57bd b528 2ebd 2502 89bd 4ae1 8abd
000001a0: 837f afbd 7ec7 87bd 4c95 13bd ae50 97bd
000001b0: fffd 90bd 0505 b4bd 4483 01bd 5888 3abd
000001c0: eab6 1abd 6372 7ebd f7bf 9fbd 3795 91bd
000001d0: 1801 1fbd 235e a3bd 77c6 23bd 64ce a1bd
000001e0: 7958 02bd eb0f 5fbd a6f6 10bd 5abd 2cbd
000001f0: 2792 15bd 3a0b 28bd ce33 f8bc 909d 3abd
00000200: 81b6 91bd 456a 71bd 1053 90bd fb3a 9fbd
00000210: fa1f 94bd 7def 75bd e729 15bd cfba 08bd
00000220: 9267 b2bd 47b7 aabd fbc8 5dbd 067a 3fbd
00000230: be74 0dbd 2ebe fdbc 02f9 3fbd d423 3dbd
00000240: b466 87bd 058f 49bd 4620 93bd edfa 88bd
00000250: 9338 84bd c75e 5bbd 6432 95bd 204c 32bd
00000260: b721 a5bd 882c 05bd 4a66 75bd a3b4 83bd
00000270: 9983 b3bd 79e0 86bd a199 5dbd 6391 7fbd
00000280: 123b 54bd 491d 9bbd b488 4abd 1922 a6bd
00000290: 0ef9 6ebd f313 9dbd 31ce a5bd 73ff a7bd
000002a0: 3356 42bd c965 41bd e7ce aabd 2d72 83bd
000002b0: 5b28 86bd 2aae b0bd 1323 33bd 8d1d adbd
000002c0: 3f7b 72bd 5155 92bd 5028 95bd 55db 91bd
000002d0: e929 0ebd 9941 76bd 748a 8bbd d8bc 0abd
000002e0: 2a85 66bd ac3b 86bd 7880 b0bd b072 b0bd
000002f0: d32e 24bd 0d9c 8fbd 3a3f 67bd 320c 80bd
00000300: dc1c 57bd 0135 8bbd 52b4 8cbd daa3 8bbd
00000310: 81fc a8bd b525 80bd 0cf5 05bd 9dba 12bd
00000320: 54c7 a6bd 17ae 75bd f7fe 4ebd 6f71 31bd
00000330: c835 55bd 8e41 87bd 72bf 32bd 738f 9abd
00000340: 1bb7 00bd 4711 85bd 539f 84bd e5ac 4cbd
00000350: 8764 92bd 7123 fcbc 5b0f 05bd e851 1bbd
00000360: 157a 01bd 5348 56bd e0ab 88bd bb04 76bd
00000370: 9706 25bd 0743 82bd f408 a3bd 8765 27bd
00000380: 9347 20bd c5e2 acbd 1133 5fbd b379 80bd
00000390: 86b2 86bd 4f65 26bd 3bc6 02bd 72fc 18bd
000003a0: db6e 2ebd 2449 a4bd a323 8ebd fcaa 11bd
000003b0: 1a76 45bd 3dd5 97bd e432 aabd 3043 9dbd
000003c0: 3240 7abd 1af9 83bd b01d 98bd 973a 34bd
000003d0: 07fa 81bd fa45 97bd 1021 24bd 01ff 9cbd
000003e0: f1da abbd 1c9c 91bd 06e8 39bd 39fb 11bd
000003f0: 72bd 5cbd 5a9e f9bc e52d 24bd ea6f 09bd
-0.08231752 -0.08302243 -0.06686354 -0.061239798 -0.07860029 -0.08790658 -0.036717504 -0.07921493
-0.06931104 -0.06368669 -0.03197203 -0.033577934 -0.06939806 -0.07327486 -0.05214491 -0.05634653
-0.060424652 -0.045326896 -0.084445916 -0.05142544 -0.04695265 -0.084558554 -0.082919024 -0.03827704
-0.03334971 -0.03846292 -0.04340548 -0.05292471 -0.040800955 -0.03865722 -0.07300435 -0.06310452
-0.06120936 -0.052616015 -0.048890285 -0.06469203 -0.04211159 -0.05660257 -0.043991987 -0.040355016
-0.059627317 -0.07422091 -0.07962853 -0.034899108 -0.045120317 -0.08207525 -0.08076993 -0.057774317
-0.080761924 -0.056013543 -0.07080879 -0.051087175 -0.06245227 -0.047495387 -0.08005104 -0.07390825
-0.046305623 -0.06852121 -0.03720778 -0.048006188 -0.043424703 -0.064853154 -0.07834747 -0.059616
-0.06692367 -0.058039643 -0.084356464 -0.05299107 -0.03222491 -0.08402734 -0.053988475 -0.067423746
-0.052095164 -0.05902725 -0.07825516 -0.045387127 -0.072187126 -0.0452637 -0.08934001 -0.05244147
-0.037138347 -0.069105834 -0.06837373 -0.056838226 -0.03411414 -0.079937026 -0.088962294 -0.043167952
-0.040168602 -0.081437215 -0.04821466 -0.062318005 -0.087931216 -0.04967246 -0.08865937 -0.031060087
-0.037873566 -0.033681616 -0.07985578 -0.07406553 -0.05270928 -0.04251929 -0.06689862 -0.06781252
-0.08569243 -0.06629847 -0.036031052 -0.07388435 -0.07079696 -0.0879002 -0.031619325 -0.045540184
-0.037772097 -0.062120806 -0.07800286 -0.071085386 -0.038819402 -0.079769395 -0.039984193 -0.07900694
-0.031822655 -0.05445854 -0.035391472 -0.042172767 -0.036516335 -0.04102633 -0.03029814 -0.04556042
-0.07114888 -0.058939237 -0.07047093 -0.077749215 -0.072326615 -0.060042847 -0.036416914 -0.03338128
-0.08711161 -0.08335739 -0.054146748 -0.04674723 -0.034535162 -0.030974474 -0.04686833 -0.046176746
-0.06611386 -0.04920866 -0.0718389 -0.06688485 -0.06456103 -0.053557184 -0.07285002 -0.04352963
-0.08063071 -0.03251317 -0.059912004 -0.06430938 -0.08765335 -0.065857835 -0.05410159 -0.06239451
-0.051814146 -0.07573945 -0.049446777 -0.08111972 -0.058342986 -0.07669821 -0.080959685 -0.0820302
-0.047445487 -0.04721621 -0.08340245 -0.06418262 -0.06550666 -0.08626969 -0.04373462 -0.08452902
-0.059199568 -0.07145179 -0.072830796 -0.071219124 -0.034707937 -0.060121153 -0.06813517 -0.0338715
-0.05627934 -0.0655435 -0.086182535 -0.08615625 -0.040083718 -0.07012186 -0.056456782 -0.06252326
-0.052517757 -0.06797219 -0.06870331 -0.068183616 -0.08251286 -0.06257192 -0.032704398 -0.0358225
-0.081434876 -0.05998048 -0.050536122 -0.04332107 -0.052053243 -0.066043004 -0.043639608 -0.07546892
-0.031424623 -0.06497436 -0.06475701 -0.049969573 -0.0714808 -0.030778619 -0.032485347 -0.03791991
-0.031610567 -0.052315067 -0.066734076 -0.060063105 -0.040289488 -0.06360441 -0.07960692 -0.04086831
-0.03913076 -0.0844169 -0.05449206 -0.06273212 -0.065770194 -0.04062396 -0.03192733 -0.037350126
-0.04258619 -0.08021763 -0.06940391 -0.035563454 -0.048208334 -0.07413719 -0.08310488 -0.076788306
-0.061096378 -0.06443997 -0.074275374 -0.044001188 -0.06346517 -0.07386394 -0.040070593 -0.07665826
-0.08391369 -0.071098536 -0.04538729 -0.035639975 -0.053891607 -0.030471016 -0.04008283 -0.033553995

bias f4 [64]
00000000: 63a7 17bd 5be4 34bc a555 1a3f 1136 a6bd
00000010: d5de 9f3e 09ed 98bd 0a6d abbd 249e f83e
00000020: 8152 68bd ff37 58bd 3a4b 04bd 9b1e d43e
00000030: 5b86 2cbd 9d48 1e3f ebc7 51bd ab7d b2bd
00000040: 9d0a 22bb 4328 5dbd bef7 5cbd 79b6 b1bd
00000050: 8c28 a4bd 9abb 73bd 8380 94bd fdd5 e83e
00000060: d181 e03e 6545 4cbd 948f 4bbd e572 93bc
00000070: 3678 e23e 3819 863e 0b8d 133f fc44 513e
00000080: cec3 0fbd 64fd 87bd be94 b7bc 088a e23e
00000090: 8862 8ebd 775a 0e3f 6868 82bd c6f1 7d3e
000000a0: a584 d03e f0fa 4a3e 2a1b 60bd fd44 97bd
000000b0: a351 a6bd af6d 6abd a2e8 9fbd 10bb a6bd
000000c0: e314 f9bc d28e 5fbd 643e 28bd 4d27 40bd
000000d0: d9d9 9e3e 2d2d e33e 5bf7 fb3e 157c 29bd
000000e0: 0679 8abd 7d4b e1bc 00d4 aabd f02a 96bd
000000f0: 0db6 85bd 08a2 acbd 311b d5bc bd50 99bd
-0.037024867 -0.011040772 0.60286933 -0.08115781 0.31224695 -0.07467086 -0.08370407 0.48558152
-0.056719307 -0.052787777 -0.032298304 0.414296 -0.04212032 0.6182955 -0.051216047 -0.087153755
-0.0024725564 -0.053993475 -0.053947203 -0.08677382 -0.08015546 -0.059505083 -0.07251074 0.4547576
0.43849042 -0.049870867 -0.049697474 -0.017999122 0.4423234 0.26191115 0.5763709 0.20436472
-0.035098843 -0.06640127 -0.022409793 0.44245934 -0.06952387 0.5560679 -0.0636757 0.2479926
0.407262 0.19822288 -0.054713406 -0.07386205 -0.0812104 -0.05723351 -0.07808043 -0.08141148
-0.030405467 -0.054579563 -0.041075125 -0.04691248 0.3102558 0.44370404 0.49212155 -0.0413781
-0.06761365 -0.027501816 -0.08341217 -0.073324084 -0.06528864 -0.084293425 -0.026013942 -0.07486103

weight f4 [128, 64]
00000000: 90d1 c4bc d508 cdbc fd98 bfbd 90ca 6cbd
00000010: a392 08be 8c4d 88bd d08c ca3d 0733 c8bd
00000020: 0e8c f53d 6a1c ce3d 18a4 2f3d 2a68 09bd
00000030: 70a0 5dbc d228 19be 25da 27be 5c6c c9bd
00000040: 1329 1fbe c48b dabd 8000 64bc 6014 b43b
00000050: 80fa d03c b2a1 573d bc52 053d bf1e 343c
00000060: 4b9a 303d a002 743c d23d 82bd b0ec a5bd
00000070: 4433 a1bd 4a88 dcbc cd14 153d 7396 4a3d
00000080: b5dd f5bd d21c 16be 42d9 e2bb 38c2 503d
00000090: 1095 4bbc 678c 4fbd a087 7dbc f914 b9bc
000000a0: 3a76 34be 0fea 1ebe 3008 cbbd 1a2e dcbd
000000b0: 56fb fbbd 6cd4 4bbd cedd cb3d 0813 c8bc
000000c0: 8e74 e13d 80d8 8bbd 9406 21bd 8c33 b13d
000000d0: e0e8 65bd 58cd 403c 1608 523c f0fb 523c
000000e0: 64c9 9a3d 04ba 173d bcdc b63d 4c68 4ebd
000000f0: 1c3c a23d 1086 fa3c 7382 28be b0aa 0dbe
00000100: 469a 1c3e 6826 9b3d 7614 fabd d224 e93d
00000110: 28ca 0dbe f421 80bd 5ed4 153e 33b4 d1bd
00000120: 8dc6 1a3d c6c9 d33d 21c9 333e c625 3dbd
00000130: 4674 673b 3747 a43d 41d0 873d 603c cc3d
00000140: 14e9 a73d 89d6 e03d d32f abbc 870b 09bd
00000150: 1c4e 9e3d bb95 d7bd d6ae f33d 4bde 3a3d
00000160: 48de 313d f91c c63d 945d a23d fd38 79bd
00000170: abcb b03d 427e a1bc 6c4a 813c f4ad b9bd
00000180: ff90 9ebd 009f 1cbe 3545 1d3d fe75 28bc
00000190: 3fe0 393d 1f9b 12be 4a2c e2bc 5c27 acbd
000001a0: 8914 7c3d b29b e83d 5722 a5ba 015f 813d
000001b0: 73ac 8c3d 063b 993d befd 0b3d 82f1 333d
000001c0: 48c6 233e 6d30 1fbd 5b1b a43d 67c9 143e
000001d0: 4a73 673d b436 a83d 2511 e7bd dae1 1a3e
000001e0: 7491 04bd 1b54 f4bd edc9 343e 5c1d fb3d
000001f0: ead7 d63d bf8b 3dbd 45c5 133b 1949 aabd
00000200: aef2 febd b45b 2b3d 488a 1abd c002 c6bb
00000210: f8fc 493d 183c f13d b0b0 f13c 2cb8 1ebd
00000220: 9abe f9bd 8636 a8bd 2cd8 cdbd fe74 80bd
00000230: 6879 343d 282d c0bd 38d7 ebbd 1ae2 8c3d
00000240: 441b 11bd 60b8 993d dcbc 5c3d f043 083d
00000250: c051 c23d 28f1 5d3d c0c7 4ebd 48d5 323d
00000260: a4d3 fdbd 8cb7 20bd 7464 89bd 3cce 78bd
00000270: 40d8 103b 2ce2 2dbd 004f 003d 5053 e93c
00000280: 6a33 edbd 8ef4 b83d cac4 e33d 0082 56bc
00000290: 04cd 733d 3e71 d6bd 10fe 82bc 121f 8abd
000002a0: f242 a0bd d8d7 963c a8aa 8b3d 7c12 903d
000002b0: 56ab d03d 0860 463d 6c19 2abd 0c02 b23d
000002c0: 00dc a93a 78f0 99bc 7023 c1bd 0066 6bbd
000002d0: a0c3 993c 68aa a83c f413 93bd 3014 cf3d
000002e0: c06b 2ebb 08f1 9ebd ead9 9f3d 2ac2 883d
000002f0: 805e c23a 9482 af3d 8014 ce3c 00da 02ba
00000300: 06b2 54bd 0ef0 823d d153 133d 60ce b0bc
00000310: 042e ae3d 8b0a 2bbe 66b3 413c 98b4 fe3d
00000320: f078 6cbd d9bd 08be c81a bcbd 1951 d3bd
00000330: 4cc2 babd ba61 823d 3813 a4bc 8b54 3ebd
00000340: 8a7f b6bd 4ae9 9fbd cb71 f33c 884a e9bc
00000350: 88b3 91bc 03df 7fbc 50f6 9abc bdd2 08be
00000360: c2c8 e7bd bf8e aebb 1a9f 223d 1888 8cbd
00000370: 8a9f d4bd 80e0 8bbc 0c10 99bc 98fa 36be
00000380: d4e9 1c3d f604 ce3d 3037 0c3c 4459 34be
00000390: 1ed4 82bc d3de 42bd 45ba 6cbd 70cb 9fbd
000003a0: fa89 993d a099 af3b f837 eebd cc90 a6bd
000003b0: 4adb a73d 2043 293d d8f9 a43d fe42 9abd
000003c0: e89f aebd f296 11bd 0205 603d a0ac f73c
000003d0: cea8 0fbe 55b1 393d 063a febd 5ab3 e6bd
000003e0: 6469 3ebd 1c64 31bd b8b4 ecbd 0dcc 153d
000003f0: 2c07 99bd 3c78 e83d 241c c0bd bc4a 883d
-0.024025708 -0.025028626 -0.09355352 -0.057810366 -0.13337187 -0.06655416 0.09890139 -0.09775358
0.11989604 0.10064013 0.0428811 -0.033546604 -0.013527021 -0.14956978 -0.1639181 -0.09835121
-0.15543012 -0.106711894 -0.013916135 0.005495593 0.025510073 0.05264444 0.032549605 0.010993659
0.043115895 0.014893204 -0.063594475 -0.08101785 -0.07871106 -0.026920456 0.03639679 0.049459886
-0.12005178 -0.14659432 -0.006922872 0.05096647 -0.012425676 -0.050671007 -0.01547423 -0.022593008
-0.17623225 -0.15518974 -0.09913671 -0.10750981 -0.12303798 -0.04976313 0.09954415 -0.024423137
0.11008559 -0.068284035 -0.039312914 0.0865241 -0.05613029 0.011767708 0.012819311 0.012877449
0.075579435 0.037042633 0.089288205 -0.050392434 0.07921621 0.030581504 -0.16456012 -0.13834643
0.15293226 0.07575685 -0.12210934 0.11383976 -0.13846648 -0.06256476 0.14631793 -0.102394484
0.03778701 0.103412196 0.17557193 -0.0461786 0.0035317107 0.08021396 0.06631518 0.09972453
0.08198753 0.10978419 -0.020896828 -0.03345826 0.07729742 -0.10526606 0.11898582 0.04562215
0.043424875 0.09673495 0.07928005 -0.060845364 0.086325966 -0.019713525 0.015782557 -0.09066382
-0.077424996 -0.15295029 0.03839608 -0.010282038 0.045379873 -0.14316987 -0.02760901 -0.08405945
0.06154302 0.113578215 -0.0012598735 0.06316949 0.068688296 0.07481961 0.034177534 0.04393149
0.15993607 -0.03886454 0.0801303 0.14529954 0.056506433 0.08213559 -0.11282567 0.15125218
-0.032365277 -0.11930104 0.17655154 0.12261459 0.10490401 -0.04627585 0.0022548002 -0.083147235
-0.12448631 0.0418355 -0.03772953 -0.0060428083 0.049313515 0.1177904 0.029503196 -0.03874986
-0.121945575 -0.082135245 -0.10050997 -0.062723145 0.044061095 -0.09383613 -0.11515659 0.06879063
-0.035426393 0.0750587 0.053891048 0.033267915 0.09488249 0.054185063 -0.050483465 0.043660432
-0.12393883 -0.039237544 -0.06708613 -0.060743555 0.0022101551 -0.042452022 0.03132534 0.02848211
-0.11582072 0.0903102 0.11121519 -0.013092518 0.05952169 -0.10470818 -0.015990287 -0.067442074
-0.07825269 0.01841347 0.068196595 0.070347756 0.1018893 0.048431426 -0.04152815 0.08691797
0.0012959242 -0.018791422 -0.09430587 -0.05747032 0.01877004 0.020589069 -0.0718154 0.10111272
-0.0026614517 -0.07760817 0.07805236 0.06677659 0.0014829189 0.08569828 0.02515626 -0.0004991591
-0.05192759 0.06393443 0.035968605 -0.021582782 0.085048705 -0.1670324 0.011822557 0.12436789
-0.057732522 -0.13353671 -0.091847956 -0.103182025 -0.091190904 0.06366296 -0.020028695 -0.046467345
-0.08911045 -0.07808168 0.029717347 -0.028477922 -0.017785802 -0.015617135 -0.01891628 -0.1336164
-0.113175884 -0.0053270753 0.039702512 -0.06861895 -0.10381992 -0.017074823 -0.01868441 -0.17869031
0.038308933 0.1005954 0.00855808 -0.17612177 -0.015970286 -0.047575783 -0.057794828 -0.078024745
0.0749702 0.0053588897 -0.11631769 -0.081330866 0.08196123 0.04132378 0.080554664 -0.07532309
-0.085265934 -0.035544343 0.054692276 0.030233681 -0.14029238 0.045335133 -0.12413411 -0.11264677
-0.046487227 -0.043308362 -0.11557907 0.03657155 -0.07472071 0.11351058 -0.093803674 0.066548795

bias f4 [128]
00000000: 31fd 20be 4e0c 103f 7ab3 f4bd 47aa 35be
00000010: 2b12 8abe 744d d3bc 889d 51bd aef5 1d3e
00000020: cca9 1cbe 3656 83bd 45ef 8b3d 81b3 26bd
00000030: 0f0e 0abe 5727 a53e 0f97 12be 3c91 663f
00000040: 2f2d 86bc eacb c4be 007d 88bd 0e00 a43e
00000050: a7a4 103f 65d6 32be 27f0 e3bd 7ea1 103f
00000060: f6c3 203f 9aca 0a3f 2085 f93e 7591 dc3d
00000070: dd78 81bb bd00 30be 0d19 14be 86ca 2abe
00000080: ffde ef3e d296 053f 3ff6 5fbe fb26 e23e
00000090: 0500 2bbd 9d1d cc3e 65b7 b6b9 ff7e 3c3e
000000a0: 140a 28be 5c97 c5bd 64f0 49bb 488f f43b
000000b0: 8f60 26be a7cd 03be 7e55 143f 3d0a 7e3e
000000c0: fb66 4e3e 8672 343f dafe 913e e9d5 ba3e
000000d0: 2bfe bfbe 254f debd f54b d83d 2fed 3fbd
000000e0: 2a8c 973e fae2 17bc 8e9b e5bd 41cc 2cbe
000000f0: 80e4 e8bd fd74 d3bc 632a e93e 0be9 0b3f
00000100: 4f4d 4dbd 14c8 49bd 5d53 a1bd cd33 643e
00000110: 174c 7ebd 5080 003e 006b b33e d239 f5bd
00000120: 3634 823e ae28 26be 5416 41be 2564 933e
00000130: db5f 1c3f 4aed a2be 9909 22be e449 c53e
00000140: 592e 0ebd 2eb0 05be 572e 823e 67b6 08bd
00000150: 2a35 61be c451 75ba 28f1 0fba 853d e7bd
00000160: dd86 0c3f f2e0 50bd e313 ddb8 74eb 0cba
00000170: 3ba9 ee3e 1f46 00be 8185 313f 7bed 0c3f
00000180: 3215 023f 24b7 9cbd 9094 023f f4b3 073f
00000190: 4373 043f 2c78 f33e 8fcc a6bd 5736 e93e
000001a0: 6bee bb3e c592 01bd c8d6 f9bc 9a1a cbbe
000001b0: fa08 fa3e 7013 59be f460 43bd ad4a 68bd
000001c0: b1fa 23be fd3f e53e d9b8 55ba 9dce fc3e
000001d0: 3f0e 923e 6825 183f 0162 bebd 22c8 e1bd
000001e0: 93b5 aebe deae a63e aecf 233f d2a9 1ebf
000001f0: 0889 04bd d5af 8b3a 8dc4 62be 685b b9be
-0.15721585 0.56268775 -0.11948295 -0.17740737 -0.26966986 -0.025793768 -0.051175624 0.1542575
-0.15299147 -0.06412928 0.068327464 -0.040698532 -0.13481925 0.32256576 -0.14315437 0.9006536
-0.016378967 -0.38436824 -0.06664467 0.32031292 0.5650124 -0.17464598 -0.1112979 0.5649642
0.6279901 0.54215395 0.4873438 0.10769931 -0.0039511756 -0.17187782 -0.14462681 -0.16678819
0.4684982 0.5218326 -0.21871279 0.44170365 -0.041748066 0.39866343 -0.00034850385 0.1840782
-0.16410094 -0.0964801 -0.003081345 0.0074633695 -0.16247772 -0.12871419 0.5794295 0.24808593
0.20156471 0.7048725 0.2851475 0.36491325 -0.37498602 -0.10854939 0.10561363 -0.046857055
0.29599124 -0.009270424 -0.1121131 -0.16874792 -0.11371708 -0.02581262 0.4554015 0.5465247
-0.050122555 -0.049263075 -0.078772284 0.22285385 -0.062084284 0.12548947 0.35042572 -0.11973919
0.2543046 -0.16226456 -0.18856174 0.28787342 0.61083764 -0.31821662 -0.15823974 0.38532937
-0.03471217 -0.13055488 0.2542598 -0.033377077 -0.21992937 -0.00093581923 -0.0005490952 -0.11291031
0.54893285 -0.050995775 -0.000105418054 -0.00053756614 0.46613488 -0.12526749 0.69344336 0.55049866
0.5081359 -0.07652119 0.5100794 0.5300896 0.51738375 0.4755262 -0.08144485 0.4554927
0.36705336 -0.03163411 -0.030497923 -0.39668733 0.48834974 -0.21198821 -0.047699884 -0.05671184
-0.160136 0.44775382 -0.00081528496 0.49376383 0.28526494 0.5943208 -0.092960365 -0.110245004
-0.34122905 0.32555288 0.6398877 -0.61977875 -0.032357246 0.001065726 -0.2214529 -0.3620255

weight f4 [1, 128]
00000000: 88c7 fbbc b01f 133e 7c99 16bd 37eb c4bc
00000010: 2df4 51bd 2973 a13b a771 d13b 5bdc 04be
00000020: 0889 47bd befe c8bc aed0 0abd 39e7 2dbc
00000030: c549 233d 458b 923d f4b7 fb3c ef10 873e
00000040: 9045 6e3d 08c4 5fbe a248 3239 fcb2 2d3d
00000050: e528 113e 7ab0 b13a 6ccd 173d a751 e73d
00000060: 0177 093e 4b16 023e d62e ee3d c116 94bd
00000070: d26c 403d 7f37 403d 6875 303d 1575 d13b
00000080: c647 433d 26f9 873d d5ba fbbd f441 873d
00000090: 546c 403d 0f02 c83d 7514 d43b 401b 33bd
000000a0: d3ca 9cbc 81a3 16bd e5ee f2ba 07d2 cabb
000000b0: 4dfa ff3c e785 573d d72c 1c3e 24ab e43c
000000c0: f78f 85be bbec 143e 8316 813d ba96 9a3d
000000d0: 7088 ae3d 62dd 3f3d 4fa4 083c 6365 0d3d
000000e0: b90b 823d 32f1 ff3c 73b7 21bc de00 c7bc
000000f0: 4bf5 7dbb 0b1f adbc c013 de3d b68c 0d3e
00000100: ecf2 b9bc 3a50 adbc 24a8 523c b405 43bd
00000110: 0eed 043d 09e2 263c 4222 4f3d e9d4 29be
00000120: 3c55 bc3c 65c2 f8bb eca3 c33c 1fee cc3c
00000130: a612 983d 9a5b 463e 679c 50ba 6b8f 533d
00000140: 7dc9 46bc e6ef 883d 788c 963d e695 cbbc
00000150: 3608 90bd 8324 f73c c67d da3c 79b3 b9ba
00000160: 5b89 0c3d 049b 613c e337 aa3c ec0d 403d
00000170: 5224 bf3d 0ade 1bbd b9be acbf ba60 163e
00000180: ffe7 593d 9329 49bc 712e c13d c6b0 ec3d
00000190: cf73 8b3d a6c2 e83d db96 743d 8ebf 9f3d
000001a0: 80d7 9a3d ed8f 2e3a aad8 efbc 1063 67be
000001b0: 4f50 d2bd d88e 203d 9aa1 5d3d 4450 6b3d
000001c0: 32f2 e8bc a486 983d e77b 823b f360 033e
000001d0: 44c4 593d 4bc4 0b3e 4717 153b a7d1 8abc
000001e0: 6c00 4a3e 7318 933d 44db 043e 2f22 cbbd
000001f0: 5c24 033c 084a 1c3c eda0 d6bc 61a2 32be
-0.030734792 0.14367557 -0.036767468 -0.02403794 -0.051258255 0.0049270582 0.0063917222 -0.12974684
-0.048714668 -0.024535533 -0.03389042 -0.01061421 0.039865274 0.0715547 0.030727364 0.26380107
0.05817181 -0.21852124 0.0001700246 0.04240702 0.14175756 0.0013556622 0.03706114 0.11294871
0.13424303 0.12703817 0.11630027 -0.072309025 0.04697878 0.046927925 0.043080717 0.006392131
0.04767587 0.06639318 -0.12291495 0.066043764 0.04697831 0.09766018 0.006472165 -0.04372716
-0.019139683 -0.036777023 -0.0018534331 -0.006189588 0.031247282 0.052617934 0.1525148 0.027913637
-0.260864 0.1454343 0.06303122 0.0754828 0.08522117 0.046841986 0.0083399555 0.034520518
0.06349892 0.03124294 -0.009870398 -0.024292406 -0.0038750942 -0.021132967 0.10843611 0.13823208
-0.022698842 -0.021156419 0.012857471 -0.04761286 0.032452635 0.010185727 0.05056978 -0.16585125
0.022989862 -0.007591533 0.023881875 0.025015889 0.07425432 0.1937088 -0.0007957876 0.051650446
-0.0121329995 0.06686382 0.07351011 -0.02485175 -0.07032816 0.030168777 0.026671302 -0.0014167867
0.03431068 0.013769869 0.020778602 0.046888277 0.093330994 -0.03805355 -1.3495704 0.14685336
0.053199764 -0.0122779785 0.09432686 0.11557154 0.06809198 0.11365251 0.05971418 0.07800208
0.075606346 0.000665902 -0.029278118 -0.22596383 -0.10269224 0.039198726 0.054109193 0.057449594
-0.0284358 0.07447556 0.0039820555 0.12829952 0.05316569 0.13649099 0.002274947 -0.016945673
0.19726723 0.07182398 0.12974268 -0.099186294 0.008004274 0.009539135 -0.026199782 -0.17444755
