src/Fun_2/model/model_512_64_64_0.001_200.pt (torch, 309415 bytes, 5 tensors)

weight f4 [64, 1128]
0	0xbc31c1fc	-0.010849472
1	0x3c97da2f	0.018536655
2	0xbcc8ba46	-0.024502885
3	0xbce1c54c	-0.027559899
4	0xbb6c03bd	-0.003601297
5	0x3c500631	0.012696789
6	0xbd00f2e1	-0.031481627
7	0x3c912bdc	0.01772111
8	0xbc66e03b	-0.014091547
9	0xbc920227	-0.017823292
10	0x3c2446b5	0.0100266235
11	0xbc80c263	-0.01571769
12	0xbc9292eb	-0.017892322
13	0xbc924186	-0.01785351
14	0x3be79859	0.007067722
15	0xbcd821c9	-0.026383298
16	0xbc82308e	-0.015892293
17	0xbc777956	-0.015104612
18	0x3c8434fa	0.016138542
19	0xbc80ef4a	-0.015739102
20	0xbc8a7f53	-0.016906416
21	0xbca222da	-0.01979201
22	0x3be6c83d	0.007042913
23	0xbc8cf265	-0.017205426
24	0xbb2c7748	-0.0026316214
25	0xbc9f7fbb	-0.019470086
26	0xbc8ec350	-0.017427117
27	0xbc328127	-0.01089505
28	0xbc68004e	-0.014160229
29	0xbc8d63ab	-0.01725944
30	0xbc21f0d0	-0.009884074
31	0xbcf72553	-0.030169165
32	0xbc4c3cb2	-0.012465643
33	0xba3ae696	-0.0007129697
34	0xbcbdddb8	-0.023177013
35	0x3c4b33d4	0.0124024935
36	0xbd01d85b	-0.031700473
37	0xbd096b98	-0.033549875
38	0xbd0e77e5	-0.03478231
39	0xbd072e2c	-0.033003017
40	0xb9e2a93e	-0.00043232174
41	0x3c71076c	0.014711242
42	0xbb7f629c	-0.0038968688
43	0xbd008269	-0.03137437
44	0xbc807118	-0.015678927
45	0x3c32e3d6	0.010918578
46	0x3c40de84	0.011771802
47	0x3c0f86f3	0.008760202
48	0x3caf17d2	0.021373663
49	0xbc837fa4	-0.016052075
50	0xba6b8395	-0.0008984146
51	0xbce33b1f	-0.027738152
52	0xbadacc02	-0.0016692879
53	0xbcd59884	-0.026073702
54	0x3c43f147	0.0119593805
55	0xbc8917f5	-0.016735056
56	0xbc670138	-0.014099412
57	0xbc2c7503	-0.010525945
58	0x3c0af2f0	0.008480772
59	0xbc9718ff	-0.018444536
60	0xbbe70d97	-0.0070511806
61	0xbc1d73b8	-0.009610109
62	0x3b7417ad	0.0037245557
63	0xbcf63d27	-0.030058457
64	0x3c697ee8	0.014251448
65	0x3c6c7801	0.014432908
66	0x3b303a8e	0.002689037
67	0xbcda0036	-0.026611429
68	0x3ca141d6	0.019684713
69	0x3b80248a	0.003910606
70	0xbcecbe3b	-0.028899303
71	0xbc879e01	-0.016554834
72	0xbc8743a7	-0.016511751
73	0x3b202864	0.0024438137
74	0xbb7d76d7	-0.003867557
75	0xbc8e437b	-0.017366162
76	0x3b798f08	0.0038079638
77	0xbcc7e162	-0.024399463
78	0xbc5c42b9	-0.013443642
79	0xbbc6a082	-0.0060616145
80	0xbcae8d06	-0.02130748
81	0x3ba7bb48	0.005118761
82	0xbc95f422	-0.018304888
83	0x3bf7fc64	0.007567929
84	0xbc2d86bd	-0.010591206
85	0xba44c526	-0.0007506184
86	0x3b969757	0.004595678
87	0x3c8097fa	0.015697468
88	0xbc4b9861	-0.012426467
89	0x3caa1ae8	0.020764783
90	0x3b9512bd	0.004549353
91	0xbce4f12f	-0.027947037
92	0xbd0ccbe3	-0.03437413
93	0x3cbc99f7	0.023022635
94	0x3c1fae85	0.009746199
95	0xbcbd8f23	-0.023139542
96	0xbc81c357	-0.015840216
97	0xbcb758f1	-0.022381278
98	0xbc9e887d	-0.019352192
99	0xbc8657ca	-0.016399283
100	0x3c7fb472	0.015606986
101	0x3c8ecaa2	0.017430607
102	0x3b9314c8	0.0044885613
103	0x3c3ba3be	0.011452613
104	0xbd0d8521	-0.03455079
105	0x3cb87a07	0.022519125
106	0xbcacf1e3	-0.021111434
107	0x3ca4d4b5	0.020120958
108	0xbbd5f98e	-0.0065299934
109	0xbc7a4359	-0.015274846
110	0xbd0b1029	-0.03395096
111	0x3ca5c4bf	0.020235417
112	0xba9dd6a0	-0.0012042113
113	0x3baeb058	0.0053310804
114	0xbc8b0089	-0.016968029
115	0xbd100589	-0.03516153
116	0xbc3c8d53	-0.011508304
117	0xbc96cb11	-0.018407376
118	0x3a84009c	0.0010070982
119	0xbc8b1cd4	-0.01698152
120	0x3cbb62fa	0.022874344
121	0xbaf33632	-0.001855558
122	0xbc4af329	-0.012387075
123	0x3b4dcc76	0.0031402386
124	0x3cabadfa	0.020956982
125	0xbcef188d	-0.029186511
126	0xbc80c867	-0.01572056
127	0xbd0a2002	-0.03372193
128	0xbc9d01d5	-0.019165913
129	0xbca75e73	-0.02043078
130	0xbbeae074	-0.00716787
131	0xbcf3d9db	-0.029766968
132	0xbbac1f87	-0.005252782
133	0x3c99b99e	0.018765267
134	0xbb080c1f	-0.0020759178
135	0x3c4a2f29	0.012340345
136	0xbb83a488	-0.0040174164
137	0x3cbb461a	0.022860575
138	0xbad12269	-0.001595569
139	0xbb2e7f4c	-0.0026626168
140	0xbcdfc050	-0.027313381
141	0xbcbd2ab6	-0.023091655
142	0xbc5f57d7	-0.0136317825
143	0x3c7b4932	0.015337275
144	0xbbf6550e	-0.0075174635
145	0xbce5ae8f	-0.028037338
146	0xbc398a26	-0.011324441
147	0xbc2852cd	-0.0102736475
148	0x3b468a5a	0.0030294866
149	0x3b542341	0.0032369646
150	0xbaa51929	-0.0012595999
151	0xbc4c5201	-0.012470723
152	0xbc3f9d06	-0.011695152
153	0xba5bf805	-0.0008391145
154	0xbceef23f	-0.029168246
155	0x3b99e2c8	0.004696224
156	0x3c40257e	0.011727689
157	0xbcba21b3	-0.022721147
158	0xbd0b9f76	-0.03408762
159	0x3c84286b	0.016132554
160	0x3bcfa5ab	0.006336888
161	0xbd0e92cd	-0.03480797
162	0x3bcbe453	0.0062222867
163	0xbc8bce66	-0.017066192
164	0x3cbe8814	0.023258246
165	0xbc581546	-0.013188666
166	0xbb0997eb	-0.0020995091
167	0x3c51b50b	0.012799512
168	0xba496e44	-0.00076839724
169	0xbcad45c4	-0.02115143
170	0xbc947aea	-0.018125016
171	0xbca321c7	-0.019913567
172	0x3c5191c3	0.0127911
173	0xbc33c870	-0.010973081
174	0xbc7edcf5	-0.01555561
175	0x3b0e35bc	0.0021699509
176	0x3c87b6cf	0.016566662
177	0xbce9f83f	-0.028560756
178	0xbc28ad89	-0.01029528
179	0xbcf028af	-0.029316274
180	0x3b549463	0.0032437078
181	0x39060731	0.00012781915
182	0xbcdc3fb8	-0.026885852
183	0xbbf48ce1	-0.007463083
184	0xbc3d2f8f	-0.011546983
185	0x3be098b6	0.006854142
186	0x3c35c4c1	0.011094273
187	0xbb8bd74d	-0.004267609
188	0x39acb909	0.00032944258
189	0x3c26a2ed	0.0101706805
190	0xbcbe6ea4	-0.023246117
191	0xbd0b9e3c	-0.03408645
192	0xbb9ce6e2	-0.0047882656
193	0xbc6eab55	-0.014567216
194	0x3cb3c7f8	0.021945938
195	0xbc4277b3	-0.011869359
196	0x3c463872	0.012098419
197	0xbcfaa280	-0.030595064
198	0xbc9fb6cc	-0.019496344
199	0x3c255447	0.010090894
200	0xbcd80304	-0.026368625
201	0xbce06e97	-0.027396483
202	0x3c21c07f	0.009872555
203	0x3b2923c5	0.0025808674
204	0xbcda0e2d	-0.026618088
205	0xbce65df4	-0.028120972
206	0xbc4a7c44	-0.012358729
207	0xbca27b07	-0.019834055
208	0xbce304f5	-0.027712325
209	0x3c3e0b11	0.011599318
210	0x3c2ef23e	0.010677872
211	0x3c5b8233	0.013397741
212	0xbd119761	-0.035544757
213	0xbccbceef	-0.024878947
214	0xbcc6679b	-0.024219325
215	0x3cb7a6c1	0.022418382
216	0x3bef5dd2	0.0073048854
217	0xbc2e635c	-0.010643806
218	0xbb565ede	-0.0032710354
219	0xbd093805	-0.03350069
220	0x3c3eefa5	0.011653815
221	0x3c19f9a1	0.009397895
222	0xbc000cd9	-0.007815563
223	0xbbbeb6cd	-0.0058201314
224	0x3ba11059	0.004915279
225	0xbc72cbe2	-0.014819117
226	0x3bc12b92	0.0058950866
227	0xba24f5a9	-0.000629271
228	0x3c19fde1	0.009398908
229	0xbc6f66d1	-0.014611916
230	0x3b0d84d8	0.0021594074
231	0x3cb2141f	0.02173811
232	0xbc4bdebe	-0.012443243
233	0xba842c1b	-0.0010083945
234	0x3c9bb689	0.019007938
235	0xbd0abbda	-0.033870555
236	0xbb786277	-0.0037900486
237	0xbc1f9d30	-0.009742066
238	0x3ca65bb5	0.020307401
239	0x3bf03878	0.0073309503
240	0xbaa86f5b	-0.0012850569
241	0xbcd5b63c	-0.026087873
242	0x3c36a85b	0.0111485375
243	0xbc5d7bd3	-0.0135182915
244	0xbbe06505	-0.00684798
245	0x3ca65e40	0.020308614
246	0x3b4a55c3	0.0030873872
247	0xbc51b60b	-0.01279975
248	0x3c497576	0.012296071
249	0xbc0f1c83	-0.008734825
250	0xbd07167d	-0.03298043
251	0xbc60eb33	-0.013727951
252	0xbc118c13	-0.008883494
253	0xbbb447e6	-0.005501735
254	0xbc1d7a96	-0.009611746
255	0x3c4e13ce	0.012577964

bias f4 [64]
0	0xbc717dca	-0.014739463
1	0xbd088fd7	-0.0333403
2	0xbc8a3849	-0.016872542
3	0x3eda9933	0.42695007
4	0xbd012547	-0.03152969
5	0x3cca4cd4	0.024694838
6	0x3c8e815d	0.01739567
7	0x3eabb423	0.3353587
8	0x3b2cfa46	0.0026394292
9	0xbc9d01db	-0.019165924
10	0xbc3bc288	-0.011459954
11	0xbc960275	-0.018311718
12	0x3b5db6d0	0.0033830889
13	0xbd1308d7	-0.035897102
14	0xbca556b7	-0.02018295
15	0xbc883f38	-0.016631708
16	0x3e423b87	0.1896802
17	0xbc7aea79	-0.015314692
18	0xbcaf58b8	-0.02140461
19	0x3c724251	0.014786319
20	0xbbd01357	-0.0063499617
21	0xbc6a1cb4	-0.01428907
22	0x3e1cac79	0.15300168
23	0xbd09863a	-0.033575274
24	0xbd124ca6	-0.03571763
25	0xbd06b9f1	-0.03289217
26	0x3c2d3f78	0.010574214
27	0x3efe8a19	0.49714735
28	0x3e033a39	0.12815179
29	0x3edb997b	0.42890534
30	0x3ed37f22	0.41307932
31	0xbb45ffd9	-0.0030212312
32	0x3e1b6fc2	0.15179351
33	0xbe3b6d36	-0.1830338
34	0x3b5e1328	0.003388593
35	0x3e1a16c4	0.15047747
36	0xbcf77198	-0.030205533
37	0xbc37dc27	-0.011221922
38	0x3c6d9d30	0.014502808
39	0xbcc76152	-0.024338398
40	0xbd0ce6a9	-0.034399662
41	0xbbc4bca7	-0.0060039344
42	0x3eece2cf	0.4626679
43	0xbc51222f	-0.012764498
44	0x3e57e117	0.21081959
45	0xbcb435de	-0.021998342
46	0xbce85ad6	-0.028363626
47	0x3c45b506	0.012067085
48	0xb982e319	-0.00024964733
49	0x3d473705	0.048636455
50	0x3ccea83b	0.025226703
51	0x3bd0755a	0.0063616456
52	0x3beef85d	0.007292791
53	0x3c8f9c6c	0.017530642
54	0x3d2c0afe	0.04200267
55	0x3e31ab85	0.17350586
56	0x3e81754c	0.25284803
57	0xbcc9a5a9	-0.024615126
58	0x3d8c55b5	0.06852285
59	0xbc96fca4	-0.018431015
60	0x3c9690f0	0.018379658
61	0x3e2f4aef	0.17118429
62	0xbcc6566c	-0.024211131
63	0x3e77d97b	0.24204056

weight f4 [64, 64]
0	0x3ca929f6	0.020649891
1	0x3be204ad	0.00689753
2	0x3da00a21	0.07814432
3	0x3e0ff9fa	0.14060202
4	0x3dcdc3ce	0.100471124
5	0xbcd194d6	-0.025583666
6	0xbdc8f3ab	-0.09812101
7	0x3c8cf037	0.017204387
8	0x3d8b6e67	0.06808167
9	0xbc78f40f	-0.015194907
10	0xbde7a25a	-0.11310263
11	0xbdcdb5b7	-0.10044425
12	0xbdd7df9e	-0.105406985
13	0xbdec5177	-0.11538976
14	0x3d89a590	0.06721032
15	0x3de86c8e	0.1134883
16	0xbd70f397	-0.058826055
17	0x3cfd6f75	0.030936936
18	0x3de8e507	0.113718085
19	0xbc5cfb20	-0.013487607
20	0x3de5ece7	0.11226826
21	0x3de0ef85	0.10983185
22	0xbcf5ec8c	-0.03002002
23	0xbd601370	-0.054706037
24	0x3e04c1df	0.12964581
25	0xbbfbf5c3	-0.007689209
26	0xbda6e79a	-0.08149643
27	0x3e04acd3	0.12956552
28	0xbd1acc33	-0.037792396
29	0x3d0cf64e	0.034414582
30	0xbd903c4b	-0.0704275
31	0x3d30cb5a	0.04316268
32	0x3da4b0bc	0.08041522
33	0xbc973030	-0.018455595
34	0x3d71ae98	0.059004396
35	0x3c1f4ae8	0.009722449
36	0xbd7d0050	-0.061767876
37	0x3d095e1e	0.033537023
38	0xbdc1fdf8	-0.09472269
39	0xbd36d293	-0.044634413
40	0xbd7890c5	-0.060684938
41	0x3d64bdd1	0.055845086
42	0x3e0ba1b2	0.136359
43	0xbcd67bae	-0.026182022
44	0x3d1a5de5	0.0376872
45	0xbd9ae3de	-0.075629935
46	0x3dabf8aa	0.08397038
47	0x3be5a5d1	0.0070082922
48	0x3d9a936c	0.0754765
49	0x3d2250c3	0.0396278
50	0xbd246d61	-0.040143374
51	0xbdcd66df	-0.10029387
52	0xbdeeca8f	-0.11659729
53	0xbcb2d13f	-0.021828292
54	0xbcb848d3	-0.022495663
55	0xbd1fba69	-0.038996134
56	0x3dfe43ab	0.124152504
57	0xb8ed781f	-0.00011323415
58	0xbba8416c	-0.005134752
59	0xbddd722a	-0.10812791
60	0x3d4cb1ce	0.049974255
61	0xbd904103	-0.0704365
62	0x3d996485	0.07489876
63	0x3d0dc662	0.03461302
64	0x3db39ca9	0.08770115
65	0xbcc6318e	-0.024193551
66	0x3d73f2e1	0.0595578
67	0x3a37f028	0.0007016682
68	0xbd700860	-0.058601737
69	0xbd4210c8	-0.047379285
70	0x3b0eefce	0.0021810415
71	0x3dca2fe4	0.09872416
72	0xbcff6036	-0.031173807
73	0x3da05b50	0.078299165
74	0x3cb48668	0.022036746
75	0x3abe0e4f	0.0014500114
76	0x3bfe6090	0.007762976
77	0x3d93ad21	0.07210756
78	0x3cced9a8	0.025250271
79	0xbd9983d2	-0.07495846
80	0x3dc5f75a	0.09666319
81	0x3a9c0d77	0.0011905868
82	0xbd85bd13	-0.06530204
83	0xbdd309ff	-0.10304641
84	0x3dff1d5a	0.1245677
85	0x3c2cd0b2	0.010547804
86	0x3daf7b3b	0.08568426
87	0xbd4c7173	-0.04991288
88	0xbcf730f0	-0.030174702
89	0xbdc57d96	-0.09643094
90	0xbd90dddb	-0.070735656
91	0xbd49cd29	-0.04926792
92	0xbdf0b408	-0.11753088
93	0x3d48b91c	0.04900466
94	0x3d752bd8	0.059856266
95	0x3dd1f6a2	0.102521196
96	0xbd58bc82	-0.05291415
97	0xbd99cf39	-0.07510228
98	0xb9b9923f	-0.00035394912
99	0x3ce977ab	0.028499445
100	0x3d654e59	0.05598292
101	0x3defbe3c	0.11706206
102	0x3da386fa	0.07984729
103	0x3dd04dfe	0.10171126
104	0x3db7b60d	0.0897027
105	0xbd621d75	-0.055203874
106	0xbd5c592d	-0.053795982
107	0x3d8bdfa4	0.068297654
108	0xbd7a7785	-0.06114914
109	0xbd6291f8	-0.055314988
110	0xbd4f8d4c	-0.05067186
111	0xbdb67b47	-0.08910232
112	0xbd9b4ee2	-0.07583405
113	0x3ca4ed9b	0.02013283
114	0x3d1789a5	0.036996502
115	0xbdc6ee03	-0.09713366
116	0xbacb8f11	-0.0015530308
117	0xbdf192bc	-0.117955655
118	0xbd17d88d	-0.037071753
119	0x3d32a81f	0.043617364
120	0x3d11bea0	0.035582185
121	0xbd579604	-0.0526333
122	0xbe12d04b	-0.1433727
123	0xbda0552a	-0.07828744
124	0x3d79866d	0.060919214
125	0x3dc4f2a0	0.096165895
126	0x3de1cb0c	0.11025056
127	0xbd5cc2d8	-0.053896755
128	0x3c28adb8	0.010295324
129	0x3e025f49	0.12731661
130	0xbdbe2e79	-0.09286208
131	0x3e223466	0.15840301
132	0x3dbbe3bc	0.09174296
133	0x3dd7c63f	0.10535859
134	0x3df0ed4a	0.11764009
135	0x3ce98d32	0.02850971
136	0xbde2edf5	-0.11080543
137	0x3ded236f	0.11579024
138	0xbd8642a0	-0.065556765
139	0xbd71d0fd	-0.059037197
140	0xbdaba9f0	-0.083820224
141	0xbb8338bd	-0.0040045665
142	0xbd17eed1	-0.037092987
143	0xbcd1d184	-0.0256126
144	0x3e01de90	0.12682557
145	0xbd60b1ea	-0.054857172
146	0xbd38259d	-0.044957746
147	0xbdc8a19f	-0.09796452
148	0xbda256c1	-0.07926703
149	0xbd3553b5	-0.044269282
150	0x3d088f16	0.033339582
151	0xbcad531a	-0.02115779
152	0xbd2c2ca2	-0.042034753
153	0xbd9268cd	-0.071488954
154	0x3d805ee7	0.06268101
155	0x3d84aeda	0.06478663
156	0xbdc65237	-0.0968365
157	0x3c3a4b1e	0.011370448
158	0x3e208725	0.15676554
159	0xbdb15714	-0.08659187
160	0xbca292f5	-0.019845465
161	0x3c38d720	0.011281759
162	0xbdea50a6	-0.11441164
163	0xbd1dcc15	-0.038524706
164	0xbdacc776	-0.08436482
165	0x3d736829	0.059425507
166	0xbdf225cb	-0.11823615
167	0xbd6fdef0	-0.05856222
168	0x3da35d18	0.079767406
169	0x3dd340e7	0.103151135
170	0x3bbb1c3e	0.005710154
171	0xbd129e9b	-0.03579579
172	0x3d85eb71	0.065390475
173	0xbceec79c	-0.029147916
174	0xbd4152a4	-0.047197953
175	0x3d4387b9	0.047736857
176	0x3ba488af	0.0050211768
177	0xbd6bfe6f	-0.057615694
178	0xbdac16a7	-0.08402758
179	0xbdb78a45	-0.0896192
180	0x3da71ddf	0.08159994
181	0x3cc196f4	0.02363155
182	0x3e03cea8	0.12871802
183	0x3e09ca70	0.1345613
184	0x3e1be538	0.15224159
185	0x3dde8e0e	0.108669385
186	0x3e10884d	0.14114495
187	0x3da46d44	0.08028653
188	0xbd7153c7	-0.058917787
189	0xbd1e19d9	-0.03859887
190	0xbdd4b90c	-0.103868574
191	0xbd23124f	-0.039812382
192	0x3d341f80	0.043975353
193	0x3db4a7ce	0.08821069
194	0x3cbfd140	0.023415208
195	0x3da6f03c	0.0815129
196	0xbd81899c	-0.06325075
197	0xbd55ece4	-0.05222787
198	0x3c8a7630	0.01690206
199	0x3cd36370	0.025804251
200	0x3c02cc20	0.0079832375
201	0x3dd302d8	0.10303277
202	0x3d07e78c	0.033179805
203	0x3d9cdc82	0.07659246
204	0xbd82be16	-0.06383912
205	0x3d8ecbc6	0.069724604
206	0x3db63a58	0.08897847
207	0x3db0e1e8	0.08636838
208	0x3d79e330	0.06100768
209	0x3db83836	0.089950964
210	0x3a99f700	0.0011746585
211	0x3ddf1fd8	0.108947456
212	0x3d8b7592	0.06809534
213	0x3ccd0938	0.02502881
214	0xbd15e9c0	-0.036599874
215	0xbca6fbc8	-0.02038373
216	0xbd18f1ac	-0.03733985
217	0xbd24d47c	-0.040241703
218	0xbddb5808	-0.1071015
219	0x3db21c12	0.0869676
220	0xbbe5ec00	-0.007016659
221	0x38780000	5.9127808e-05
222	0xbd71befc	-0.059020028
223	0x3daf34ba	0.08554979
224	0xbdd95258	-0.10611409
225	0xbdb87c60	-0.09008098
226	0x3c127d30	0.00894098
227	0x3d8afbda	0.06786318
228	0x3cb33a40	0.021878362
229	0xbdcc8f32	-0.0998825
230	0xbd92ee28	-0.07174331
231	0xbde55cb4	-0.11199322
232	0x3df42c9a	0.119225696
233	0x3d1ce954	0.038308457
234	0xbdf4c5e4	-0.11951807
235	0xbc81f058	-0.015861675
236	0xbcb2e758	-0.021838829
237	0xbdd794a0	-0.10526395
238	0xbc86e458	-0.016466305
239	0xbda72cf8	-0.08162874
240	0x3d8037c2	0.06260635
241	0x3d4b244c	0.049595162
242	0xbce86808	-0.028369918
243	0xbd01210c	-0.031525657
244	0x3d51caf0	0.051218927
245	0x3c414340	0.011795819
246	0xbd5357fc	-0.05159758
247	0xbdcdc706	-0.10047726
248	0x3d789650	0.060690224
249	0xbc7ddda0	-0.015494734
250	0x3ce51d08	0.027967945
251	0x3de0b9b4	0.1097292
252	0x3b334600	0.0027354956
253	0x3da9729a	0.08273812
254	0x3d3506d8	0.04419598
255	0x3d347c28	0.044063717

bias f4 [64]
0	0x3e8fe16c	0.2810167
1	0xbdc464e1	-0.095895536
2	0x3e80ca6f	0.25154445
3	0xbdecfa18	-0.11571139
4	0x3d923d01	0.07140542
5	0x3eefb890	0.46820498
6	0x3d18ed5c	0.03733574
7	0xbf34e4bc	-0.7066152
8	0x3d987ede	0.07446073
9	0x3d936574	0.07197085
10	0x3d271dce	0.04079991
11	0xbd5ba67f	-0.05362558
12	0xbc654612	-0.013993757
13	0x3db0f70b	0.0864087
14	0x3e9797b1	0.2960792
15	0x3dc196c2	0.09452583
16	0xbd5803c4	-0.052737966
17	0x3d2c9b61	0.04214037
18	0xbcae3bb6	-0.021268707
19	0xbcad5ab4	-0.021161415
20	0x3bf20f1f	0.0073870565
21	0x3e63d87f	0.22250555
22	0x3d6d9ba7	0.05800977
23	0x3e73a710	0.23794198
24	0xbdca88a0	-0.098893404
25	0x3e2fea66	0.1717926
26	0xbe63b8ab	-0.22238414
27	0x3e056e3b	0.13030331
28	0x3e484e89	0.19561209
29	0xbdf91349	-0.121618815
30	0x3e1ab4a2	0.15107968
31	0xbdfff69a	-0.124982074
32	0xbd2282c8	-0.039675504
33	0x3e4162fa	0.18885413
34	0x3e29dc2b	0.16587894
35	0x3df39a93	0.11894717
36	0x3d430872	0.047615476
37	0x3d09891d	0.033578027
38	0xbd9d400c	-0.076782316
39	0x3dea5c4f	0.11443388
40	0x3d75c052	0.059997864
41	0x3d965b3c	0.0734162
42	0xbd9cec8d	-0.07662306
43	0x3de036ca	0.1094795
44	0x3e06e219	0.13172187
45	0x3ec041cd	0.37550202
46	0x3da43358	0.080176055
47	0x3e42142e	0.1895301
48	0xbd9fda87	-0.07805353
49	0x3d813abd	0.063100316
50	0x3e2d77f9	0.16940297
51	0x3dcb4493	0.09925189
52	0x3d505733	0.05086441
53	0xbdfbc385	-0.12293152
54	0x3da7236f	0.08161055
55	0x3e06e4b0	0.13173175
56	0x3e15bac1	0.14622022
57	0x3ddeca94	0.108784825
58	0xbc9f9482	-0.019479994
59	0xbda1ed41	-0.07906581
60	0xbdd7aeb3	-0.10531368
61	0x3da60777	0.081068926
62	0x3dd3251f	0.10309815
63	0xbd81c0f5	-0.06335632

weight f4 [1, 64]
0	0x3df881a0	0.12134099
1	0xbdc03e24	-0.093868524
2	0x3dc738f0	0.09727657
3	0xbda2f1b4	-0.079562575
4	0x3e0c793e	0.13718125
5	0x3dec93d2	0.11551632
6	0xbd8799f0	-0.06621158
7	0xbf279d54	-0.6547444
8	0x3cfddc48	0.030988827
9	0xbdcbd623	-0.09952953
10	0xbd6a1a45	-0.05715396
11	0x3df8fc04	0.12157443
12	0xbd95ea83	-0.0732012
13	0xbd59b826	-0.053154133
14	0x3d821509	0.063516684
15	0x3da00ad9	0.07814569
16	0xbd993df1	-0.074825175
17	0xbb913bb9	-0.0044321683
18	0x3d6d83c5	0.057986993
19	0xbe267e02	-0.16259006
20	0x3def40f1	0.116823085
21	0x3e11fb3d	0.14255996
22	0xbdbfa950	-0.09358466
23	0x3e2d1276	0.16901574
24	0xbdde504a	-0.10855158
25	0x3ddfc616	0.10926454
26	0xbe9c9c5c	-0.30588043
27	0x3d7d18c3	0.061791193
28	0x3e1860a4	0.14880615
29	0xbdb22fef	-0.08700549
30	0x3e08fa9a	0.13376847
31	0x3dd20a56	0.10255878
32	0x3b2c0fa6	0.0026254444
33	0x3d8368be	0.06416462
34	0x3da50b60	0.0805881
35	0x3e0c2943	0.13687615
36	0xbd8ba318	-0.06818217
37	0x3d781a23	0.0605718
38	0xbd88da98	-0.066823184
39	0xbc8fc2d8	-0.017548963
40	0xbddb42a6	-0.107060716
41	0xbcf2c280	-0.02963376
42	0xbd313f7f	-0.043273445
43	0x3dd31d7d	0.10308359
44	0x3d8ef406	0.069801375
45	0x3d714d6a	0.05891172
46	0x3cb8b5f0	0.022547692
47	0x3e006d3c	0.1254167
48	0xbc2f667d	-0.010705587
49	0xbd36ef3c	-0.044661745
50	0x3dba871c	0.09107801
51	0xbdcac9bf	-0.09901761
52	0x3e000408	0.12501538
53	0xbced22f0	-0.028947324
54	0x3df1cf97	0.11807173
55	0x3d88a086	0.066712424
56	0x3df8a3aa	0.121405914
57	0x3cc6e0ec	0.024277173
58	0xbd87af86	-0.06625275
59	0xbbebf5cc	-0.007200932
60	0xbbb2fabd	-0.0054620192
61	0xbd7b32a6	-0.0613276
62	0x3dbfb015	0.09359757
63	0x3cd3a933	0.025837516
