src/Fun_2/model/model_512_64_64_0.0001_200.pt (torch, 309423 bytes, 5 tensors)

weight f4 [64, 1128]
0.04280445 0.01122377 0.046574492 0.026229506 0.04456054 0.002694231 0.04096026 -0.008711111
0.03476194 -0.009659356 -0.015371778 0.037878066 0.0291056 -0.0095448205 0.037872367 0.034961015
0.018220684 0.020627089 0.027191738 0.009773799 -0.0114208 0.02270519 0.01699277 -0.004609779
0.041093644 0.00910886 0.0169328 0.028242454 0.014674528 0.041385233 0.03292581 -0.01150636
0.00296931 0.04855384 -0.008749259 0.006873046 0.013507522 0.024042565 -0.022997094 0.040703062
-0.00041001604 -0.008178386 0.019325892 0.03126347 -0.030512804 0.013773359 -0.002863009 0.05032558
0.050626345 0.0064336574 0.00446725 0.048389114 0.0077672605 -0.015966313 0.0024019456 0.016871069
0.036646817 0.021420704 0.037487134 0.003229942 0.03084788 0.037324928 0.038714122 0.0052504763
0.03974495 0.05392634 0.023692023 0.029345727 0.006950286 0.02290424 0.031410005 0.016527398
0.048854984 0.040247653 0.041876122 0.00357926 0.011866676 0.042508498 0.0059728124 0.016317368
0.010053401 -0.010969705 0.041083913 -0.018342229 0.0019878848 0.009490408 0.04829511 -0.019361567
0.012598316 -0.004542531 0.04491813 0.020671297 0.0024194517 0.0018307354 0.04357819 0.019201333
0.0029145903 0.037932392 0.012095043 0.013590992 0.05416045 0.031120356 -0.0025933539 0.0009302414
0.030541195 0.0211212 0.0066945483 0.021139633 0.050228123 0.029245397 -0.0072855237 0.044305243
0.022572864 0.021419697 0.052053973 0.04382137 0.059000976 0.048572443 0.03904716 0.009824662
0.038408935 0.048754647 0.0023189785 -0.008761462 0.018705398 0.048653454 0.03709178 0.048294906
-0.03142505 0.010816017 -0.007327277 0.023803778 -0.009902599 -0.0018423408 0.038168296 0.020156134
0.021770151 -0.0037994755 0.044781465 0.030731376 0.03491386 0.019409934 0.02309341 0.044910092
-0.005955647 0.015598556 0.026326254 0.042752698 0.005251884 0.046056174 0.041844927 -0.01358607
0.046784095 0.013559547 0.015752576 0.03239629 0.010551754 0.022834288 -0.0097015435 0.024540968
0.04625172 0.048735265 0.023910413 0.0486266 0.032530844 0.037606977 0.02428746 0.023297109
0.025149666 -0.013163714 0.042377472 -0.0040828353 0.0069107646 0.01092612 0.029382233 0.026623677
0.040288713 0.023525301 0.03693126 0.007866883 -0.00468494 0.041466054 0.023255466 0.044112932
0.03548963 0.038629934 0.000235109 -0.053139124 0.016729267 0.0077266525 -0.013169377 0.0021695315
0.01878409 0.009337634 0.026214456 -0.0026344254 0.030748982 0.004558362 0.038095653 -0.005027574
0.021075418 0.016057286 0.00075124577 0.05292201 0.019664196 0.019529542 0.024464471 0.017389866
0.036704145 -0.0015237622 0.028531974 0.010218234 0.011040046 0.009375931 -0.0020756198 0.058427986
0.037089642 0.0019201508 0.018279025 0.010020969 0.042213336 0.0048772027 0.032526046 0.0119802775
0.03757279 0.025320422 0.012541682 0.0036936775 0.023815017 0.029062353 0.039572135 0.00030070782
0.004637746 0.037646998 0.046536125 0.014576276 0.03414347 0.03574059 0.031937916 -0.007695969
0.04346195 -0.01344761 0.035184216 0.04559221 0.036867686 0.03579074 -0.011444216 0.032594226
0.006295406 -0.0063869343 -0.011216897 -0.0050491802 0.01608418 0.038655058 0.040825456 0.03147386
00000000: b853 2f3d e7e3 373c e5c4 3e3d 43df d63c
00000010: 1d85 363d b291 303b f2c5 273d 0cb9 0ebc
00000020: 8962 0e3d 4742 1ebc e9d9 7bbc 0826 1b3d
00000030: de6e ee3c e161 1cbc 0e20 1b3d 4833 0f3d
00000040: 8b43 953c 24fa a83c 35c1 de3c 4922 203c
00000050: 4f1e 3bbc 3c00 ba3c 6c34 8b3c a10d 97bb
00000060: cf51 283d 543d 153c a8b6 8a3c b85c e73c
00000070: 6e6d 703c 9083 293d 37dd 063d 2c85 3cbc
00000080: c198 423b 64e0 463d 0d59 0fbc 4a37 e13b
00000090: a74e 5d3c eaf4 c43c 6764 bcbc 41b8 263d
000000a0: 6cf7 d6b9 a3fe 05bc 5551 9e3c 200e 003d
000000b0: fdf5 f9bc a8a9 613c 52a1 3bbb 3222 4e3d
000000c0: 925d 4f3d 6ed1 d23b 0262 923b aa33 463d
000000d0: 8184 fe3b c9cb 82bc f669 1d3b 3235 8a3c
000000e0: f91a 163d 797a af3c 1c8c 193d 6fad 533b
000000f0: b1b4 fc3c 06e2 183d b392 1e3d 300c ac3b
00000100: 9acb 223d dee1 5c3d c615 c23c 7366 f03c
00000110: 3abf e33b aca1 bb3c c7a7 003d 7764 873c
00000120: 2a1c 483d b9da 243d 4c86 2b3d 0592 6a3b
00000130: 726c 423c 641d 2e3d 95b7 c33b 00ac 853c
00000140: 05b7 243c 47ba 33bc 9b47 283d 7142 96bc
00000150: 2c47 023b a87d 1b3c 18d1 453d 269c 9ebc
00000160: 2b69 4e3c 83d9 94bb 13fc 373d da56 a93c
00000170: aa8f 1e3b 49f5 ef3a 0b7f 323d 1d4c 9d3c
00000180: b602 3f3b ff5e 1b3d 4a2a 463c c1ac 5e3c
00000190: 59d7 5d3d 1ef0 fe3c 42f5 29bb 72db 733a
000001a0: 8731 fa3c 5e06 ad3c f15d db3b 062d ad3c
000001b0: 01bc 4d3d 0b94 ef3c 67bb eebb 6a79 353d
000001c0: baea b83c 5c78 af3c 8c36 553d 097e 333d
000001d0: 02ab 713d e6f3 463d eaef 1f3d 9ef7 203c
000001e0: b052 1d3d f4b2 473d 01fa 173b 3c8c 0fbc
000001f0: 103c 993c d848 473d 8ded 173d e1d0 453d
00000200: 8eb7 00bd aa35 313c a819 f0bb 2400 c33c
00000210: 833e 22bc b37a f1ba 5c56 1c3d 7a1e a53c
00000220: 5157 b23c 9f00 79bb c56c 373d 5ec0 fb3c
00000230: d601 0f3d 9501 9f3c 642e bd3c a5f3 373d
00000240: 9727 c3bb 1691 7f3c 28aa d73c 741d 2f3d
00000250: ff17 ac3b 66a5 3c3d 9665 2b3d 1c98 5ebc
00000260: aea0 3f3d dd28 5e3c 8c0b 813c f9b1 043d
00000270: 44e1 2c3c f90e bb3c 39f3 1ebc 240a c93c
00000280: 7272 3d3d a19e 473d c5df c33c b02c 473d
00000290: 103f 053d c609 1a3d 7ff6 c63c 94d9 be3c
000002a0: ac06 ce3c 9eac 57bc 0094 2d3d 4ec9 85bb
000002b0: b273 e23b 7803 333c 02b3 f03c e619 da3c
000002c0: c705 253d 22b8 c03c 3c45 173d 19e4 003c
000002d0: 2084 99bb 4fd8 293d 3f82 be3c c3af 343d
000002e0: 935d 113d 6c3a 1e3d 9787 7639 69a8 59bd
000002f0: d10b 893c dc2f fd3b 5fc4 57bc b32e 0e3b
00000300: 18e1 993c e0fc 183c b3bf d63c 53a6 2cbb
00000310: 4ae5 fb3c 505e 953b 300a 1c3d 59be a4bb
00000320: 5ba6 ac3c 928a 833c 40ef 443a c0c4 583d
00000330: cf16 a13c 6bfc 9f3c b769 c83c 3175 8e3c
00000340: 1657 163d fab8 c7ba e3bb e93c 616a 273c
00000350: 4fe1 343c 819d 193c 1f07 08bb 2f52 6f3d
00000360: 4feb 173d 92ad fb3a e5bd 953c fe2e 243c
00000370: e4e7 2c3d f1d0 9f3b 083a 053d ed48 443c
00000380: ede5 193d c66c cf3c a17b 4d3c a011 723b
00000390: b617 c33c 2c14 ee3c 6416 223d 52a8 9d39
000003a0: 3cf8 973b bd33 1a3d aa9c 3e3d 55d1 6e3c
000003b0: 06da 0b3d ba64 123d 55d1 023d 782e fcbb
000003c0: 2805 323d 5d53 5cbc 531d 103d e6be 3a3d
000003d0: 9202 173d 5099 123d 8580 3bbc 8681 053d
000003e0: b149 ce3b 7d49 d1bb 13c7 37bc 9873 a5bb
000003f0: f8c2 833c c454 1e3d 9838 273d bcea 003d

bias f4 [64]
-0.055655956 -0.015512162 0.058990758 0.023405511 0.1550743 -0.029039523 0.009170231 -0.0014034704
0.19500783 0.05858129 0.023014091 0.048381373 -0.029098686 0.058872312 -0.02953585 -0.03080669
0.0047383322 0.020782903 0.011599611 0.025288038 0.19071476 -0.043542434 0.17602941 0.03949103
0.025329657 -0.0066621983 0.04077123 0.023270903 -0.0046108263 0.08607885 0.02384557 -0.02284473
-0.20914878 0.07633384 0.09334614 0.007296539 0.047283337 0.06574464 0.036829922 0.0074789007
0.0052449214 -0.01273774 -0.023426386 0.03549737 -0.02077664 0.0075680865 0.054246526 -0.008299169
0.07867863 0.048116557 0.21251959 -0.0014852952 0.049249224 0.032177754 0.0033561054 0.008756346
0.01910571 0.019678457 0.047780354 0.05182914 0.06187776 -0.057240117 0.064339474 0.015084438
00000000: 80f7 63bd b926 7ebc 4ba0 713d eabc bf3c
00000010: cccb 1e3e 4be4 edbc bd3e 163c a7f4 b7ba
00000020: 22b0 473e eff2 6f3d 0c88 bc3c 8c2b 463d
00000030: 5e60 eebc 1824 713d 2bf5 f1bc 505e fcbc
00000040: 0344 9b3b e840 aa3c 4b0c 3e3c dc28 cf3c
00000050: bb4a 433e 8d59 32bd 0e41 343e 59c1 213d
00000060: 2480 cf3c 924e dabb bcff 263d 9fa2 be3c
00000070: 6a16 97bb 1c4a b03d c957 c33c df24 bbbc
00000080: 192b 56be eb54 9c3d 432c bf3d ce17 ef3b
00000090: 2cac 413d 20a5 863d f9da 163d 9111 f53b
000000a0: 97dd ab3b f4b1 50bc b1e8 bfbc b165 113d
000000b0: c633 aabc b6fd f73b 9b31 5e3d 3df9 07bc
000000c0: 4322 a13d de15 453d bc9e 593e 3dae c2ba
000000d0: 8eb9 493d d2cc 033d 1bf2 5b3b c776 0f3c
000000e0: 9483 9c3c b734 a13c 55b5 433d cb4a 543d
000000f0: 8973 7d3d 9d74 6abd 6ac4 833d b824 773c

weight f4 [64, 64]
0.01503805 -0.009698896 -0.09741634 -0.07738251 -0.0120846545 0.07105275 -0.091783315 0.051133033
-0.017798819 0.07559052 -0.036429457 -0.08955822 0.103123866 0.100906014 -0.045531835 -0.012142539
0.08473633 0.08571509 -0.025449978 -0.047588993 0.0955951 -0.09831127 0.047749206 0.11192704
0.08525264 -0.072758175 -0.009620566 -0.08231056 0.013999394 -0.07890697 -0.09260839 0.011878548
-0.095055506 0.029143982 0.08574934 0.044428844 0.0745158 -0.042250212 -0.08834369 0.09916177
-0.049826108 -0.0023867784 0.069322474 -0.08769105 0.042052936 -0.065142885 -0.047709886 -0.09439491
0.06112906 -0.0010923332 -0.020613939 0.033306044 -0.08197015 0.015095178 -0.11056341 0.07672387
-0.037707947 0.006495454 -0.05235903 -0.017309269 -0.102412894 0.05732487 -0.017821454 -0.135168
-0.053009 -0.13981386 0.10884184 -0.01224534 0.08948147 -0.107626714 -0.045991134 0.13524695
0.107973866 0.093292534 -0.09282122 0.13506746 0.09437367 -0.092369065 0.05189616 0.06764054
-0.107346445 0.04076622 -0.15394022 0.053642828 0.10478144 -0.061880685 0.26743677 0.069050536
0.090228714 0.08354549 -0.012591072 -0.034647282 0.08086614 0.28261244 -0.090355836 0.043331817
-0.06595812 -0.047029223 0.082455754 0.11571589 0.08890836 -0.0458804 0.048563465 -0.05162971
-0.08652215 -0.050791875 0.092705116 0.10157465 0.102197796 0.04608669 0.06921064 -0.060207125
0.022777954 0.08303632 0.16510408 -0.091386676 -0.103649445 0.051065132 0.042854868 0.11857313
-0.00087331975 0.023264898 0.08399998 0.06309517 -0.004308731 -0.11074871 -0.00056354894 0.1218141
0.02894364 -0.015651843 -0.042049825 0.03669717 0.23771809 -0.07581287 -0.091638744 0.057498492
0.2426027 -0.07016915 -0.033767737 0.030601593 0.006148669 0.08976737 0.047628462 -0.09679169
-0.11945234 0.1339896 -0.03785652 0.10574453 0.11940886 -0.09779926 0.17365374 -0.058171205
0.07128735 -0.061202094 0.023655325 0.047754 -0.10262185 0.08398616 0.03202125 -0.112860255
-0.2035197 0.010156206 0.13509327 0.04344074 0.047950383 -0.014515518 -0.00047741173 -0.044119798
0.11982793 -0.10594867 0.06635683 -0.010261093 0.082477726 0.107699424 0.105767995 0.0066031865
0.1659771 0.120075695 0.16550453 -0.0938107 -0.0677718 0.12516664 -0.11300526 0.11105991
-0.021617819 -0.098365895 0.07232879 -0.0046056663 0.07608386 0.045941565 0.13057446 0.048264455
-0.040412854 -0.09268858 0.035815127 -0.10338488 0.006138272 -0.03261443 0.09311058 -0.000121365185
-0.06914741 0.05327284 0.12656033 0.047116976 0.053701527 -0.041562192 -0.026165726 0.09532902
0.027923772 -0.017997522 -0.072467156 0.0921342 0.12411429 -0.08437184 -0.042846117 0.082590535
0.061972402 -0.06229924 -0.09954191 0.11453738 0.020159077 0.057259973 -0.022781823 -0.058176577
0.03409478 -0.05557199 -0.080291525 -0.08905994 0.12589428 0.03465107 -0.08104661 -0.01679789
-0.105592534 0.05022672 0.043689143 -0.05178692 -0.095739774 -0.11630463 -0.07485196 0.06440878
-0.06704785 0.11151694 -0.00880439 0.06662114 -0.031569626 0.108132765 0.034331292 -0.032838132
-0.020659165 -0.0836486 -0.113382235 -0.103105865 -0.023732329 0.09887748 -0.07360709 -0.038319472
00000000: 2762 763c 1ee8 1ebc 3882 c7bd b97a 9ebd
00000010: b7fe 45bc 1b84 913d e4f8 bbbd df70 513d
00000020: d4ce 91bc 34cf 9a3d 0e37 15bd 4d6a b7bd
00000030: 9b32 d33d d0a7 ce3d 977f 3abd 80f1 46bc
00000040: 3e8a ad3d 658b af3d 797c d0bc adec 42bd
00000050: 5dc7 c33d 6b57 c9bd ac94 433d 013a e53d
00000060: f098 ae3d 3d02 95bd 949f 1dbc 7092 a8bd
00000070: b75d 653c fa99 a1bd 78a9 bdbd 3e9e 423c
00000080: 76ac c2bd 5cbf ee3c 5a9d af3d 05fb 353d
00000090: bd9b 983d 8f0e 2dbd 89ed b4bd 5315 cb3d
000000a0: 7616 4cbd 7f6b 1cbb f1f8 8d3d 5d97 b3bd
000000b0: b33f 2c3d a269 85bd 716b 43bd 1e52 c1bd
000000c0: 7762 7a3d 9f2c 8fba 90de a8bc eb6b 083d
000000d0: f7df a7bd c451 773c 126f e2bd 6821 9d3d
000000e0: a673 1abd d1d7 d43b 6c76 56bd 2bcc 8dbc
000000f0: dabd d1bd 7ccd 6a3d 4cfe 91bc 7b69 0abe
00000100: f71f 59bd 5d2b 0fbe 78e8 de3d aea0 48bc
00000110: 1042 b73d 656b dcbd 3361 3cbd 2d7e 0a3e
00000120: 6721 dd3d 2810 bf3d 0d19 bebd 204f 0a3e
00000130: fc46 c13d fe2b bdbd 1191 543d 2087 8a3d
00000140: 74d8 dbbd 7bfa 263d 81a2 1dbe 95b8 5b3d
00000150: a797 d63d 9a76 7dbd 79ed 883e 5e6a 8d3d
00000160: d5c9 b83d e619 ab3d c94a 4ebc 4fea 0dbd
00000170: 269d a53d 94b2 903e 7b0c b9bd b47c 313d
00000180: 0d15 87bd b7a1 40bd 90de a83d 74fc ec3d
00000190: 9615 b63d 16ed 3bbd 7cea 463d ad79 53bd
000001a0: 8632 b1bd 240b 50bd 2edc bd3d 5f06 d03d
000001b0: 144d d13d 66c5 3c3d 4fbe 8d3d bf9b 76bd
000001c0: d598 ba3c f20e aa3d 0b11 293e f028 bbbd
000001d0: 2946 d4bd ac29 513d 9688 2f3d 78d6 f23d
000001e0: 7fef 64ba 0796 be3c 2e08 ac3d 0a38 813d
000001f0: 4130 8dbb 38d0 e2bd 21bb 13ba ac79 f93d
00000200: 361b ed3c 4b38 80bc 703c 2cbd c64f 163d
00000210: 5f6c 733e c743 9bbd 18ad bbbd 8a83 6b3d
00000220: d86c 783e d8b4 8fbd 0a50 0abd 31b0 fa3c
00000230: c67a c93b f4d7 b73d 1016 433d b93a c6bd
00000240: 6ea3 f4bd 9234 093e 700f 1bbd 9790 d83d
00000250: a28c f43d fa4a c8bd 49d2 313e ee44 6ebd
00000260: 1aff 913d 0caf 7abd d0c8 c13c b399 433d
00000270: 682b d2bd f000 ac3d b728 033d 4723 e7bd
00000280: 7867 50be 3766 263c e455 0a3e ebee 313d
00000290: 9f67 443d 7fd2 6dbc 1e4d fab9 f6b6 34bd
000002a0: 5968 f53d 9efb d8bd 17e6 873d 251e 28bc
000002b0: 15ea a83d 8491 dc3d e49c d83d 8b5f d83b
000002c0: e7f5 293e 3fea f53d 057a 293e d31f c0bd
000002d0: f1cb 8abd af2b 003e 4d6f e7bd 6173 e33d
000002e0: da17 b1bc 0f74 c9bd 1e21 943d 21eb 96bb
000002f0: dbd1 9b3d 392d 3c3d 50b5 053e f3b0 453d
00000300: f387 25bd 83d3 bdbd e2b2 123d 74bb d3bd
00000310: 8f23 c93b b596 05bd c3b0 be3d 7085 feb8
00000320: 289d 8dbd 9f34 5a3d 0899 013e bbfd 403d
00000330: 22f6 5b3d 1e3d 2abd 8159 d6bc dc3b c33d
00000340: 65c0 e43c 8a6f 93bc a969 94bd dbb0 bc3d
00000350: a22f fe3d 25cb acbd 697f 2fbd 3a25 a93d
00000360: c6d6 7d3d 7d2d 7fbd a1dc cbbd 9392 ea3d
00000370: a624 a53c 6f89 6a3d f2a0 babc 904a 6ebd
00000380: f8a6 0b3d 749f 63bd e26f a4bd 0f65 b6bd
00000390: 6eea 003e 48ee 0d3d c4fb a5bd bb9b 89bc
000003a0: e640 d8bd 88ba 4d3d 63f3 323d 851e 54bd
000003b0: 3713 c4bd 1f31 eebd fc4b 99bd c0e8 833d
000003c0: 6250 89bd fe62 e43d 4a40 10bc aa70 883d
000003d0: 274f 01bd b674 dd3d f89e 0c3d 4781 06bd
000003e0: 693d a9bc f54f abbd f234 e8bd 2b29 d3bd
000003f0: 4d6a c2bc 4780 ca3d 50bf 96bd e1f4 1cbd

bias f4 [64]
0.040093876 -0.07369438 -0.024931988 -0.12013299 0.0971944 0.109686986 0.09281892 -0.12419987
-0.1198639 0.1224643 0.09493433 0.10590582 0.08783782 0.11538442 -0.06492077 -0.12128492
-0.050081827 0.10285267 -0.10432048 -0.2502578 0.037830018 -0.10277322 -0.060959738 -0.12402555
0.088933416 0.06717403 -0.027638517 0.14830106 0.117411986 0.021771772 0.13045938 -0.0038658767
0.029389845 -0.08033438 -0.03557922 0.14055069 -0.0456367 -0.13762282 0.1196941 -0.06826618
-0.106592014 0.0101789525 0.09012156 -0.11997771 -0.04742795 -0.27140546 -0.25523898 0.13880311
-0.10261296 -0.0018252289 -0.07275933 0.054765876 0.073818795 -0.043715745 0.07199893 0.04458705
-0.2156034 -0.030350057 0.12157049 0.1436859 -0.1168281 0.030556144 0.06858887 -0.048462797
00000000: 7a39 243d 14ed 96bd 2b3e ccbc 4908 f6bd
00000010: dc0d c73d 92a3 e03d d917 be3d 805c febd
00000020: 347b f5bd 90ce fa3d ee6c c23d 27e5 d83d
00000030: 51e4 b33d ab4e ec3d 2ef5 84bd 3a64 f8bd
00000040: 9a22 4dbd 6ca4 d23d faa5 d5bd ca21 80be
00000050: a6f3 1a3d c47a d2bd ebb0 79bd 1c01 febd
00000060: b922 b63d 8a92 893d 2c6a e2bc 3cdc 173e
00000070: b275 f03d b75a b23c 2597 053e a65a 7dbb
00000080: f9c2 f03c 5a86 a4bd 84bb 11bd 85ec 0f3e
00000090: 8ced 3abd ffec 0cbe 2e22 f53d 24cf 8bbd
000000a0: ea4c dabd 9fc5 263c a791 b83d e0b6 f5bd
000000b0: cf43 42bd a8f5 8abe afae 82be 6722 0e3e
000000c0: be26 d2bd 853c efba d802 95bd 2f52 603d
000000d0: 4f2e 973d 480f 33bd 2d74 933d e9a0 363d
000000e0: 23c7 5cbe afa0 f8bc f3f9 f83d 6622 133e
000000f0: 9243 efbd e150 fa3c 5278 8c3d ed80 46bd

weight f4 [1, 64]
-0.089866504 0.1000673 0.13750216 0.0164931 0.029995231 -0.09845535 -0.07900759 -0.10442647
-0.05596395 -0.11739964 -0.06492162 -0.020793527 0.029428486 0.1393087 0.0076840967 -0.0056613237
0.1386932 0.06071915 0.06075017 -0.17151785 0.108871 0.0060757534 -0.047250267 -0.04627737
-0.10342994 0.01838697 0.115782656 0.10023001 0.054184187 -0.08036306 0.1272593 -0.018807407
0.11641415 -0.16369246 -0.06076902 0.09096754 -0.08153932 -0.16162422 0.09468237 0.038251493
-0.039030522 0.12563992 0.0149991065 -0.027731866 -0.03019469 -0.24917293 -0.29080302 0.122147284
0.032162055 -0.008217115 0.07736039 0.09305543 0.05406318 -0.026506009 0.120428585 0.07467194
-0.20311248 0.030967966 0.0480022 0.08686079 -0.22425434 -0.034199536 0.034709033 -0.15575504
00000000: ee0b b8bd 16f0 cc3d 5ecd 0c3e 8a1c 873c
00000010: 8fb8 f53c f5a2 c9bd bbce a1bd 8cdd d5bd
00000020: 743a 65bd 396f f0bd a0f5 84bd 3057 aabc
00000030: 0214 f13c f1a6 0e3e e0ca fb3b a082 b9bb
00000040: 9705 0e3e a5b4 783d 2cd5 783d 60a2 2fbe
00000050: c2f7 de3d 1d17 c73b 7f89 41bd 578d 3dbd
00000060: 14d3 d3bd 45a0 963c 751f ed3d 6445 cd3d
00000070: 3df0 5d3d 6395 a4bd 4350 023e fe11 9abc
00000080: 8b6a ee3d ff9e 27be f0e8 78bd 314d ba3d
00000090: 16fe a6bd d280 25be d5e8 c13d 99ad 1c3d
000000a0: 78de 1fbd c0a7 003e d0be 753c f02d e3bc
000000b0: db5a f7bc 3027 7fbe 22e4 94be 5b28 fa3d
000000c0: 5cbc 033d 14a1 06bc 206f 9e3d d893 be3d
000000d0: 5a71 5d3d 2123 d9bc 43a3 f63d 9aed 983d
000000e0: b8fc 4fbe 88b0 fd3c f49d 443d 12e4 b13d
000000f0: eea2 65be d014 0cbd 0f2b 0e3d 407e 1fbe
