src/Fun_2/model/model_256_64_64_0.001_200.pt (torch, 309415 bytes, 5 tensors)

weight f4 [64, 1128]
0	0x3d0517cd	0.0324934
1	0x3d9c336d	0.07626996
2	0xbd72c368	-0.059268385
3	0xbd582d8b	-0.05277781
4	0xbce1e534	-0.027575113
5	0x3dae868f	0.08521759
6	0xbd96fcea	-0.07372458
7	0x3de34ef5	0.11099044
8	0xbdd3d945	-0.10344175
9	0x3ba2435f	0.004951879
10	0x3d4db68a	0.05022291
11	0xbd89d829	-0.067306824
12	0xbd305960	-0.043053985
13	0x3c3c17d5	0.011480291
14	0x3cf5b481	0.029993298
15	0xbdb797c7	-0.08964496
16	0xbd97bebc	-0.074094266
17	0xbd3af313	-0.04564197
18	0x3cf0cc60	0.029394329
19	0xbd7ec075	-0.06219526
20	0xbd0e06be	-0.0346744
21	0x3ca205fa	0.01977824
22	0x3d479110	0.048722327
23	0xbc14e13d	-0.009086904
24	0xbc6a654a	-0.014306376
25	0xbd725cc6	-0.059170507
26	0xbd7b6ef4	-0.06138511
27	0x3d32eff9	0.043685887
28	0xbd66ba10	-0.056329787
29	0xbc262ed8	-0.010143004
30	0x3db60f11	0.088895924
31	0xbd840ec8	-0.06448132
32	0x3d466463	0.04843558
33	0xbd1d980e	-0.03847509
34	0xbdb94511	-0.090463765
35	0x3d553af1	0.052058164
36	0xbdb61969	-0.08891565
37	0xbd7662dd	-0.060152877
38	0xbdbb7543	-0.09153225
39	0xbd8bc2ee	-0.06824289
40	0xbd5040ef	-0.050843176
41	0x3c4a6309	0.012352713
42	0x3c936aed	0.017995322
43	0xbd6fad88	-0.0585151
44	0xbdc119f7	-0.094287805
45	0x3d7dcf0f	0.061965045
46	0x3d52b77e	0.051444523
47	0x3cea47ac	0.028598629
48	0x3d6a2b17	0.05717
49	0xbd1c1ac8	-0.038111478
50	0xbd6716d3	-0.05641825
51	0xbd07389d	-0.033012975
52	0xbcc9030c	-0.024537586
53	0xbd3fac6f	-0.046795305
54	0x3d500a1f	0.050790902
55	0xbd88d6fe	-0.066816315
56	0xbc9fbef6	-0.019500237
57	0xbca9c3f2	-0.020723317
58	0x3d650534	0.055913165
59	0xbd9d8e62	-0.07693173
60	0x3c64283f	0.013925611
61	0xbbfa658f	-0.0076415013
62	0x3d00fe7e	0.031492703
63	0xbcfd3a3d	-0.03091156
64	0x3cfa5fd7	0.030563278
65	0x3d1a5897	0.037682142
66	0x3da60a8f	0.08107483
67	0xbd5a7666	-0.05333557
68	0x3d0c1e92	0.03420884
69	0x3c21f158	0.009884201
70	0xbcbd4d24	-0.023108073
71	0xbd857fb3	-0.06518497
72	0xbd569e9c	-0.052397355
73	0xb8fdf0c5	-0.00012108827
74	0x3da07304	0.078344375
75	0x3c9ee958	0.019398376
76	0x3d89bebb	0.06725832
77	0xbd859ce9	-0.06524069
78	0xba1f9414	-0.0006087434
79	0xbd044aae	-0.032297783
80	0xbce8dd3f	-0.02842581
81	0x3db41a03	0.08794024
82	0xbce3f702	-0.027827743
83	0xbc146b96	-0.009058854
84	0xbc37c401	-0.011216165
85	0x3d7082a8	0.058718354
86	0x3d0c32e4	0.03422822
87	0x3d813800	0.06309509
88	0xbcbc96c8	-0.023021117
89	0x3e0b1983	0.1358395
90	0x3c8638f7	0.016384585
91	0xbcbb3fdf	-0.022857605
92	0xbe058c9c	-0.1304192
93	0x3ced4318	0.028962657
94	0x3ccbfd8a	0.02490117
95	0xbcfc87c5	-0.030826459
96	0xbd64c813	-0.05585487
97	0xbd92b6ed	-0.071637966
98	0xbda34c1a	-0.079734996
99	0xbd190cd0	-0.037365735
100	0x3dc43579	0.095805116
101	0x3d5fae9d	0.054609884
102	0xbd988cc1	-0.07448722
103	0x3ca02949	0.019550936
104	0x3d3236b9	0.04350922
105	0x3ce2bab4	0.027676918
106	0xbc3085ed	-0.010774118
107	0x3dedfebe	0.11620854
108	0x3d642458	0.055698723
109	0xbc9bd5bb	-0.019022813
110	0xbd330119	-0.04370222
111	0x3e0ac914	0.13553268
112	0x3cde84e6	0.02716298
113	0xbd3b11ba	-0.045671202
114	0x3d0e5bcc	0.034755513
115	0xbd428d4f	-0.047498044
116	0xbd95d605	-0.073162116
117	0x3c4cc627	0.012498415
118	0xbc120606	-0.008912569
119	0xbbab901a	-0.005235684
120	0xbc17f3a3	-0.009274396
121	0xbd361884	-0.044456974
122	0xbbcfaa46	-0.006337437
123	0x3da14c76	0.07875912
124	0x3d4fa552	0.05069477
125	0xbd24ab0a	-0.040202178
126	0xbd4fa597	-0.05069503
127	0xbda073c9	-0.07834584
128	0xbd545863	-0.051842105
129	0x3cf37fe7	0.029724075
130	0x3bf9485a	0.007607502
131	0xbd4d5459	-0.05012927
132	0x3d977c72	0.07396783
133	0x3c3cfadd	0.01153442
134	0x3cbb0bf4	0.022832848
135	0xbcc1f940	-0.023678422
136	0x3d1301f3	0.03589053
137	0x3d874d9a	0.06606598
138	0x3d88c13e	0.06677483
139	0x3cbe6119	0.02323966
140	0x3d0c5b7e	0.03426694
141	0x3cbc7851	0.02300659
142	0xbd273c30	-0.040828884
143	0x3dadadda	0.08480425
144	0x3a681038	0.00088525144
145	0x3c5b8e2a	0.013400594
146	0xbc0a29e1	-0.008432836
147	0xbd4dbaae	-0.05022686
148	0xbcb7e30f	-0.022447137
149	0x3dc64a47	0.09682136
150	0x3df223f0	0.11823261
151	0x3ad6f9f3	0.0016401395
152	0xbdb8a922	-0.090166345
153	0x3c99c568	0.018770888
154	0xbd0a7ae5	-0.033808608
155	0x3dc2be35	0.09508935
156	0x3dc778d5	0.09739844
157	0xbdb2621c	-0.08710119
158	0xbd697f9d	-0.057006467
159	0x3d239c15	0.039943773
160	0x3e33968c	0.17537898
161	0xbd0c84a7	-0.034306195
162	0x3d88d3fc	0.06681058
163	0x3c78a14f	0.015175178
164	0xbbdbc984	-0.006707372
165	0xbb9a5c1d	-0.004710688
166	0xbbdb1f00	-0.006687045
167	0x3d4ff5ab	0.050771397
168	0xbc137a1e	-0.009001283
169	0xbd6fde30	-0.058561504
170	0xbcaa225f	-0.020768343
171	0x3ba881d5	0.0051424303
172	0x3cc5a9ab	0.024128756
173	0xbca170bf	-0.019707082
174	0x3bd84f4b	0.0066012493
175	0xbbf4bbdd	-0.007468684
176	0x3c80e5e9	0.01573463
177	0xbd072bdb	-0.03300081
178	0xbbdee73f	-0.006802469
179	0xbcd3c857	-0.025852365
180	0xbc01d523	-0.007924351
181	0x3d5935b0	0.053029716
182	0xbdbdc34f	-0.09265768
183	0xbcbbea40	-0.022938848
184	0x3da22e6c	0.079190105
185	0x3c502c2f	0.012705847
186	0x3c48adfd	0.012248513
187	0x3c91ae8b	0.017783424
188	0x3d0934fc	0.033497795
189	0x3d94c440	0.07263994
190	0x3d6d03da	0.057865
191	0xbd8171e1	-0.06320549
192	0x3cdd4ecc	0.027015112
193	0x3d9f726f	0.07785498
194	0xbca781a0	-0.020447552
195	0xbc058c8b	-0.008151184
196	0x3d1b3849	0.037895475
197	0xbdd8c96e	-0.10585295
198	0x3ce866e5	0.028369376
199	0x3cdcb008	0.026939407
200	0xbc976c1a	-0.018484164
201	0xbe0a24e0	-0.13490629
202	0x3d2aca71	0.04169697
203	0x3d187962	0.037225135
204	0xbd541ccf	-0.051785287
205	0xbc817f3c	-0.01580774
206	0x3c96c7ac	0.018405758
207	0xbd2b42b8	-0.041811675
208	0x3c433d58	0.011916481
209	0x3cadfb24	0.021237917
210	0x3dc3ad88	0.09554583
211	0x3d13806f	0.036011156
212	0xbd7cda3d	-0.061731566
213	0x3d43bfba	0.047790267
214	0xbcac7c66	-0.021055412
215	0x3d0e8089	0.03479055
216	0xbc883a18	-0.016629264
217	0x3bc31541	0.0059534614
218	0x3bcf0835	0.006318117
219	0xbcf4b45c	-0.029871158
220	0x3cbb8f2e	0.022895422
221	0x3cd5021d	0.026001984
222	0xbc5b7f30	-0.013397023
223	0x3c670802	0.01410103
224	0x3dc8b6cb	0.0980049
225	0x3c7c8421	0.015412361
226	0x3da076c5	0.078351535
227	0xbc62032e	-0.013794703
228	0x3d9d5c5b	0.07683631
229	0xbd8fbf5b	-0.0701892
230	0x3d9b210f	0.07574665
231	0x3d38527f	0.04500055
232	0xbbef38f2	-0.0073004896
233	0x3cd7bfa7	0.026336504
234	0x3da2432a	0.07922967
235	0xbcce36a0	-0.025172532
236	0x3ce10759	0.027469324
237	0x3cbfd9cb	0.023419281
238	0x3d9ea18c	0.07745656
239	0x3d4de774	0.05026956
240	0xbd3c345d	-0.045948375
241	0x3dbddfb5	0.09271184
242	0x3d8fcd79	0.07021613
243	0xbddb5a7c	-0.10710618
244	0xbd2cf6b1	-0.04222745
245	0x3c9536fb	0.018214693
246	0x3d06e045	0.032928724
247	0xbd777139	-0.060410712
248	0x3e0bc3b7	0.13648878
249	0xbd05b031	-0.032638732
250	0xbd86f0b5	-0.0658888
251	0xbd0ae2ab	-0.033907574
252	0xbd2c2833	-0.042030524
253	0xbcb8fc93	-0.022581374
254	0xbcd6b579	-0.02620958
255	0x3c48bcfa	0.012252087

bias f4 [64]
0	0x3d9829e8	0.07429868
1	0x3ddaae21	0.10677744
2	0x3dc4b6b3	0.096051596
3	0x3ddefe10	0.10888302
4	0x3dfddb9e	0.12395404
5	0x3de14010	0.10998547
6	0x3e0b6311	0.1361201
7	0x3df4f94d	0.11961613
8	0x3de22f8f	0.11044227
9	0x3e1b6f92	0.1517928
10	0x3e0f77ed	0.14010592
11	0xbe02bea8	-0.12768042
12	0x3e3b9ae0	0.18320799
13	0x3d89ace0	0.067224264
14	0x3db7bc91	0.08971513
15	0x3ddbcffb	0.107330285
16	0x3e137467	0.14399873
17	0x3dba2394	0.09088817
18	0x3daa22d5	0.08307425
19	0x3e0cebe0	0.13761854
20	0x3e1cc944	0.15311152
21	0x3e12d1a8	0.1433779
22	0x3e1c9729	0.15292038
23	0x3d4f169a	0.050558664
24	0x3d7f3302	0.062304504
25	0x3d9b01c2	0.07568695
26	0x3e141aef	0.144634
27	0x3e28181e	0.1641545
28	0x3e184f42	0.14873984
29	0x3dfbae60	0.12289119
30	0x3e29ec76	0.16594109
31	0x3dabd26f	0.083897464
32	0x3e09e448	0.13465989
33	0x3e31443f	0.1731119
34	0xbd3e5519	-0.046467874
35	0x3e2c8897	0.1684898
36	0x3dc12d61	0.094324835
37	0x3e11d31d	0.1424069
38	0x3dfc2b7b	0.12312981
39	0x3ded5349	0.11588151
40	0x3dee0bdf	0.11623358
41	0x3e16d1d9	0.14728488
42	0x3e276f79	0.16351117
43	0x3dc3d599	0.09562225
44	0x3e0dbba0	0.13841105
45	0x3de45602	0.11149217
46	0x3dedf0de	0.116182074
47	0x3e288ec0	0.16460705
48	0x3d95aef0	0.07308757
49	0x3e1e4c3f	0.15458773
50	0x3e31196c	0.17294854
51	0x3e3e7913	0.18600874
52	0x3e041556	0.12898764
53	0x3e3d0e69	0.18462528
54	0x3dee2505	0.11628155
55	0x3dd4506a	0.103669
56	0x3e059b25	0.13047464
57	0x3d9d41fa	0.076786
58	0x3e1db7d6	0.15402159
59	0x3de4c109	0.11169631
60	0x3e170280	0.14747047
61	0x3e01cb10	0.12675118
62	0x3e071c37	0.13194357
63	0x3e26c83c	0.16287321

weight f4 [64, 64]
0	0x3d7350aa	0.0594031
1	0x3d61c9c3	0.055124056
2	0x3df341cf	0.11877786
3	0x3e2c0822	0.16799977
4	0x3e190b03	0.14945607
5	0x3c8684dc	0.016420774
6	0xbd5178e2	-0.051140673
7	0x3d674a40	0.056467295
8	0x3defb3e5	0.11704234
9	0x3d437ef1	0.047728483
10	0xbd393422	-0.045215733
11	0xbdda1ee5	-0.10650424
12	0xbd2b3d9c	-0.041806802
13	0xbd7b2462	-0.061313994
14	0x3de09c12	0.10967268
15	0x3e22848f	0.1587088
16	0xbcd6c22d	-0.026215637
17	0x3db9026a	0.090336636
18	0x3e1ffed9	0.1562456
19	0x3d09d785	0.0336528
20	0x3e2b316d	0.16718073
21	0x3e3a4f7d	0.18194385
22	0xbc288dfc	-0.010287758
23	0x3c39cb03	0.011339906
24	0x3e3d7561	0.18501808
25	0x3cdfb738	0.027309045
26	0xbce87d13	-0.028379953
27	0x3e0c0385	0.13673218
28	0x3c5dd4df	0.013539522
29	0x3d7801b2	0.06054849
30	0xbd13d084	-0.036087528
31	0x3dbb3646	0.09141211
32	0x3e01e81b	0.12686197
33	0x3c7ee6b8	0.015557937
34	0x3daba90b	0.08381852
35	0x3d25a408	0.040439636
36	0xbc5d55d9	-0.013509237
37	0x3dc67959	0.09691114
38	0xbd6bd9d4	-0.057580784
39	0x3b631ae4	0.003465348
40	0xbb81ce0d	-0.0039613307
41	0x3dcb5367	0.09928017
42	0x3e23a3e9	0.15980496
43	0x3c9803d8	0.01855652
44	0x3d98378c	0.0743247
45	0xbcc73884	-0.024318941
46	0x3e0fbc17	0.14036594
47	0x3d871e16	0.06597535
48	0x3de246f6	0.11048691
49	0x3dafff77	0.08593648
50	0x3c7c0ae7	0.015383459
51	0xbcfcef3b	-0.030875793
52	0xbd738c05	-0.059459705
53	0x3d1c675e	0.038184516
54	0x3c8bd9cf	0.017071633
55	0xbc1f9226	-0.009739434
56	0x3e091fae	0.13390991
57	0x3d383282	0.044970043
58	0x3d00f5d9	0.03148446
59	0xbd70e6ee	-0.05881398
60	0x3dcc1a06	0.09965901
61	0xbcbae31d	-0.022813374
62	0x3e062c6a	0.1310288
63	0x3da22ad8	0.07918328
64	0x3d6c8ab9	0.057749484
65	0xbd069f8d	-0.032867003
66	0x3d37d0b1	0.044876758
67	0xbbfda962	-0.0077411393
68	0xbd7acceb	-0.06123058
69	0xbd5cf8ba	-0.05394814
70	0xbc111626	-0.008855378
71	0x3dd2d62d	0.10294757
72	0xbd3a42d8	-0.045473903
73	0x3d36f659	0.04466853
74	0x3b991274	0.0046713892
75	0xbb75bd35	-0.003749681
76	0xba3ad27e	-0.00071267027
77	0x3d77d31d	0.060504068
78	0x3c89e33e	0.01683199
79	0xbdcaf661	-0.09910274
80	0x3dadebd1	0.08492244
81	0xbc2c88fc	-0.0105307065
82	0xbdaef0e9	-0.08542044
83	0xbdf23a0a	-0.11827476
84	0x3dd6883b	0.10475203
85	0xbc494377	-0.012284151
86	0x3d993e07	0.07482534
87	0xbd690ab8	-0.056894988
88	0xbd3ae440	-0.045627832
89	0xbe0593e7	-0.13044702
90	0xbda76267	-0.08173066
91	0xbd3be6ba	-0.045874335
92	0xbe024153	-0.12720232
93	0x3d2b6a46	0.041849397
94	0x3d6043a3	0.054752003
95	0x3da2106e	0.0791329
96	0xbd7c4ec2	-0.061598547
97	0xbda1a003	-0.07891848
98	0xbc3c9c0e	-0.011511816
99	0x3ccea294	0.025224008
100	0x3cf1fb64	0.029538818
101	0x3dbb6dc9	0.09151799
102	0x3d8d8eb9	0.06911988
103	0x3da5b1b4	0.08090535
104	0x3d8ae68f	0.06782257
105	0xbd90dff5	-0.070739664
106	0xbd742a28	-0.059610516
107	0x3d207b62	0.039180167
108	0xbd8131d1	-0.0630833
109	0xbda53788	-0.08067232
110	0xbdc71e12	-0.09722532
111	0xbdc6dc22	-0.09709956
112	0xbdb546ec	-0.08851418
113	0x3cb1bc78	0.021696314
114	0x3d0dfa4d	0.034662534
115	0xbdf26255	-0.118351616
116	0xbc10189e	-0.008794932
117	0xbe085e4f	-0.13317226
118	0xbd244dd5	-0.04011329
119	0x3cf607e1	0.030033054
120	0x3c963b3e	0.018338796
121	0xbd90f301	-0.07077599
122	0xbe0afd25	-0.1357313
123	0xbdcf0544	-0.10108426
124	0x3d38efcb	0.04515056
125	0x3db78b2e	0.08962093
126	0x3d9e395d	0.07725785
127	0xbd82e3bd	-0.06391094
128	0x3d4565f4	0.048192933
129	0x3e33b79c	0.1755051
130	0xbd55d9f6	-0.052209817
131	0x3e24755f	0.16060399
132	0x3e0f582b	0.13998477
133	0x3e157dd1	0.14598776
134	0x3e26c4d2	0.16286018
135	0x3d455581	0.048177246
136	0xbd7e49fb	-0.062082272
137	0x3e365409	0.17805494
138	0x3a92f2d4	0.0011211284
139	0xbd756931	-0.05991477
140	0xbcb5a635	-0.02217398
141	0x3d470a1b	0.04859362
142	0x3bb70842	0.005585701
143	0x3ca4b3a9	0.0201052
144	0x3e1f705e	0.15570208
145	0x3b11e494	0.0022261487
146	0xbb172451	-0.0023062418
147	0xbd534f28	-0.05158916
148	0xbcca90ba	-0.024727214
149	0x3cd76b7b	0.026296368
150	0x3d50625c	0.050875053
151	0x3d29bd97	0.041440573
152	0x3c447d58	0.011992775
153	0xbd119762	-0.03554476
154	0x3de93679	0.11387343
155	0x3d55b955	0.0521787
156	0xbd55ecaf	-0.052227672
157	0x3be85ef4	0.0070913974
158	0x3e327c1c	0.17430156
159	0xbd277218	-0.040880293
160	0x3c8d3cb5	0.017240861
161	0x3d640e8d	0.05567794
162	0xbdbc0ad8	-0.09181756
163	0xbc1e40a4	-0.009658966
164	0xbd129717	-0.03578862
165	0x3df9d4cc	0.12198791
166	0xbda7fd13	-0.08202567
167	0xbc293a81	-0.01032889
168	0x3e0b97a2	0.13632062
169	0x3e15f4db	0.14644186
170	0xbc02d6bd	-0.007985768
171	0x3c0ec845	0.00871474
172	0x3dc3eb0c	0.09566316
173	0x3cb76e6b	0.022391519
174	0x3c153f85	0.0091093825
175	0x3dd9070b	0.105970465
176	0x3d14a054	0.036285713
177	0xbc96650c	-0.01835873
178	0xbd002944	-0.031289354
179	0xbcb086d2	-0.021548662
180	0x3e0b8b42	0.13627341
181	0x3da904e8	0.08252889
182	0x3e26365e	0.16231677
183	0x3e21c962	0.15799478
184	0x3e0b0da6	0.13579425
185	0x3e1c7824	0.15280205
186	0x3e386af8	0.18009555
187	0x3e04f0c1	0.12982465
188	0xbc29601c	-0.010337856
189	0xbbbdbf20	-0.005790606
190	0xbd43ac62	-0.04777182
191	0xbb8cc499	-0.004295897
192	0x3ceb39d7	0.028714104
193	0x3d808def	0.06277072
194	0x3bbeae21	0.0058190976
195	0x3d62abdd	0.055339683
196	0xbdaa8a98	-0.08327216
197	0xbd55ece4	-0.05222787
198	0x3b63d493	0.0034764155
199	0xba3b69a1	-0.0007149224
200	0xbc8e3023	-0.017356938
201	0x3d97b86e	0.07408224
202	0x3d07e78c	0.033179805
203	0x3d9040c4	0.07043603
204	0xbd82be16	-0.06383912
205	0x3d3f52dc	0.04670988
206	0x3d808f7f	0.0627737
207	0x3d802903	0.06257822
208	0x3d09594c	0.033532426
209	0x3d0f0add	0.03492247
210	0xbcbf9e1c	-0.023390822
211	0x3dabe447	0.0839315
212	0x3d8b7592	0.06809534
213	0x3b3dc9d9	0.0028959422
214	0xbd7a2b99	-0.061076734
215	0xbca6fbc8	-0.02038373
216	0xbd18f1ac	-0.03733985
217	0xbd7ee0dc	-0.06222616
218	0xbdf381b8	-0.11889976
219	0x3d7ccfe2	0.06172169
220	0xbbe5ec00	-0.007016659
221	0xbc62a88e	-0.013834132
222	0xbda7d446	-0.08194785
223	0x3d9acc12	0.075584546
224	0xbdf78261	-0.12085415
225	0xbdf45dea	-0.11931975
226	0xbc44a53b	-0.012002285
227	0x3d31cc78	0.043407887
228	0xbb083aad	-0.0020786927
229	0xbdeb8c65	-0.115013875
230	0xbdbbc30b	-0.09168061
231	0xbe098977	-0.13431345
232	0x3dbb822f	0.0915569
233	0x3c838966	0.016056728
234	0xbe1305a1	-0.14357616
235	0xbd28c235	-0.041200835
236	0xbd333332	-0.043749996
237	0xbe041b3b	-0.12901013
238	0xbcea6e1c	-0.028616957
239	0xbdb5b68f	-0.08872711
240	0x3d68c4ee	0.05682843
241	0x3cc4c6b5	0.024020532
242	0xbd3bbee4	-0.045836344
243	0xbd313d1e	-0.043271177
244	0x3d51caf0	0.051218927
245	0xbc567d5c	-0.013091411
246	0xbda033bb	-0.07822367
247	0xbdee428a	-0.11633785
248	0x3d07128f	0.032976683
249	0xbc7ddda0	-0.015494734
250	0x3bb235c8	0.00543854
251	0x3dacee60	0.08443904
252	0xbcb78436	-0.02240191
253	0x3d88312b	0.06650003
254	0x3cc697a3	0.024242228
255	0x3c8a3625	0.016871521

bias f4 [64]
0	0x3e89707c	0.2684363
1	0xbdc84783	-0.09779265
2	0x3e7a3c57	0.2443708
3	0xbe11587c	-0.1419391
4	0x3dc34509	0.09534652
5	0x3e831f99	0.25610045
6	0x3c8d2616	0.017230075
7	0xbe1d298a	-0.15347877
8	0x3e4d2f4e	0.20037577
9	0x3d5cb650	0.053884804
10	0x3cc91ce9	0.024549918
11	0x3dda191e	0.10649322
12	0xbd018129	-0.031617317
13	0x3d801cab	0.06255468
14	0x3e6ee6a2	0.23330167
15	0x3db65dad	0.08904586
16	0xbd844617	-0.06458681
17	0x3d161aba	0.036646582
18	0x3e06c23f	0.13160037
19	0x3d8585c4	0.065196544
20	0x3ce3fa0c	0.027829193
21	0x3e6313ea	0.22175565
22	0x3d29f52f	0.04149359
23	0x3e7280e5	0.23681982
24	0xbdf2d3fc	-0.11856839
25	0x3e240091	0.16015841
26	0xbc122ae3	-0.008921358
27	0x3df81044	0.121124774
28	0x3e459065	0.19293363
29	0xbef1bfd9	-0.4721668
30	0x3e1a1f2c	0.15050954
31	0x3cf8a542	0.030352239
32	0x3e04fd14	0.12987167
33	0x3e244a5c	0.16043991
34	0x3e16ff08	0.14745724
35	0x3dfaffca	0.12255819
36	0x3d13192e	0.035912685
37	0x3e231caa	0.15928903
38	0xbdb691d6	-0.08914535
39	0x3dc79457	0.097450905
40	0x3d36fa4d	0.0446723
41	0x3d570b89	0.052501235
42	0xbe8b3d91	-0.2719541
43	0x3df358be	0.118821606
44	0x3e07c7ee	0.13259861
45	0x3e72340d	0.23652668
46	0x3d2e8388	0.042605907
47	0x3e40fee7	0.18847238
48	0xbd89b032	-0.0672306
49	0x3d2ef185	0.0427108
50	0x3e26d7b5	0.16293223
51	0x3d9dbf88	0.07702547
52	0x3cd60c83	0.026129013
53	0xbe0c47a5	-0.13699205
54	0x3dc3af0f	0.09554874
55	0x3df95241	0.12173892
56	0x3e16e84e	0.14737055
57	0x3c788cbc	0.015170272
58	0xbcea7932	-0.028622244
59	0xbd8ac3ae	-0.06775604
60	0xbdfc8c4b	-0.12331446
61	0x3d73f732	0.059561916
62	0x3df0449c	0.11731836
63	0x3dbc7816	0.09202592

weight f4 [1, 64]
0	0x3de22205	0.11041645
1	0xbdb6dff1	-0.08929432
2	0x3e070a70	0.13187575
3	0xbd6593d8	-0.056049198
4	0x3e386740	0.18008137
5	0x3db04055	0.0860602
6	0xbd468ea1	-0.048475865
7	0xbda2db29	-0.07951958
8	0x3df48619	0.119396396
9	0xbdab6812	-0.08369459
10	0xbd3e222f	-0.04641932
11	0x3e304465	0.1721359
12	0xbd707afb	-0.058711033
13	0xbd0471ad	-0.032334972
14	0x3db731e1	0.089450605
15	0x3db33a6e	0.08751379
16	0xbd87470f	-0.0660535
17	0x3b085821	0.0020804482
18	0x3e07ad4d	0.13249703
19	0xbdbdfda0	-0.09276891
20	0x3e095bf5	0.13413985
21	0x3e37c3d1	0.17945792
22	0xbda50d05	-0.08059124
23	0x3e4cf361	0.20014717
24	0xbdbcd44d	-0.09220181
25	0x3e074c32	0.1321266
26	0xbd1c14ee	-0.038105898
27	0x3dc6b2fc	0.09702107
28	0x3e36cf39	0.17852487
29	0xbf1dd712	-0.61656296
30	0x3e27daa4	0.16391999
31	0x3d9327b5	0.07185308
32	0x3d8d82c2	0.06909706
33	0x3dc57e85	0.09643272
34	0x3dd86427	0.105659775
35	0x3e389fad	0.18029661
36	0xbd7a9606	-0.06117823
37	0x3e0c18c8	0.13681328
38	0xbd645421	-0.055744294
39	0x3ba2487e	0.0049524894
40	0xbdc14515	-0.094370045
41	0xbbfc72b8	-0.007704105
42	0xbe8689fb	-0.26277146
43	0x3e1201db	0.1425852
44	0x3ded0c5d	0.11574624
45	0x3da9a7cf	0.0828396
46	0x3cef8957	0.029240293
47	0x3e20d526	0.1570631
48	0x3d8b5107	0.06802564
49	0xbce03591	-0.027369292
50	0x3e08138f	0.13288711
51	0xbda5de38	-0.080990255
52	0x3de7b916	0.11314599
53	0xbc5c4d6f	-0.013446196
54	0x3e22c4ed	0.15895434
55	0x3dc3508f	0.0953685
56	0x3e21f4b0	0.15815997
57	0x3b8c4e2a	0.004281779
58	0xbd98878b	-0.07447728
59	0x3baac458	0.0052113943
60	0xbb616225	-0.0034390774
61	0xbd327fde	-0.043578975
62	0x3e05fd83	0.13084988
63	0x3da4ca56	0.08046405
