src/Fun_2/model/model_256_64_64_0.01_200.pt (torch, 309407 bytes, 5 tensors)

weight f4 [64, 1128]
00000000: d65e 47bd 2707 d1bc 31b1 e23d 5a28 b4bd
00000010: 4574 393d 3ff4 793d 6f00 8fbc a2d5 2b3e
00000020: 9b5d d0bc 91b9 34be 819e 263d 700f 1cbe
00000030: 80ca ec3d 47af 3ebd 6879 133e cffa b73c
00000040: 3f9c a23d bd10 35be ca30 eebc 7d93 acbe
00000050: 244d f43d 49b6 993d a5e5 19bd c069 f0bd
00000060: f88a 1ebd 1b04 893e 4171 9abc 54a7 0b3e
00000070: ec8c 2f3d 8437 c2bd f05e 513e 6c30 50bc
00000080: 6dad 853e c625 213d 99dc 20be 003e ebbd
00000090: a19b e9bd 8f4b 4bbe 30b9 3cbd 7a23 87bd
000000a0: 801b ff3d f8c1 a3bd dc44 dfbd dccf 07bd
000000b0: b5b4 c8bd 730e 6c3e 5a4c 523c c1b6 59be
000000c0: 8b25 70be 639d fa3d cb00 73bd 09d0 70be
000000d0: b156 b73d 4081 a03e 60b4 0f3e 3662 063d
000000e0: b1cc c1bd 3a96 793d 177a 243e 74cf d03e
000000f0: 91ed b13d 0f27 883e e31d 07bd 09bb 973d
00000100: f4c4 94be ca50 58bc 4a17 a83e 1ad5 483d
00000110: 3239 b33e b3e8 7c3e b126 25be 987c 57be
00000120: ad10 0cbe c48b 47be 99de f63d 9e3d c23d
00000130: d4bd af3a 14bd 6dbe 6e5e 523c 9205 14be
00000140: 45d6 0abe 93b3 82bd 57a5 c7bc 0b10 15be
00000150: 6720 dabd e5ba 983e 51ed 123d 3813 a1bc
00000160: 58f5 8d3d 1787 5f3e 075c 883e 2ea9 b9bd
00000170: 5f46 debd d2d5 6d3d 8622 b33d 2fd1 1d3e
00000180: e95b ce3d d32e 7b3e 3164 013e 074e 70be
00000190: c71f 4c3e bcb0 3dbe ed7f d03d 8b45 943c
000001a0: a78f 83bc a1ab 9fbd 8cdf 033c 9f8c 91bd
000001b0: 2d87 f6bd 735f 2e3d b981 093e f30b 633e
000001c0: cadf 4a3e 971b 463e 1265 aebd 2d13 e2bd
000001d0: e643 ad3d 35a5 463e 3077 a63b e20c c6bd
000001e0: 4abd 4c3e 271f b1bc 9858 e43d 3b81 47be
000001f0: 14e1 373e bb9f 93bd d70e ba3d e6c8 3b3d
00000200: 8ea8 8b3e 8af0 2f3e c4e2 f7bd 8398 c3bd
00000210: 874a 28be a4f9 d8bc 8574 aa3e e839 ce3b
00000220: 674d 55bd 5c65 0f3d 7d47 283e dff8 f63e
00000230: 2ca7 45be 885e 19bd f3f2 3cbc 4e11 3f3b
00000240: 1a11 5dbe f5a9 fbbc ccbd ae3d 0b0a 14bd
00000250: 5887 fc3d dc8c a33d 442c 6fbd 85a0 413e
00000260: 9a1d 413e a7b8 ee3e 94a7 733c e6e8 403e
00000270: 40d3 5cbd 1244 d3bd 2f54 67be 91eb 793b
00000280: 4df2 943e 035b dc3d dabf bb3e b72b b439
00000290: bdc8 063d 4903 8dbe 5776 cc3d ac71 83bd
000002a0: 4409 92be 1f77 c53d 34b7 f9bd 76e0 0b3e
000002b0: fd59 4a3d aab3 54be 158c 23be a3c0 0fbd
000002c0: 2fd0 14be 2d4f 5c3e 05f8 ed3d 037e bcbd
000002d0: bc77 96bd 32b1 2dbd 41a9 4ebe a295 e0bd
000002e0: 6dca 11be fbf4 c23e fc4a c1bd 5353 bebd
000002f0: f3ad bc3d de35 5d38 4a28 50be 3025 473e
00000300: bc76 8c3d bf0e 1a3e c548 b23d e177 da3d
00000310: 9409 b43d c6f4 9dbc 99da 23be f7ef 50be
00000320: a08d ff3d d9d9 18be 4fdd 893d e068 1bbe
00000330: 0e4f 81bc e32a e1bd ef8d 313e 5f44 e13e
00000340: fd29 afbc 9883 a3bd ae61 e43c b665 973e
00000350: bac2 e33d 1c9c acbe 0d7c c73e caac 3cbd
00000360: ae4e 70bb 296c d9bd c5a0 0d3e ffe4 1abe
00000370: 828f e2bd 813c b13d ee4b 3b3e 75ba 52bd
00000380: d6ff 903e 995e 7fbe bd7b 38be 638b bcbd
00000390: 5704 18bc f762 873e 17f4 a0bc 7f37 b6bc
000003a0: 193d b93d e26c 0dbe 24c7 cd3d 0bdb 98bc
000003b0: 11a0 0e3e e96c 28bd cc02 483e 026f 4d3e
000003c0: 3681 683e 932f 643e d635 bbbd 7893 d6bd
000003d0: b6ae 3b3e d55f d2bd da0e f7bd 9eab 953c
000003e0: b919 03be 247f 8cbd 2504 c5bd c97b 523e
000003f0: dadc 15bd 1e91 4f3e b706 e5bd 647a 17bd
-0.048674427 -0.025516106 0.11068953 -0.08796759 0.0452769 0.061023947 -0.017456261 0.16780713
-0.02543526 -0.17648913 0.040678505 -0.15240264 0.11562061 -0.046553876 0.14401782 0.022458462
0.07939958 -0.17682166 -0.029075999 -0.33706275 0.11928776 0.07505471 -0.03757252 -0.1173892
-0.03870675 0.26760945 -0.018852832 0.1363805 0.042859003 -0.09483245 0.20446372 -0.012706857
0.26108876 0.039342664 -0.15709151 -0.11486435 -0.11406637 -0.19853042 -0.046075046 -0.065985635
0.12456417 -0.07995981 -0.10901806 -0.033157215 -0.09800092 0.23052387 0.012835586 -0.21261121
-0.23451822 0.122370504 -0.059326928 -0.23516859 0.08952082 0.3134861 0.14033651 0.032808505
-0.0946287 0.060934283 0.16062199 0.40783274 0.0868789 0.265923 -0.032987487 0.07408721
-0.29056513 -0.013202855 0.32830268 0.049031354 0.35004574 0.24698143 -0.16128041 -0.21043622
-0.13678236 -0.1948691 0.12054176 0.09484409 0.0013408014 -0.23216659 0.012839897 -0.1445525
-0.135583 -0.06381907 -0.024370832 -0.14556901 -0.106507115 0.2983009 0.035870854 -0.019662485
0.06931561 0.21828876 0.2663271 -0.090654716 -0.10853266 0.058065243 0.08746819 0.15411828
0.10076124 0.24529581 0.12635876 -0.23467265 0.19933997 -0.1852445 0.1018065 0.018099567
-0.01605971 -0.077964075 0.008048903 -0.071068995 -0.120375015 0.042571496 0.13428392 0.22172527
0.19811931 0.19346462 -0.085153714 -0.11038814 0.08460216 0.19398959 0.005080126 -0.09670426
0.19994083 -0.0216213 0.111497104 -0.19482891 0.17956954 -0.072082005 0.09084862 0.04584589
0.27277035 0.17181602 -0.12103799 -0.09550574 -0.1643468 -0.026486225 0.33292022 0.006293524
-0.05207577 0.035008773 0.1643352 0.4823675 -0.19302052 -0.037443668 -0.011532533 0.0029154602
-0.21588555 -0.03072069 0.08532295 -0.03614239 0.12330502 0.07985851 -0.058391824 0.1890889
0.18858948 0.46625254 0.014871497 0.18838844 -0.0539124 -0.10315718 -0.22590707 0.0038134793
0.2909111 0.107595466 0.3666981 0.00034364845 0.032906283 -0.2754157 0.09983509 -0.064181656
-0.28522694 0.09641861 -0.12193146 0.13659844 0.049402226 -0.20771661 -0.15971406 -0.035095822
-0.1453254 0.21514578 0.116195716 -0.09203722 -0.07347056 -0.042405315 -0.20181753 -0.1096604
-0.14237376 0.3807753 -0.0943813 -0.092932366 0.09212866 5.2740674e-05 -0.20327869 0.1944778
0.06858584 0.15044688 0.08705286 0.10667396 0.087908894 -0.019281756 -0.16001357 -0.2040404
0.12478185 -0.14926852 0.067316644 -0.15176725 -0.015784767 -0.10994508 0.173393 0.43997476
-0.021382326 -0.07984084 0.027878609 0.29569787 0.111211255 -0.33712852 0.3896183 -0.046063222
-0.003666799 -0.10616333 0.1383086 -0.15126418 -0.11062528 0.08654118 0.18290684 -0.05144735
0.28320187 -0.2493843 -0.18015952 -0.092062734 -0.009278378 0.26442692 -0.019647641 -0.02224326
0.090448566 -0.13811067 0.10047749 -0.018659135 0.13928248 -0.04111949 0.19532317 0.20061877
0.2270554 0.22283773 -0.09141128 -0.10477346 0.18328366 -0.10272185 -0.120633796 0.01827031
-0.12802781 -0.06860188 -0.09619931 0.20555033 -0.036587574 0.20270202 -0.111829214 -0.036981955

bias f4 [64]
00000000: 38a0 55be 63b1 85be cc4d 8abe f3bf 70be
00000010: 226b 1d39 5751 aebe e9a9 85be 477a 9ebe
00000020: 6b2c bbbe a2c8 ac3e b680 4abe 2f4b cabe
00000030: cf49 7fbe 7b09 80be f5f0 89be a5ea 3fbe
00000040: 4c31 80be 45d8 cd3d 2a17 68be 16a5 abbe
00000050: f363 bbbe 0b2f e9be 6431 99bd 13fa aebe
00000060: 0ccf 65bd 93c9 97be 479f 98be ed80 afbd
00000070: 4459 553d 481b d3bd c8f1 94be 60fc b7bd
00000080: 3a56 c5bd f6a7 d83d 12ec 95be 627b 20bd
00000090: d03c f23d 42e4 2b3d 4dbc 2cbf b680 963e
000000a0: dd28 80be 731b 853e c865 f43d 3ab1 a0be
000000b0: 78e1 a8bf 084a 35be e67f 93be 88d6 e13d
000000c0: e8a0 b8be c874 afbe f51a 393c f055 c6be
000000d0: ca42 50bf 4057 613e f219 37be 25cb df3d
000000e0: 584d 84bc c056 083e b7ec cfbd db2a 6ebe
000000f0: 2822 3dbe 8f03 e7be fd9b 4a3e 74b9 c83d
-0.208619 -0.26111898 -0.2701248 -0.23510723 0.00015012597 -0.34046432 -0.26106194 -0.30952665
-0.36557326 0.3374682 -0.19775662 -0.39510486 -0.249305 -0.25007233 -0.26941648 -0.18741854
-0.2503761 0.10051016 -0.22665086 -0.33524388 -0.36599693 -0.45543703 -0.07480124 -0.34175166
-0.05610566 -0.29645976 -0.2980902 -0.085695125 0.052087083 -0.10307938 -0.29090714 -0.089836836
-0.09635587 0.10578911 -0.2928167 -0.039180167 0.11828005 0.04196573 -0.67474824 0.29395074
-0.25031176 0.25997505 0.11933476 -0.31385213 -1.3193808 -0.17704022 -0.28808516 0.11027247
-0.36060262 -0.34268785 0.011297931 -0.3873744 -0.8135191 0.2200594 -0.17880991 0.109274186
-0.016150162 0.13314342 -0.10152572 -0.23258536 -0.18470061 -0.45119902 0.19786067 0.098009974

weight f4 [64, 64]
00000000: 0ade 5fbd e65d 6c3d 79d5 7fbd dd15 383d
00000010: cef2 3bbd 4c5d 9bbd 12ab 9ebd 717c 95bd
00000020: d144 9abd 9e0b 8c3c d911 b43c f54a b0bd
00000030: 8a68 28bd b0e7 42bd 64b2 21be a639 943c
00000040: 8ca9 8e3d fa78 acbc c369 18bd 7f4c e13c
00000050: cd62 853d c3ee ecbd 640f da3c c252 d8bc
00000060: fb02 bbbc 28a7 81ba eada d2bc c279 d9bc
00000070: e849 86bc 8968 35bd 0879 10bc 3d3a aebd
00000080: a6c5 bfbd d157 f5bd 1cc2 80bc feb6 e13c
00000090: a28c eabc a461 0c3d b503 11be e94e 35be
000000a0: f8f1 3fbe decc f33d 0bbe 303c b885 a23d
000000b0: 9d08 cbbd 62b4 6bbd 8895 24bd 9ed2 67bd
000000c0: 53f6 553c b6ec 213b 6157 92bd 6324 0abe
000000d0: 6a1e b9bd 3612 ddbd 8280 82bd 800e 3b3d
000000e0: cd12 883d b4b7 6d3d 4744 ecbd 6109 863d
000000f0: a65f a3ba 36fa 7abd 28be af3d 99e2 08be
00000100: 1871 40be d7f1 69bd 0961 b0ba 9e67 05be
00000110: 6eea 91bc 33cd 04be 719b fabd 8ea9 853c
00000120: 663f d0bd f4e4 41be d1dd 72bc 37c8 27be
00000130: 575f 03be bcaf bbbd 793d 28be e767 413c
00000140: 63ab 443d 8e6a 22be d396 cdbd 92cf 80bd
00000150: c2ac ebbd a301 29be a0fb 64bd c10d 34be
00000160: ecd1 c6bd 956d 2fbe 91c6 623d 4ee4 593d
00000170: 96a4 7ebd e5bc f6bd 0edd 23be 87a6 f2bd
00000180: 41d8 b13c 46b9 c13c 6ebb 02be e6f9 5abd
00000190: c604 503d c20a c5bc ab90 37be 0921 40be
000001a0: 050c 88bd 704f 66bd c2a8 27be 4114 f6bd
000001b0: 9ff6 2ebe 805a ccbd 2f9f 693c 8c46 16be
000001c0: 7052 b4bd 76f6 36bb 1d3b 11be f146 f3bd
000001d0: 1e04 91bd 004f 3abe 3034 22be a48b 73bd
000001e0: ece2 53bd 1c18 983c 6b67 83bc b0b3 9ebd
000001f0: e72e ddbb a071 78bc 854a 383c b26a c03b
00000200: f9bd 47be 7455 e23c e170 d2bd 5257 1ebe
00000210: 930f bd3c 7a63 0ebd 17f0 bb3c 5c21 58bd
00000220: e504 05be d84c 10bd c19c 01be db2d 29be
00000230: ffe3 22bd 1621 9ebc cf43 ffbd 69d0 a5bd
00000240: 2177 92bb 1117 4cbe 4954 9f3c 91c9 9abd
00000250: e790 e9bd a9cb 6a3d a2af c8bd e317 2dbe
00000260: 43d0 d3bd 7129 63bd 1110 11bd e3c9 cdbd
00000270: ef88 963c e5e9 b73c 54d7 ffbd 15f9 47be
00000280: f171 02be c34f 56be 02c0 b33c f72f 69be
00000290: 6af6 9dbc 01c8 ca3c 2a04 113d 5aa8 b8bd
000002a0: 4f3a 84bd 4efd a9bc 0667 08be abc9 c8bc
000002b0: 32d2 8ebe a4fc 16be 355c 85bd 3e7c d9bc
000002c0: 0eee 4ebd 5b5e 4cbe 6188 8b3b 996b 58bc
000002d0: bb96 8abd 8494 aabd d049 c4bc a7e4 a1bd
000002e0: 5c2e 2fbe 9c24 cdbd 54de d4bd ceba 7cbd
000002f0: b914 2abe 7b4e 07be 20e2 55bd f5aa 143d
00000300: 98e7 0b3e 3e07 98bc f59a 073e 4223 003d
00000310: 8aad 25bd 4828 94bd 9c34 0ebd b87f 0bbc
00000320: 1686 5abd 77e4 7ebd d0b0 a2bd fafd 9f3d
00000330: 2943 5fbd 88bc b23d 84f1 8a3d 0883 e9bd
00000340: e546 52bd 9147 3b3d 8c5a afbc 8704 943d
00000350: 90c9 763d 21aa 78bd dfb4 063d af40 863c
00000360: 23e8 753d af21 23ba 47ee 943d 6441 a8bd
00000370: 5dd3 da3d 4349 60bd 14ed 8fbd c86e e5bc
00000380: e64c a6bd 2f33 d73b 1c6f b3bc 372d a63d
00000390: 63c0 343d d2bd b93d 951d 1cbd a9d5 f53c
000003a0: 4a65 5ebd 5006 ee3c 5adc 873d 2152 723d
000003b0: 743a ea3c 4931 453d 327c d43d d3ab af3d
000003c0: 8248 f03d dcfc e1bb 0c34 68bd 48d0 afbc
000003d0: 3894 883d bd49 5c3d 5bab 903d 3bda 933d
000003e0: aebf debd da0c 6b3d 99b2 b53d 50f9 ee3d
000003f0: 90d0 ef3d 9f3a ec3c b7e5 a73d 21f9 e53d
-0.054655112 0.057706736 -0.062459443 0.044942725 -0.045885853 -0.07586154 -0.07747473 -0.07299126
-0.07532657 0.017095383 0.021981167 -0.08608047 -0.04111532 -0.047584236 -0.15790707 0.018093895
0.06965932 -0.02105378 -0.037210237 0.027502296 0.065129854 -0.11568978 0.026618667 -0.02640665
-0.02282857 -0.0009891735 -0.025739152 -0.026547316 -0.016392663 -0.044289146 -0.008817919 -0.08507202
-0.0936387 -0.1197964 -0.015717559 0.027553078 -0.028631512 0.034272805 -0.1416157 -0.17705883
-0.18744648 0.1190431 0.010787497 0.07935661 -0.09913752 -0.057545073 -0.040181667 -0.056597345
0.013059217 0.002470774 -0.071455725 -0.13490443 -0.09039004 -0.10794489 -0.06372167 0.045668125
0.06644211 0.05803652 -0.1153646 0.06544758 -0.0012464419 -0.061273776 0.08581191 -0.1336769
-0.18793142 -0.057115402 -0.0013456653 -0.13027808 -0.01781198 -0.12968902 -0.12236679 0.016316202
-0.10168342 -0.18934995 -0.014823393 -0.1638497 -0.12829338 -0.09164378 -0.164297 0.011804557
0.04801501 -0.1586096 -0.10038533 -0.06289591 -0.1150756 -0.1650453 -0.05590403 -0.17583372
-0.09708008 -0.17131646 0.05536515 0.053196244 -0.06216868 -0.120477475 -0.16002294 -0.11848169
0.021709563 0.023647916 -0.12766811 -0.053460978 0.050785802 -0.024052981 -0.1792628 -0.18762602
-0.066429175 -0.0562281 -0.1637297 -0.12015582 -0.17086266 -0.09978199 0.014259144 -0.14675349
-0.08804786 -0.0027917898 -0.14182706 -0.118787654 -0.070808634 -0.18194199 -0.1584022 -0.059459344
-0.05173008 0.018566184 -0.016040524 -0.077491164 -0.006749976 -0.015163809 0.011248236 0.005872094
-0.19506063 0.027628638 -0.10275436 -0.15462998 0.023078715 -0.034762837 0.022941632 -0.05276619
-0.12990148 -0.035229534 -0.12657453 -0.16521399 -0.039768215 -0.019302886 -0.12464105 -0.08096392
-0.0044697677 -0.19930674 0.01944937 -0.07557977 -0.11404591 0.05732313 -0.09799124 -0.16903643
-0.10342457 -0.055459443 -0.035415713 -0.100482725 0.018375842 0.022450397 -0.124922425 -0.19528611
-0.12738778 -0.20928864 0.021942142 -0.22772203 -0.019282538 0.024753572 0.03540436 -0.090164855
-0.06456434 -0.020750668 -0.1332055 -0.024510225 -0.2789474 -0.14744812 -0.06511728 -0.026548501
-0.050519995 -0.19957869 0.004258201 -0.013209247 -0.06767031 -0.08329108 -0.023960978 -0.0790494
-0.17107528 -0.10016748 -0.10393968 -0.06170159 -0.16609468 -0.13213532 -0.052217603 0.03629585
0.13662565 -0.01855814 0.13242705 0.031283624 -0.040448703 -0.072342455 -0.03471814 -0.008514337
-0.05335053 -0.0622296 -0.079438806 0.07812114 -0.05450741 0.08727366 0.06784347 -0.11401945
-0.05133714 0.045722548 -0.02140548 0.07227426 0.06025082 -0.060709123 0.032887336 0.016388265
0.060035836 -0.0006222976 0.0727201 -0.08215597 0.106848456 -0.054757368 -0.07027641 -0.028006926
-0.08120136 0.006567381 -0.021903567 0.08114093 0.044128787 0.090694085 -0.03811415 0.030009108
-0.054295816 0.029055744 0.066338256 0.059160355 0.028592326 0.048142705 0.10375251 0.08577695
0.1173258 -0.0068965983 -0.05669026 -0.02146162 0.066688955 0.05378126 0.070639335 0.072193585
-0.10876404 0.057385303 0.088719554 0.11668646 0.11709702 0.028836546 0.081981115 0.11229158

bias f4 [64]
00000000: fcc3 773e d1fd 50bd ac8d 59be 130d 2f3f
00000010: 99dd f93e d66b 00be 3855 6f3f 2d59 b9bd
00000020: 56e0 673f a65d 2a3c 2ecd c6ba 2b95 a4bd
00000030: cc93 8bbd b1a2 f63d 4825 bf3e 2eac 8bbe
00000040: 821c 5a3f 9e63 1abe f2f1 e13d 38e1 74be
00000050: 90af 413f b439 4bbd ef4e 413f ddc2 603f
00000060: bc07 413e 7098 62be ab5f 05be fa12 4cbe
00000070: 0c14 1abf a1cb fdbd cf5f 26bd a17c 6d3f
00000080: 03d2 b6bd 2fb0 133e e7d1 103f ad7e 803f
00000090: d1cd dfbd e623 3cbd 5df9 90be 1825 25be
000000a0: 8408 f6bc bb4c 323f cd5c 803b 788f 9fbd
000000b0: 5558 0abe 3c3a 8b3e b35d a0bd 7747 20be
000000c0: 1abc 693f 6a03 593f 2b9c 4a3f cf44 873f
000000d0: 105c 5e3f 5ed1 36be d6aa 0ebd 1a97 203e
000000e0: 3943 f7bd f81c 293f 0613 843f 128d 4f3d
000000f0: 0bac b9bc af22 703f 7d72 353f 97a1 74be
0.24195856 -0.05102331 -0.2124545 0.68379325 0.48801878 -0.12541136 0.9348941 -0.09050212
0.90576684 0.010398304 -0.001516735 -0.08036264 -0.068152994 0.1204275 0.3733313 -0.272798
0.8519975 -0.15077063 0.110324755 -0.23914039 0.7565851 -0.049615577 0.7551107 0.8779734
0.18850607 -0.22128463 -0.13024776 -0.19929114 -0.6018684 -0.12392355 -0.040618714 0.92768294
-0.08926775 0.14422677 0.56570286 1.0038658 -0.10927928 -0.045932673 -0.2831525 -0.16127431
-0.030033357 0.6964833 0.0039173127 -0.07791036 -0.13510258 0.27192867 -0.07830372 -0.15652262
0.91302645 0.84770834 0.79144543 1.0567874 0.86859226 -0.17853305 -0.03483089 0.1568264
-0.120733686 0.6605983 1.0318305 0.050671645 -0.022665044 0.9380292 0.7087782 -0.23889767

weight f4 [1, 64]
00000000: 549a 1dbb 2632 d4bc 75f0 c2bc dcf7 f13d
00000010: 2c04 553c e869 033d 63b7 3a3e 8b4e 563d
00000020: f232 2e3e e2c3 91bc fc94 063d 93a4 a03c
00000030: 233d 603d f27d 4d3c 7967 173c 9b67 97bd
00000040: 2cad 293e d240 6ebd 42ee debd 4555 cebd
00000050: 7757 c13d f5de 78bd cbac 843d 235a 463e
00000060: b870 7bbd c51b 0c3d b952 99bc feae 7ebe
00000070: 3262 4f3d 6dcb 7cbd 798d 6c3c 5ca4 ad3d
00000080: 4a4b 933c 912b 1d3c 208d 463d d630 293e
00000090: 977b 373b 9b62 23bd bb84 39bd 21f2 78bc
000000a0: 2158 063b c544 bd3d 1916 0a3d a2bd 29bc
000000b0: b761 48bc de32 9d3c cf25 01bd 130b 2abc
000000c0: 6aaf 023e d2e7 fe3d 59d8 1b3e 0fee 1e3e
000000d0: faee 6b3e 45be 66bd aeb5 883c 4a7d 863c
000000e0: 1bd0 9b3a 4d78 a03c 3b29 303e 30f3 273c
000000f0: f63a 8b3d 29aa f73d 0989 fe3d ee8a 4abc
-0.0024048286 -0.025902819 -0.0237963 0.118148535 0.013001483 0.032083422 0.18234019 0.052321
0.17011622 -0.0177936 0.032856926 0.019609725 0.054745805 0.012542235 0.009240978 -0.07392808
0.16569966 -0.058167286 -0.10885288 -0.100748576 0.09440511 -0.060759503 0.0647827 0.19370322
-0.061386794 0.03420617 -0.018716203 -0.24871442 0.050630756 -0.06171744 0.014438027 0.08478615
0.017980237 0.009592907 0.04847443 0.16522536 0.002799725 -0.03988896 -0.045292597 -0.015194447
0.0020499306 0.09241632 0.03371248 -0.010360153 -0.012230328 0.019189294 -0.031530198 -0.010378617
0.12762228 0.1244656 0.15219249 0.155205 0.23040381 -0.0563338 0.016688194 0.016417164
0.0011887582 0.019588614 0.17203228 0.0102508515 0.06798355 0.12093002 0.12428481 -0.012362225
