src/Fun_2/model/model_512_64_128_0.01_200.pt (torch, 326311 bytes, 5 tensors)

weight f4 [64, 1128]
000000 06 f6 0f be 9f 28 1b be 17 c6 ce 3a 11 81 0c 3d
       -0.14058694 -0.15152214 0.0015775588 0.034302775
000010 5b 70 37 bd fe b0 cc 3c 54 cb 47 3d 42 1f af 3c
       -0.044784885 0.02498674 0.048777893 0.02137721
000020 97 b3 a8 ba fc 50 3c bd 31 c5 44 3d 33 69 67 bd
       -0.0012870905 -0.04597567 0.04803962 -0.05649681
000030 8f 87 65 bd 87 57 85 3d 5f ef 0e ba b4 20 90 bd
       -0.056037482 0.06510835 -0.0005452539 -0.070374876
000040 16 2a 46 3d 51 59 aa 3d 7e 8f 46 bd 48 98 ee bd
       0.04837998 0.08317817 -0.04847669 -0.11650139
000050 28 6b c6 3c 16 97 e9 3c c4 2a 54 be 3b d7 8d bd
       0.024221018 0.028514426 -0.20719439 -0.069258176
000060 7d 4f 3e 3d 22 2e eb bb 2d 8c 8d 3d 7f f9 3b bd
       0.046462525 -0.0071771303 0.06911502 -0.045892235
000070 76 4d d7 3c fe db a7 3d b1 14 ed 39 9c ad f6 bc
       0.026282053 0.08196257 0.0004521958 -0.03011208
000080 34 9f 46 bd c5 02 3e bc 5d 21 45 3d 4f ac 90 3b
       -0.04849167 -0.01159734 0.04812752 0.004415072
000090 50 6e 95 bd 77 7b fb 3d be 29 d4 3d e4 e9 98 3d
       -0.07296431 0.122794084 0.10359524 0.07466486
0000a0 72 21 7b bd af 38 f1 bc ec 8c ce bd ac 67 16 bd
       -0.061311193 -0.029445974 -0.100854725 -0.036719963
0000b0 28 2e 32 3e 16 7c 3f bd 71 4f a8 bd 9f 26 48 bd
       0.1740042 -0.046749197 -0.08218277 -0.048864957
0000c0 f6 9e 4f bd 81 68 d9 3c 79 bf aa bd b3 ae aa bd
       -0.050688706 0.02653909 -0.08337302 -0.083341025
0000d0 c2 53 69 3d 56 65 19 3d fe 98 3a bd 6b 66 d7 bd
       0.056964643 0.037450157 -0.04555606 -0.105175816
0000e0 14 a2 b5 3c 32 6f a8 3c b5 8d 3f be b5 3d e5 3c
       0.022172011 0.020560835 -0.187064 0.027983526
0000f0 d7 a3 5a ba 14 86 df bd 68 0d 14 3e 81 b9 97 bc
       -0.0008340454 -0.10914245 0.14458239 -0.018521072
000100 ef 8b 95 bc 7c 2e 10 bd 63 af e3 3c 49 4f 78 bd
       -0.018255202 -0.03520058 0.027793592 -0.060622487
000110 f5 5e 8f bb f6 e9 de 3d fe 3d 54 be 6f 6b 2b 3d
       -0.0043753334 0.10884468 -0.20726773 0.041850504
000120 3b 52 b6 bb 2f aa 43 bd cf 02 1a 3d 25 85 38 3b
       -0.005564002 -0.04776972 0.037600335 0.0028155532
000130 cf 4f e1 3d 67 46 90 bd d8 69 96 3d e1 71 55 bd
       0.110015504 -0.07044678 0.07344407 -0.052110557
000140 3b 55 4f bd d1 1e 87 3d f8 cc 2f bd 79 36 c9 3c
       -0.05061839 0.06597675 -0.042920083 0.024562107
000150 43 86 e9 bb 35 ed 0c 3e ac a1 80 3c ea 3c d2 bd
       -0.007126601 0.13762362 0.015702091 -0.10265525
000160 59 3d 07 bd 8b 48 69 bd b3 71 73 3d c3 d0 ae 3c
       -0.03301749 -0.056953948 0.059434604 0.02133978
000170 6d 7c 80 3e 6e c4 54 bc e8 04 84 bc 89 16 3f be
       0.2509493 -0.012986286 -0.01611562 -0.1866094
000180 78 ed f0 3b 3d 5d 79 bd c6 a5 3a 3d 4e 0b 40 be
       0.007352527 -0.060879935 0.04556825 -0.18754312
000190 2a 4d 4c be 63 62 b8 3d 93 13 94 3d cd 6d 19 3d
       -0.19951311 0.09003141 0.07230296 0.03745823
0001a0 df c5 2d bb d6 90 f6 bc 22 91 9f bd e3 a9 8d 3d
       -0.0026515645 -0.03009836 -0.07791354 0.06917169
0001b0 2c 95 ec bd bf 4b e3 3b fb 39 2e bc fd 7f 93 bd
       -0.1155189 0.00693652 -0.010633941 -0.07202146
0001c0 7d eb b1 3c 5b 71 a8 3d 0a 06 b4 3c d3 3f b7 bc
       0.021718735 0.08224746 0.021975536 -0.022369301
0001d0 5c c9 d4 bd f8 8b d1 bb 3b b4 85 bc 19 fc 8b bd
       -0.10389969 -0.0063948594 -0.016321292 -0.06835193
0001e0 bd de b9 3d 97 8b e6 3d a8 2d c4 3c 53 97 38 3d
       0.09075687 0.112570934 0.023947552 0.04506619
0001f0 bb 8a 0c bb 19 8d aa bc e1 3c ce 3c 9f 85 ba 3c
       -0.0021444994 -0.020819234 0.025175514 0.022768794
000200 2c f7 b6 3e ad 99 c1 bb 3a 87 ac 3d 39 38 c1 bc
       0.35735452 -0.005908212 0.0842423 -0.02358638
000210 42 74 83 bc 46 be a9 bd 5f e6 02 3d 84 5a 77 bd
       -0.016046647 -0.08288245 0.03195798 -0.060389057
000220 ae 83 7d bc ae 31 14 bb 6f 51 09 3c 6e 4e e9 3c
       -0.015473289 -0.002261262 0.008381232 0.028479781
000230 13 ec ca 3c 86 dc b5 3b 74 b6 aa bb 54 5c 56 3d
       0.024770772 0.00554997 -0.0052097384 0.052334145
000240 ec f3 d4 3c 7b d0 b8 bc 70 19 86 bd ee d3 17 bd
       0.025995217 -0.022560349 -0.065478206 -0.037067346
000250 81 fe 25 3d 31 99 96 bc 85 40 24 bd f1 c1 9b 3c
       0.040525917 -0.018383594 -0.040100593 0.019013377
000260 9c b4 1f bd 02 2e b4 b9 e7 a9 cc be ad 2c e6 3d
       -0.038990602 -0.00034366554 -0.39973375 0.1123899
000270 03 2f 4d 3d 09 50 00 3d f2 60 b3 bc 9c ac a1 3c
       0.050093662 0.031326327 -0.021896813 0.019735627
000280 29 e2 7b bb 25 61 b1 3d a5 01 ab 3b 8a d5 07 bb
       -0.0038434363 0.08661107 0.005218702 -0.0020726644
000290 af a1 25 3d 41 3b 1a 3d fe 23 cc 3b de af c1 bb
       0.040437397 0.037654165 0.0062298765 -0.0059108576
0002a0 0f e9 e5 bc 8d b3 2e 3c 39 f8 df bc 42 5d 60 39
       -0.028065233 0.010662925 -0.027340041 0.00021397046
0002b0 ff 48 a9 3c 36 d8 41 3d c5 26 a2 bc e6 e5 26 bd
       0.02066469 0.047325335 -0.019793877 -0.040746592
0002c0 1e ad 8e bc c8 32 ae ba 26 8e 15 3d 9d 1a bc bd
       -0.017416533 -0.001329028 0.036512516 -0.091847636
0002d0 96 c6 47 3d ca 97 8f 3c 66 24 ac 3d 10 ec 12 bb
       0.04877337 0.017528433 0.0840538 -0.0022418536
0002e0 a6 f5 2e 3c b1 24 4e bd 77 60 7c 3d ac 6e cc 3e
       0.010678684 -0.05032796 0.061615434 0.39928186
0002f0 e8 45 f2 bc 7c 90 40 3c 35 2d 9c 3d 92 dc df 3a
       -0.02957435 0.011753198 0.0762581 0.0017079285
000300 1a 09 e1 3d c3 ac 0f 3d 21 0c a2 3d 39 35 29 3d
       0.10988064 0.035076868 0.0791247 0.041310523
000310 1c a1 a8 3d 95 87 fe 3b ac 58 e3 3c 87 97 fc 3c
       0.08233854 0.0077676275 0.027752243 0.030833973
000320 77 f5 76 3d 7d 4b 2a 3d e1 0e 23 3d 86 46 00 bc
       0.060292687 0.041575897 0.03980911 -0.007829314
000330 76 da 93 3d f6 f2 86 3d 0d a0 63 bd 00 c6 c5 3d
       0.072194025 0.0658931 -0.05557256 0.09656906
000340 a5 3f 92 3d b5 46 af 3c 29 1b 7e 3a 43 be 75 bd
       0.071410455 0.02139602 0.0009693378 -0.0599959
000350 e5 cb 28 3d 03 0d a3 3d ae d7 b8 3d ac a6 8b 3c
       0.041210074 0.07961466 0.09025513 0.017047249
000360 fa 7b ac 3c 85 24 a1 bc 23 41 bd 3d d9 6d f9 3d
       0.02105521 -0.019670734 0.092409395 0.12179155
000370 f7 3f c6 3c 2e 8b 4f bc 7d 47 5c bd c0 0a 33 bd
       0.024200423 -0.01266746 -0.053779114 -0.043711424
000380 eb 3c 08 3c c4 3c 60 bc 42 cf 2c bd 6d cc a1 bc
       0.008315305 -0.013686363 -0.042189844 -0.019750798
000390 38 9c e4 bc e9 11 22 3b 52 0b 8c 3d 1f 84 c2 3d
       -0.027906522 0.0024729914 0.06838097 0.09497856
0003a0 11 61 f7 3c 7c e9 36 be 5e da 17 bd e8 eb cc 3d
       0.030197652 -0.17862505 -0.037073486 0.10005933
0003b0 91 3f 75 3d c7 31 76 bd e0 a2 00 bd 85 3e 8f 3d
       0.059875075 -0.060106065 -0.03140533 0.069943465
0003c0 53 f4 7c 3c a2 e5 1a 3b 5e be 54 bd 67 31 01 3d
       0.015439111 0.0023635407 -0.05193936 0.031541254
0003d0 fd 5e 29 bd d0 0f 18 bd cc 9a 47 bb 66 4a 98 bd
       -0.041350354 -0.037124455 -0.0030457256 -0.074360654
0003e0 31 8e 58 bd b6 71 dc 3c 39 53 69 3d 6c 7b c6 bd
       -0.05286998 0.02690969 0.056964133 -0.096915096
0003f0 e8 b4 56 bc 0c 38 0c 3e b1 d9 84 3d 5e a3 b7 bb
       -0.013104655 0.13693255 0.06486834 -0.0056041917

bias f4 [64]
000000 e2 94 28 3f 65 9c 9e bd 62 e0 97 bd 6b 3f 5e bc
       0.6585218 -0.07744674 -0.074158445 -0.013564925
000010 d1 d2 6d bd 06 1a a4 bd 13 39 9a bd 84 69 0d 3f
       -0.05806238 -0.08012776 -0.07530417 0.5523913
000020 74 d9 b0 bd c2 32 e0 3e 14 77 83 bd 61 67 ae bd
       -0.08635226 0.43788725 -0.06419197 -0.08515812
000030 b9 13 6c bd 6a cc a7 bd 96 b8 e1 3e 06 3b 23 bd
       -0.057635996 -0.08193286 0.4408614 -0.03985121
000040 00 36 32 bd b5 1b c1 3e 3f 3d d3 3e 24 b2 19 bd
       -0.04350853 0.3771645 0.41257665 -0.037523404
000050 9c 62 4a bd 87 6d 49 bd 0b 94 a8 bd 01 63 49 bd
       -0.049410447 -0.04917672 -0.08231362 -0.049166683
000060 88 82 a1 bd 23 70 a5 bd f4 f2 b4 3e 88 36 91 bd
       -0.07886225 -0.08078029 0.3534161 -0.07090479
000070 db 1d b7 bd 03 92 1b bd 0f dd e6 3e 0e 4a 2f bd
       -0.08941241 -0.037981045 0.4509053 -0.042795233
000080 2e ce ed 3e 3c 4e ad bd cf eb d7 3e f4 e4 e7 3e
       0.46446365 -0.08462188 0.42172095 0.45291865
000090 cb 07 37 bd 21 d2 6a bd cf 97 aa bd 52 8d 72 bd
       -0.044685166 -0.0573293 -0.083297364 -0.059216805
0000a0 f9 d0 48 bd c7 b7 4f bd 0c 49 bb 3e 5e a5 0e bd
       -0.049027417 -0.050712373 0.36579168 -0.034825675
0000b0 2b 9c df 3d d2 4f d9 3e 29 16 0b bd c0 56 62 3c
       0.109184586 0.4244371 -0.03395668 0.013814628
0000c0 34 f9 81 bd df dd 64 bd 37 e7 65 bd da b8 bd bb
       -0.0634636 -0.055875655 -0.056128707 -0.0057898583
0000d0 21 59 c8 3e 40 5e f3 3e 76 5c 96 3e c8 e5 e6 3e
       0.391305 0.47532845 0.29367417 0.45097184
0000e0 3e 08 8d bd d3 88 53 3f eb e7 df 3e 7d f0 a6 bd
       -0.06886338 0.8263065 0.43731627 -0.08151338
0000f0 0a 95 28 bd 9e eb 3a 3f 52 72 48 bd b3 f6 af 3d
       -0.04115776 0.73015773 -0.04893715 0.08591976

weight f4 [128, 64]
000000 cc c2 95 bd 55 d1 37 3e 1f cb 2f bd 84 e3 b6 3d
       -0.07312545 0.17950948 -0.04291832 0.08930114
000010 92 1a 40 3d d4 59 71 3d a3 fb 83 bd 0f a2 d4 3d
       0.04690034 0.058923557 -0.0644448 0.10382473
000020 16 79 c2 3b 66 b3 e3 3c 18 37 27 3e 9c 61 73 bc
       0.0059348447 0.027795505 0.1632961 -0.014854815
000030 1d 32 49 bd c7 ae 27 3e e0 19 de bd 0c 9d 73 3d
       -0.049120057 0.16375266 -0.10844779 0.059475943
000040 9f 5b b2 3c 7c 88 80 bc 30 23 7e 3d 3c f4 35 bd
       0.021772204 -0.01569008 0.062045276 -0.044422373
000050 73 a1 0e 3e 17 d5 c1 3d 93 a7 30 3d 42 c1 e2 bc
       0.13928775 0.09464472 0.04312856 -0.027680043
000060 2b 44 40 bd 2f c1 2b bd 2f 8b b7 3b cd d2 b9 bc
       -0.04694001 -0.04193228 0.005601309 -0.022683525
000070 6c dd ef 3c 11 36 bc bd 3f c3 05 3e 3b 8d 46 bb
       0.029280387 -0.0919 0.13062762 -0.0030296582
000080 80 d2 01 bd 6e 8c 76 3c 62 e1 8a 3c 02 46 df 3c
       -0.03169489 0.0150481295 0.016953174 0.027255062
000090 21 00 8c 3c 4c c2 90 bc 15 e1 43 bd d8 43 0e bc
       0.017089905 -0.017670773 -0.047822077 -0.008683167
0000a0 dd f0 37 3e 11 70 c2 bc 8d b9 67 3c 6c 16 c3 bd
       0.17962976 -0.023735078 0.01414336 -0.09525761
0000b0 50 d2 8c bc 29 40 ce 3d ac cc ee 3d 75 9a ec 3c
       -0.017190129 0.10070831 0.11660132 0.028882245
0000c0 28 a1 bd 3d 0d dd 3f bd 67 aa fe 3d db ad 80 bc
       0.09259254 -0.04684167 0.124348454 -0.0157079
0000d0 22 b3 0e 3e 6d 71 a5 bc 5b 02 8a ba 7b c4 60 3c
       0.13935521 -0.020195687 -0.0010529266 0.01371872
0000e0 76 f0 9c bc c6 62 c1 3d 91 92 ee bd f2 f5 3e 3d
       -0.01915763 0.09442668 -0.11649049 0.04662127
0000f0 11 b1 24 bd 57 b1 ab 3a f1 86 6d 3d 8d 7e 09 be
       -0.040207926 0.0013099116 0.05799002 -0.13427182
000100 28 df 4f 3d 72 98 9b bd ec 7e 35 bd 1b f3 18 bd
       0.050749928 -0.07597436 -0.044310495 -0.03734122
000110 06 d8 e9 3d a4 f6 ca 3d dc b8 d7 bd 54 53 06 be
       0.11418156 0.09910324 -0.10533306 -0.13117725
000120 58 9f 9b 3d 68 0b 22 be b8 8c 88 bc 4c 89 41 bd
       0.07598752 -0.15824664 -0.016668662 -0.047250077
000130 94 57 52 3c dc 7d 20 bd 15 a4 a8 bd 90 59 0f bd
       0.012838263 -0.03918253 -0.08234421 -0.034997523
000140 ae 66 c2 bd a0 77 1d be 57 dc a2 bc b8 b9 f9 3d
       -0.09492241 -0.15377665 -0.019880457 0.12193626
000150 68 04 59 bd 30 40 84 3d 70 08 84 3d 6e d0 ef bd
       -0.052982718 0.06457555 0.06446922 -0.11709677
000160 e8 8d 4f 3d b4 c6 38 3d 5e 44 41 3d 90 16 53 bd
       0.05067244 0.045111373 0.04718434 -0.05153519
000170 4c 43 7b 3d b6 79 e7 3c ea 3a 65 3d bc f8 f3 bd
       0.061343476 0.028256278 0.055964388 -0.11912677
000180 7f f4 84 3d 92 15 fd bd 3f 89 d1 bd 7a a6 07 be
       0.064919464 -0.1235763 -0.10231256 -0.132471
000190 23 6f b2 b9 80 41 78 bd 38 fc b0 bc a6 52 e3 bd
       -0.0003403361 -0.06060934 -0.021604642 -0.11099748
0001a0 b4 5a 09 bd c0 66 be 3c 0a be 60 3d 66 8a 88 3c
       -0.033533767 0.023242354 0.054868735 0.016667556
0001b0 95 2b 4c bd df 7d cc bd 5a 2f 82 3d d3 41 4f 3d
       -0.04984625 -0.099849455 0.06356688 0.050599884
0001c0 b2 99 d1 bd 5e c8 df bd fa d3 95 3d 2a 43 25 be
       -0.10234393 -0.10926889 0.07315822 -0.16138902
0001d0 93 e3 b8 3b c3 61 0b bd 8f 3c 09 be 33 ad d7 bd
       0.0056423633 -0.03402878 -0.13402008 -0.10531082
0001e0 ea d0 e2 bd d7 5c 1c be 9c 10 0d be 40 16 2f bb
       -0.110750034 -0.1526979 -0.13775867 -0.0026716143
0001f0 84 d8 6a bd af b2 e1 bd 84 ac 11 bd 35 5f 09 be
       -0.05733539 -0.11020409 -0.035564914 -0.13415225
000200 b5 2d a2 3c 86 66 3d be 10 c8 2c 3d df e6 37 bb
       0.019797185 -0.18496141 0.042182982 -0.0028061194
000210 a5 03 b3 3c 34 d2 6d 3d fa 93 19 bc 9f bd 1b be
       0.021852324 0.058061793 -0.009373659 -0.15209053
000220 92 2f 38 be 28 9f fa be f8 b9 24 be 92 ec 25 be
       -0.17986897 -0.48949552 -0.16086566 -0.16203526
000230 7d 04 04 bd 4b c0 ce bc 5e 60 32 be 71 e0 91 bc
       -0.032230843 -0.025238177 -0.17419574 -0.017807217
000240 ca 9c b1 bb 26 b0 6a be 53 24 2f be c3 07 ba 3c
       -0.005420302 -0.22918758 -0.171037 0.02270878
000250 58 bf 16 be ac 83 6e 3d 1b c9 31 bd ca 7c 58 3d
       -0.1472143 0.05823104 -0.04340468 0.052853383
000260 84 40 20 be 38 c7 47 bd 6a a9 05 be 64 9a cc bd
       -0.15649611 -0.048773974 -0.13052908 -0.09990385
000270 23 9a 2c bb cb a9 19 be 3d 4d 11 be 8a 5e 80 bd
       -0.002633699 -0.15006177 -0.1418962 -0.06268032
000280 e6 f9 e8 bd 80 7c 63 3d 8a 65 1d be 8b 49 3e be
       -0.11375789 0.055538654 -0.15370765 -0.18582742
000290 4f d4 04 be 51 ac ca 3b 6c bb a7 3c b0 a6 ac bd
       -0.12971614 0.0061850925 0.020475112 -0.084302306
0002a0 ec a5 f5 bd 48 9d 1d bc 12 10 22 bd 93 24 27 be
       -0.11994538 -0.009620018 -0.039566107 -0.16322546
0002b0 db db 01 be 21 1e 8d bd 8f 0b f6 bd 12 99 6f 3d
       -0.12681524 -0.06890512 -0.120139234 0.05849559
0002c0 a5 d4 7b bd bc 2e 31 be 76 95 7d 3d 2b f1 3d 3d
       -0.06148209 -0.17302984 0.061910115 0.046372574
0002d0 92 0e 67 be 92 9d a7 bd 04 9e ca bc ec 58 2b bd
       -0.22564152 -0.08184351 -0.02473355 -0.04183285
0002e0 55 1b 20 bd db 5f f3 be 29 aa 39 be e1 08 82 bc
       -0.039088566 -0.4753407 -0.18131317 -0.015873374
0002f0 b2 15 11 be b1 95 b4 be 90 d5 ed bd 7b ad c3 bd
       -0.14168432 -0.35270455 -0.116129994 -0.09554573
000300 82 da 98 bd 0b d4 3f 3d bb 76 0e be b9 54 0c be
       -0.07463552 0.04683308 -0.1391248 -0.13704194
000310 5c ed 10 3d 67 ac f6 bb 5c e4 18 be 39 7b aa bd
       0.035382614 -0.007527876 -0.14930862 -0.08324284
000320 fc 63 be 3c 70 26 79 be 20 6d b1 bd 52 5f eb bd
       0.023241036 -0.24331069 -0.08663392 -0.1149279
000330 33 08 26 3c a7 cc 2d be cf 41 94 be b2 2c 9b bd
       0.010133791 -0.169726 -0.28956458 -0.07576884
000340 90 bd 0a 3d ac f0 64 be 4b 14 2f 3e 19 a0 ea 3c
       0.033872187 -0.22357434 0.17097585 0.028640794
000350 4e 04 be bc 82 cc 7a bd b2 c9 d1 bd 82 5a 17 be
       -0.023195412 -0.06123019 -0.102435485 -0.1478062
000360 91 92 21 be 50 68 71 3d 68 6b 53 be 66 44 b9 bd
       -0.15778567 0.05893737 -0.20646441 -0.09046249
000370 c1 92 07 be 66 ce 23 be 71 36 0b be e3 d2 43 3d
       -0.13239576 -0.15996704 -0.13594986 0.04780854
000380 ea 23 0f 3e 41 09 36 be 6d 78 40 be 77 ba 71 3d
       0.13978544 -0.17776968 -0.18795939 0.059015717
000390 d7 4e 74 3d 34 06 cd bd 83 f2 28 be 06 5b c2 3c
       0.0596455 -0.10010949 -0.16498761 0.023725044
0003a0 eb c9 94 3c 8f 3c 48 bd 50 83 a8 3e f1 ed 0a bd
       0.018162688 -0.04888588 0.32912683 -0.033918325
0003b0 ee c8 b1 bb f4 39 e5 bc f7 d8 0e be cb 0d e8 bd
       -0.005425564 -0.027981736 -0.13949953 -0.11330756
0003c0 03 a1 d0 3b 9f 12 db 3b 3a 8a 89 bd b6 93 47 bd
       0.0063668503 0.0066855694 -0.06715818 -0.048724853
0003d0 ca 8f 9a bd a3 30 ac be 4a fe 11 be 02 78 b7 3e
       -0.07546957 -0.33630857 -0.1425716 0.35833746
0003e0 1d 5b e6 bd 55 c7 89 be 61 a5 46 be f9 a7 2e be
       -0.11247847 -0.2690989 -0.19399025 -0.17056264
0003f0 4a 20 88 bd 4c 80 a4 bc ef 7d cb bd a5 47 93 be
       -0.06646784 -0.020080708 -0.09936129 -0.28765598

bias f4 [128]
000000 ab e1 28 3f 2e 8d f5 bd a2 42 81 3e 9c 4b 20 3f
       0.6596934 -0.119898185 0.2524615 0.6261537
000010 f0 ba ff bd 5d 91 bb bb a5 f0 65 bc 83 34 b3 3e
       -0.124868274 -0.0057241158 -0.014034425 0.35001
000020 77 46 21 be 29 c3 94 3d 38 b6 3b bd 2a 30 68 b4
       -0.15749536 0.07263786 -0.045828074 -2.1624206e-07
000030 21 dd f7 bd 9e 81 78 bc 3f 8b 92 bc b6 d9 20 be
       -0.12102724 -0.015167622 -0.017888663 -0.1570805
000040 0e 1a ce be 58 f8 b1 3e db e1 04 ba 5a 19 10 bf
       -0.40254253 0.34759784 -0.00050690555 -0.56288683
000050 67 e1 1d 3f 88 68 dd 3d 9f c8 09 be bf 3a 92 be
       0.6167206 0.108109534 -0.13455437 -0.28560445
000060 c7 47 1d 3f 5c e8 e9 3d 18 31 e7 3e f4 07 d7 3e
       0.6143765 0.11421272 0.45154643 0.41998255
000070 f4 1a 16 be 6c 85 e1 bd 80 dd 1e bd f7 5c 22 3f
       -0.1465872 -0.11011776 -0.038785458 0.63423103
000080 94 75 09 be 97 b7 11 3f 69 6a 18 bb f0 0d 8d bb
       -0.13423759 0.5692076 -0.0023256785 -0.00430464
000090 c9 1a e8 bd 5d ce d0 3e 84 5a 15 be 24 fd 7c bc
       -0.11333234 0.40782443 -0.1458531 -0.015441213
0000a0 c2 22 9c bb b9 de 21 3f c8 f3 0c bd d4 a0 1e 3f
       -0.0047648856 0.6323047 -0.034412175 0.61964154
0000b0 2c 62 06 bd 8c 85 05 3f ab db b1 bb d1 a2 97 bc
       -0.032808468 0.521569 -0.005427798 -0.018510254
0000c0 94 19 0a bc da 9e 55 be ac f1 55 bb b3 f7 d0 3e
       -0.00842895 -0.20861378 -0.0032645268 0.4081398
0000d0 0f b0 0c 3f 5d 04 d5 bd 5a 84 03 be 60 76 e8 bd
       0.54956144 -0.10401223 -0.12843457 -0.11350703
0000e0 94 a0 1c 3f 47 d9 c0 bd fb f8 0c bf 04 9e d1 3e
       0.6118252 -0.09416442 -0.55067414 0.4094087
0000f0 7c 17 eb bd 73 dd 27 bb ab 92 83 3e 72 97 d9 3e
       -0.11479089 -0.0025614172 0.25697836 0.42498356
000100 9a 3f d6 bd 15 d3 f8 bc 7f e1 0c bd ea 69 c9 be
       -0.1046135 -0.03037409 -0.034394737 -0.3933862
000110 06 b3 c5 bb 74 77 13 be 6d a6 da be d2 4e 2f ba
       -0.006033304 -0.14401037 -0.42705098 -0.00066874654
000120 a0 bb 18 3f 61 c4 07 3f 6a 13 06 be fe 72 f8 3e
       0.59661293 0.53034025 -0.13093343 0.48525232
000130 ca eb c1 bd 4f 86 49 3e 10 41 18 3f bd 84 ac 3e
       -0.09468801 0.19680141 0.5947428 0.3369502
000140 fe ee af bd 5d 51 53 bc b2 46 b1 bc 36 17 19 be
       -0.08590506 -0.0128978165 -0.021640155 -0.1495026
000150 91 e9 5c 3d f8 83 c1 bd 0d 08 7f 3d 71 87 20 3e
       0.053933684 -0.09448999 0.062263537 0.15676667
000160 bc a2 18 3f b6 64 09 bb 2b fc 9e 3e da c4 a7 b9
       0.5962331 -0.002096457 0.31051764 -0.00031999388
000170 e4 65 93 bd dc 67 19 3f 35 43 14 3f dd 06 16 3f
       -0.071971685 0.599241 0.5791505 0.5860422
000180 86 3c e8 bc d1 36 ee bd 0f 30 ed 3e f0 26 6a bd
       -0.028349172 -0.11631549 0.46325728 -0.05716604
000190 b6 f3 58 bd 65 13 10 3f 3e 1d 0b 3f 17 32 a3 be
       -0.052966796 0.56279594 0.54341495 -0.31874153
0001a0 77 56 04 3f e1 44 62 bd 0c 84 c5 bd 30 eb 44 be
       0.51694435 -0.05524147 -0.096443266 -0.19230342
0001b0 42 51 4c bd ae 11 f9 3e d7 a0 0e be 3e a6 c4 3e
       -0.04988218 0.486463 -0.13928543 0.38408083
0001c0 07 44 8f bc 74 34 ae bd 73 3f 04 be 6f 04 36 bd
       -0.017488493 -0.085060984 -0.12914829 -0.044437822
0001d0 27 b2 33 bd aa d2 25 ba 1f f4 02 be d3 86 21 3f
       -0.04387107 -0.0006325642 -0.12788437 0.6309635
0001e0 97 f6 8d 3e 1a 3f b0 bd c6 8e bb bd 74 90 e0 bd
       0.27727196 -0.08605786 -0.09158091 -0.10965052
0001f0 91 30 45 bd 14 a4 02 3f 7e 4e 6b bd e2 ab d7 3e
       -0.04814202 0.51031613 -0.057447903 0.42123324

weight f4 [1, 128]
000000 f4 fa 07 3e 9d a3 98 bc f1 f3 8a be bd ae 30 bf
       0.13279325 -0.018632704 -0.27139238 -0.6901663
000010 03 12 c5 3b de b5 5e 3d cb b9 e0 bc 45 df 56 3d
       0.00601411 0.05437266 -0.027432343 0.05245902
000020 46 2b 99 3c 36 85 54 bc cf 88 5d 3d 54 ab 11 3b
       0.018697392 -0.012971213 0.05408555 0.0022227364
000030 14 f6 49 3d ba ea b3 bc 32 95 95 3c ab 45 15 3b
       0.049306944 -0.021962512 0.018259618 0.002277712
000040 6d cd 4b be 88 80 aa 3d 85 d5 08 3d 63 0d 9e bd
       -0.19902582 0.08325297 0.033406753 -0.07717397
000050 bf 33 11 3e eb ab 8e 3c 72 e3 69 3d 6d 63 18 3e
       0.14179896 0.017415961 0.057101674 0.14881678
000060 fa 74 0c 3e 1e dc e5 bd 9a 8d c0 3d ac cf e9 3d
       0.13716498 -0.11223625 0.09402008 0.114165634
000070 95 83 a0 3c d3 56 dd 3c f5 2f bc bc 36 41 24 3e
       0.019593993 0.02701894 -0.022972086 0.16040501
000080 d1 31 2f 3c b8 0d e2 3d 63 ee 88 3c 52 5c 3d 3d
       0.0106930295 0.11037773 0.016715234 0.04623062
000090 d0 58 c9 3c b9 cf d5 3d d3 f5 04 3d 25 89 8a bc
       0.024578482 0.104400106 0.032461 -0.016911099
0000a0 e0 67 55 3d 9b da 32 3e 3d c6 d7 3c 61 b6 a4 3d
       0.052101016 0.17466204 0.026339645 0.080425985
0000b0 8a 19 2c 3d 44 ad f7 3d 69 72 06 3d aa 42 27 3d
       0.042016543 0.12093595 0.032823954 0.04083506
0000c0 df ca 85 3c ba 39 9a 3d 4a fe 53 3d d2 e5 ae 3d
       0.016332088 0.07530542 0.05175618 0.085399285
0000d0 1d ba 07 3e cb ac 5b 3d f7 77 4f 3d 48 92 fc bc
       0.1325459 0.053631585 0.050651517 -0.030831471
0000e0 09 3c b7 bd 2e 66 af 3b 00 0f a8 bd 59 9d 98 3d
       -0.08946998 0.005352757 -0.08205986 0.07451887
0000f0 22 98 8f 3c 3b af d4 3c 68 ec 51 bd d7 7d 0b bf
       0.017528597 0.025962463 -0.051250845 -0.5448889
000100 7e 9f a6 ba 2c ee 9d 3c 7c 89 a1 3d 3c f8 1d 3e
       -0.0012712327 0.019278608 0.07887551 0.15426725
000110 10 51 22 3d ea 1f ca ba 30 cb 15 be 28 4a 46 3d
       0.03962809 -0.0015420888 -0.14628291 0.048410565
000120 d3 4d fa 3d 5c b5 d0 3d 6a 83 04 3c f3 52 dd bd
       0.12221875 0.101908416 0.008087972 -0.10806837
000130 14 f4 69 3d d3 7b 1e bd d9 fe 90 3d 45 6f 0a 3d
       0.057117537 -0.038692307 0.07079858 0.03379752
000140 d0 8c b3 bc ec 68 c6 bc 15 2c 2f 3b 0e cd 2a 3d
       -0.02191773 -0.024219953 0.0026729156 0.04169946
000150 2c c5 a4 3b f7 42 23 3c cf a4 85 bb 7c f8 06 bd
       0.0050283875 0.009964696 -0.0040784846 -0.032951817
000160 07 12 29 3e 13 60 a8 3c c3 ae a2 3d d3 0c c4 3c
       0.16510783 0.020553624 0.079434894 0.023931896
000170 87 34 2c 3c be e8 d9 3d 8d 45 f3 3d 11 73 ed bd
       0.01051057 0.10640095 0.118785 -0.11594213
000180 f0 69 f5 3c a7 8c 05 3d bb 1f e0 3d 80 39 12 3b
       0.029957741 0.03260484 0.10943552 0.0022312105
000190 e4 e3 aa 3b 26 2b ab 3d 9e 85 ed 3d a6 1e 89 bd
       0.005215155 0.08357839 0.11597751 -0.06695299
0001a0 7d 09 ae 3d 76 f7 60 3d 6d 61 97 3d 3c ec 8d 3c
       0.084979035 0.054923497 0.07391629 0.01732456
0001b0 50 0f 63 3c be b1 91 3d ce 7d 24 3d e2 24 91 3d
       0.013858631 0.0711398 0.04015904 0.07087113
0001c0 ab 0f e2 bc dc be ea bb 90 de 2a 3d 24 91 04 3d
       -0.027595362 -0.0071638655 0.04171616 0.03236498
0001d0 3f 5d ba bb 1c b3 0f 3d cd 07 dd bc 98 64 23 3e
       -0.0056873853 0.03508292 -0.026981259 0.15956342
0001e0 37 01 53 be 41 94 5c 3c a1 c4 10 bc 12 f3 1d bd
       -0.20605932 0.013463081 -0.0088359425 -0.038561888
0001f0 2f 12 66 3d ce 58 30 3d 2d bd ef 3c ff 4a 91 bd
       0.056169685 0.04305344 0.02926501 -0.070943825
