src/Fun_2/model/model_1024_64_64_0.0001_400.pt (torch, 309431 bytes, 5 tensors)

weight f4 [64, 1128]
0.07519554 -0.081457354 -0.07944101 -0.07886017 -0.06513799 -0.08884034 -0.05477835 0.010818391
0.047377516 -0.07578006 0.06361845 -0.010448913 -0.0154151535 -0.05791225 0.024668055 0.05629987
-0.055143498 0.04812058 -0.03853247 -0.043876585 0.06644151 0.040437814 -0.051945727 0.023892062
-0.0518186 0.04041422 0.06319801 0.07233204 0.01839936 -0.005849902 0.08400234 -0.054281604
-0.040971663 0.060598005 -0.030008124 0.00864196 -0.023316495 -0.009967273 0.00046326712 -0.004671275
0.059874374 -0.037404552 -0.047338463 0.050451834 0.019868802 0.0965114 0.002891719 0.007894389
0.05053194 -0.005410491 0.010777002 0.030947708 -0.063547015 -0.041802857 0.02616227 -0.022359222
-0.050551996 -0.03141041 0.047988977 0.010361806 0.023058048 0.032893028 0.058882836 -0.00013170215
-0.04663345 0.07165639 0.009068282 -0.042111143 -0.04683285 0.04255704 0.02003034 0.05433398
-0.040454905 0.0338861 0.05450026 0.028003551 -0.020984499 0.022495164 -0.02251312 -0.06009989
0.018433826 -0.02108397 0.032080274 0.056258198 0.01142402 -0.019920174 0.06992674 -0.030435763
-0.07175238 0.044753242 -0.010157489 -0.02204304 0.044369876 0.043367207 -0.06678937 -0.06417621
-0.056948494 -0.023799315 -0.040061526 -0.049777556 -0.068789534 -0.1022503 0.066571414 0.0029248532
-0.008286803 -0.049050655 0.026150292 -0.036361378 -0.022445751 -0.029294364 0.04957596 0.02686339
-0.03243393 -0.015405693 0.013852357 0.023712385 0.021047361 0.05929344 0.04189392 0.014809671
-0.049025655 -0.056532532 -0.0073906397 0.05023066 -0.009323794 -0.04717656 0.01186992 -0.02214319
-0.02935711 -0.007447299 -0.029054025 0.044997755 -0.050418608 0.059706822 0.0077967704 -0.030851072
-0.036586042 0.045345735 -0.0019628631 -0.030704182 0.011445904 0.053684387 -0.018193003 -0.0035616283
-0.014241569 0.037567746 0.077480875 0.027129745 0.06888501 -0.01760521 0.01571205 0.061406113
0.03947632 0.062110756 0.06747213 0.032861955 -0.04050305 -0.020658456 -0.054000396 0.034068823
-0.058361564 -0.06492219 -0.0522686 -0.040230434 0.041383397 0.030255174 0.06029342 -0.042032186
0.03715977 0.011902692 0.036105454 -0.041571584 -0.056595735 -0.027036501 -0.048659295 0.07712753
-0.057075955 -0.0065299263 0.028306605 -0.006227228 0.021771902 -0.03098764 -0.09736156 -0.012955304
0.061535954 -0.042306457 0.0075382474 0.0046096104 0.049912393 -0.023502521 0.016846774 -0.004290546
-0.0047372924 0.014904132 -0.00811056 -0.04142187 -0.0750122 -0.006130045 -0.032582525 -0.043154553
-0.025682643 -0.020340068 -0.033050388 0.019701313 0.023409138 0.0433363 -0.06396939 -0.007969392
0.060839128 0.00088770257 -0.024844624 0.042304657 0.050973732 0.0076623815 0.0030297178 -0.032428544
0.04623048 0.01493842 -0.021317983 0.06912448 0.0035951198 0.028677007 0.034352735 0.044734012
0.03785063 0.042100646 -0.027969748 0.028381897 -0.032847386 0.046185773 0.017130112 0.012151987
-0.061482124 -0.0603907 -0.02521636 -0.030866565 -0.00511794 0.038328227 0.07184414 -0.033716746
-0.069211684 -0.010854766 -0.007218148 0.008244751 -0.011286237 0.0021631194 0.03406221 -0.012003903
-0.027546734 0.059216987 0.041642588 0.035740793 -0.02111743 -0.042655632 -0.036858518 0.02165124
00000000: 1f00 9a3d 1dd3 a6bd f8b1 a2bd 7181 a1bd
00000010: 1167 85bd edf1 b5bd 435f 60bd 9f3f 313c
00000020: ed0e 423d 9332 9bbd 644a 823d eb31 2bbc
00000030: d78f 7cbc 6535 6dbd a914 ca3c b19a 663d
00000040: 26de 61bd 161a 453d 39d4 1dbd efb7 33bd
00000050: 7d12 883d 1fa2 253d 0bc5 54bd 49b9 c33c
00000060: be3f 54bd 6289 253d f56d 813d d222 943d
00000070: 41ba 963c 89b0 bfbb 6b09 ac3d 6356 5ebd
00000080: e7d1 27bd 9d35 783d 99d3 f5bc 0297 0d3c
00000090: 3c02 bfbc c64d 23bc a9e2 f239 7f11 99bb
000000a0: d53e 753d 8435 19bd fae5 41bd 95a6 4e3d
000000b0: e6c3 a23c c5a7 c53d ff82 3d3b 7857 013c
000000c0: 94fa 4e3d 7d4a b1bb 0692 303c 0c86 fd3c
000000d0: f024 82bd 7939 2bbd 4252 d63c b02a b7bc
000000e0: 9c0f 4fbd 34a8 00bd 1790 443d 90c4 293c
000000f0: 3be4 bc3c d7ba 063d 212f 713d 8719 0ab9
00000100: b702 3fbd 96c0 923d 2293 143c bc7c 2cbd
00000110: cdd3 3fbd 4a50 2e3d ab16 a43c 4f8d 5e3d
00000120: 0bb4 25bd 27cc 0a3d aa3b 5f3d b467 e53c
00000130: afe7 abbc c747 b83c 6f6d b8bc 4d2b 76bd
00000140: 8902 973c 4ab8 acbc 9b66 033d ff6e 663d
00000150: d02b 3b3c a22f a3bc c035 8f3d 6c54 f9bc
00000160: e9f2 92bd 2d4f 373d 996b 26bc 9b93 b4bc
00000170: 30bd 353d d0a1 313d ddc8 88bd d16e 83bd
00000180: d342 69bd c8f6 c2bc 8e17 24bd 8de3 4bbd
00000190: 87e1 8cbd 9b68 d1bd 9856 883d e5ae 3f3b
000001a0: 5fc5 07bc 57e9 48bd 2339 d63c abef 14bd
000001b0: 27e0 b7bc bcfa efbc 2910 4b3d 9d10 dc3c
000001c0: 71d9 04bd 2968 7cbc fff4 623c 7a40 c23c
000001d0: 846b ac3c aedd 723d f698 2b3d 43a4 723c
000001e0: 20cf 48bd a88e 67bd 2e2d f2bb aabe 4d3d
000001f0: d4c2 18bc 353c 41bd 0e7a 423c a365 b5bc
00000200: 527e f0bc 7908 f4bb b502 eebc 914f 383d
00000210: be83 4ebd 248f 743d 0d7c ff3b 63bb fcbc
00000220: 3fdb 15bd 73bc 393d 61a3 00bb 5687 fbbc
00000230: 9a87 3b3c 29e4 5b3d 7e09 95bc 356a 69bb
00000240: 7855 69bc a3e0 193d 4bae 9e3d 333f de3c
00000250: 9613 8d3d cd38 90bc 8fb6 803c fa84 7b3d
00000260: ecb1 213d d967 7e3d d42e 8a3d 429a 063d
00000270: 87e6 25bd ec3b a9bc 852f 5dbd c08b 0b3d
00000280: 890c 6fbd edf5 84bd 9917 56bd abc8 24bd
00000290: a381 293d b3d9 f73c 3cf6 763d f129 2cbd
000002a0: d834 183d 8203 433c 50e3 133d f746 2abd
000002b0: eed0 67bd a77b ddbc f84e 47bd 0af5 9d3d
000002c0: 7ac8 69bd fef8 d5bb 41e3 e73c c60d ccbb
000002d0: fd5a b23c cbd9 fdbc 7f65 c7bd 7c42 54bc
000002e0: 200d 7c3d 8949 2dbd 6703 f73b 370c 973b
000002f0: f070 4c3d 5c88 c0bc 3f02 8a3c b597 8cbb
00000300: 4a3b 9bbb 7630 743c 27e2 04bc fba9 29bd
00000310: ff9f 99bd 8bde c8bb 4175 05bd d4c2 30bd
00000320: 6864 d2bc 37a0 a6bc d85f 07bd a664 a13c
00000330: 85c4 bf3c 6781 313d 6202 83bd 0e92 02bc
00000340: 7332 793d b6b4 683a f486 cbbc a647 2d3d
00000350: d5c9 503d b714 fb3b 3b8e 463b cbd3 04bd
00000360: 2c5c 3d3d 46c0 743c 0da3 aebc 2391 8d3d
00000370: 1a9c 6b3b 0bec ea3c 74b5 0c3d 033b 373d
00000380: 4309 1b3d ba71 2c3d d020 e5bc 2781 e83c
00000390: fb8a 06bd 4b2d 3d3d 7354 8c3c 2119 473c
000003a0: aed4 7bbd 3d5c 77bd 8a92 cebc e1db fcbc
000003b0: 64b4 a7bb 0ffe 1c3d 0523 933d 921a 0abd
000003c0: dbbe 8dbd 30d8 31bc 3786 ecbb fe14 073c
000003d0: e9e9 38bc 1fc3 0d3b d184 0b3d 05ac 44bc
000003e0: b0a9 e1bc 838d 723d 6b91 2a3d f064 123d
000003f0: 76fe acbc acb7 2ebd f5f8 16bd f15d b13c

bias f4 [64]
0.08278161 0.0533507 0.07537002 0.09121723 0.03773278 0.05364461 0.061844286 0.03825466
0.06621707 0.08692534 0.057978828 0.044725154 0.074989356 0.10891117 0.037989903 0.10105077
0.08722565 0.07326926 0.06106336 0.053369757 0.07959852 0.08530384 0.08008383 0.07649403
0.06527981 0.06609087 0.091147885 0.09663688 0.049903758 0.10629593 0.07607646 0.06991552
0.09769815 0.07556498 0.075993106 0.10182205 0.057406086 0.098190315 0.03720391 0.09271261
0.06753122 0.09494728 0.09048911 0.046648003 0.084855124 0.07074206 0.060432065 0.06754339
0.06388417 0.09854097 0.089340135 0.05969965 0.045970313 0.07336922 -0.007866135 0.05805921
0.05501345 0.07203602 0.027861914 0.069221154 0.11649193 0.086428836 0.059168346 0.09326243
00000000: 6889 a93d 4386 5a3d 995b 9a3d 19d0 ba3d
00000010: b08d 1a3d 73ba 5b3d 6f50 7d3d ebb0 1c3d
00000020: d19c 873d ea05 b23d 357b 6d3d b931 373d
00000030: 0594 993d d20c df3d 4d9b 1b3d b5f3 ce3d
00000040: 5da3 b23d 320e 963d 931d 7a3d 3f9a 5a3d
00000050: 8d04 a33d c8b3 ae3d fe02 a43d e7a8 9c3d
00000060: 6cb1 853d a65a 873d beab ba3d 8ee9 c53d
00000070: e267 4c3d aeb1 d93d facd 9b3d de2f 8f3d
00000080: f815 c83d d0c1 9a3d 46a2 9b3d 1488 d03d
00000090: a522 6b3d 0118 c93d 2163 183d 1ce0 bd3d
000000a0: cf4d 8a3d b873 c23d 5b52 b93d fa11 3f3d
000000b0: 86c8 ad3d 37e1 903d 9d87 773d 3054 8a3d
000000c0: b4d5 823d d9cf c93d f6f7 b63d 9f87 743d
000000d0: 5e4b 3c3d 9a42 963d f6e0 00bc 7fcf 6d3d
000000e0: c955 613d 9f87 933d ab3e e43c d2c3 8d3d
000000f0: 5293 ee3d 9a01 b13d 825a 723d 5f00 bf3d

weight f4 [64, 64]
-0.019559124 -0.081963815 -0.025524046 -0.10797463 -0.049717978 -0.042431932 0.012217519 -0.13121691
-0.11626368 0.0857584 -0.09692151 -0.13046406 0.058739144 0.096318625 -0.03839273 -0.06908143
-0.14406534 -0.080267936 -0.036401674 0.011192667 -0.10951914 0.10314598 0.03942856 0.0012974432
0.016196936 0.058831323 0.027035188 0.07290883 0.080879994 0.06722966 -0.12605126 -0.00855797
-0.06314224 -0.06715204 -0.00301973 -0.021245051 0.03527495 -0.075886555 0.10787685 -0.056485105
-0.10387984 -0.07865099 0.038061988 -0.01595867 0.07984579 -0.021364663 0.03895986 -0.097166024
-0.021027941 0.05393548 -0.124691464 -0.035721675 -0.03352894 -0.007617697 -0.09456809 0.10051177
0.0019768178 0.0077187293 -0.10792933 -0.011294278 -0.0659278 -0.11503382 -0.11862015 -0.011132525
0.02456392 0.18185793 0.16171832 0.13349348 0.097288586 0.17711389 0.072104596 0.13491863
0.01504208 0.07153778 0.19380565 0.07544491 0.021016989 0.0733775 0.047620125 0.2015466
0.20413606 0.14290445 0.20472366 0.040798705 -0.03505508 -0.033615693 0.19136557 0.20284048
0.17742716 0.036701098 0.16358595 -0.04013481 0.18903331 0.16433416 0.16410404 -0.017379656
0.20647903 0.1379286 0.03110966 0.030470377 0.1325857 0.0953894 0.16011478 0.091482095
0.104042694 -0.013134666 0.15545918 0.17104629 0.1284678 0.027680004 -0.0013064519 0.092069864
0.1243701 0.035438504 0.15596978 -0.018544376 0.2026645 -0.011101283 0.27846187 0.1112863
0.095036514 0.19195633 0.0092011755 0.16250089 0.005320962 0.07826935 -0.0012078513 0.18397221
0.17594178 0.18325965 -0.019681823 0.07327985 0.15848573 0.136191 0.1956995 0.122590855
0.074256726 0.001260578 -0.015449548 0.08303665 0.17926256 0.19549723 0.10313537 0.023677737
0.13407381 0.03773787 0.13387577 0.09744001 -0.007643052 0.12365569 0.18403605 0.086465605
-0.019214043 -0.034065608 0.16415238 0.11399832 0.14736667 -0.044123866 0.13201225 0.081553474
0.15601611 0.16113938 0.04595211 0.12565325 0.12723877 0.13555916 0.13552485 0.06649685
0.0025279913 0.18224391 0.13334344 0.04273077 0.020520113 0.16168329 0.052035607 -0.0031424463
-0.035141904 0.091657914 0.13762258 0.078564115 0.06537152 0.0017078377 0.11140069 0.053692553
0.055340115 0.006907225 0.06327417 0.16729076 0.18348572 0.054075737 -0.0064817294 0.170656
-0.033006664 -0.13235854 0.030301744 -0.12728268 0.07376121 0.030767426 -0.043661196 -0.034901466
0.05605214 0.08077545 0.017927844 -0.11211977 -0.019665621 -0.017103735 -0.034368865 0.064795434
-0.1340642 -0.0725526 -0.0814529 -0.055671334 -0.061301902 0.051775526 -0.018541737 0.004883682
-0.1421542 -0.05473502 0.0716733 0.11005736 -0.0756986 -0.080093734 -0.046053044 0.06486161
-0.046175938 0.076486826 0.03970237 -0.05437366 -0.14630602 -0.116894096 -0.039408702 0.11027646
0.047992762 -0.12630065 0.09130946 0.04641383 -0.009503114 -0.140104 -0.015938483 0.0681917
-0.09897048 0.05739269 -0.095657066 -0.05087962 -0.0673312 0.04327603 0.039974358 0.05792696
0.05855884 -0.0008246803 0.046105877 0.0033560013 -0.0019813883 0.012109503 -0.04712013 0.06529543
00000000: 753a a0bc a5dc a7bd ce17 d1bc ce21 ddbd
00000010: 14a5 4bbd 1bcd 2dbd fd2b 483c ba5d 06be
00000020: a71b eebd 1aa2 af3d c97e c6bd 5f98 05be
00000030: 7598 703d b342 c53d b241 1dbd 917a 8dbd
00000040: dd85 13be 8463 a4bd ec19 15bd 7361 373c
00000050: 924b e0bd 333e d33d d77f 213d f80e aa3a
00000060: 70af 843c 1df9 703d e678 dd3c 3a51 953d
00000070: 69a4 a53d b4af 893d 9513 01be ba36 0cbc
00000080: b850 81bd 0287 89bd aae6 45bb 1a0a aebc
00000090: 777c 103d 696a 9bbd 8aee dc3d ed5c 67bd
000000a0: f4be d4bd c513 a1bd e3e6 1b3d c2bb 82bc
000000b0: 3186 a33d f204 afbc 6094 1f3d fbfe c6bd
000000c0: ca42 acbc 73eb 5c3d 3d5e ffbd e450 12bd
000000d0: a455 09bd e09d f9bb eaac c1bd 1dd9 cd3d
000000e0: 808d 013b 65ed fc3b 0d0a ddbd a30b 39bc
000000f0: 2805 87bd da96 ebbd 1fef f2bd 3265 36bc
00000100: 463a c93c f738 3a3e 7d99 253e 84b2 083e
00000110: 3d3f c73d 585d 353e 93ab 933d 1c28 0a3e
00000120: 0e73 763c 6682 923d fd74 463e dc82 9a3d
00000130: d22b ac3c f146 963d 520d 433d 3b62 4e3e
00000140: 0b09 513e 8b55 123e 14a3 513e 8b1c 273d
00000150: ea95 0fbd 9cb0 09bd 56f5 433e 6ab5 4f3e
00000160: 77af 353e e453 163d 1383 273e 6664 24bd
00000170: f391 413e 3747 283e e40a 283e c85f 8ebc
00000180: 3d6f 533e 283d 0d3e b0d9 fe3c 039d f93c
00000190: 8cc4 073e 855b c33d 21f5 233e f75a bb3d
000001a0: 5614 d53d c832 57bc b130 1f3e c226 2f3e
000001b0: 108d 033e 2dc1 e23c 403d abba 208f bc3d
000001c0: c0b5 fe3d f727 113d 8bb6 1f3e 60ea 97bc
000001d0: 4887 4f3e 28e2 35bc 8e92 8e3e 12ea e33d
000001e0: 81a2 c23d 3390 443e 87c0 163c a266 263e
000001f0: 775b ae3b ae4b a03d c450 9eba 3663 3c3e
00000200: 152a 343e 6ba8 3b3e c63b a1bc bf13 963d
00000210: 154a 223e a775 0b3e 7365 483e ea10 fb3d
00000220: e913 983d fb39 a53a 1a20 7dbc 1f0f aa3d
00000230: 9b90 373e 6d30 483e a338 d33d d0f7 c13c
00000240: a54a 093e 0693 1a3d bb16 093e a18e c73d
00000250: 9172 fabb 323f fd3d f273 3c3e e114 b13d
00000260: c566 9dbc 6188 0bbd 9017 283e f477 e93d
00000270: 4ae7 163e 3abb 34bd 382e 073e 8205 a73d
00000280: b0c2 1f3e b901 253e 4838 3c3d 3fab 003e
00000290: e14a 023e 05d0 0a3e 07c7 0a3e 802f 883d
000002a0: a8ac 253b 269e 3a3e 2f8b 083e 7606 2f3d
000002b0: cc19 a83c 4e90 253e 4a23 553d 80f1 4dbb
000002c0: f5f0 0fbd 25b7 bb3d efec 0c3e 39e6 a03d
000002d0: 81e1 853d 86d9 df3a 0c26 e43d b9ec 5b3d
000002e0: 51ac 623d 0156 e23b e395 813d 454e 2b3e
000002f0: aee3 3b3e 857e 5d3d b064 d4bb 72c0 2e3e
00000300: ff31 07bd ff88 07be 5d3b f83c 6456 02be
00000310: 1e10 973d f80b fc3c 15d6 32bd d7f4 0ebd
00000320: ee96 653d 996d a53d 6add 923c 0d9f e5bd
00000330: cc19 a1bc 221d 8cbc 5ec6 0cbd 78b3 843d
00000340: 2048 09be 7596 94bd c7d0 a6bd a007 64bd
00000350: b417 7bbd 9312 543d d7e4 97bc 4b07 a03b
00000360: df90 11be d431 60bd 73c9 923d c165 e13d
00000370: de07 9bbd 2f08 a4bd 1ea2 3cbd 2ad6 843d
00000380: fb22 3dbd 20a5 9c3d f49e 223d eab6 5ebd
00000390: 3fd1 15be 2c66 efbd 056b 21bd a0d8 e13d
000003a0: 0f94 443d f554 01be 7400 bb3d 6e1c 3e3d
000003b0: f3b2 1bbc 6c77 0fbe 6c91 82bc 17a8 8b3d
000003c0: 09b1 cabd 9914 6b3d dae7 c3bd 2667 50bd
000003d0: f1e4 89bd 3542 313d 27bc 233d d244 6d3d
000003e0: 65db 6f3d 5c2f 58ba 84d9 3c3d 5cf0 5b3b
000003f0: 2eda 01bb f066 463c 0a01 41bd 9cb9 853d

bias f4 [64]
-0.081031054 -0.040944878 -0.041612394 -0.09479666 0.063050754 0.11939938 0.08397165 0.09335012
-0.024069063 0.13463655 0.1003992 -0.081464425 0.14716515 0.05875987 0.099069126 -0.10446171
0.0017807875 0.028029522 0.103606746 0.023001615 0.038163576 0.004019534 0.124246396 0.08472231
-0.0622085 0.04330422 0.14073312 0.10106008 -0.024414444 0.06606551 -0.022175059 0.05145599
0.18216117 -0.0036801249 0.13510111 0.035686508 0.059309702 -0.20968242 0.09413004 -0.14064558
0.10245547 -0.033102773 0.12912038 0.014918652 0.0989917 -0.011925506 -0.24421857 -0.014066679
0.11549107 -0.035551626 0.14565358 0.07832858 0.08183015 -0.0018343518 -0.0641386 -0.16338062
0.098785564 0.08330045 -0.12762305 0.10226139 0.023776205 0.026654761 0.11665708 0.08318673
00000000: 9cf3 a5bd d1b5 27bd c271 2abd c024 c2bd
00000010: c120 813d aa87 f43d 54f9 ab3d 592e bf3d
00000020: 7c2c c5bc 2ade 093e 199e cd3d d2d6 a6bd
00000030: 76b2 163e 30ae 703d c1e4 ca3d 05f0 d5bd
00000040: 5069 e93a 2b9e e53c c62f d43d e26d bc3c
00000050: 6951 1c3d 4cb6 833b e574 fe3d e482 ad3d
00000060: 57ce 7ebd c45f 313d 581c 103e 96f8 ce3d
00000070: cd00 c8bc 5b4d 873d 78a8 b5bc 84c3 523d
00000080: 7588 3a3e 402e 71bb f257 0a3e 042c 123d
00000090: bbee 723d fdb6 56be 40c7 c03d 6505 10be
000000a0: 2cd4 d13d c696 07bd 2238 043e 5d6d 743c
000000b0: 29bc ca3d 3363 43bc 6f14 7abe ee77 66bc
000000c0: 9586 ec3d 959e 11bd 3626 153e bc6a a03d
000000d0: 9196 a73d a26e f0ba 195b 83bd 404d 27be
000000e0: 1650 ca3d 6d99 aa3d 9eaf 02be 6b6e d13d
000000f0: 51c6 c23c 165b da3c e8e9 ee3d ce5d aa3d

weight f4 [1, 64]
-0.08288814 0.11927643 0.19276564 -0.046259098 0.11618211 0.0899202 0.13273895 -0.06918668
-0.11693504 0.1617876 0.17287803 -0.103280544 0.07350341 0.11857978 -0.081132255 -0.17081204
0.16982895 0.13172211 0.07873267 0.21532974 -0.070836134 -0.110774785 0.04009381 -0.0047703525
-0.0519731 -0.018930033 0.12592368 -0.092430614 -0.11030376 -0.048560046 0.1201549 -0.02044303
0.07597148 0.14071211 0.12458845 -0.053752974 -0.034290154 -0.3820856 0.00061164785 -0.019561224
0.15873148 0.1921113 0.15056029 -0.022981148 0.11179941 0.09324484 -0.3483628 -0.012781253
0.1863456 -0.14030163 0.13806865 -0.022979219 -0.0004990565 -0.070113495 -0.22618762 -0.2152521
0.15075846 0.1361554 -0.06710553 0.15576506 0.10889767 0.18633157 0.086373895 0.12148727
00000000: 42c1 a9bd 3347 f43d 5b64 453e 2e7a 3dbd
00000010: e3f0 ed3d 1528 b83d b8ec 073e bfb1 8dbd
00000020: a37b efbd a6ab 253e f006 313e c084 d3bd
00000030: f588 963d f5d9 f23d ab28 a6bd 5ae9 2ebe
00000040: a4e7 2d3e 29e2 063e 983e a13d 667f 5c3e
00000050: 8912 91bd e4dd e2bd 6839 243d 9e50 9cbb
00000060: bfe1 54bd 2813 9bbc 23f2 003e 434c bdbd
00000070: f0e6 e1bd e6e6 46bd c613 f63d 2478 a7bc
00000080: ef96 9b3d d616 103e 3b28 ff3d 142c 5cbd
00000090: d573 0cbd b9a0 c3be fe56 203a dc3e a0bc
000000a0: 818a 223e d3b8 443e 7a2c 1a3e f642 bcbc
000000b0: 17f7 e43d 27f7 be3d 9c5c b2be 7668 51bc
000000c0: 62d1 3e3e 3bab 0fbe de61 0d3e ea3e bcbc
000000d0: 1dd3 02ba aa97 8fbd ba9d 67be 0c6b 5cbe
000000e0: 6d60 1a3e 526c 0b3e a06e 89bd e080 1f3e
000000f0: be05 df3d b4cd 3e3e cce4 b03d 51ce f83d
