src/Fun_2/model/model_512_64_64_0.01_200.pt (torch, 309407 bytes, 5 tensors)

weight f4 [64, 1128]
0	0xbe0800eb	-0.132816
1	0xbdfb57e7	-0.122726254
2	0x3dc15a4d	0.09441052
3	0xbe5398ae	-0.20663711
4	0x3e0444f9	0.12916936
5	0x3e01331e	0.12617156
6	0x3d56e181	0.05246115
7	0x3e45c443	0.19313149
8	0xbe08726f	-0.13324903
9	0xbe06f3e0	-0.13178968
10	0xb98d6f37	-0.00026976477
11	0x3c828a2a	0.015935022
12	0x3ded68bd	0.11592243
13	0xbd4ce0f6	-0.050019227
14	0x3e9f30a7	0.31091806
15	0xbe77a164	-0.2418266
16	0xbdd2279e	-0.10261463
17	0xbe35c9df	-0.17752789
18	0xbe21a735	-0.1578644
19	0xbe289bd7	-0.16465698
20	0xbdd0de1e	-0.101986155
21	0x3de4a96f	0.111651294
22	0xbe1e22d7	-0.15442978
23	0xbe1ca10d	-0.15295811
24	0x3d8c2fde	0.068450674
25	0x3e05c18b	0.13062112
26	0xbdd02a32	-0.10164298
27	0xbe84bf53	-0.2592722
28	0x3bb78848	0.005600963
29	0x3df350a8	0.11880618
30	0x3da9dba9	0.0829385
31	0xbdcb5a46	-0.09929328
32	0x3e044402	0.12916568
33	0xbcb1a113	-0.021683251
34	0x3e1bfbe0	0.15232801
35	0xbd89a563	-0.06720998
36	0xbddec4ac	-0.10877356
37	0x3d5ad15c	0.053422317
38	0xbcbad8af	-0.0228084
39	0xbda45889	-0.08024699
40	0xbdc1180f	-0.09428417
41	0xbcb5844a	-0.022157807
42	0x3ca5bec6	0.02023257
43	0xbdad72f4	-0.08469191
44	0xbe65e372	-0.22450045
45	0x3e06dab6	0.13169369
46	0x3ec0468a	0.37553817
47	0x3de6779c	0.112532824
48	0xbe0e7ee3	-0.13915591
49	0x3db1b899	0.08677787
50	0xbd71bd4d	-0.059018422
51	0xbd8a597d	-0.0675535
52	0x3e39ef87	0.18157779
53	0x3d7e2980	0.062051296
54	0xbdc47e9d	-0.09594462
55	0x3dc329e6	0.09529476
56	0xbdafcf4c	-0.085844606
57	0x3dc2003e	0.094727024
58	0xbe848baf	-0.2588782
59	0x3ede786a	0.43451244
60	0xbdede22d	-0.11615405
61	0x3cf1922d	0.029488647
62	0x3cec0cbb	0.028814664
63	0xbcb2b9ff	-0.021817205
64	0xbe5f0702	-0.21780017
65	0x3d01d546	0.031697534
66	0x3e1cc69a	0.15310135
67	0xbdd8440e	-0.105598554
68	0x3e8076a7	0.25090525
69	0x3da811c9	0.08206517
70	0xbeab5e76	-0.33470505
71	0xbe3710d6	-0.17877516
72	0xbe5ef192	-0.2177184
73	0xbc823300	-0.01589346
74	0x3e24b4b8	0.16084564
75	0x3e9fd585	0.3121759
76	0xbe0f7b65	-0.14011915
77	0x3dea8913	0.11451926
78	0x3cfe707b	0.031059494
79	0xbdc9e6e9	-0.09858496
80	0xbc7f77f3	-0.015592563
81	0xbd92f47c	-0.07175538
82	0xbbce534e	-0.006296552
83	0xbd3d7c18	-0.046260923
84	0xbd79b8fc	-0.06096743
85	0xbb2ebfd7	-0.0026664638
86	0xbc751bca	-0.014960239
87	0xbe182a9c	-0.14860004
88	0x3e0a919f	0.13532113
89	0xbd0d81fd	-0.034547795
90	0xbd5fe621	-0.054662827
91	0xbe916cf7	-0.28403446
92	0xbd8b786f	-0.0681008
93	0xbe04dc5f	-0.1297469
94	0x3e5ea08f	0.21740936
95	0xbe2f4a5c	-0.1711821
96	0x3de7593b	0.11296316
97	0x3d745b08	0.059657127
98	0x3d872c33	0.06600227
99	0x3b9cb7e8	0.0047826655
100	0xbe0cfae9	-0.1376759
101	0xbe04e980	-0.12979698
102	0x3e72cb35	0.2371033
103	0x3db2e9ae	0.08735977
104	0xbe04532f	-0.12922357
105	0xbd4e634e	-0.050387673
106	0xbdb9f9fe	-0.09080885
107	0xbc2c9840	-0.010534346
108	0xbda4b7db	-0.0804288
109	0x3db570ed	0.088594295
110	0x3e8910c3	0.267706
111	0xbe0ef746	-0.13961515
112	0xbd04e2be	-0.0324428
113	0x3d513ec6	0.051085256
114	0x3c3623fb	0.011116977
115	0xbdffd71d	-0.124922015
116	0x3d85dc09	0.06536109
117	0x3e87b06d	0.2650179
118	0x3e3cb140	0.1842699
119	0xbe3c8b50	-0.18412519
120	0x3ddd5131	0.10806502
121	0xbd0f419a	-0.034974672
122	0xbdba8bd4	-0.09108701
123	0xbe897c28	-0.26852536
124	0x3e783632	0.24239424
125	0xbdeb161f	-0.11478829
126	0x3c17095a	0.009218538
127	0xbcffb0bd	-0.031212205
128	0x390ba2cd	0.00013316721
129	0x3e066baa	0.13127008
130	0x3e295c4b	0.16539113
131	0x3d8dbc47	0.06920677
132	0x3de3a7e3	0.11116006
133	0x3dba8422	0.091072336
134	0x3da7da7a	0.08195968
135	0x3e41e436	0.18934712
136	0xbca7d686	-0.020488035
137	0xbcd1622d	-0.02555951
138	0xbe393fe3	-0.18090777
139	0x3b24756b	0.00250944
140	0xbcd7f6e5	-0.026362846
141	0x3af1e983	0.0018456433
142	0x3d9e2195	0.07721249
143	0xbe02706a	-0.12738195
144	0x3bbb3088	0.0057125725
145	0xbdac92b0	-0.08426416
146	0xbceff660	-0.029292285
147	0xbddcc5b3	-0.10779896
148	0x3e6d51b5	0.231757
149	0xbcfeb23e	-0.031090852
150	0xbd898370	-0.06714523
151	0xbda3ae6e	-0.07992254
152	0x3e1b224c	0.15149802
153	0x3e6a2686	0.22866258
154	0x3de9b2c2	0.114110485
155	0x3e18ddc2	0.14928344
156	0x3d80a222	0.062809244
157	0x3d303847	0.04302242
158	0xbdc12e35	-0.094326414
159	0x3e3f5103	0.18683247
160	0xbc6dfd46	-0.014525717
161	0x3e296b1c	0.16544765
162	0xbd0b2923	-0.033974778
163	0xbda30154	-0.07959238
164	0xbde0a21b	-0.10968419
165	0xbe053e03	-0.13011937
166	0x3d483fa5	0.04888882
167	0xbe4bc936	-0.19900975
168	0xbd98c1fe	-0.07458876
169	0xbd5e188d	-0.054222632
170	0xbd6199e4	-0.055078402
171	0x3e134165	0.14380415
172	0xbe2497c9	-0.16073526
173	0xbd620bc3	-0.055186998
174	0xbdd8cc95	-0.10585896
175	0x3e20897c	0.15677446
176	0xbe296026	-0.16540584
177	0x3daa3cf4	0.08312407
178	0xbc8d97dc	-0.017284326
179	0xbd8e4534	-0.06946793
180	0xbce7d014	-0.028297462
181	0x3d07a8fa	0.033120133
182	0xbc9c197f	-0.019055126
183	0xbd324c52	-0.043529816
184	0xbd76d186	-0.06025841
185	0x3e59193a	0.2120103
186	0xbda18d70	-0.07888305
187	0xbd545de3	-0.05184735
188	0x3dac0bca	0.08400686
189	0xbbe160ca	-0.0068779932
190	0x3db1d33b	0.08682867
191	0xbdf4380b	-0.11924752
192	0xbe1c7fc4	-0.15283114
193	0x3da2eda4	0.079554826
194	0x3e56f42f	0.20991586
195	0xbae9ecbf	-0.0017847045
196	0x3cbda8b5	0.023151735
197	0xbdbd0b6e	-0.09230696
198	0xbd1c7234	-0.03819485
199	0xbea36764	-0.31914818
200	0xbe0f1dc2	-0.13976195
201	0xbd2e6522	-0.042576917
202	0xbd9ee4b5	-0.07758466
203	0xbe5a040e	-0.21290609
204	0x3db7eb9c	0.08980486
205	0xbe0d7615	-0.13814576
206	0xbddd1b22	-0.10796191
207	0x3db3dbe2	0.08782174
208	0x3d5922a0	0.053011537
209	0xbdb3dc19	-0.08782215
210	0x3d8aa03f	0.06768846
211	0x3e8b9add	0.2726659
212	0x3e3d6a33	0.18497543
213	0xbe14dd4f	-0.14537548
214	0x3e891cc3	0.26779756
215	0xbb4ce61f	-0.0031265093
216	0xbc850b7c	-0.016240828
217	0xbde1acd9	-0.11019296
218	0xbd60a817	-0.054847803
219	0x3d7f3cbd	0.062313784
220	0xbd0fee57	-0.035139408
221	0xbd83d69c	-0.06437418
222	0x3e5d8650	0.21633267
223	0x3d64e1dd	0.055879463
224	0x3db701d4	0.089358956
225	0x3ccd7e1e	0.025084551
226	0x3e9cce3c	0.30626094
227	0xbcc6be30	-0.02426061
228	0x3d4836c4	0.048880354
229	0x3e038d83	0.12846951
230	0x3d752cad	0.05985706
231	0xbe78299f	-0.24234627
232	0xbdd10dfc	-0.102077454
233	0xbd423f7d	-0.04742383
234	0x3d7248f4	0.059151605
235	0x3cc8adec	0.024496995
236	0xbd54d279	-0.051958535
237	0x3d2dd5cd	0.042440224
238	0xbd28c133	-0.041199874
239	0x3e2e1fd5	0.1700433
240	0x3dceba7b	0.10094162
241	0x3e24af7b	0.16082565
242	0xbe3bf4a0	-0.18355036
243	0x3dec4ab0	0.11537683
244	0xbc2fba30	-0.010725543
245	0x3d2f5e6f	0.04281467
246	0x3d73e3ff	0.059543606
247	0xbd8114bf	-0.06302785
248	0xbdf38478	-0.11890501
249	0xbe629c59	-0.22129954
250	0x3c521435	0.012822201
251	0x3e902e1d	0.28160182
252	0xbdd36f8b	-0.103240095
253	0x3d6e8720	0.058234334
254	0x3e243134	0.16034395
255	0xbd20ce69	-0.039259348

bias f4 [64]
0	0x3e15a184	0.14612395
1	0x3dd3e881	0.10347081
2	0x3d888ca8	0.06667453
3	0x3d695d7b	0.056973916
4	0x3e423256	0.18964514
5	0xbc32debb	-0.010917361
6	0x3dd9ae25	0.106289186
7	0x3c519434	0.012791682
8	0xbd55bcbc	-0.052181944
9	0x3e8871b4	0.2664925
10	0x3d9bbc76	0.076043054
11	0xbd9e72f8	-0.07736772
12	0x3d93c378	0.07215017
13	0x3ddf0db1	0.10891283
14	0x3d31b7e3	0.04338826
15	0x3de22df9	0.11043925
16	0x3cee631e	0.029099997
17	0x3e4a9937	0.1978501
18	0x3e110ee9	0.14165844
19	0x3b6ba5cb	0.0035956975
20	0xbd1e2a41	-0.038614515
21	0xbdf63299	-0.120213695
22	0x3e2714ec	0.16316575
23	0xbc20ba5b	-0.009810056
24	0x3e4e810a	0.20166412
25	0x3d0bfbcd	0.034175683
26	0xbd31b7ce	-0.04338818
27	0x3e40f778	0.18844402
28	0x3e78b07a	0.2428607
29	0x3e41b48a	0.18916526
30	0x3d4dd341	0.050250296
31	0x3e41ee3e	0.18938538
32	0x3e137e42	0.14403632
33	0x3e4770f1	0.19476677
34	0x3c4f89ac	0.012667101
35	0x3e401c31	0.18760754
36	0x3e54b87f	0.20773505
37	0x3e277041	0.16351415
38	0xbe04f5c4	-0.12984377
39	0x3e69d656	0.22835669
40	0xbde52845	-0.111893214
41	0x3e511a48	0.20420182
42	0x3e58c32c	0.21168202
43	0x3c762f82	0.015025975
44	0xbedecd59	-0.43516043
45	0x3df7edc3	0.12105896
46	0x3d129025	0.035782
47	0x3e62cb15	0.22147782
48	0xbd580fed	-0.052749563
49	0xbd24046e	-0.040043287
50	0x3e2ea397	0.17054592
51	0xbd9bcd8c	-0.07607564
52	0xbe382994	-0.17984611
53	0x3e5e9ec6	0.21740255
54	0x3e1e25c8	0.154441
55	0x3e41eb31	0.18937375
56	0x3e16f1bd	0.14740653
57	0x3e64884f	0.22317623
58	0x3e081eae	0.13292953
59	0x3d928edb	0.07156154
60	0x3e0286b7	0.12746702
61	0xbdc82041	-0.09771777
62	0x3e5cf2a6	0.21576938
63	0x3e4d53f1	0.20051552

weight f4 [64, 64]
0	0xbb948d62	-0.0045334557
1	0x3dcb9683	0.09940817
2	0xbcf0e4ae	-0.029405918
3	0x3dd836f8	0.105573595
4	0xbd8126cc	-0.06306228
5	0xbd6965ce	-0.056981854
6	0xbd7943ed	-0.060855795
7	0xbd20d622	-0.039266713
8	0xbd9e864a	-0.07740457
9	0x3d56da30	0.052454174
10	0x3d809565	0.06278495
11	0xbd82f281	-0.0639391
12	0xbc79376d	-0.015210968
13	0xbb4f76f8	-0.0031656604
14	0xbde273ad	-0.1105722
15	0x3dae468e	0.08509551
16	0x3dc36b65	0.09541968
17	0xbb9d4581	-0.0047995453
18	0x3c05efaf	0.008174821
19	0x3d3005a5	0.042974133
20	0x3daee91d	0.085405566
21	0xbda14b20	-0.07875657
22	0x3d7ffe02	0.0624981
23	0xbc505d51	-0.012717561
24	0x3d5e6ce2	0.054303057
25	0x3d0110f8	0.031510323
26	0xbd2870b8	-0.041123122
27	0x3d0cce5d	0.03437649
28	0x3d69b645	0.05705859
29	0x3cb19234	0.02167616
30	0x3d2344d5	0.039860565
31	0xbd546e3c	-0.05186294
32	0xbd54eaa6	-0.05198159
33	0xbe026c53	-0.12736635
34	0x3c08ffcc	0.008361768
35	0x3dafbc5e	0.0858085
36	0x3cbde29c	0.023179345
37	0x3dd1b04c	0.10238704
38	0xbd9bf586	-0.07615189
39	0xbdfe8ce2	-0.12429215
40	0xbde16e5c	-0.110073775
41	0x3df7cf7a	0.1210012
42	0x3d97cbd4	0.07411924
43	0x3dddec27	0.10836058
44	0xbd4f1755	-0.05055936
45	0xbd25525b	-0.040361743
46	0xbc05fa4a	-0.008177349
47	0xbd09c68c	-0.033636615
48	0x3ca74125	0.020416806
49	0x3cc4687d	0.023975605
50	0xbd930613	-0.07178893
51	0xbdf82523	-0.12116458
52	0xbd86cc8b	-0.06581982
53	0xbdbd312e	-0.09237896
54	0xbd593461	-0.053028468
55	0x3d8fcfc2	0.070220485
56	0x3de96520	0.11396241
57	0x3dcf8b00	0.10133934
58	0xbddb53a4	-0.107093126
59	0x3dcc7952	0.099840775
60	0xbbdd8a51	-0.0067608734
61	0xbd78a177	-0.06070086
62	0x3de6cc17	0.11269396
63	0xbdf34364	-0.11878088
64	0xbe3f6e7f	-0.18694495
65	0xbd7d7407	-0.06187823
66	0xbbc88a83	-0.0061200275
67	0xbe05b212	-0.1305621
68	0xbcb86eb6	-0.022513729
69	0xbe050750	-0.12991071
70	0xbe037d67	-0.12840806
71	0x3c7e38c0	0.01551646
72	0xbdd18965	-0.10231284
73	0xbe3f18f8	-0.18661869
74	0xbc8df713	-0.017329728
75	0xbe289181	-0.16461755
76	0xbe051de3	-0.12999682
77	0xbdb2cc92	-0.08730425
78	0xbe2abf27	-0.16674481
79	0x3beebe84	0.007285895
80	0x3d384fcb	0.04499797
81	0xbe2c8893	-0.16848974
82	0xbdcd6eab	-0.10030874
83	0xbd2501ab	-0.040284794
84	0xbdeda9a1	-0.1160462
85	0xbe27b5fd	-0.16378017
86	0xbd68d4c2	-0.056843527
87	0xbe368bed	-0.17826815
88	0xbdc5a38b	-0.09650334
89	0xbe2f5403	-0.17121892
90	0x3d62971b	0.055319887
91	0x3d5bf96f	0.053704675
92	0xbd6b63d2	-0.057468243
93	0xbdef9479	-0.11698241
94	0xbe26866e	-0.16262218
95	0xbdf7cb6c	-0.120993465
96	0x3c7ef3c7	0.015561051
97	0x3ca95f5b	0.020675352
98	0xbe048b23	-0.12943701
99	0xbd5d7d9e	-0.054074876
100	0x3d491b5f	0.04909837
101	0xbcbae28e	-0.022813108
102	0xbe36697a	-0.17813674
103	0xbe3cc7bc	-0.18435568
104	0x3c9e965c	0.019358806
105	0xbd69b5e7	-0.05705824
106	0xbe2ed8bf	-0.1707487
107	0xbdf4f415	-0.119606175
108	0xbe3100b1	-0.1728542
109	0xbdd4f786	-0.10398774
110	0x3d0e1597	0.03468856
111	0xbe1d1ab5	-0.15342219
112	0xbdb39636	-0.08768885
113	0xbb7af3aa	-0.0038292208
114	0xbe1567ac	-0.14590329
115	0xbdffa05a	-0.124817565
116	0xbd74eb25	-0.059794564
117	0xbe380952	-0.17972305
118	0xbe1b2dc0	-0.15154171
119	0xbd711a7a	-0.05886314
120	0xbd541f81	-0.051787857
121	0x3c91389b	0.017727187
122	0xbc812da3	-0.015768832
123	0xbd9a6b2f	-0.07539975
124	0xbafd0d04	-0.0019306247
125	0xbc833fa3	-0.016021555
126	0x3c4082c9	0.011749932
127	0x3a3a9c8f	0.0007118666
128	0xbe19d397	-0.15022121
129	0x3d3ad82c	0.045616314
130	0xbdc89ef9	-0.09795947
131	0xbe0d8d0d	-0.13823338
132	0x3d10a641	0.035314802
133	0xbd48b9d6	-0.049005352
134	0x3d592cae	0.053021125
135	0xbc2956f8	-0.010335676
136	0xbe044430	-0.12916636
137	0xbd025702	-0.03182126
138	0xbdf5d359	-0.12003202
139	0xbe365f88	-0.1780988
140	0xbd270fd0	-0.040786564
141	0x3c38f139	0.011287981
142	0xbdf653fc	-0.120277375
143	0xbd8c44b0	-0.068490386
144	0x3d071f02	0.032988556
145	0xbe32197a	-0.17392531
146	0x3d6bb4f8	0.057545632
147	0xbd2a929d	-0.041643728
148	0xbdba0a73	-0.09084024
149	0x3d1bccc9	0.038037095
150	0xbd85dc93	-0.06536212
151	0xbe3b3687	-0.1828252
152	0xbd35ef05	-0.0444174
153	0xbba8d389	-0.00515217
154	0x3cafb0cb	0.021446606
155	0xbdc61991	-0.09672845
156	0x3d52a5fc	0.051427826
157	0x3c66351e	0.01405075
158	0xbde9a51c	-0.11408445
159	0xbe3eaa24	-0.18619591
160	0xbdd275fd	-0.10276411
161	0xbe4f8ba6	-0.20268115
162	0x3d02e1fd	0.0319538
163	0xbe3d10b4	-0.18463403
164	0xbb83756d	-0.004011801
165	0x3cea0f4f	0.028571753
166	0x3c668a55	0.014071067
167	0xbda49214	-0.08035675
168	0x3d4d6211	0.05014235
169	0xbc92005a	-0.017822433
170	0xbe048edd	-0.12945123
171	0xbcad39e8	-0.021145776
172	0xbe065fbb	-0.13122456
173	0xbe14d4d6	-0.14534315
174	0xbd1e7dcc	-0.038694188
175	0xbd0148b8	-0.03156349
176	0xbc720f3b	-0.014774139
177	0xbe281670	-0.16414809
178	0x3d8c4d89	0.06850726
179	0xbc23a1d5	-0.009987314
180	0x3c17c57c	0.009263393
181	0xbd078d14	-0.033093527
182	0xbcf4491b	-0.029820016
183	0xbd9e737a	-0.07736869
184	0xbe1e69da	-0.15470067
185	0xbdd65b48	-0.10466629
186	0xbdab0cbb	-0.083520375
187	0xbd3dd187	-0.0463424
188	0xbe0b7b1b	-0.1362118
189	0xbe0d8913	-0.13821821
190	0xbd422d19	-0.04740629
191	0x3d573e5f	0.052549716
192	0x3e1f6d89	0.15569128
193	0xbaa672f4	-0.0012699054
194	0x3e1a5537	0.1507157
195	0x3d51de59	0.051237438
196	0xbc0c2888	-0.008554585
197	0xbd391fec	-0.04519646
198	0xbc2e5149	-0.010639497
199	0xba2cc249	-0.000659023
200	0xbcdd0269	-0.026978688
201	0xbd394de8	-0.045240313
202	0xbd778d7f	-0.060437676
203	0x3db2f7b3	0.08738651
204	0xbd275f50	-0.04086238
205	0x3dd3db84	0.10344604
206	0x3da9d9d7	0.08293503
207	0xbdb5b726	-0.088728234
208	0xbcfd7d17	-0.030943437
209	0x3d9ea8ba	0.07747026
210	0x3b98a1a2	0.00465794
211	0x3da9b145	0.082857646
212	0x3d8a3177	0.06747716
213	0xbd3ef796	-0.046622835
214	0x3d7ebaa1	0.062189702
215	0x3cd512c3	0.026009923
216	0x3da86ebf	0.08224248
217	0x3c5499af	0.012976094
218	0x3d9c531c	0.07633039
219	0xbd6fcb52	-0.05854351
220	0x3e023e97	0.12719189
221	0xbcf9811b	-0.03045707
222	0xbd54c311	-0.051943842
223	0xbbca8c5a	-0.006181282
224	0xbd78fd5e	-0.060788505
225	0x3d190eaf	0.03736752
226	0xbc1068d6	-0.008814057
227	0x3deb6ed3	0.114957474
228	0x3d933f34	0.071897894
229	0x3df4b9c2	0.11949493
230	0x3b3e379e	0.002902485
231	0x3d5d380f	0.05400854
232	0x3c73428d	0.01484741
233	0x3d66fe8a	0.05639509
234	0x3dc2e200	0.09515762
235	0x3da1f6db	0.07908412
236	0x3d01790e	0.031609587
237	0x3d82dea9	0.06390125
238	0x3df2a755	0.11848322
239	0x3dec9c53	0.11553254
240	0x3df29fa3	0.118468545
241	0x3bc10f6c	0.005891731
242	0xbcc82c10	-0.024435073
243	0xbc104843	-0.008806291
244	0x3e05fa45	0.13083751
245	0x3dabcaac	0.08388266
246	0x3dba7dd4	0.09106031
247	0x3dc36a50	0.09541762
248	0xbdb21b40	-0.08696604
249	0x3dabff91	0.08398355
250	0x3df8e1aa	0.12152417
251	0x3e08e48c	0.13368434
252	0x3e192876	0.14956841
253	0x3cf0e0a9	0.029404001
254	0x3ddd42af	0.108037345
255	0x3e190a0a	0.14945236

bias f4 [64]
0	0x3e5a2ba6	0.21305713
1	0xbd542912	-0.05179698
2	0xbe4a7d4a	-0.19774356
3	0x3ecd0881	0.4004555
4	0x3ebdb7e0	0.37054348
5	0xbd9b43fe	-0.07581328
6	0x3f1353f0	0.57549953
7	0xbdb4f54b	-0.088358484
8	0x3f0e3e19	0.55563504
9	0x3c6b7b32	0.014372634
10	0xba203d4d	-0.000611265
11	0xbdaef230	-0.08542287
12	0xbd8356ec	-0.064130634
13	0x3e648ce4	0.2231937
14	0x3e8aa087	0.27075598
15	0xbe332ebc	-0.17498296
16	0x3f0519d9	0.51992565
17	0xbe21ea11	-0.15811945
18	0xbd1e399a	-0.038629152
19	0xbe4e3e80	-0.2014103
20	0x3eee61b8	0.46558928
21	0xbdad318f	-0.08456718
22	0x3ef42b28	0.47689176
23	0x3f08812c	0.533221
24	0xbcdd9b42	-0.027051572
25	0xbe064929	-0.13113846
26	0xbe04c9db	-0.12967627
27	0xbde5fa17	-0.112293415
28	0xbe0bcd0d	-0.1365244
29	0xbe0f7621	-0.14009906
30	0xbd29ff03	-0.041502964
31	0x3f0fcb25	0.5616935
32	0xbdb7599f	-0.08952641
33	0x3e520be1	0.20512344
34	0x3eae5cbc	0.34055126
35	0x3f1f7fef	0.62304586
36	0xbde6984f	-0.11259519
37	0xbd3cf799	-0.046134565
38	0xbe37a27d	-0.17933078
39	0xbdf3da02	-0.11906816
40	0xbcf7142a	-0.030160982
41	0x3ed67103	0.41883096
42	0x3baa790b	0.0052024177
43	0xbda1e49b	-0.07904931
44	0xbdbf0dd6	-0.09328811
45	0x3e56878e	0.20950148
46	0xbda10043	-0.07861378
47	0xbe205293	-0.156565
48	0x3f0fa438	0.5610995
49	0x3f057304	0.52128625
50	0x3ef16d1f	0.47153565
51	0x3f21e943	0.63246554
52	0x3f05ce09	0.5226751
53	0xbe7d14a1	-0.247149
54	0xbd126b1b	-0.035746675
55	0x3e2fc052	0.17163208
56	0xbdfeef87	-0.1244803
57	0x3ee8b603	0.45451364
58	0x3f24605e	0.64209545
59	0x3e253b95	0.1613601
60	0xbcaccb8b	-0.02109315
61	0x3f149403	0.5803835
62	0x3ed5cb9c	0.41756904
63	0xbe5ab60d	-0.2135851

weight f4 [1, 64]
0	0x3d855681	0.0651064
1	0xbccd2868	-0.025043681
2	0x3d5f663e	0.054540865
3	0x3e282a62	0.16422418
4	0x3d98b3ce	0.0745617
5	0x3d67dfe5	0.056610007
6	0x3e392a5b	0.18082564
7	0x3d5f935b	0.05458389
8	0x3e3818bc	0.17978185
9	0xbd9ac355	-0.07556788
10	0x3d00dd4f	0.031461056
11	0x3cc3af72	0.02388737
12	0x3d6f21e9	0.05838195
13	0x3d26cf10	0.040724814
14	0x3db1d46e	0.08683096
15	0xbcf6d3eb	-0.030130347
16	0x3e4682c6	0.19385824
17	0xbd5dccbf	-0.05415034
18	0xbd244033	-0.040100288
19	0x3d47d08a	0.048782863
20	0x3e1cc634	0.15309983
21	0xbd73b012	-0.059494086
22	0x3e094bdf	0.13407849
23	0x3e4ddcc2	0.20103744
24	0x3b0519e4	0.0020309621
25	0x3d55ff84	0.05224563
26	0xbcaab89b	-0.02083998
27	0x3ce38673	0.027774071
28	0x3b5d9d61	0.003381573
29	0xbd383b49	-0.044978414
30	0x3c781194	0.01514091
31	0x3df8e022	0.12152125
32	0x3c99690d	0.01872685
33	0x3d883cac	0.06652197
34	0x3e168c90	0.14702058
35	0x3e2073fd	0.15669246
36	0x3c06ae7f	0.008220314
37	0xbd445f49	-0.047942434
38	0xbc0ccde9	-0.008594015
39	0x3d7c6e0a	0.06162838
40	0x3afc7336	0.001926041
41	0x3e13abd9	0.14421023
42	0x3d092f4d	0.033492375
43	0xbc1a2172	-0.009407388
44	0x3c38fba2	0.011290463
45	0x3d8b8d55	0.06814066
46	0xbcfeb971	-0.031094285
47	0xbe5cf8b7	-0.21579252
48	0x3e12f208	0.1435014
49	0x3e211bd2	0.15733269
50	0x3e2e39d8	0.17014253
51	0x3e1a5439	0.15071191
52	0x3e76ba01	0.24094392
53	0x3d41da73	0.04732747
54	0x3c8602f8	0.016358837
55	0x3d380c4c	0.044933602
56	0x3a9f1678	0.0012137434
57	0x3db1409e	0.08654903
58	0x3e2bf67c	0.16793245
59	0x3d2cbce7	0.04217234
60	0x3d88bc3e	0.06676529
61	0x3e15c849	0.14627184
62	0x3e2b1031	0.16705395
63	0xbd3014c8	-0.04298857
