src/Fun_2/model/model_1024_64_64_0.01_400.pt (torch, 309415 bytes, 5 tensors)

weight f4 [64, 1128]
00000000: d8c8 97bd b3f6 4fbd 96bc 18bd 5005 b4bd
00000010: 6f62 7abd 3f1c 9ebd 9fbd 2ebd 14e7 67bd
00000020: 4b3e 6dbd d746 33bd a6ec 31bd f3f0 7ebd
00000030: a5a9 48bd 241f 30bd 78e4 b0bd 6bef 8ebd
00000040: da03 6fbd 40b6 b2bd 7444 14bd d6b1 02bd
00000050: f9f0 81bd 6f93 b4bd 33f6 9fbd 2be6 22bd
00000060: 1a24 b0bd 6f41 a3bd 6113 38bd 14be 2bbd
00000070: 7cf9 57bd 1490 4ebd a3bf a8bd 6786 b2bd
00000080: 2e36 99bd b543 1ebd a1e2 5abd 7701 0dbd
00000090: f98f 9fbd e92d a8bd bf7f 0ebd eed4 5dbd
000000a0: 5f79 afbd 9aa6 5ebd d407 51bd f0e8 fabc
000000b0: e853 a8bd 1284 06bd 0f29 2cbd 0b30 14bd
000000c0: 539b 74bd 8448 0abd 27b2 96bd de15 a7bd
000000d0: cfd3 98bd 13bb 8bbd 92b3 4bbd e362 2fbd
000000e0: 57ce adbd 3097 87bd 688c 58bd f2b4 b4bd
000000f0: c958 6fbd 537a 2abd f080 adbd 2ed1 aabd
00000100: 225a 7bbd 75ff 56bd 4efa 84bd 312d 87bd
00000110: 4232 8cbd 9774 22bd 2366 94bd 36bd 07bd
00000120: 189d 29bd 403e acbd 2cba 17bd 2ccd 00bd
00000130: 92f6 a9bd aec6 09bd 93d8 98bd 9fbc 82bd
00000140: 3e7d 00bd 8f41 abbd 9877 96bd 3bd5 40bd
00000150: 5b4e a9bd 8f14 b0bd 501f 9abd 6768 9bbd
00000160: 42b9 a9bd 8678 15bd 6ed2 4bbd 4c44 a9bd
00000170: eac0 a8bd 53b8 94bd 1fdf a0bd bfa2 8ebd
00000180: 7ebe aebd 71fd 90bd 6906 0ebd 353e 0fbd
00000190: 587e 05bd 7f82 aabd b905 72bd da2b 6fbd
000001a0: 34d8 3ebd f5b2 06bd f249 55bd e448 4fbd
000001b0: 17e0 2abd 1865 83bd b207 65bd 82d8 a7bd
000001c0: 94b0 89bd 9e4b 82bd 8f4a 50bd 36b7 74bd
000001d0: d743 b4bd 9f27 94bd 18e9 82bd afd6 94bd
000001e0: bd34 12bd 171a 98bd 6538 3ebd 29eb ffbc
000001f0: 1b88 aabd 79f8 8fbd 511d 16bd 8c9a 58bd
00000200: 5d16 64bd 4a23 acbd d462 95bd 2b11 8bbd
00000210: b367 a5bd 47ff 8ebd 32f1 7dbd cd6e fcbc
00000220: 7660 78bd 0fcb 72bd 80c5 61bd b460 3dbd
00000230: 47d9 9cbd 4bff 0fbd 7b0b b0bd 122d b1bd
00000240: 55c8 a8bd 66aa 75bd c562 83bd 82dc 72bd
00000250: 0b7d 67bd 24a1 94bd 2494 12bd 549e 88bd
00000260: d1ac 09bd e391 96bd 2a11 97bd 6b9b 88bd
00000270: cfa9 97bd 4734 27bd 855b adbd 4067 a5bd
00000280: eca1 b2bd decf 84bd 92c5 12bd 1fdb 40bd
00000290: 8330 89bd 797f 80bd b303 7fbd ee81 b4bd
000002a0: d118 38bd 9503 a9bd 9ecf 9ebd c9a7 b5bd
000002b0: f5ee a0bd 2011 24bd 7de0 96bd cbf9 12bd
000002c0: efab 74bd 5341 53bd f0c8 85bd e9d3 4fbd
000002d0: 83b0 2dbd 0b9c 4dbd 0231 61bd f92c 09bd
000002e0: add2 4abd 9514 8cbd 6865 31bd 4744 1dbd
000002f0: 8d1d 96bd eeb6 61bd dc3f 11bd 2468 6cbd
00000300: 4f40 45bd 8002 afbd 19c0 0dbd d809 82bd
00000310: bfcb 2cbd f230 9ebd 8f9d 6fbd 1bd4 84bd
00000320: 1eac 84bd c332 14bd 8c3a b4bd b6f4 84bd
00000330: c639 08bd 1ecc b2bd c60c a3bd 57c7 a7bd
00000340: 3725 a3bd c44b 56bd 8348 6dbd e930 0abd
00000350: a586 6fbd 3766 5cbd 3c48 22bd 155d 5abd
00000360: e037 1ebd 62ff b1bd 1b55 48bd a73d 4dbd
00000370: 481e 89bd f8d4 8cbd 2cbd 66bd 7bb4 8ebd
00000380: 294a 5fbd b530 27bd 664a 2ebd aef6 b3bd
00000390: 1084 84bd 4093 25bd 18e3 98bd 2526 4ebd
000003a0: fa24 44bd 457a 0bbd 3681 b7bd 3ff5 52bd
000003b0: 77bf 21bd d180 89bd c9af a2bd affd 37bd
000003c0: 8092 74bd da4f 87bd 86de 2bbd 343c 8cbd
000003d0: edf4 b3bd f64e 10bd a2f8 68bd 39dd 99bd
000003e0: a1b6 45bd b8cb b4bd 8986 27bd c813 14bd
000003f0: 1dca 57bd 57a1 4bbd 8c03 aabd 0b88 3fbd
-0.07411355 -0.05077238 -0.037289225 -0.08790076 -0.06112903 -0.07720231 -0.042661306 -0.056616858
-0.057920735 -0.04376873 -0.043438576 -0.062241506 -0.04898991 -0.042998448 -0.08637327 -0.06979259
-0.058353283 -0.08726168 -0.036198094 -0.03190788 -0.0634479 -0.08817183 -0.07810631 -0.039770287
-0.08600636 -0.07971465 -0.044940356 -0.04192932 -0.05272816 -0.050430372 -0.08239677 -0.087170415
-0.07481037 -0.03863879 -0.053438786 -0.034425225 -0.077911325 -0.08211882 -0.034789797 -0.054158144
-0.085680716 -0.054358102 -0.051032856 -0.030628651 -0.08219129 -0.032840796 -0.042031344 -0.03617863
-0.05971844 -0.033760563 -0.073581986 -0.08158468 -0.07462274 -0.06822791 -0.0497318 -0.042818915
-0.08486622 -0.066206336 -0.052868277 -0.08823575 -0.05843428 -0.041620564 -0.084718585 -0.08340679
-0.061365254 -0.052489717 -0.06493054 -0.066004165 -0.068455234 -0.03966197 -0.072460435 -0.03313943
-0.041409582 -0.08410311 -0.03704278 -0.031445667 -0.08298983 -0.03363674 -0.07463183 -0.06383633
-0.03136944 -0.08362114 -0.073470294 -0.047078352 -0.08266898 -0.08597671 -0.07525504 -0.075882725
-0.08287288 -0.036491893 -0.04976123 -0.0826498 -0.082399204 -0.072617196 -0.07855057 -0.06964635
-0.08532427 -0.0707959 -0.034674082 -0.034971435 -0.032591194 -0.083256714 -0.05908749 -0.05839143
-0.046592906 -0.03288551 -0.052072473 -0.050606623 -0.041717615 -0.064157665 -0.055915542 -0.081955925
-0.06723133 -0.06362079 -0.050852355 -0.059745036 -0.08802002 -0.072341196 -0.06392115 -0.0726751
-0.035694826 -0.07426851 -0.0464405 -0.031240063 -0.08326741 -0.07029814 -0.036649052 -0.052881762
-0.05568539 -0.08405168 -0.072942406 -0.06790384 -0.0807642 -0.06982284 -0.0619976 -0.030814553
-0.060638867 -0.059275683 -0.05511999 -0.0462348 -0.0765863 -0.035155576 -0.0859594 -0.086511746
-0.08241335 -0.059976958 -0.06415323 -0.059292324 -0.056515735 -0.07257298 -0.03578581 -0.06670824
-0.033612076 -0.073520444 -0.07376321 -0.066702686 -0.07405435 -0.04082134 -0.084647216 -0.08076334
-0.087222904 -0.0648496 -0.03583295 -0.04708397 -0.06698706 -0.062743135 -0.062259387 -0.088138446
-0.04494554 -0.08252636 -0.077544436 -0.08869893 -0.078580774 -0.040055394 -0.073670365 -0.035882752
-0.05973428 -0.05157597 -0.065324664 -0.050739203 -0.042404663 -0.050197642 -0.054978378 -0.033490155
-0.049517322 -0.06839863 -0.0433096 -0.038395192 -0.07329855 -0.055106096 -0.03546129 -0.057716504
-0.048157033 -0.08545399 -0.034607027 -0.06349534 -0.042186495 -0.07724179 -0.05849987 -0.064857684
-0.06478141 -0.036181223 -0.088002294 -0.064919874 -0.033258222 -0.087303385 -0.07961421 -0.08192318
-0.079660825 -0.05231835 -0.05793048 -0.03373805 -0.058478016 -0.053808417 -0.03961967 -0.053311426
-0.038627505 -0.086912885 -0.048909288 -0.050107624 -0.06695229 -0.06876558 -0.056332752 -0.06968018
-0.054514084 -0.040817935 -0.04255142 -0.08787285 -0.064705014 -0.04042363 -0.0746519 -0.050329346
-0.047886826 -0.034052152 -0.08960192 -0.051503416 -0.039489236 -0.06714023 -0.079436846 -0.044919666
-0.059710026 -0.06607027 -0.04196026 -0.0684742 -0.0878695 -0.035231553 -0.05687774 -0.07512898
-0.04826987 -0.08827919 -0.040899787 -0.036151677 -0.052682985 -0.049714413 -0.08301458 -0.0467606

bias f4 [64]
00000000: 8fa9 7cbd e52f 983e 2e57 163f 5c36 99bd
00000010: 7d44 2abd c078 a3bd 540a 5bbd 0f04 f33e
00000020: 0347 75bd 79dd a3bd 47cf 0a3f 22a3 eb3e
00000030: 8df9 6abd 6acd ba3e 6b55 5abd 82f5 e73e
00000040: 5e05 4cbd f6d3 afbd 1a32 87bd c385 45bd
00000050: 0a6f de3e 1049 38bd 4fc1 8ebd bf46 04bd
00000060: d6d3 c03e af48 27bd 9dca 113f 4df3 77bd
00000070: 3194 8ebd a4a2 a1bd 3fde b7bd fb27 d73e
00000080: b4d9 e13e ed4f a3bd 149b de3e 8c7b 4e3f
00000090: eba7 96bd 5dbe 103f 6add dd3e ef16 e6b9
000000a0: 8fa4 18bd f48e 3cbd 3980 003f e25d a63e
000000b0: 7206 a7bd 3eac 8cbd 730a 143f 9d55 b5bd
000000c0: e224 44bd 3ed7 8e3e 0223 ef3e 7fc3 b23f
000000d0: 8781 9cbd bdc9 143f e6ba b6bd 758c 243f
000000e0: 7edc fc3e 4463 a5bc 9b0a d73a 5aba 36bd
000000f0: 6f8b 37bd 876e 51bd b1b2 6d3e d1e5 033f
-0.06168514 0.2972404 0.58726776 -0.07481071 -0.04156922 -0.079820156 -0.053476647 0.47464034
-0.059882175 -0.08001227 0.5422253 0.46022898 -0.057366896 0.36484843 -0.053304117 0.45304495
-0.049809806 -0.0858535 -0.06601353 -0.04822327 0.4344409 -0.044991553 -0.069704644 -0.03229403
0.37661618 -0.0408408 0.5694979 -0.060534764 -0.06961859 -0.07892349 -0.08977937 0.4202269
0.44111407 -0.07974229 0.4347769 0.8065727 -0.073562466 0.5654047 0.43332988 -0.00043886105
-0.03726631 -0.04603477 0.5019565 0.32493502 -0.08155526 -0.0686879 0.57828444 -0.0885422
-0.047886737 0.27898592 0.46706396 1.3965911 -0.07641893 0.5812033 -0.08922367 0.6427682
0.49386972 -0.020188935 0.0016406359 -0.044611312 -0.04481071 -0.051130798 0.23212697 0.51522547

weight f4 [64, 64]
00000000: e2be b03b 62c9 32be a9e3 28be 8d6a 653c
00000010: 7a3c bdbd 75c9 1abe 54ec aabd bab4 25be
00000020: fdd5 99bd 97f5 fbbd 6283 db3c d068 24be
00000030: 44a5 1c3d c4fc bfbd 602e 9dbc f999 1c3b
00000040: e01f 27be e8cd 1bbe aa91 523d 13ba 0abc
00000050: 5a97 2b3d 39d7 03bd 83f2 f4bc 6064 b83c
00000060: 26d3 943c 101a 8bbd d7bb 03be 35c2 c9bd
00000070: 9018 7d3d 59f1 35be b924 a4bd 8c64 9fbd
00000080: 4b1c f93b 1178 3b3d 6c3e 1a3d 9484 88bd
00000090: 585c 003d 15e6 10be e5bb aebd b860 a0bc
000000a0: 2173 313d b939 82bd bfe7 00bd 36e0 f63c
000000b0: 2314 0f3d 5af1 25be 07e9 22bd bcd5 92bd
000000c0: d569 12be 5fb7 04be 0a57 543d 91e6 3b3d
000000d0: c2a3 d8bd b250 bcbd 2ce7 93bd 8772 fbbd
000000e0: e3c4 24be 38bc 4b3d 0b96 8dbd 276f 053c
000000f0: 9dc5 71bc 3419 883a ef8f 0dbe 31ee 77bd
00000100: 2d21 4ebd 8628 313d c241 fb3d d061 543d
00000110: 2de5 083e 4839 903d aab0 cb3d 238a b23d
00000120: c8ef 5bbd 8ba4 46bd e94d 8f3d c64f 06be
00000130: a8a6 b1bb 5e15 b4bd b0e9 d63c 6f19 093d
00000140: 531e 8d3d 08c8 5b3d c6b2 b43d cc2e 91bc
00000150: f38d 193d 1319 173e c372 1f3c da5a 283e
00000160: 58e1 0cbd 6604 32bc 73fe 7a3c c0a3 6fbd
00000170: 88de 213e a18c 0abe 83e0 48bd 124f 1a3d
00000180: 1aeb d43d 3703 8b3c 0b39 f23d 4b6c 3a3d
00000190: 7eca 0c3c e09f 70bd 4d9f bd3c 8e42 b1bd
000001a0: 196a 1d3e ee54 61bd 0b0d d2bc 2011 cc3d
000001b0: eb39 5abd 1fe6 cd3c 27a4 0d3e d6af f23d
000001c0: 186e 893d cb02 ff3c 6512 7f3c b680 443e
000001d0: f938 7f3d d110 14bd 0c95 5e3d 3f3c 0e3d
000001e0: c6c5 9c3b 1a15 933c e1e5 2a3d 7f7d e33d
000001f0: db6e 093e 5999 1d3e 5382 c43d 6bd0 9d3d
00000200: 4a93 5f3d 6f6d 00be 858e debc a689 ebbd
00000210: 6f2a 53bd 95ef 87bc 2096 3bbe 3907 94bc
00000220: ec7b c7bd 2d82 60bd 4b25 34bc 4612 05bd
00000230: bd61 90bd 9084 8cbd 0bc8 c13a ecda b1bd
00000240: fec7 843d 4418 f6bd e667 eebd 0192 293c
00000250: bf16 e73c a71e 61bc 75b9 e43b 7c92 9abd
00000260: c970 64b9 78b9 35be d4ea 56bb 6b75 88bd
00000270: 245c f1bd 33ca 9dbd 5a7d 94bd 39b4 4c3c
00000280: bf6c 22bd 767c 5dbd 2429 0abd f48e 93bc
00000290: f406 6a3c bd53 20be aac0 8c3c 150c 00be
000002a0: 8fdf 5ebd e5e4 17be ef77 e9bd ffbd d2bd
000002b0: 520d bc3c 0951 5dbd c5cc 2dbe e4b9 c1bd
000002c0: c96c 4b3d 4662 36be b5db d4bd 2317 39be
000002d0: 01e2 debd 49af 14be 298c 313d 0269 813b
000002e0: 5f6f 25be ef0a f8bd 20d6 eebc 4f3b d5bd
000002f0: 8e84 403d a53c e5bc 322f 253d fe08 03be
00000300: ea65 e33d a7e2 4ebe 8d8a babe 0cb9 a1bd
00000310: c045 573d fe4f 99bd 08cb a03c 44dc aebe
00000320: c8b9 703d 50a4 6d3c 62a1 9cbe 9581 39be
00000330: a808 803c 25d8 afbe 402e 0a3c f898 4dbe
00000340: 8093 f33a c0c5 4cbd 708d 5e3c b2b0 e2bd
00000350: f574 a9be 2ef2 913d 98c6 f8bc c0ba 37bd
00000360: f217 29be 2083 df3b 3922 9abe dc05 58bd
00000370: 64fa 3dbd 0866 c7bd 7cdc 63bd c70e abbe
00000380: 8128 82be ac34 8dbd 78b5 5abe 4fc3 7cbe
00000390: 80fc 2f3c fade 5dbe 9d5d b5be 68a8 023d
000003a0: e6b2 c1bd 7092 823c 0a78 60be 6a95 92be
000003b0: 485c b13c 9034 ccbc e17d 9bbe 1c7d 39bd
000003c0: 4403 6cbd dbd2 88be cf8c 32be c6aa 82be
000003d0: 1875 f73d e713 0fbe d616 fabd e34a 14be
000003e0: 317b 84be 9e29 9dbd 9488 163d 4492 753d
000003f0: 4001 d4bc 788c 37bd a018 3abe 192c 7abe
0.0053938488 -0.17459634 -0.16493095 0.0140024545 -0.092400506 -0.15115912 -0.08345857 -0.16182223
-0.07511518 -0.12302702 0.026796047 -0.16055608 0.038243547 -0.09374383 -0.019187152 0.0023895486
-0.16320753 -0.15215266 0.051408447 -0.008467215 0.041892387 -0.032187674 -0.029900795 0.0225088
0.01816709 -0.067920804 -0.12864624 -0.09851495 0.061791003 -0.17767848 -0.08014817 -0.0778285
0.0076022497 0.0457688 0.037657186 -0.06665912 0.031338066 -0.1415027 -0.08531932 -0.01957737
0.043322686 -0.06358666 -0.03147101 0.030136209 0.034931313 -0.1620535 -0.039773013 -0.07169673
-0.14298184 -0.12960576 0.05184082 0.045874182 -0.10578109 -0.09195079 -0.07221827 -0.12277704
-0.16090731 0.049740046 -0.06913384 0.008144177 -0.014756587 0.0010383488 -0.13824438 -0.06052989
-0.050324608 0.043251537 0.12268402 0.051851094 0.13368674 0.070421755 0.09945805 0.08717754
-0.05369547 -0.048496764 0.06997282 -0.13116369 -0.0054214783 -0.08793138 0.026234478 0.03347152
0.068905495 0.05365756 0.08823161 -0.01772251 0.03748889 0.14755659 0.009731951 0.16440907
-0.034394592 -0.0108653065 0.0153194545 -0.058505774 0.15807545 -0.13530208 -0.049042236 0.037673064
0.103964046 0.016969306 0.11827286 0.045513432 0.0085932 -0.05874622 0.02314725 -0.086552724
0.15372504 -0.055012636 -0.025640985 0.09964204 -0.05327789 0.025134144 0.1383215 0.11849944
0.06710452 0.031129261 0.01556835 0.19189724 0.062310193 -0.03614885 0.05434136 0.034725424
0.0047843186 0.017954398 0.041723136 0.11107921 0.13421194 0.15390529 0.0959517 0.07705768
0.054583825 -0.12541746 -0.027167568 -0.11500864 -0.05155414 -0.016593734 -0.18318987 -0.01806985
-0.09740433 -0.054811645 -0.010995219 -0.03248813 -0.07049892 -0.06861222 0.0014784349 -0.08684334
0.06483458 -0.12016347 -0.11640911 0.010349751 0.028209088 -0.013740218 0.006980116 -0.07547471
-0.0002178579 -0.17746532 -0.0032793777 -0.06663021 -0.117851526 -0.07704582 -0.072504714 0.01249414
-0.03965449 -0.054073773 -0.03373064 -0.018012501 0.014283884 -0.15656944 0.017181713 -0.12504609
-0.05441242 -0.1483341 -0.11399829 -0.10290145 0.02295557 -0.05403236 -0.16972645 -0.09459284
0.049664292 -0.17810926 -0.10393468 -0.18075232 -0.108829506 -0.14519991 0.043346558 0.0039492855
-0.16155766 -0.121114604 -0.029154837 -0.10411703 0.047001414 -0.02798302 0.040328212 -0.12796399
0.11103423 -0.20203649 -0.3643383 -0.07896623 0.052556753 -0.074859604 0.019628063 -0.34152424
0.058770925 0.014504507 -0.30591875 -0.18115838 0.015629128 -0.34344593 0.008433878 -0.20077884
0.0018583387 -0.049993277 0.013583526 -0.11068858 -0.33097044 0.0712627 -0.030368134 -0.044855833
-0.1651304 0.0068210512 -0.30104235 -0.052739963 -0.04638137 -0.09736258 -0.055630192 -0.33409712
-0.25421527 -0.06894812 -0.21358287 -0.2468388 0.010741353 -0.2166709 -0.35422984 0.031898886
-0.0945795 0.015938967 -0.21920791 -0.2862962 0.021650448 -0.024927408 -0.30369475 -0.04528533
-0.0576203 -0.2672337 -0.17436527 -0.25520915 0.12082881 -0.13972436 -0.12211387 -0.14481692
-0.25875238 -0.076739535 0.036751345 0.059953943 -0.025879502 -0.044811696 -0.18173456 -0.24430884

bias f4 [64]
00000000: a0bb 8bbd f207 0d3f ecf6 263d 8552 8abe
00000010: 70f1 e4bc f545 2a3f adf9 583f af5a 8c3d
00000020: d3e5 1d3f 9f14 5dbd a880 273f bf73 7e3d
00000030: 8c04 e73d 7b8e 1fbe c3c8 593d 3a98 72bf
00000040: 106a 1fbd d0ab 6abf 262a b9bc f6dc 1ebe
00000050: 5f20 563d a21b 5ebd 5318 2ebe b193 9abd
00000060: f5d1 abbd 922e 333f 43a7 8abc 3d04 24bd
00000070: 6a97 1d3f 0813 8abe 0a06 383f 8dba febd
00000080: f8bd 23be cddd 233f e638 0abd 69ed af3d
00000090: 5609 55be 22d5 01bd db1b 2dbe b552 a93d
000000a0: 3bb4 063d acaa 8fbc 6009 ab3e 9012 a93a
000000b0: 9168 3bbe 2410 22be 78ca 343e b51d 73bd
000000c0: 9ac5 04be 6ae9 873e 086a acbc 860c 603d
000000d0: 6623 363f 7e3c 35be 49fa d9bc ad08 93bd
000000e0: 0818 12be c87c e0bd 64a8 f13e 3ac2 ef3c
000000f0: 5b06 4e3f b3eb 173f f45c 88bd f153 28be
-0.06822896 0.5509025 0.040762827 -0.27016082 -0.027947158 0.66512996 0.84755975 0.06853234
0.6167881 -0.053974744 0.6543069 0.062122103 0.11280164 -0.15581696 0.053169977 -0.9476353
-0.03891951 -0.91668415 -0.022603106 -0.15513977 0.052276965 -0.05422557 -0.17001466 -0.07547701
-0.083896555 0.69992936 -0.01692546 -0.040043104 0.61559165 -0.26967645 0.71884215 -0.124379255
-0.15990436 0.64010316 -0.03374567 0.08590204 -0.20804343 -0.0316974 -0.16905157 0.08267728
0.032886725 -0.017537437 0.3340559 0.0012899209 -0.18301608 -0.1582647 0.1765536 -0.059354503
-0.12966004 0.26545268 -0.021046653 0.054699443 0.71147764 -0.17698857 -0.026608603 -0.07179389
-0.1426698 -0.109613 0.47198784 0.02926742 0.8047845 0.59344023 -0.066583544 -0.16438271

weight f4 [1, 64]
00000000: 8e68 bebb b1d2 fa3d 32b1 1c3d 31de 383e
00000010: bbfd 4f3d c587 163e 0954 f63d 7753 40be
00000020: 4ce8 0c3e eb0f 313d a264 133e 2135 01be
00000030: b454 abbe 9cf9 1cbd cdef e23c 97a5 9bbe
00000040: e367 f43b d4ff 58be 11ba 80bc c830 883c
00000050: e3ae bc3c 65ac 61bd b1c3 063d 959b ce3b
00000060: b40e 263c 7720 353e 3f64 eabc 0128 4e3d
00000070: e31c 173e 5238 8fbc 5ef7 d63d 1793 a93d
00000080: a198 033c 1a26 033e dd26 dfbc 2948 bc3a
00000090: 13dc c83d 12ee 8abc ce94 3b3d be34 2dbb
000000a0: 2e62 76bc 648c 563d 041a 023d 2bbf f43c
000000b0: b661 2cbd 4fde d23d 7ab9 6dbe 56d7 b5bb
000000c0: 7a19 78bd 279a 663b 69d8 89bc 76fa 173d
000000d0: 4eb6 123e b781 8d3c f1d1 4dbc 840a 42bd
000000e0: de74 393d 8a42 003d da9f 243d d7ee 88bc
000000f0: 6b10 453e 5e92 263e d8fc f2bd 385a dbbc
-0.0058108037 0.122472174 0.038254924 0.1805351 0.050779086 0.1470023 0.12027747 -0.1878184
0.13760489 0.04322807 0.14393857 -0.12617923 -0.3346306 -0.038323984 0.027702237 -0.30399773
0.0074586733 -0.2119134 -0.015713723 0.016624823 0.023032611 -0.05509605 0.03290147 0.006305168
0.010135341 0.17688166 -0.028612254 0.05033112 0.14757113 -0.01748291 0.104964 0.08280008
0.008031995 0.12807503 -0.027240211 0.0014364767 0.09807601 -0.016959224 0.045796208 -0.0026429142
-0.015038056 0.05237998 0.03176309 0.029876312 -0.042085372 0.10296308 -0.23215285 -0.0055493517
-0.06057117 0.0035187097 -0.016826825 0.037104093 0.14327356 0.017273767 -0.012562261 -0.04737331
0.04527747 0.031313457 0.04019151 -0.01671545 0.19244544 0.16266772 -0.11864632 -0.026776418
