src/Fun_2/model/model_512_64_64_0.01_200.pt (torch, 309407 bytes, 5 tensors)

weight f4 [64, 1128]
0	0xbd847d71	-0.064692385
1	0xbd92e362	-0.07172276
2	0xbd5cc663	-0.053900134
3	0xbd133fcb	-0.03594951
4	0xbc9fb903	-0.0194974
5	0xbcdba0d5	-0.02681009
6	0xbd3de04b	-0.04635648
7	0xbc38747f	-0.011258244
8	0xbd79cf11	-0.06098849
9	0xbccf4147	-0.025299681
10	0xbd49deef	-0.04928487
11	0xbcf6659d	-0.03007775
12	0xbc9ba972	-0.019001696
13	0xbc72e48d	-0.014824999
14	0xbd2ac14c	-0.04168825
15	0xbd66dff4	-0.056365922
16	0xbd5c8565	-0.053838152
17	0xbd70f8d3	-0.058831047
18	0xbd88806c	-0.066651195
19	0xbd1ae2d9	-0.037813995
20	0xbd87af94	-0.06625286
21	0xbd846f7e	-0.06466578
22	0xbda22fb0	-0.07919252
23	0xbdcbcf33	-0.099516295
24	0xbd804b6c	-0.062643856
25	0xbce46009	-0.027877824
26	0xbd30b58a	-0.04314188
27	0xbd830b17	-0.063985996
28	0xbcd221c7	-0.025650872
29	0xbd0f1ec1	-0.03494144
30	0xbca7a2ba	-0.020463336
31	0xbd8674df	-0.0656526
32	0xbce20193	-0.027588641
33	0xbd4f7013	-0.05064399
34	0xbc33aff4	-0.010967243
35	0xbd462670	-0.0483765
36	0xbd84cef8	-0.06484789
37	0xbcc709ad	-0.024296606
38	0xbd9b808e	-0.07592879
39	0xbd00ffd9	-0.031493995
40	0xbd677a04	-0.056512848
41	0xbd1fa1fd	-0.038972843
42	0xbd2e9006	-0.04261782
43	0xbd9073b2	-0.07053317
44	0xbd1a5543	-0.03767897
45	0xbb8d28cf	-0.0043078433
46	0xbc7a09c3	-0.015261116
47	0xbd09955f	-0.033589717
48	0xbd65cc03	-0.056102764
49	0xbd08d88f	-0.03340965
50	0xbc3f5f7a	-0.011680478
51	0xbd1f703f	-0.038925406
52	0xbd4124ba	-0.047154166
53	0xbd2f3692	-0.04277665
54	0xbd2a1065	-0.04151954
55	0xbcc968d7	-0.024586124
56	0xbd439768	-0.047751814
57	0xbd11ad2e	-0.035565548
58	0xbd5e7232	-0.054308124
59	0xbcaf565e	-0.021403488
60	0xbca23c7b	-0.01980423
61	0xbd4acf78	-0.049514264
62	0xbd534b2c	-0.05158536
63	0xbd111baa	-0.035426773
64	0xbd1c13a0	-0.038104653
65	0xbd594975	-0.05304857
66	0xbd4d7e50	-0.05016929
67	0xbb4860a2	-0.0030575176
68	0xbd00716c	-0.031358168
69	0xbd82c93a	-0.06386037
70	0xbda0092b	-0.07814249
71	0xbcbc48a3	-0.022983855
72	0xbd84c6fc	-0.06483266
73	0xbd947cc0	-0.07250357
74	0xbc07a4df	-0.008279054
75	0xbc85fa67	-0.016354753
76	0xbcdd8906	-0.027042877
77	0xbd82a470	-0.0637902
78	0xbd41c790	-0.04730946
79	0xbd04099e	-0.032235734
80	0xbd41dd75	-0.04733034
81	0xbd72a9eb	-0.059244078
82	0xbd4835d6	-0.048879467
83	0xbd806040	-0.06268358
84	0xbd0c6788	-0.034278423
85	0xbd81bf8b	-0.06335362
86	0xbce8b8d6	-0.02840845
87	0xbd2c76aa	-0.042105354
88	0xbc839860	-0.016063869
89	0xbcac02a7	-0.020997358
90	0xbd33dd6c	-0.043912336
91	0xbd90ccd0	-0.07070315
92	0xbc4ee310	-0.012627378
93	0xbd6bd3ce	-0.05757504
94	0xbcfe9244	-0.031075604
95	0xbd7793f3	-0.06044383
96	0xbd21cfc2	-0.039504774
97	0xbd908bf4	-0.07057944
98	0xbc99a272	-0.018754218
99	0xbd47eaf0	-0.04880804
100	0xbd85304b	-0.06503352
101	0xbcc9f816	-0.02465443
102	0xbd54de4c	-0.05196981
103	0xbd07d540	-0.033162355
104	0xbcfd41de	-0.030915197
105	0xbd840da5	-0.06447915
106	0xbd6e9be4	-0.058254138
107	0xbcf54fdf	-0.029945312
108	0xbd667d7d	-0.05627202
109	0xbc5a1230	-0.01331
110	0xbd435f4c	-0.047698304
111	0xbdcdcf28	-0.100492775
112	0xbcec254e	-0.028826382
113	0xbd1cb30c	-0.03825669
114	0xbc278a7d	-0.010225889
115	0xbdba44cf	-0.090951554
116	0xbcb280d4	-0.021789946
117	0xbcf98c38	-0.03046237
118	0xbd69e291	-0.057100836
119	0xbd03d6d3	-0.032187294
120	0xbcf3c92f	-0.029759018
121	0xbd6f3c43	-0.05840708
122	0xbd47faff	-0.048823353
123	0xbd9c446b	-0.07630237
124	0xbcaf6151	-0.021408709
125	0xbc1207b7	-0.008912972
126	0xbc9ecf46	-0.019385945
127	0xbc62b770	-0.01383768
128	0xbd71f5cd	-0.059072305
129	0xbd037235	-0.03209134
130	0xbc9c1bed	-0.019056285
131	0xbcddb860	-0.027065456
132	0xbcb92626	-0.022601198
133	0xbd5eb5bf	-0.054372545
134	0xbc8e2ca2	-0.017355267
135	0xbcfae093	-0.030624663
136	0xbd8e9058	-0.06961125
137	0xbc988fba	-0.018623222
138	0xbd68d32b	-0.05684201
139	0xbc9ee598	-0.019396588
140	0xbce6eb9a	-0.028188515
141	0xbcdba70d	-0.026813054
142	0xbccbc460	-0.024873912
143	0xbd7d649b	-0.061863523
144	0xbbd8dc25	-0.00661804
145	0xbd111880	-0.035423756
146	0xbd8c722a	-0.068577126
147	0xbd14e441	-0.036350492
148	0xbbb22df1	-0.0054376055
149	0xbd001a80	-0.031275272
150	0xbd42cd0e	-0.047558837
151	0xbd382ad4	-0.04496272
152	0xbcf391b4	-0.029732563
153	0xbc25473d	-0.010087785
154	0xbd322e2f	-0.043501075
155	0xbd003768	-0.03130284
156	0xbd5fa138	-0.05459711
157	0xbd882097	-0.06646841
158	0xbd475823	-0.048668038
159	0xbc4a11b0	-0.012333319
160	0xbd5fd3b6	-0.054645263
161	0xbb9d0bdc	-0.0047926735
162	0xbb57130d	-0.0032817752
163	0xbd8266fc	-0.06367299
164	0xbd697282	-0.05699397
165	0xbd4cc38e	-0.049991183
166	0xbc7acab0	-0.0153071135
167	0xbc8bbc8c	-0.01705768
168	0xbd4f97c4	-0.050681844
169	0xbd4bc6f8	-0.0497503
170	0xbd77dbfe	-0.060512535
171	0xbcc40ae0	-0.023930967
172	0xbd850b0c	-0.06496248
173	0xbc83bb9d	-0.016080672
174	0xbd93abe3	-0.07210519
175	0xbd26e587	-0.040746238
176	0xbda8e31a	-0.08246441
177	0xbd357b95	-0.04430731
178	0xbd560f9b	-0.052260976
179	0xbd5825b1	-0.05277032
180	0xbd63215d	-0.05545174
181	0xbc971072	-0.018440459
182	0xbd8e8c65	-0.06960372
183	0xbd8353e7	-0.064124875
184	0xbd51a7f0	-0.05118555
185	0xbd239d6a	-0.039945044
186	0xbd433c61	-0.047665004
187	0xbd82b366	-0.06381874
188	0xbc2a9e69	-0.0104137445
189	0xbd558bae	-0.052135162
190	0xbd100e33	-0.03516979
191	0xbd076d6f	-0.03306335
192	0xbd350107	-0.044190433
193	0xbce1c923	-0.02756173
194	0xbccfc71e	-0.025363501
195	0xbd29fb39	-0.04149935
196	0xbd9ff572	-0.07810487
197	0xbdab8ffe	-0.08377074
198	0xbcbdbe4a	-0.023162026
199	0xbd866169	-0.06561548
200	0xbd395553	-0.045247387
201	0xbcba18cc	-0.022716902
202	0xbd61456b	-0.054997843
203	0xbd81597c	-0.06315896
204	0xbd92e328	-0.07172233
205	0xbd22e2ed	-0.039767195
206	0xbd014bf5	-0.03156658
207	0xbd423ee6	-0.047423266
208	0xbd328914	-0.04358776
209	0xbdd67183	-0.104708694
210	0xbd42368c	-0.0474153
211	0xbca7e76d	-0.020496095
212	0xbd5c122d	-0.05372827
213	0xbd83f559	-0.06443281
214	0xbc050032	-0.008117722
215	0xbd1fa28b	-0.038973372
216	0xbd59b479	-0.053150628
217	0xbc4b2371	-0.012398587
218	0xbc509f81	-0.012733341
219	0xbd892d8e	-0.06698142
220	0xbd62f37e	-0.055407993
221	0xbd8f593b	-0.06999441
222	0xbd7e2664	-0.06204833
223	0xbcf41041	-0.029792907
224	0xbd3f34dd	-0.046681274
225	0xbc498c4e	-0.012301518
226	0xbd49b4f2	-0.04924483
227	0xbc89be43	-0.016814357
228	0xbc300ab6	-0.010744741
229	0xbdca2a6c	-0.098713726
230	0xbd6223f8	-0.055210084
231	0xbd809975	-0.062792696
232	0xbd2e6fcb	-0.042587083
233	0xbd957ebd	-0.07299564
234	0xbd4290c7	-0.04750135
235	0xbd37fa53	-0.044916462
236	0xbd166746	-0.036719583
237	0xbd134f1a	-0.03596411
238	0xbd3ac8b1	-0.04560155
239	0xbcb23823	-0.021755284
240	0xbc17b796	-0.009260079
241	0xbbbd5d11	-0.0057789166
242	0xbd3aa5be	-0.04556822
243	0xbd0a43bd	-0.033756007
244	0xbd763042	-0.060104616
245	0xbd334937	-0.043770995
246	0xbd13764a	-0.03600148
247	0xbd432961	-0.047646884
248	0xbd58b3ee	-0.05290597
249	0xbd55cff8	-0.052200288
250	0xbd824cf2	-0.063623324
251	0xbd2384db	-0.039921623
252	0xbd3d910c	-0.046280906
253	0xbcc94a41	-0.02457154
254	0xbd4dce11	-0.05024535
255	0xbd813b30	-0.06310117

bias f4 [64]
0	0xbd19fc8b	-0.03759436
1	0x3e8cb5fe	0.274826
2	0xbd38967c	-0.045065388
3	0x3f1be5e3	0.60897654
4	0x3ef05ab1	0.46944192
5	0xbdb43141	-0.08798457
6	0x3e9f869c	0.31157386
7	0xbd298ca8	-0.041393906
8	0xbdb3e8ed	-0.087846614
9	0x3c383b63	0.011244628
10	0xbd1ee495	-0.03879221
11	0xbd3c5906	-0.045983337
12	0xbd1f7c61	-0.038936976
13	0xbda1a5bb	-0.07892939
14	0xbd1e9d5a	-0.03872428
15	0xbdb60529	-0.08887703
16	0xbd86884b	-0.065689646
17	0x3eee4885	0.46539703
18	0xbd72e2e4	-0.05929841
19	0xbda9b5e4	-0.08286646
20	0xbd9f588c	-0.07780561
21	0xbd72144c	-0.059101388
22	0xbd8dce98	-0.0692417
23	0xbd0af65a	-0.033926345
24	0x3edcade7	0.43101427
25	0xbd2966d7	-0.04135784
26	0xbd79c149	-0.060975347
27	0xbd36eae9	-0.04465762
28	0x3f0ad9b1	0.5423842
29	0xbd1c8e6c	-0.03822176
30	0xbd8291aa	-0.063754395
31	0x3f06bbb9	0.5263019
32	0xbd7d8ade	-0.061900012
33	0xbd8dd38a	-0.069251135
34	0xbd18d129	-0.037308846
35	0x3f1df51f	0.6170215
36	0x3ed8d197	0.42347404
37	0x3e904ced	0.2818369
38	0xbd753322	-0.059863217
39	0x3f031d8c	0.5121696
40	0xbd932a8b	-0.07185849
41	0x3ef75cee	0.48313087
42	0x3f026659	0.5093742
43	0xbd916060	-0.0709846
44	0xbdb2dae8	-0.08733159
45	0xbd18791f	-0.037224885
46	0xbd8f0702	-0.069837585
47	0x3ef95162	0.48694903
48	0xbdae4045	-0.08508352
49	0xbd34889f	-0.044075605
50	0xbd90c2a0	-0.07068372
51	0xbda6b9e6	-0.08140926
52	0xbd9eb37e	-0.07749079
53	0x3f0baeb8	0.54563475
54	0xbd477d5c	-0.048703536
55	0x3ed9bb31	0.42525628
56	0xbd536281	-0.051607613
57	0x3f02e156	0.51125085
58	0x3f3903dd	0.7227152
59	0xbd2a706b	-0.041611116
60	0xbd7c1aca	-0.061548986
61	0xbd33f58f	-0.043935355
62	0x3f0d2fe6	0.5515121
63	0x3f112ccb	0.56708974

weight f4 [64, 64]
0	0x3d5b32fd	0.053515423
1	0x3e01b889	0.12668051
2	0x3d1e71a6	0.038682602
3	0x3dc53593	0.09629359
4	0xbcdb5233	-0.026772594
5	0xbd1d9cf0	-0.038479745
6	0xbd4aa080	-0.04946947
7	0xbd365590	-0.044515193
8	0xbb6e89a2	-0.0036397954
9	0x3ca99972	0.020703051
10	0x3d85dd2c	0.06536326
11	0xbd84d970	-0.064867854
12	0x3d2de379	0.042453263
13	0xbc7a533e	-0.015278636
14	0xbdc4c914	-0.09608665
15	0x3e151bd7	0.14561401
16	0x3e327693	0.17428045
17	0x3c4e01dd	0.012573686
18	0x3c281110	0.010257974
19	0x3dfd93b7	0.1238169
20	0x3e1a1813	0.15048246
21	0xbda157cc	-0.07878074
22	0x3d9da7d4	0.07698026
23	0x3d3c7f6f	0.046019968
24	0x3da6a581	0.08137036
25	0x3d091310	0.033465445
26	0x3cc737e1	0.024318637
27	0x3cf99f81	0.030471565
28	0x3da303c2	0.07959701
29	0x3cd23ac8	0.025662795
30	0x3dc14836	0.09437601
31	0xbd2630c6	-0.040573858
32	0x39fa7e89	0.00047777992
33	0xbd35ce49	-0.044386182
34	0x3d846075	0.0646371
35	0x3da95707	0.08268552
36	0x3d285732	0.04109878
37	0x3e03bc46	0.1286479
38	0xbd991f40	-0.074766636
39	0xbda57125	-0.08078221
40	0xbde9eb8c	-0.1142188
41	0x3e146614	0.14492065
42	0x3d9e5d6c	0.077326626
43	0x3e30c814	0.17263824
44	0x3c3e9296	0.0116316285
45	0xbcf5d408	-0.030008331
46	0x3d67daca	0.056605138
47	0x3c616173	0.013756144
48	0x3ce65440	0.028116345
49	0x3dbb3041	0.09140063
50	0xbd7a2fa4	-0.06108059
51	0xbde440cc	-0.111451715
52	0x3b424004	0.0029640207
53	0xbdafdedc	-0.08587429
54	0xbd7bda7c	-0.06148766
55	0x3de52f14	0.1119062
56	0x3dfd83f4	0.12378684
57	0x3df32c91	0.11873735
58	0xbda1e995	-0.0790588
59	0x3e27dbff	0.16392516
60	0x3d2d4755	0.042304356
61	0xbb86283c	-0.004094152
62	0x3e0a7ede	0.13524958
63	0xbd6dbecb	-0.058043282
64	0xbe3b9f4e	-0.18322489
65	0xbd526614	-0.05136688
66	0x3ad655a9	0.0016352433
67	0xbe02c4f7	-0.12770449
68	0xbc6ca8d2	-0.014444547
69	0xbdfed13f	-0.12442254
70	0xbdf44419	-0.11927051
71	0x3ca7215b	0.020401647
72	0xbdd03f91	-0.10168374
73	0xbe35a0fa	-0.17737189
74	0xbc138d74	-0.009005893
75	0xbe24850a	-0.16066375
76	0xbe00ebf4	-0.12590009
77	0xbda2928d	-0.079381086
78	0xbdcd7c46	-0.10033469
79	0x3cdcd1cd	0.02695551
80	0x3d480628	0.048833996
81	0xbe1d5946	-0.15366086
82	0xbdbde292	-0.092717305
83	0xbd1f94ab	-0.03896014
84	0xbde8644b	-0.11347254
85	0xbe24ded4	-0.16100627
86	0xbd4ecf96	-0.050490938
87	0xbe33c33b	-0.17554943
88	0xbdbbcc6a	-0.09169848
89	0xbe27d44b	-0.16389577
90	0x3d687c43	0.05675913
91	0x3d807d98	0.06273955
92	0xbd5ae397	-0.053439703
93	0xbddc6237	-0.107609205
94	0xbe236e7f	-0.1596012
95	0xbde82069	-0.11334307
96	0x3cf4e4f5	0.029894331
97	0x3d08eb85	0.033427734
98	0xbdfd3c0d	-0.123649694
99	0xbd469d9b	-0.048490148
100	0x3d75d498	0.0600172
101	0xbc32d240	-0.010914385
102	0xbe359057	-0.17730843
103	0xbe32d6c3	-0.17464738
104	0x3da70598	0.08155364
105	0xbd3f4e50	-0.046705544
106	0xbe2195ba	-0.15779772
107	0xbdf24e27	-0.118313126
108	0xbe2d4024	-0.16918999
109	0xbdc955f3	-0.09830847
110	0x3d23084d	0.039802838
111	0xbe0f32a9	-0.13984169
112	0xbdb26c40	-0.08712053
113	0x3a2e9ad9	0.00066606473
114	0xbe092fe2	-0.13397172
115	0xbdeeaf69	-0.116545506
116	0xbd660698	-0.056158632
117	0xbe324fb8	-0.17413223
118	0xbe188417	-0.14894138
119	0xbd59d6af	-0.053183254
120	0xbd3aaa8a	-0.045572795
121	0x3d0260eb	0.03183071
122	0x3c1a9456	0.00943478
123	0xbd94b9f6	-0.07262032
124	0x3bba1c32	0.0056796307
125	0xbc450dc9	-0.012027212
126	0x3caaffa5	0.020873854
127	0x3c68020a	0.014160642
128	0xbe335388	-0.17512333
129	0x3dc3c1f4	0.09558478
130	0xbd34bfa0	-0.04412806
131	0xbc9757aa	-0.018474419
132	0x3e71909d	0.23590322
133	0x3d2a7a04	0.04162027
134	0x3e1758ce	0.1477997
135	0x3c3c6620	0.011498958
136	0xbd686ee4	-0.05674638
137	0x3d5bafe3	0.053634536
138	0xbd73458c	-0.059392497
139	0xbde85376	-0.11344044
140	0x3d172868	0.03690377
141	0x3d947256	0.0724837
142	0xbd5910f0	-0.05299467
143	0x3c700980	0.0146507025
144	0x3dc64d22	0.09682681
145	0xbcc25cb1	-0.02372584
146	0x3de9c2f0	0.114141345
147	0xb9e97400	-0.0004452765
148	0xbd2f0154	-0.042725876
149	0x3df16a7a	0.11787887
150	0x3bffd760	0.007807657
151	0xbde4d00a	-0.11172493
152	0x3e500975	0.20316108
153	0x3ce2b670	0.027674884
154	0x3d2f3990	0.042779505
155	0xbd57f1ff	-0.05272102
156	0x3e6a92dd	0.22907586
157	0x3d9a9d54	0.07549539
158	0xbd088ae4	-0.03333558
159	0xbd94e950	-0.07271063
160	0xbd1d698c	-0.038430735
161	0xbdfbd436	-0.122963354
162	0x3dfa37a6	0.12217645
163	0xbd990c87	-0.074730925
164	0x3e1689ab	0.14700954
165	0x3e1361a2	0.14392713
166	0x3d8cf8c8	0.06883389
167	0x3de61f63	0.11236455
168	0x3de5f388	0.112280905
169	0x3e47eb0d	0.19523259
170	0x3d619e13	0.055082392
171	0x3d39ccd8	0.04536137
172	0xbd52209c	-0.05130063
173	0xbd93539a	-0.0719368
174	0x3ba1e400	0.00494051
175	0x3e4146bb	0.18874638
176	0x3c268820	0.010164291
177	0xbdf954bc	-0.12174365
178	0x3d91d3c2	0.07120468
179	0x3d2045f0	0.039129198
180	0x3d75a928	0.059975773
181	0x3e18373c	0.1486482
182	0x3d272650	0.040808022
183	0x3e4d6f27	0.20061933
184	0xbdab7564	-0.08372
185	0x3d904378	0.07044119
186	0x3de158e5	0.110032834
187	0x3c1b01e0	0.009460896
188	0xbe070e05	-0.13188942
189	0xbdaecb6c	-0.085348934
190	0x3e126c78	0.1429919
191	0x3e1e24ae	0.1544368
192	0x3e3aac6a	0.18229833
193	0x3bc8e110	0.006130345
194	0x3e334bf1	0.17509438
195	0x3d0b5b6c	0.034022734
196	0x3c89094d	0.016728068
197	0xbb014624	-0.0019725645
198	0xbd15eacc	-0.036600873
199	0x3cc3aa22	0.023884837
200	0x3cc1cc20	0.023656905
201	0xbdd0f1c6	-0.102023646
202	0xbd054fa5	-0.032546658
203	0x3de2fcb4	0.110833555
204	0xbc6b741e	-0.014370946
205	0x3d83bc85	0.064324416
206	0x3df403f0	0.119148135
207	0xbd5966b2	-0.053076454
208	0x3c8ac103	0.016937738
209	0x3d8f3ac2	0.06993629
210	0x3ce339bf	0.027737496
211	0x3df82f5b	0.12118407
212	0x3dbca6b6	0.09211485
213	0xbccf5a34	-0.025311567
214	0x3dea62fb	0.1144466
215	0x3d356db1	0.044294063
216	0x3dad332c	0.08457026
217	0x3d1b3eda	0.037901737
218	0x3de02768	0.10945016
219	0xbdaa2a60	-0.08308864
220	0x3e0cf8f8	0.13766849
221	0x39f5c28f	0.00046875
222	0xbcdf1645	-0.027232299
223	0xbcc67ed2	-0.024230395
224	0xbd12f24a	-0.035875596
225	0x3dab44cb	0.083627306
226	0x3c1ad6c0	0.009450614
227	0x3dbc4e47	0.09194618
228	0x3d892936	0.066973135
229	0x3e158389	0.14600958
230	0x3c864efb	0.016395083
231	0x3da17fa7	0.07885676
232	0x3d2b32fa	0.041796662
233	0x3d824f0d	0.06362734
234	0x3dbbab48	0.09163529
235	0x3de4e226	0.11175947
236	0x3d93e0bd	0.072206
237	0x3db7f3e8	0.08982068
238	0x3e1c8ebd	0.15288825
239	0x3e152ff9	0.14569081
240	0x3e217021	0.1576543
241	0x3d0935f2	0.033498712
242	0x3c6a4fe8	0.014301278
243	0x3cd60770	0.026126593
244	0x3e1cdc26	0.15318355
245	0x3da0210f	0.078188054
246	0x3ddd7304	0.10812953
247	0x3e0205d6	0.12697539
248	0xbd4263c0	-0.04745841
249	0x3dc22a94	0.094807774
250	0x3e01d03b	0.1267709
251	0x3e20632d	0.15662833
252	0x3e33bccb	0.17552488
253	0x3d3e470f	0.046454486
254	0x3df0e1d3	0.117618226
255	0x3e44c585	0.19215973

bias f4 [64]
0	0x3ed5d094	0.41760695
1	0xbd3a5826	-0.04549422
2	0xbf9db0fa	-1.2319634
3	0x3f10c036	0.5654329
4	0xbf330055	-0.6992238
5	0xbd97cd7d	-0.07412241
6	0x3f2e41c8	0.68069124
7	0xbdc16e0f	-0.0944482
8	0x3f3b395c	0.731344
9	0x3e349522	0.17635015
10	0x3e205bc6	0.15660009
11	0xbda49530	-0.08036268
12	0xbd85b5ae	-0.06528793
13	0xbdbe5340	-0.092932224
14	0x3eef7a1e	0.46772856
15	0xbe32f89b	-0.17477648
16	0x3eb142ce	0.3462128
17	0xbf2bded5	-0.6713689
18	0xbc26b015	-0.010173817
19	0xbe36094c	-0.17776984
20	0x3f1b0384	0.6055224
21	0xbdad311b	-0.08456632
22	0x3cef7dc3	0.029234773
23	0x3f2a19fc	0.664459
24	0xbdec03ad	-0.115241386
25	0xbe064910	-0.13113809
26	0xbdfcdcd7	-0.12346809
27	0xbe97c07b	-0.29639038
28	0xbe13af41	-0.14422323
29	0xbdf434ea	-0.11924155
30	0xbc1daeee	-0.009624226
31	0xbbd0f6b6	-0.0063770665
32	0xbdb0ef5b	-0.086394034
33	0x3ef7dee3	0.48412237
34	0xbda0014b	-0.078127466
35	0x3f4b265a	0.79355395
36	0xbddfcddb	-0.10927936
37	0xbd104e3c	-0.03523086
38	0xbe318e79	-0.17339505
39	0xbe1390d9	-0.14410724
40	0x3e8229f1	0.25422624
41	0x3f0e212e	0.5551938
42	0x3ddf7a05	0.10911945
43	0xbd94ea6e	-0.072712764
44	0xbd671f3c	-0.05642627
45	0x3eeee0e6	0.4665596
46	0xbd8042b5	-0.06262723
47	0xbe170434	-0.14747697
48	0x3f43dc85	0.7650836
49	0x3f23262a	0.6373011
50	0x3f1bf86e	0.6092595
51	0xbd39a8ea	-0.045327105
52	0x3f294f51	0.6613665
53	0xbe2924ad	-0.16517897
54	0xbd029098	-0.031876177
55	0xbe2e43df	-0.17018078
56	0xbdf0e1c9	-0.11761815
57	0x3ed2e994	0.4119383
58	0x3f5d8198	0.8652587
59	0x3eb6048f	0.35550353
60	0xbb37d574	-0.0028050812
61	0x3f40f945	0.75380355
62	0x3f1a84ac	0.6035869
63	0xbe3345ca	-0.17507091

weight f4 [1, 64]
0	0x3dbe7d3f	0.093012325
1	0xbced68ee	-0.028980698
2	0xbf01fb9f	-0.5077457
3	0x3e26ce1b	0.1628956
4	0xbdeafdf1	-0.11474217
5	0x3d3e38e9	0.046440993
6	0x3e0137fd	0.12619014
7	0x3d5300d3	0.051514458
8	0x3e39ada6	0.18132648
9	0xbe468895	-0.1938804
10	0xbe141865	-0.14462431
11	0x3ca0a4fb	0.019609919
12	0x3d4babcc	0.049724385
13	0xbbbf4a03	-0.0058376803
14	0x3dd40f37	0.103544645
15	0xbd14a4ec	-0.036290094
16	0xbf108dbd	-0.56466275
17	0xbd94e673	-0.07270517
18	0xbd6d4048	-0.05792263
19	0x3cec2ba7	0.028829409
20	0x3dee4507	0.1163426
21	0xbd73bfcb	-0.05950908
22	0x3b99c522	0.0046926895
23	0x3e22fdf6	0.15917191
24	0xbd599134	-0.053116992
25	0x3d55ffcb	0.052245896
26	0xbcc16857	-0.023609323
27	0xbe42d7c2	-0.19027618
28	0xbe9e3a76	-0.30903977
29	0xbd821103	-0.06350901
30	0xbc1680be	-0.009185968
31	0x3d72b361	0.0592531
32	0x3c8b1889	0.016979473
33	0x3e1fe5c4	0.15614992
34	0x3d5f8e18	0.05457887
35	0x3ddb32c9	0.10703046
36	0x3b37850a	0.0028002881
37	0xbd5c8a15	-0.053842623
38	0xbc844945	-0.016148219
39	0x3d92644f	0.071480386
40	0xbf0e9dee	-0.5570973
41	0x3e06d490	0.13167024
42	0xbdbe57cc	-0.0929409
43	0xbc502334	-0.012703706
44	0xbb98cccf	-0.004663087
45	0x3e253696	0.16134104
46	0xbd25b804	-0.040458694
47	0xbc8bb542	-0.017054204
48	0x3de49dac	0.11162886
49	0x3df01de6	0.11724453
50	0x3e0afb12	0.13572338
51	0x3d6e85e6	0.058233164
52	0x3e642939	0.2228135
53	0x3d62297d	0.055215348
54	0x3c56ac61	0.013102622
55	0xbd16dcfd	-0.036831845
56	0x3a84c9b1	0.001013091
57	0xbe006684	-0.12539107
58	0x3e0d91f7	0.13825212
59	0x3d455b71	0.04818291
60	0x3cfd6707	0.030932916
61	0x3dcca49a	0.09992333
62	0x3e196ffd	0.14984126
63	0xbd6ef2c5	-0.05833699
