src/Fun_2/model/model_1024_128_64_0.01_600.pt (torch, 614831 bytes, 5 tensors)

weight f4 [128, 1128]
0	0xbd369e54	-0.044584587
1	0xbc7374f7	-0.01485943
2	0xbd282188	-0.041047603
3	0xbd6f0dd0	-0.058362782
4	0xbd156069	-0.036468897
5	0xbc8e610d	-0.017380262
6	0xbd1a5d1e	-0.03768646
7	0xbd82c517	-0.06385248
8	0xbd6eafb0	-0.058273017
9	0xbd5111b0	-0.05104226
10	0xbd918317	-0.071050815
11	0xbd93a50f	-0.07209217
12	0xbd5c6831	-0.053810302
13	0xbd0c584f	-0.034263905
14	0xbd3f2e42	-0.046674974
15	0xbdb55fa4	-0.088561326
16	0xbd6f7b05	-0.05846693
17	0xbd6c1c29	-0.057644043
18	0xbc98a517	-0.018633408
19	0xbd396e04	-0.045270935
20	0xbcb9b82f	-0.022670833
21	0xbd5584ea	-0.05212871
22	0xbd6e6a5b	-0.058206897
23	0xbd3267fe	-0.043556206
24	0xbd55d705	-0.05220701
25	0xbd2cd802	-0.04219819
26	0xbc7133af	-0.014721795
27	0xbca75923	-0.020428246
28	0xbd692797	-0.05692252
29	0xbc9d5154	-0.01920382
30	0xbd880bf5	-0.066429056
31	0xbd0416f6	-0.03224846
32	0xbc9d69d9	-0.019215511
33	0xbc9c179b	-0.019054225
34	0xbda1b1ab	-0.078952156
35	0xbce9d035	-0.028541664
36	0xbd687468	-0.05675164
37	0xbd0c6279	-0.0342736
38	0xbc650e03	-0.013980391
39	0xbd0327bc	-0.032020316
40	0xbd629bae	-0.05532425
41	0xbd74a272	-0.059725232
42	0xbd8e023b	-0.06934019
43	0xbd67b836	-0.05657216
44	0xbdcb7dc4	-0.09936097
45	0xbd10868c	-0.035284564
46	0xbd80a0e7	-0.0628069
47	0xbd5dd59c	-0.054158792
48	0xbc9fb433	-0.019495105
49	0xbd5a0be2	-0.05323399
50	0xbd711a29	-0.05886284
51	0xbd5934d3	-0.053028893
52	0xbd070c8c	-0.03297095
53	0xbd4a4544	-0.049382463
54	0xbce258ae	-0.027630176
55	0xbcd51457	-0.026010675
56	0xbd2b6610	-0.04184538
57	0xbd2cfe6d	-0.042234827
58	0xbd447a2f	-0.047968086
59	0xbd851b9d	-0.064994074
60	0xbd320112	-0.043458052
61	0xbdaa36b5	-0.08311216
62	0xbd86ee24	-0.065883905
63	0xbdab1a79	-0.08354659
64	0xbd439041	-0.047744993
65	0xbd92f93f	-0.07176446
66	0xbd8947e6	-0.06703167
67	0xbc5111b0	-0.012760565
68	0xbc504c1d	-0.012713459
69	0xbd36604b	-0.044525426
70	0xbd883f6b	-0.06652721
71	0xbd34e55b	-0.044164043
72	0xbd3f0440	-0.046634912
73	0xbda0c3ec	-0.07849869
74	0xbd86826b	-0.06567844
75	0xbd8b3eae	-0.067990646
76	0xbdcf12b3	-0.101109885
77	0xbdb38412	-0.08765425
78	0xbd054748	-0.032538682
79	0xbd36eec9	-0.044661317
80	0xbd33475c	-0.043769225
81	0xbd1a71c4	-0.03770615
82	0xbd12dff8	-0.035858124
83	0xbd59dc0c	-0.05318837
84	0xbd680857	-0.05664858
85	0xbd88728a	-0.066624716
86	0xbc6746d5	-0.014116009
87	0xbd0b44e0	-0.03400123
88	0xbc16a165	-0.009193753
89	0xbd73b4fa	-0.059498765
90	0xbd7aca9c	-0.06122838
91	0xbc9f788a	-0.019466657
92	0xbd668126	-0.05627551
93	0xbdb60f44	-0.088896304
94	0xbd0af22e	-0.033922367
95	0xbd8b44cf	-0.068002336
96	0xbd7b8e9f	-0.06141531
97	0xbd0d64b6	-0.034519874
98	0xbd89cef8	-0.06728929
99	0xbd12aabd	-0.03580736
100	0xbd3c3754	-0.045951203
101	0xbda25340	-0.07926035
102	0xbd077789	-0.033072982
103	0xbd6aeff3	-0.05735774
104	0xbd014288	-0.03155759
105	0xbc2f1921	-0.010687144
106	0xbd54e273	-0.05197377
107	0xbd3cf626	-0.046133183
108	0xbca4da55	-0.02012364
109	0xbd072068	-0.03298989
110	0xbd5369a4	-0.05161442
111	0xbd8bdd8a	-0.068293646
112	0xbd1c1252	-0.03810341
113	0xbd91e1d6	-0.07123153
114	0xbcc0b222	-0.02352244
115	0xbd66a4dd	-0.05630957
116	0xbdaa694c	-0.08320865
117	0xbd86b105	-0.065767325
118	0xbd6df681	-0.058096413
119	0xbc778cf0	-0.015109286
120	0xbd336a1c	-0.043802366
121	0xbc0d0c5d	-0.008608905
122	0xbcd4c7a3	-0.0259741
123	0xbd9a3c46	-0.075310275
124	0xbd803bf4	-0.06261435
125	0xbd864a79	-0.06557173
126	0xbccf9a71	-0.025342198
127	0xbd0b948f	-0.034077223
128	0xbd1fbda1	-0.038999204
129	0xbc5db218	-0.01353123
130	0xbc6f7e90	-0.014617577
131	0xbcff3d30	-0.031157106
132	0xbbf09382	-0.007341803
133	0xbd2449af	-0.040109333
134	0xbd7b2a21	-0.061319474
135	0xbd83714d	-0.06418095
136	0xbd7c66b2	-0.061621375
137	0xbd20d6f9	-0.039267514
138	0xbd811259	-0.06302328
139	0xbda579f5	-0.08079902
140	0xbdb3e4dd	-0.087838866
141	0xbdb223f0	-0.08698261
142	0xbd6cf69a	-0.057852365
143	0xbd2e6262	-0.042574294
144	0xbd5cecf7	-0.053936925
145	0xbd40ea4b	-0.04709844
146	0xbc2914ee	-0.010319931
147	0xbcfef9e4	-0.031125017
148	0xbc897fbf	-0.016784547
149	0xbcf57b81	-0.029966118
150	0xbd07fab1	-0.033198062
151	0xbd28384e	-0.04106932
152	0xbcd91b0d	-0.026502157
153	0xbd30e3f1	-0.043186132
154	0xbd15c799	-0.036567304
155	0xbd4cde2b	-0.050016563
156	0xbd31576b	-0.04329626
157	0xbd9f4d9c	-0.07778475
158	0xbc9f52dd	-0.019448692
159	0xbd8a8189	-0.06762988
160	0xbd0cebc4	-0.03440453
161	0xbd7dbec5	-0.06194951
162	0xbd42fa80	-0.047602177
163	0xbcd298d5	-0.025707642
164	0xbd18856a	-0.03723661
165	0xbd1368c2	-0.035988577
166	0xbd16bfe5	-0.0368041
167	0xbda9fff0	-0.08300769
168	0xbd7ead55	-0.06217702
169	0xbd969307	-0.07352262
170	0xbd3065df	-0.0430659
171	0xbd58c84b	-0.05292539
172	0xbd59f519	-0.05321226
173	0xbd0c0ffe	-0.03419494
174	0xbd7d7c5f	-0.061886188
175	0xbd2b57cc	-0.041831776
176	0xbd44657d	-0.04794835
177	0xbd644917	-0.055733766
178	0xbd219c30	-0.039455593
179	0xbda9831d	-0.08276961
180	0xbc383e82	-0.011245372
181	0xbd7ff65d	-0.06249081
182	0xbd9ba022	-0.07598902
183	0xbccbafbf	-0.024864076
184	0xbd35b24a	-0.044359483
185	0xbd678c15	-0.056530077
186	0xbd304f9b	-0.043044668
187	0xbd38e6f5	-0.045142133
188	0xbd81f357	-0.063452415
189	0xbcf9b52c	-0.030481897
190	0xbd33092b	-0.043709915
191	0xbd7bb36a	-0.0614504
192	0xbd15e06b	-0.036590975
193	0xbd135e3c	-0.03597854
194	0xbd8ff1c4	-0.07028535
195	0xbd3a4e1f	-0.04548466
196	0xbc66c5b5	-0.014085223
197	0xbd4d215a	-0.050080635
198	0xbd642ed7	-0.055708732
199	0xbcab0b5e	-0.020879444
200	0xbc9fc3f3	-0.019502616
201	0xbd6a11fe	-0.057146065
202	0xbd4bcaf2	-0.04975409
203	0xbc6cb707	-0.014447934
204	0xbcdb8a6c	-0.026799403
205	0xbd32126b	-0.043474596
206	0xbd79507a	-0.060867764
207	0xbc486c18	-0.012232803
208	0xbd870532	-0.06592788
209	0xbc835519	-0.016031789
210	0xbd416cfe	-0.047223084
211	0xbd362f4d	-0.044478703
212	0xbdadbfed	-0.084838726
213	0xbd37008d	-0.04467826
214	0xbd886db0	-0.06661546
215	0xbcd8c295	-0.026459971
216	0xbc4e0f0f	-0.012576832
217	0xbd841010	-0.06448376
218	0xbd9c57f5	-0.07633964
219	0xbd591364	-0.052997008
220	0xbd47f38e	-0.048816256
221	0xbd5840cb	-0.052796166
222	0xbd1ea4f2	-0.038731523
223	0xbd451a01	-0.048120502
224	0xbd82cc6b	-0.06386646
225	0xbd85f8bf	-0.06541585
226	0xbd63bba3	-0.055598866
227	0xbcb6cf1f	-0.02231556
228	0xbd92268f	-0.07136261
229	0xbcb97997	-0.022640986
230	0xbd3dad62	-0.04630793
231	0xbd80f068	-0.06295854
232	0xbd87b83f	-0.06626939
233	0xbd0d7828	-0.034538418
234	0xbcb2755a	-0.021784473
235	0xbd0f04dc	-0.034916744
236	0xbd336eb5	-0.04380675
237	0xbd32256f	-0.04349273
238	0xbc010960	-0.00787577
239	0xbc819142	-0.015816335
240	0xbd8746b7	-0.06605285
241	0xbc7b091b	-0.015321995
242	0xbc693bef	-0.014235481
243	0xbd6e0d1c	-0.05811797
244	0xbd4006d2	-0.046881504
245	0xbd8873e8	-0.06662732
246	0xbcaea7d7	-0.021320267
247	0xbc60cbc9	-0.013720461
248	0xbd2976bf	-0.04137301
249	0xbd521b41	-0.051295523
250	0xbd84a706	-0.0647717
251	0xbce99fa8	-0.028518513
252	0xbd2da586	-0.042394184
253	0xbd023539	-0.03178904
254	0xbd930877	-0.07179349
255	0xbd529347	-0.051409986

bias f4 [128]
0	0xbccf4328	-0.025300577
1	0xbcfc20d2	-0.030777369
2	0xbd4ce54f	-0.050023373
3	0xbd91182e	-0.0708469
4	0xbdb20152	-0.08691658
5	0xbcddd461	-0.02707881
6	0xbae77052	-0.0017657375
7	0xbd25bc78	-0.04046294
8	0xbcff89bb	-0.031193605
9	0xbd9c0930	-0.0761894
10	0xbd243a12	-0.040094443
11	0x3f69158b	0.91048497
12	0x3f378687	0.7168965
13	0xbd517f51	-0.05114681
14	0x3cd66e2d	0.026175583
15	0xbd68206a	-0.056671537
16	0xbd917fe1	-0.07104469
17	0x3f703b8f	0.9384088
18	0xbdad1e96	-0.084530994
19	0xbd13bb3b	-0.03606723
20	0xbb0f8024	-0.0021896446
21	0xbd44c1ee	-0.04803651
22	0x3fbfe46c	1.4991584
23	0xbcf91102	-0.030403618
24	0xbd118065	-0.035522837
25	0xbafa171d	-0.0019080375
26	0x3c626d31	0.013819979
27	0xbd9088ed	-0.070573665
28	0xbcdc77a3	-0.026912516
29	0xbd17d523	-0.037068497
30	0xbd960e5d	-0.07326958
31	0xbd2ba8ff	-0.041909214
32	0xbd8d0d09	-0.06887252
33	0xbdabdbe7	-0.083915524
34	0xbd8c2410	-0.06842816
35	0xbd9392a5	-0.072057046
36	0xbd7fd47c	-0.0624585
37	0xbd5f2c9b	-0.0544859
38	0xbd9ca3e0	-0.07648444
39	0xbd8a793d	-0.067614056
40	0xbd231e28	-0.03982368
41	0xbcbc28f5	-0.022968749
42	0xbcb2fd8a	-0.021849412
43	0xbc95db88	-0.018293157
44	0xbc21f85b	-0.009885873
45	0xbd545902	-0.051842697
46	0xbd2a2f84	-0.04154922
47	0xbd3ad051	-0.045608822
48	0xbd3e3984	-0.04644157
49	0xbd25df2f	-0.040496048
50	0xbd805117	-0.06265467
51	0xbd5716f2	-0.052512117
52	0xbd7c2a1f	-0.061563607
53	0x3abd6aa5	0.0014451338
54	0xbd816def	-0.06319796
55	0xbcd69930	-0.026196092
56	0xbd864515	-0.06556145
57	0xbd232bee	-0.039836816
58	0xbd565fca	-0.052337445
59	0xbaeb055c	-0.0017930674
60	0xbcab9e59	-0.02094953
61	0xbdb66f71	-0.089079745
62	0xbcd74515	-0.026278058
63	0xbc7ce15b	-0.015434588
64	0xbd7ab0c8	-0.061203748
65	0x3f39d0af	0.7258405
66	0xbcfcf95a	-0.030880619
67	0xbd071500	-0.03297901
68	0xbd1a4697	-0.037664976
69	0xbbcb96fd	-0.0062130676
70	0xbd55698f	-0.05210262
71	0xbdad4bf4	-0.084617525
72	0xbd223056	-0.039596878
73	0xbd9b1405	-0.07572178
74	0x396951ba	0.00022251057
75	0xbd148f34	-0.03626938
76	0xbc9a8e62	-0.018866722
77	0xbd940b17	-0.07228678
78	0xbd618bbc	-0.0550649
79	0xbd4c4b6b	-0.04987661
80	0xbd478667	-0.04871216
81	0xbbeddee1	-0.0072592353
82	0xbd88d108	-0.066804945
83	0xbab52215	-0.0013819361
84	0xbcb2e785	-0.021838913
85	0xbd0360b2	-0.032074638
86	0xbd329fc6	-0.043609403
87	0xbc97bfae	-0.018524017
88	0x3f665f88	0.8998952
89	0xbd8e725e	-0.069554076
90	0xbcc8107a	-0.02442192
91	0xbd2f4cad	-0.042797733
92	0xbd84c356	-0.0648257
93	0xbdb49f0c	-0.08819398
94	0xbbd59b1a	-0.0065187337
95	0xbcc24fb3	-0.023719644
96	0x3f37d472	0.7180854
97	0xbd60edb6	-0.0549142
98	0xbd06ae0d	-0.03288083
99	0xbce8c132	-0.028412435
100	0x3f32f760	0.69908714
101	0x3c973d23	0.01846177
102	0xbd7f83b5	-0.062381465
103	0xbbe20b9f	-0.006898358
104	0xbd99125e	-0.074742064
105	0xbb10bb1f	-0.002208419
106	0xbd0110dc	-0.03151022
107	0xbd93ee58	-0.07223195
108	0xbdb16afe	-0.08662985
109	0xbc6781e9	-0.014130094
110	0xbdaaeb84	-0.08345702
111	0xbd3df0ca	-0.046372212
112	0xbcfa1765	-0.030528734
113	0xbd7c6adb	-0.061625343
114	0x3c1b9327	0.009495533
115	0x3f8e4039	1.1113349
116	0xbd479c73	-0.048733186
117	0xbd633673	-0.05547185
118	0x3f4f8cbc	0.8107412
119	0xbc4114f0	-0.011784777
120	0xbc73d0c6	-0.014881318
121	0xbd94e40d	-0.0727006
122	0x3fbf2b98	1.4935179
123	0xbd484edf	-0.048903342
124	0xbd97430e	-0.073858365
125	0xbd4a96fa	-0.04946039
126	0xbd598c71	-0.05311245
127	0xbd1f2d7f	-0.038861748

weight f4 [64, 128]
0	0xbd265b77	-0.04061457
1	0xbd5c0345	-0.053714056
2	0x3dac3d67	0.08410149
3	0xbcaed4dc	-0.021341734
4	0x3d2a4ead	0.041578937
5	0xbd9fee52	-0.07809128
6	0xbddc0148	-0.10742432
7	0xbde3209e	-0.110902056
8	0xbdd2052a	-0.10254891
9	0x3da4b10c	0.080415815
10	0x3c1896c1	0.009313286
11	0x3d8d1142	0.06888057
12	0x3c443901	0.011976481
13	0x3dbec5d7	0.09315079
14	0x3d07ceaf	0.033156093
15	0x3c0393b8	0.008030824
16	0x3ced021f	0.028931675
17	0x3d22fa32	0.039789386
18	0x3df3dc4c	0.11907253
19	0x3dc7e85c	0.09761116
20	0x3c7fe449	0.015618392
21	0x3d3ac362	0.045596488
22	0xbbddbb51	-0.0067667146
23	0x3dbd8bb9	0.092551656
24	0xbb354cb2	-0.0027664122
25	0xbd21be6b	-0.039488237
26	0x3c841229	0.01612194
27	0xbb5d38b2	-0.0033755717
28	0x3d2d9e35	0.042387206
29	0x3df099d3	0.1174809
30	0x3d92b8a0	0.07164121
31	0xbcc79811	-0.024364503
32	0x3db9bf5a	0.090697005
33	0x3d831ad8	0.064016044
34	0xbd1e28da	-0.038613178
35	0x3c7df062	0.015499206
36	0x3e1176b8	0.14205444
37	0x3dee1e0e	0.11626826
38	0x3e0ee41a	0.13954201
39	0xbc90bede	-0.017669138
40	0x3ca1609d	0.01969939
41	0x3c3875e3	0.011258575
42	0x3c84dca0	0.016218483
43	0x3b853e0d	0.004066235
44	0xbc9fad42	-0.019491795
45	0x3c51db38	0.0128086135
46	0x3c5456d1	0.012960152
47	0x3d1b1647	0.037863042
48	0x3dfede9b	0.124448024
49	0x3be47f1c	0.0069731604
50	0xbc121d9e	-0.008918194
51	0xbc508db2	-0.012729095
52	0x3e0c880e	0.13723776
53	0x3d4d211b	0.0500804
54	0x3c694cf5	0.014239539
55	0x3d03cd28	0.032178074
56	0x3dc46db4	0.09591237
57	0xbcbb40a5	-0.022857973
58	0x3cda53e2	0.026651327
59	0xbd9a9621	-0.07548166
60	0x3af8d2df	0.0018983743
61	0x3d4b9c7a	0.049709775
62	0xbd817b92	-0.06322397
63	0x3d2a33b9	0.041553233
64	0xbd811c3e	-0.06304215
65	0xbdb00c26	-0.08596067
66	0x3c8ad0eb	0.016945323
67	0x3d5d09e1	0.0539645
68	0xbce3633b	-0.027757278
69	0xbda43825	-0.08018521
70	0xbd0d059d	-0.03442918
71	0xbc573e05	-0.013137345
72	0xbb369f59	-0.0027865975
73	0x3c9495fd	0.018137926
74	0xbdc99023	-0.09841945
75	0x3df8e4bd	0.12153003
76	0xbd8f349f	-0.069924586
77	0x3d39e834	0.04538746
78	0x3d9ded0c	0.07711229
79	0x3c6b2513	0.014352101
80	0x3ca51dd3	0.020155823
81	0x3d1a1073	0.037613343
82	0xbc50e03b	-0.012748773
83	0x3d3d1a52	0.04616768
84	0xbdaca311	-0.0842954
85	0x3d02ba7c	0.031916127
86	0x3cc510e2	0.024055902
87	0xbda277ec	-0.079330295
88	0x3d34e675	0.044165093
89	0xbcc58c12	-0.024114642
90	0xbc3369a9	-0.010950484
91	0x3d1de001	0.038543705
92	0xbd9eda69	-0.07756502
93	0x3d8a3d23	0.06749942
94	0x3d6a3606	0.057180427
95	0x3d192812	0.03739173
96	0x3b1d35e7	0.0023988427
97	0x3c1447b4	0.0090502985
98	0xbc825eb1	-0.015914293
99	0x3c4247c8	0.011857934
100	0x3d20b68a	0.039236583
101	0xbd74ebf2	-0.059795327
102	0x3d6e778a	0.05821947
103	0x3d104b15	0.035227854
104	0x3db8616f	0.09002959
105	0xbdf2961e	-0.11845039
106	0x3d81bac4	0.06334451
107	0x3b884822	0.0041589895
108	0x3c476cc0	0.012171924
109	0xbc97e90a	-0.018543739
110	0xbb672467	-0.00352695
111	0x3daed01d	0.08535788
112	0x3dca71dd	0.09884999
113	0x3dc7f98a	0.09764393
114	0xbc9cc228	-0.01913555
115	0xbda33a4c	-0.079701036
116	0xbb600030	-0.00341798
117	0xbc8f41a9	-0.017487364
118	0x3d3cf4d4	0.046131924
119	0x3c12fc1a	0.0089712385
120	0xbd7d1276	-0.061785184
121	0x3de99150	0.11404669
122	0x3da478e0	0.080308676
123	0x3e151ab7	0.14560972
124	0x3d09cb2c	0.033641025
125	0x3d97474d	0.073866464
126	0x3d90ea73	0.07075968
127	0x3d3175ba	0.043325163
128	0xbcfb4cad	-0.03067621
129	0xbd6387ea	-0.05554954
130	0xbbf459a5	-0.0074569755
131	0xbd4d716c	-0.050156996
132	0xbdcfe55f	-0.10151171
133	0x3a722670	0.0009237295
134	0xbcf3d83b	-0.029766193
135	0xbcf8fcc0	-0.030393958
136	0xbda39ca8	-0.07988864
137	0xbda9bbe9	-0.08287794
138	0xbdb4c434	-0.08826485
139	0xbd8e0f98	-0.06936568
140	0xbd92ee33	-0.07174339
141	0x3c10dac5	0.008841221
142	0xbda598ba	-0.08085771
143	0xbdcf7bb8	-0.10131019
144	0xbe0567b1	-0.13027836
145	0xbe0b6d84	-0.13615996
146	0xbcbf478e	-0.02334955
147	0xbc1c53a2	-0.009541424
148	0xbe17998a	-0.14804664
149	0xbdc3c426	-0.09558897
150	0x3c54bb31	0.012984083
151	0x3c9e4722	0.019321028
152	0xbd34b721	-0.044119958
153	0xbda863de	-0.08222173
154	0x3c4f4834	0.012651492
155	0xbdd338bd	-0.10313556
156	0x3c899f3d	0.016799564
157	0x3cd5118e	0.026009347
158	0xbd73c97d	-0.059518326
159	0x3cb2dfef	0.021835295
160	0xbd80574e	-0.06266652
161	0xbe0db6f9	-0.1383933
162	0xbe125870	-0.14291549
163	0xbe014764	-0.1262489
164	0xbd8fb5f2	-0.07017125
165	0xbd16606a	-0.03671304
166	0xbd74d2f6	-0.0597715
167	0xbd5387e0	-0.051643252
168	0xbce106d4	-0.027469076
169	0xbe129afc	-0.14316934
170	0xbce8822d	-0.028382385
171	0xbde952cb	-0.11392745
172	0xbc92fd30	-0.017942995
173	0xbca8afb8	-0.020591602
174	0xbdcf7fba	-0.10131784
175	0xbde0cd91	-0.10976709
176	0xbcd1f6d1	-0.025630387
177	0xbd854140	-0.06506586
178	0x3c113755	0.00886329
179	0xbdaca5d1	-0.084300645
180	0xbdb2c1aa	-0.08728345
181	0xba1254d5	-0.0005582099
182	0xbc8dad14	-0.017294444
183	0x3cd3752e	0.025812712
184	0xbde2fd47	-0.11083465
185	0xbdbb4ee7	-0.09145909
186	0xbd31d25b	-0.0434135
187	0xbcf6784b	-0.030086657
188	0x3d9c3bd7	0.07628601
189	0xbc9d3a8e	-0.01919296
190	0xbbf5d573	-0.007502252
191	0xbdaabe43	-0.08337071
192	0xbd75d826	-0.06002059
193	0x3c2a3bd0	0.010390237
194	0xbb0c2ec7	-0.0021390186
195	0xbcca4941	-0.024693133
196	0xbc88ede9	-0.016715007
197	0xbe11c8b2	-0.14236715
198	0x3b338bf7	0.0027396658
199	0xbd48e144	-0.049042955
200	0xbccd835f	-0.025087057
201	0xbd81e172	-0.063418284
202	0xbde5c3d7	-0.11218994
203	0xbdc3abf6	-0.09554283
204	0xbd705fbe	-0.058685057
205	0x3c9825bf	0.018572686
206	0xbdcebbbe	-0.10094403
207	0xbcde3468	-0.027124599
208	0xbd16323c	-0.036669
209	0xbe0a66f1	-0.13515832
210	0xbdd048a4	-0.10170105
211	0xbe1440c9	-0.14477839
212	0xbc4513d0	-0.012028649
213	0xbde71225	-0.11282758
214	0x3ce75647	0.028239382
215	0xbdf661a1	-0.1203034
216	0xbc316b7c	-0.010828849
217	0x3cd0ec02	0.025503162
218	0xbcc39960	-0.023876846
219	0xbe09241c	-0.13392681
220	0xbde3dd90	-0.11126244
221	0xbd7f51a7	-0.06233373
222	0x3ae5df27	0.0017537818
223	0xbd748f78	-0.059707135
224	0xbcb259dd	-0.021771366
225	0xbe0f3abb	-0.13987248
226	0xbd635baf	-0.05550736
227	0xbd965f93	-0.07342448
228	0xbd31f069	-0.043442164
229	0xbdbe10d9	-0.09280557
230	0xbda6afac	-0.081389755
231	0xbe110317	-0.14161335
232	0xbe0865c3	-0.13320069
233	0xbdf3c6b7	-0.11903136
234	0xbac785cf	-0.0015222373
235	0xbd871bad	-0.065970756
236	0xbde00cb9	-0.10939927
237	0xbb317909	-0.00270802
238	0xbdf1130f	-0.11771213
239	0xbc9e7a4a	-0.019345421
240	0xbd41b464	-0.047291175
241	0xbc6a34ff	-0.014294862
242	0xbdef902c	-0.116974205
243	0xbc81391c	-0.015774302
244	0xbdab2e71	-0.08358467
245	0x3bbd9235	0.0057852515
246	0xbe13b1b7	-0.14423262
247	0xbaff436f	-0.0019475053
248	0xbdcf5039	-0.10122723
249	0xbca221c8	-0.019791499
250	0xbd73be49	-0.059507642
251	0x3c92d9d8	0.017926142
252	0xbc854566	-0.016268443
253	0xbd7283fa	-0.059207894
254	0xbdbf2dce	-0.093349084
255	0xbdf29c65	-0.11846236

bias f4 [64]
0	0x3ebe31bc	0.3714732
1	0xbd7becc3	-0.06150509
2	0x3ef6888e	0.48151058
3	0xbd85fb66	-0.06542091
4	0xbd0bc85f	-0.034126636
5	0xbcb140a2	-0.021637265
6	0xbc71c2e4	-0.014755938
7	0x3f4f3b18	0.80949545
8	0xbd815ddd	-0.06316731
9	0x3f179fba	0.592281
10	0x3ef9923e	0.48744386
11	0xbe02b057	-0.12762581
12	0xbdf59b98	-0.11992568
13	0xbd1563a6	-0.036471985
14	0x3efae556	0.49003094
15	0x3f0a99c5	0.54140884
16	0x3f374f62	0.71605504
17	0xbdea362a	-0.11436112
18	0x3fc2e152	1.5225012
19	0xbce628ee	-0.028095689
20	0xbde78a50	-0.11305678
21	0xbddd37f4	-0.10801688
22	0xbcf9ae4e	-0.030478623
23	0xbae1a01a	-0.0017213852
24	0xbd7d1c15	-0.06179436
25	0xbdf893b3	-0.121375464
26	0x3f0c0c9a	0.5470673
27	0xbddbced2	-0.10732807
28	0xbbecb3e8	-0.007223595
29	0xbcacab65	-0.021077821
30	0xbdd2de22	-0.10296275
31	0xb9f87b84	-0.00047394272
32	0xbd89c40a	-0.067268446
33	0xbc85e8ba	-0.016346324
34	0x3ec2d312	0.3805166
35	0xbcf6e834	-0.03014002
36	0x3ed80e92	0.42198616
37	0xbe15b72d	-0.14620657
38	0x3f5aa37b	0.854057
39	0xbd9fc25a	-0.078007415
40	0xbd8b7356	-0.06809108
41	0xbddc1930	-0.10746992
42	0xbe0dc9f0	-0.13846564
43	0xbda6da72	-0.08147134
44	0xbd242702	-0.040076263
45	0x3efac269	0.48976448
46	0x3f838f23	1.0278057
47	0xbc8ee31e	-0.017442282
48	0x3e7329f2	0.2374647
49	0xbeb2a4c3	-0.34891328
50	0x3da6db7c	0.08147332
51	0xbdc39e1e	-0.09551643
52	0xb998f93b	-0.0002917739
53	0x3f0ac58e	0.54207695
54	0xbd9f47c6	-0.077773616
55	0x3e760aa0	0.2402749
56	0x3c87f92c	0.016598307
57	0xbc3351ae	-0.010944767
58	0xbfa4aeb1	-1.2865812
59	0xbda8ba51	-0.08238662
60	0xbb043cf2	-0.0020177928
61	0xbd1307ac	-0.03589599
62	0xbd86fd47	-0.065912776
63	0xbd5e64b9	-0.054295275

weight f4 [1, 64]
0	0x3d2731cd	0.040818978
1	0x3d6fae4c	0.05851583
2	0x3da62283	0.08112051
3	0x3d73a100	0.059479713
4	0x3d702a0c	0.05863385
5	0x3ce7af4b	0.028281828
6	0xbccddcfc	-0.025129788
7	0x3e88abf6	0.26693696
8	0xbca3ca93	-0.019994056
9	0x3ddca18f	0.10773002
10	0x3dba3115	0.09091393
11	0x3cf498f4	0.02985809
12	0x3d2065be	0.03915953
13	0x3cb33c77	0.021879418
14	0x3daecf45	0.08535627
15	0x3e01796a	0.12643972
16	0xbdab69ef	-0.083698146
17	0x3c474a33	0.012163687
18	0xbe59602b	-0.21228091
19	0xbd53eb94	-0.051738337
20	0xbcdcf994	-0.026974477
21	0x3d1a02fa	0.037600495
22	0xbd22306a	-0.039596952
23	0x3bf630aa	0.0075131254
24	0xbdcfe086	-0.10150246
25	0xbd136081	-0.035980705
26	0x3e03882c	0.12844914
27	0xbcfb2c51	-0.03066078
28	0xbd2e223c	-0.042513117
29	0xbc2782be	-0.010224042
30	0xbcdba162	-0.026810352
31	0x3bf67254	0.007520953
32	0xbcfb6328	-0.03068693
33	0x3cd87550	0.026423126
34	0x3db6317e	0.08896159
35	0xbd246344	-0.04013373
36	0x3d837be4	0.06420115
37	0x3d625f01	0.055266384
38	0x3e38b675	0.18038352
39	0xbc6ff620	-0.014646083
40	0x3a6e94e7	0.00091011677
41	0xbce9e1be	-0.028550025
42	0x3ac49a9b	0.0014999689
43	0x3da9b05a	0.082855895
44	0x3c00ffd6	0.007873496
45	0x3db96a7a	0.09053512
46	0x3ea61af5	0.32442442
47	0x3d41ced8	0.047316402
48	0x3ca06655	0.019580046
49	0xbd9c3248	-0.07626778
50	0xbbe84e20	-0.0070893914
51	0xbcfd7dc8	-0.030943766
52	0x3c093b1c	0.008375909
53	0x3dac2e45	0.08407263
54	0x3befa180	0.0073129535
55	0x3c24dd93	0.010062593
56	0xba85f5fe	-0.0010220406
57	0x3d6413de	0.05568301
58	0xbe734b1c	-0.2375912
59	0xbd0443cf	-0.03229123
60	0x3d8893b6	0.066687986
61	0xbd843f5b	-0.064573966
62	0xbd6f82e1	-0.058474425
63	0xbd712103	-0.058869373
