src/Fun_2/model/model_1024_64_256_0.001_400.pt (torch, 360119 bytes, 5 tensors)

weight f4 [64, 1128]
00000000: 1be0 b8bc 134c eabc 5fdc c6bc 7075 e83c
00000010: c148 983b a9c6 70bb f29d 153c 9cd8 41bc
00000020: 8b89 f1bc 72c1 9e3c 4515 c2bb 64dc 873c
00000030: ff3e 593c fc60 df3c 919d 033c 980c 67bc
00000040: 6dba ec3c b6f6 d4bc c7b7 b33b 8af4 7ebb
00000050: b25e 0d3d 4ed3 b43c 09c7 26bd 254c c73c
00000060: b300 e93c 6db6 2c3b d399 893c 1641 323b
00000070: 9891 fa3b 8d11 fe3b 7813 413c 5456 3fbd
00000080: e2e8 f4bb 9376 053c 01ac f33b b01f f3bc
00000090: 40c3 b4bb 1b8e 8dbc 478f c8ba 55d0 713d
000000a0: 7b4b 203d 6633 8bbc 7750 b4bc 7bc6 7f3a
000000b0: aca0 41bc 80dd 953c 3800 64bc 5573 ddbc
000000c0: bc53 40bc edff 84bc b370 e3bb 2569 13bb
000000d0: 7f2f c3bc bd37 8a3a f841 0abd 3c13 a3bc
000000e0: 30bb 993b ee42 7f3c d76a 17bd bcd8 983c
000000f0: 10d7 683c f530 663c d3c3 1a3c 8ab5 3a3b
00000100: dc7d d23c 0365 883c b57e 443c ce0b 9d3c
00000110: 0ca6 a139 74d9 e93c 932b bcbc e55e 8d3b
00000120: c53c 8e3c 1631 11bc 3186 ffbb 77ff 053c
00000130: 742e aa3c a46d 3fbb 69b3 eb3c 9a6f 063b
00000140: 1aa6 8f3c ecca 5a3b deed 78bc 41ef 643c
00000150: 1671 f63b 352a d83c 9df9 ab3b 204d 883c
00000160: 643f 943b c1ea c43c 3c0f 7fbc f8c3 62bb
00000170: df02 923c f1e7 fb3c 68c8 44bc 6dad c4bc
00000180: 0a3c 94bb 9311 023c a5d7 14bc f668 e23a
00000190: 7f9a 06bd d1e9 4ebd 739f 7039 d600 233d
000001a0: acc5 05bb 1019 3b3d 1b54 92bc abe6 03bc
000001b0: ea43 a5bc 1d7b 00bd ffb2 a63c 4ea6 b2bc
000001c0: 9201 9cbc 333e e63b cdb0 57b9 0d3f 563c
000001d0: 5cd4 cdbc f5b0 74bc eb73 f63c a4b0 3f3c
000001e0: b151 37bc 7527 283d 73c7 083d b9b8 0ebc
000001f0: d22f 173c ecdb 8cbc 787e 41bc 92f9 eabb
00000200: 5f68 bf3c e1ce ac3b f2fe cb3c e2d5 0ebc
00000210: 7eed 543b c3c6 a2bc 2f9b d1bc 34aa 073d
00000220: 573b 22bc 46cb b4bc 0ca3 5d3c 96d4 993c
00000230: 16e8 313c 1fd9 e8bc a71f 123c f3ac 053d
00000240: e39c 243c b04c 473c 0690 a13a a687 d33c
00000250: ce10 3a3c 3215 9e3c 1321 8ebc 1910 c83c
00000260: b9e9 a33c 8622 cc3a bccb ea3c 3b59 8f3c
00000270: 5602 213c 257b f0bb f306 5d3c 31a9 fa3c
00000280: 1c15 243c 969c b43c c0f4 c1bc abef dfbc
00000290: 25f8 08bd 0624 d43b 8909 8ebc f4de 1cbc
000002a0: c2bf e03c fed5 04bc 8bd1 1abc f778 1b3c
000002b0: 6186 093c c149 c2bb 4c48 1c3c 4aa2 37bc
000002c0: 6967 3a3c 4e5d 383b f88d 62bc f633 22bc
000002d0: 11d1 a137 15ea c3bc 32e3 833c 41dc 04bd
000002e0: fde6 50bc 4ca2 183c c8e9 b23c 2c47 4d3d
000002f0: 24da 44bc b2a2 243c d705 7abc 58cb 98bc
00000300: be79 2abc ebae 82bc c768 e33c 12fe cbba
00000310: cab6 c33c b736 f1bb dc03 ef3c 548a c4bc
00000320: 81eb a93c e00f 68bc 196e 95bb 9dde 10bd
00000330: 7fc6 453c e9de b5bc 6e90 583b 30e6 023d
00000340: 4f59 a03b 92fc 503c 463b 053c bbca 223a
00000350: 708a 0a3d d673 dc3b 5a37 be3c 7977 2e3d
00000360: 0bcb d93c 9f3b cdba 066a 37bd 965d 1e3d
00000370: 45f3 a03c 259e b93c 1c3f 773c e7c8 a13c
00000380: 180b a53b f66a fd39 484a f13c 2290 a7bc
00000390: d7b8 1a3c 7b43 0cbd 5eda 73bc 2a84 2dbc
000003a0: 77f5 b03a e46c d5bb 47db 463c 238e cebb
000003b0: 41bc ee3c 6b38 ccbc 4035 173d 7dae 88bc
000003c0: d888 c93b 4307 3dbc a7a0 4a3c 0d06 a2bc
000003d0: 7ccd 7bbc 1a1c 73bc 0fdc ac3c 9a55 ebbc
000003e0: 01b1 d9bc 8e82 22bd 2a83 a33c 3671 26bd
000003f0: 988b f2bc e3b4 4d3d 1a81 5c3c 0346 ba3b
-0.0225678 -0.028600728 -0.024275003 0.028376311 0.004647345 -0.0036739504 0.009131895 -0.011831429
-0.02948453 0.019379351 -0.0059229457 0.016584583 0.013259648 0.027267925 0.008033172 -0.014102124
0.028897488 -0.025996547 0.0054845545 -0.003890308 0.034514137 0.022073414 -0.04071716 0.0243283
0.028442716 0.0026353851 0.016796982 0.0027199439 0.0076467507 0.007753557 0.011784427 -0.04671319
-0.007474051 0.008145946 0.007436276 -0.029678196 -0.0055164397 -0.017279675 -0.0015301489 0.05903657
0.039134484 -0.016992282 -0.022011025 0.0009757054 -0.011818092 0.018294096 -0.013916068 -0.027032534
-0.011738714 -0.016235316 -0.006940925 -0.002249309 -0.023826359 0.0010545176 -0.03375432 -0.019906633
0.004691504 0.015579922 -0.036967125 0.018658035 0.014211431 0.014049758 0.009446102 0.0028489553
0.02569478 0.016649729 0.0119931 0.019170668 0.00030832028 0.028546073 -0.022969997 0.004314291
0.017362962 -0.008861801 -0.0077979793 0.008178583 0.020774104 -0.0029209638 0.028772073 0.0020513297
0.017535258 0.003338511 -0.015193431 0.013973058 0.007520805 0.026387313 0.005248262 0.016638339
0.0045241583 0.02403772 -0.015567597 -0.003460167 0.017823635 0.030750247 -0.012010671 -0.024008477
-0.004523759 0.00793876 -0.009084617 0.0017273712 -0.032862183 -0.050515953 0.00022947583 0.03979572
-0.002041201 0.0456782 -0.01786237 -0.008050601 -0.020173986 -0.03136741 0.020349024 -0.021807816
-0.019043718 0.0070264577 -0.00020569861 0.013076556 -0.025125675 -0.014934768 0.03008457 0.011699829
-0.01118891 0.041053254 0.033393335 -0.0087110335 0.00922771 -0.01719471 -0.011809938 -0.0071708644
0.023365198 0.0052736853 0.02490184 -0.008717986 0.003249019 -0.019870168 -0.025586693 0.033121303
-0.009901843 -0.022069585 0.013527643 0.018778127 0.010858556 -0.028423844 0.008918679 0.03263564
0.01004717 0.01216428 0.0012326248 0.025821518 0.011356546 0.019297216 -0.017349755 0.024421738
0.020008909 0.0015574254 0.028661601 0.017498603 0.009827217 -0.0073388987 0.013490426 0.030598255
0.0100147985 0.022047322 -0.023676276 -0.027335962 -0.033439774 0.006474021 -0.017338531 -0.009574641
0.027435187 -0.00810766 -0.009449373 0.0094892895 0.008393855 -0.0059292023 0.009538721 -0.011208126
0.011377194 0.0028131786 -0.013827793 -0.009900084 1.929005e-05 -0.02391533 0.016099546 -0.032436613
-0.012750384 0.009316038 0.021839991 0.050116703 -0.012014899 0.010048555 -0.015260181 -0.01865165
-0.010405002 -0.015952548 0.027759923 -0.001556339 0.023890872 -0.007361259 0.029176645 -0.023991741
0.02074218 -0.014163941 -0.004560244 -0.03536855 0.012071251 -0.022201018 0.0033045071 0.031957805
0.004893459 0.01275553 0.008131808 0.0006210019 0.03382343 0.006727676 0.023219753 0.042594407
0.026586076 -0.0015658027 -0.044778846 0.03866347 0.01964725 0.022658417 0.01509073 0.019749118
0.005036723 0.00048335613 0.029454365 -0.02045447 0.009443483 -0.034244042 -0.014883606 -0.010590592
0.0013500889 -0.006513225 0.012137241 -0.006303565 0.0291425 -0.024929246 0.036916018 -0.016684765
0.0061503462 -0.011537376 0.012367404 -0.019778276 -0.0153688155 -0.014838243 0.021101026 -0.028727341
-0.02657366 -0.039675288 0.019960005 -0.04063531 -0.02960758 0.050221335 0.013458515 0.0056846156

bias f4 [64]
00000000: 1a43 da3d 0620 10bc 32fa a33e 53d2 8dbc
00000010: f2e6 1e3b a6c9 ac3c d582 113e 3292 593c
00000020: 72d9 433d df11 0ebb 19a3 873b 2470 a0bc
00000030: 85f9 02bd 3069 d03d 400f f93d ae3e 6e3e
00000040: a86b 04bc 370a aebc 2036 843e ee7c 813c
00000050: 5d79 4cbc cc26 b73d 98f4 e53b 122a 11bc
00000060: 8bec 023e 85da a6bc b055 bdbc 5218 0d3e
00000070: 5c1b bb3d d437 3c3d 28a9 d8bc 30c5 dfbc
00000080: fa9b 373c 35df 0e3e 6678 c7bb 25b1 473d
00000090: 2192 8b3c 1694 dfbc 9b3a a5bc 759b 813d
000000a0: 82a5 c13c 9d82 3e3e e38e b0ba 130a a53d
000000b0: 7f5c 0f3c f200 ce3d e31c 04bd d14c b13e
000000c0: ae0d bf3d f629 883c 5003 743c dde9 b9bc
000000d0: b7e2 c73d 55a7 453e 8a5e bf3d 5513 92bb
000000e0: 4eea 7a3d 68f8 fcbc 258b 80bc 5544 ebbc
000000f0: 952d 4c3e 9560 ad3b 7f96 963d 8362 94bc
0.1065733 -0.0087966975 0.3202682 -0.017312204 0.002424654 0.021092247 0.14210065 0.013279485
0.047814794 -0.0021678132 0.004139316 -0.019584723 -0.03197624 0.10176313 0.12161112 0.23266098
-0.008082308 -0.021245105 0.25822544 0.015806641 -0.012480107 0.08942947 0.0070176832 -0.008860128
0.12785546 -0.02036787 -0.023112148 0.13778809 0.09136078 0.04595168 -0.026447847 -0.027315706
0.011206621 0.13952334 -0.0060873507 0.048752923 0.017037453 -0.027292293 -0.020169547 0.06328479
0.02363849 0.18604513 -0.0013470318 0.08058562 0.00875008 0.10058774 -0.03225411 0.3462892
0.09328781 0.016621571 0.014893368 -0.022694523 0.09760039 0.19302113 0.09344204 -0.004457871
0.061258607 -0.030880168 -0.01569135 -0.028719107 0.19939263 0.0052910545 0.073529236 -0.01811338

weight f4 [256, 64]
00000000: 9d2b a43c 6a5d e8bd ea66 893d c052 9c3d
00000010: 9c77 893d f16d babd 410f ea3d f653 023e
00000020: d508 b83d f13b 433d 7bd4 31bd 2112 113d
00000030: 82f2 763c b577 763d 0074 f03d 99f4 393d
00000040: 0b34 47bd ee10 983d f677 a53d 0123 b5bd
00000050: fc07 063e d58c 7d3d a9ab a53c 9f74 d2bd
00000060: d381 1d3d e272 4b3d 2dce 39bb 0777 ab3a
00000070: a075 1dbc ee3f 933d c926 f03d b131 e03d
00000080: d0e4 703d 5472 d43d f9d1 1fbd 8d6f b5bd
00000090: 52a1 133d 8c51 62bd 8cbd 8c3d 92d5 57bd
000000a0: 92e9 a3bd ecee c1bd 363c b8bd 07b5 323d
000000b0: 1c1a 873d 4793 abbd 2b76 3fbd 528f 0cbc
000000c0: 60fe 093e 3837 f63d 0ea9 8ebd f72c 97bd
000000d0: 9ab6 ff3c ef08 62bd fd39 bebd b4c4 fc3d
000000e0: 1133 743d 6079 27bd 82d4 433d c551 4c3c
000000f0: 2b85 613d 9645 97bd 72b8 bebd 1589 d5bd
00000100: c16b 42bd 53c2 ab3d 3e70 033e 5e2e 97bc
00000110: 9a3c c03d 2017 7d3d 144c bebd a60d 69bc
00000120: ece2 e23d a4cd f3bc e225 97bd 3ca2 5d3d
00000130: a1d3 be3d 16e3 5c3d 9e45 273d 4be4 42bd
00000140: dc48 8bbc d7ce 81bd 6d83 9cbd e1bf 863c
00000150: 1067 603d ff92 53bd 33ae c13d 8ab3 23bc
00000160: 6ad7 c43d a808 14bd 390b 803d cf9c 043d
00000170: 12b5 603d a7cb 703b 4fb8 683d dc6d d23a
00000180: 1812 84bc c1d7 43bd 9f3d 3cbd 4512 ff3d
00000190: 411c c8bb 39fb 173d bb5d a3bd aaa0 c9bd
000001a0: 93b2 c4bd 3036 fd3d 7e75 933d 0dbf 85bd
000001b0: d760 503d d1a4 f13d 85dd 5b3c 5d32 0f3e
000001c0: a90f c1bd fb17 f13d 5548 033e 32e6 22bd
000001d0: daa7 643d e06c c53d 92ab f2bd 250e 9a3c
000001e0: 1e83 6a3c 0793 84bd 1bc5 813d bc72 c83d
000001f0: 5065 aa3d 8920 c63d 3cc8 76bc b063 cfbc
00000200: 1501 66bd 1ee4 a2bd d2b5 a93d 9334 ebbd
00000210: e461 9abd 2866 d43c 0b19 ba3d 8e8e c13d
00000220: 988e 9dbc a825 ea3d f094 d43d f22c a63d
00000230: d01d 893d 6826 4fbd 6d4a a6bd 5d6f 033d
00000240: 5321 14bd f89b ac3d cb36 29bb 0130 02bd
00000250: 1b33 3fbd 937f e8bd 622a 413d 00ae 473d
00000260: 2f10 52bd b522 7fbd 7b96 a93d 0143 5cbd
00000270: d4be b6bd 3d00 8ebd f34f d93b 2bf2 ca3c
00000280: d3c1 ba3a 12d9 413d 63a1 f0bd 73bf 00be
00000290: 76c5 d2bc 0aa1 93bd 6072 b73c fa89 f8bd
000002a0: ebd3 c93b 9f64 34bd c108 4ebd 732d 4fbd
000002b0: 8f86 c7bd c537 f23c df97 81bc 9164 25bc
000002c0: b125 be3d a224 52bd d101 473d 41ef 9bbd
000002d0: 55c4 fabb 3502 3ebd 8f3d c8bc 549e 47bd
000002e0: b3d8 073c bb6a 833d d529 513d 9557 e6bd
000002f0: 0c13 d8bd 41e1 853d 84a4 953c a12c dd3d
00000300: 7798 2ebd f484 5ebd 6df6 f63b 4832 0a3d
00000310: d1c2 603c 1c05 d13d ad47 d8bd f611 df3d
00000320: ac6c 60bd b4ff 903d 9c2f 7a3d b84e 2c3d
00000330: 87c7 bcbd bc1d 4b3d 572a 993d 92fc a6bd
00000340: 80d0 dbbd 9eb2 f93b 0f89 ddbd 67b7 34bd
00000350: 847d 96bd 5098 95bc 5547 d7bd 7d2d 70bd
00000360: 97f0 bebd 9227 cabd e95f 31bd e87c adbc
00000370: d4da 5abd dd1f a33c 5aaf 6d3d ea34 94bd
00000380: fd17 bebd ed18 3d3d 300e d9bd 3e78 783d
00000390: ffd8 003d 6a23 bd3d 0cfa 88bc 4143 373d
000003a0: 93dc 923d 4c83 8fbd d185 a53d 3310 efbc
000003b0: 0779 5a3d 0f0d a63d dd3b a53d bb22 f5bc
000003c0: 15a0 b93c 24da 0a3d 2e65 31bd 8dbf aa3d
000003d0: 4b0b 2f3b 294e 17bb 8245 f53d 42b2 f5bc
000003e0: 6377 9dbd 71f4 2abd 3f23 8c3d a512 ab3c
000003f0: c0c8 c13d c664 27bd badd 033e 6e53 9dbd
0.020040328 -0.11345942 0.067090824 0.07632971 0.06712267 -0.09103001 0.11428691 0.12727341
0.089860596 0.047664586 -0.043415528 0.03541768 0.015072467 0.060172755 0.11740875 0.045399282
-0.048633616 0.07425104 0.08079521 -0.08844567 0.13088983 0.061901886 0.020223456 -0.1027615
0.03845389 0.049670108 -0.002835165 0.0013081738 -0.0096105635 0.07189928 0.11726148 0.10946978
0.058811963 0.10373369 -0.039018605 -0.08859167 0.03604252 -0.05525355 0.06872091 -0.05269391
-0.080035344 -0.09469399 -0.08995859 0.043629672 0.06596777 -0.083777 -0.046743553 -0.008579092
0.13475943 0.12022251 -0.069658384 -0.07381623 0.031215 -0.0551843 -0.09288404 0.12342206
0.059619013 -0.040887237 0.047810085 0.012470667 0.05505864 -0.07386319 -0.09312524 -0.10426537
-0.047466043 0.08386674 0.12835786 -0.018454727 0.09386559 0.06178963 -0.092918545 -0.014224445
0.11078438 -0.029761143 -0.073802724 0.054109797 0.09317709 0.053927504 0.040837876 -0.047581
-0.017002515 -0.0633828 -0.07642255 0.016448917 0.054785788 -0.05165386 0.09457054 -0.009991536
0.096113995 -0.036141068 0.062521406 0.032376107 0.054860182 0.003674248 0.056816395 0.0016054469
-0.016121909 -0.04781318 -0.045957204 0.124546565 -0.0061068838 0.03710482 -0.07976862 -0.09845097
-0.09604373 0.12363851 0.07200144 -0.06530581 0.050873604 0.11799014 0.013419514 0.13984056
-0.09426815 0.11772152 0.12820561 -0.039770313 0.05582414 0.09639907 -0.11849131 0.018805573
0.014313487 -0.06473356 0.06336423 0.09787509 0.08320105 0.09674174 -0.015062388 -0.02531609
-0.056153376 -0.07953666 0.082866326 -0.11484637 -0.075382024 0.025927618 0.09086808 0.09451018
-0.019233033 0.114329636 0.1037997 0.081140414 0.066951394 -0.050573736 -0.08119664 0.032088626
-0.036164593 0.08428186 -0.0025820013 -0.03178406 -0.046679597 -0.11352458 0.04715956 0.048749924
-0.051284965 -0.06228896 0.08280655 -0.053774837 -0.08923116 -0.06933639 0.006631845 0.024773678
0.0014248438 0.047326155 -0.11749532 -0.12573032 -0.025728922 -0.0720845 0.022393405 -0.12135692
0.006159296 -0.044041272 -0.050301317 -0.050580453 -0.09742462 0.029567609 -0.015819488 -0.010094778
0.09284533 -0.051304467 0.048585717 -0.076139934 -0.007652799 -0.046388824 -0.024443416 -0.048734978
0.008291411 0.064168416 0.051065285 -0.11247174 -0.10550508 0.065371044 0.018266924 0.10799528
-0.04262587 -0.054326013 0.0075367005 0.03373936 0.013718323 0.10206053 -0.10560546 0.10892098
-0.054791138 0.070800215 0.06108056 0.04206726 -0.09217744 0.049588904 0.07478779 -0.08153643
-0.107331276 0.00762017 -0.108171575 -0.04412022 -0.07348159 -0.018261105 -0.105116524 -0.05863713
-0.093232326 -0.09870829 -0.043304358 -0.021177724 -0.053431347 0.019912655 0.058028556 -0.07236655
-0.09281919 0.04616635 -0.10598409 0.060661547 0.031456944 0.0923527 -0.016720794 0.044741873
0.071709774 -0.07007465 0.08082164 -0.02918253 0.053338077 0.081079595 0.08068059 -0.029923787
0.02265934 0.03389944 -0.043309383 0.08337317 0.0026709612 -0.0023087359 0.11976148 -0.029992227
-0.07688787 -0.041737024 0.0684266 0.020882914 0.09462118 -0.04086759 0.1287755 -0.076819286

bias f4 [256]
00000000: c685 253d df18 e03d f73d 8f3d 94e2 943d
00000010: 31e4 1b3d 92d2 253e d135 aabd 4970 7f3e
00000020: 569c 43be bfa9 383e 81a6 3b3e 4b67 de3c
00000030: 132e 4a3e 103f 19bd 98b5 d03d e08c 413e
00000040: 7d5d 18bd 4047 d23d c229 f8bd 9f9e 41bd
00000050: c3bf e03d 34f8 453d e7bc 313d 91a5 9fbd
00000060: d0c8 8ebd bb59 173d 901b f9bd 278e 633c
00000070: 1813 2f3e de27 3b3e fe1a 80bd 5f89 9b3c
00000080: f3cd 0ebd 661d 603d bf90 733e 8c2d d23c
00000090: 69ba 3a3e 271c 8a3e 17bd 333d 5c4d d43c
000000a0: 7aa9 4e3d ec99 c4bd e9cd ddbc ef7d 93bc
000000b0: d700 4b3e b0bf a3bd 20b3 9bbc 8b26 88be
000000c0: 568c 3f3d c734 85ba 3d70 4cbd 135f 9c3d
000000d0: a8d5 c03d 3eaa 95bd 5abb e3bd 5089 13bd
000000e0: d6d8 85bc 459f 1d3d 62fa 1c3e 4a53 0e3e
000000f0: d625 f0bd a9e6 0ebe 500f a8bd 7ac3 83bd
00000100: ef63 40bc 2387 a23d b973 bf3d 19ed 183d
00000110: dfe8 033e 70e3 ebbd 5aac 78bd ab9b 2d3e
00000120: 3e05 d3bd b649 143d a624 c53d fbe4 1f3e
00000130: f68c f43d 055d 823c 2282 8c3e c393 c8bc
00000140: 9bf8 113d f015 d0bc ab9e af3d a2e5 213e
00000150: 409f 45ba 52c0 483e e976 383e 301f 5b3d
00000160: e64e 2bbd 6d3d 25bd 99fa 2b3d ec28 e8bd
00000170: aba9 f13c 411b a03d 0c4f 45bd 59c6 6c3d
00000180: 19c3 533e 83f7 63bc 33ae 5e3e e66c de3d
00000190: f033 d8bc 919d f63d 4b24 05bf 3db0 933d
000001a0: 7ab5 bd3c e87e 5abd bc40 efbd 496a 1c3e
000001b0: c642 03be 1701 4f3d 3003 f8bc 7d97 1d3d
000001c0: d999 1bbc 4edb 41be 78b5 54bd 05a1 cbbd
000001d0: 4e55 c13c 3a5e d23d 99d2 4b3e 64ab 443c
000001e0: 9924 473e 9607 b2bd 6cef 27bd befc 4e3e
000001f0: ed5f f03d ff84 ee3d da16 433d 8774 433e
00000200: 064b 5f3d 1c5b 2bbd 1226 333d f62a f7bd
00000210: f18b 1dbd b4df 9b3c 2d0f 0cbf 2fc3 043d
00000220: 73cc b03d 94b9 403e c296 9f3d 5f43 4a3d
00000230: 9a3e fd3e 7e0c a13d 903d d93d 7954 c5bd
00000240: 314f 20be 3d68 0fbe eb8f 0e3e 0917 ad3e
00000250: 4c53 0e3e aa2c 723d b8ed 55bc 2d99 b23d
00000260: d864 0cbe 6a81 803d ea5f 04be 72cf 0ebd
00000270: 3016 40bc 7675 c83d aa07 183d fd45 903b
00000280: 31ef 1e3e 945b f13d e1cf bc3d 89f9 a03e
00000290: f905 4a3c 2cf3 bbbc 35e0 babd f4eb fcbb
000002a0: 806b 8cbd 01ea ad3b 25d3 ec3d 48a7 893d
000002b0: 10b2 6ebd 82ff 8ebd 9072 9fbd 72b8 df3c
000002c0: fc1d d33d 3b70 ecbc 5c28 da3d 568f bb3d
000002d0: da10 4e3e c011 1b3c f82e bdbd de58 bcbe
000002e0: 11a8 00bd 18f5 f13d 7e05 833d bdf6 523e
000002f0: 0b39 ff3d 138f 7fbd 0b08 973c 6145 533e
00000300: cd9c 653d 6239 13be 1434 4cbd 2408 80be
00000310: 098a 3e3e c2b4 1bbe 504a 2f3e 9b0d 0a3e
00000320: 328d 4e3e 761b 603e 639e d53d c473 9fbd
00000330: 5198 8f3d 3fe8 9d3d 4d99 ee3d 984b 9e3c
00000340: 9980 31bc 6d2e 193d 7053 02bd 446a 3b3d
00000350: 884d f13d b28b 52bd 1977 72bc 3b02 16be
00000360: 42dc 01be 65e9 0c3d 2290 1b3e 2b80 3bbd
00000370: 34a2 103d 4699 cb3d 40d7 91be b09e 543d
00000380: 5942 853c b81d 5e3d 9099 3dbd 1cfd 373d
00000390: 8e99 a53d 2a03 06be 5c6f 413d 30ed 6fbe
000003a0: 0913 803d 3860 ae3d 301a 9d3d 17d6 883d
000003b0: 9c92 373d 737e 83bd 7148 eb3d eeb5 d83d
000003c0: 7a14 5cbe 4b06 82ba 580b dc3d eb7e 9a3d
000003d0: e7bc 23bd 3bb7 dd3d e69d 5cbd 4ce4 bb3d
000003e0: dab3 973b 3da8 da3d 1b66 813d 5dc1 aa3d
000003f0: a619 cf3d 6756 d0bd b483 683d 2486 b6bd
0.04041078 0.10942244 0.06994241 0.07269779 0.038059417 0.16193607 -0.08311046 0.24945177
-0.19102606 0.18033503 0.18325235 0.027148863 0.19744138 -0.037413657 0.10190886 0.18901396
-0.037198532 0.10267496 -0.1211734 -0.047270413 0.10974076 0.048332408 0.043393042 -0.07795251
-0.06971896 0.036950808 -0.1216346 0.013888872 0.17097127 0.18276927 -0.06255148 0.018986402
-0.034864377 0.054715537 0.23785685 0.025656484 0.18235172 0.26974604 0.043881502 0.025915794
0.050454594 -0.09599671 -0.027075725 -0.018004386 0.19824539 -0.07995546 -0.019006312 -0.26591906
0.046764694 -0.0010162824 -0.049911726 0.076353215 0.09415752 -0.07307862 -0.11119719 -0.036019623
-0.016338747 0.03848197 0.15329888 0.1389896 -0.11725967 -0.13955177 -0.08206046 -0.064337686
-0.011742576 0.079359315 0.09348244 0.03733549 0.12881802 -0.1151799 -0.060711242 0.16953914
-0.10303734 0.03620311 0.09626131 0.15614693 0.11940949 0.015913496 0.27443033 -0.02448452
0.03563748 -0.025401086 0.085751854 0.15810254 -0.0007538684 0.19604614 0.1801411 0.05349654
-0.04182329 -0.040341783 0.041987035 -0.1133593 0.02949985 0.07817698 -0.048171088 0.057806347
0.20679893 -0.013913992 0.21746139 0.108606145 -0.026391953 0.12041772 -0.52008504 0.07211349
0.023157824 -0.053343683 -0.11682269 0.1527492 -0.12818441 0.05053815 -0.030274957 0.03847455
-0.009497129 -0.18931314 -0.051930875 -0.099428214 0.023600247 0.102718785 0.19904555 0.012003753
0.19447555 -0.08692853 -0.040999815 0.20213601 0.117370464 0.11646461 0.047629215 0.1908742
0.054514907 -0.041834936 0.04373748 -0.12068741 -0.038463537 0.019027568 -0.54710656 0.032412704
0.086327456 0.18820792 0.07792427 0.049380656 0.49461824 0.07863711 0.10607445 -0.096352525
-0.15655209 -0.14004607 0.13922088 0.33806637 0.13898963 0.059124626 -0.013057165 0.08720622
-0.13710344 0.06274684 -0.12927213 -0.034865804 -0.01172404 0.09788029 0.037116684 0.0044028745
0.15520932 0.11785045 0.09219337 0.3144038 0.012330526 -0.022943102 -0.09124795 -0.0077185575
-0.068564415 0.0053074365 0.1156371 0.067213595 -0.058275282 -0.06982328 -0.07785523 0.02730963
0.103084534 -0.02886211 0.10652229 0.091581985 0.20123616 0.009464681 -0.09237474 -0.3678655
-0.03141028 0.11814326 0.06397532 0.20601936 0.12462052 -0.062392306 0.018436452 0.20631935
0.05605774 -0.14377359 -0.049854353 -0.2500621 0.18607344 -0.15205672 0.17118192 0.13481753
0.20171049 0.21885476 0.104306005 -0.077857524 0.07011474 0.07710313 0.116503336 0.019323155
-0.010833883 0.03739779 -0.031817853 0.04575564 0.11782366 -0.051402755 -0.014798903 -0.14649288
-0.12681678 0.03440227 0.15191701 -0.045776527 0.03531094 0.09941344 -0.28484535 0.05190915
0.016266989 0.05422756 -0.046289027 0.04491912 0.08085929 -0.13087144 0.04722534 -0.23430324
0.06253631 0.08514446 0.076710105 0.066814594 0.044817552 -0.06420603 0.114884265 0.10581575
-0.21492186 -0.0009920088 0.10744351 0.07543739 -0.039975073 0.10825964 -0.05386152 0.091744035
0.0046295943 0.1067662 0.06318303 0.08337662 0.10112314 -0.1017273 0.056766227 -0.08912304

weight f4 [1, 256]
00000000: c764 8e3d 36ed c03d 116d 65bc ce47 4c3d
00000010: 016b 13bc d98c 8e3d 3f58 3cbd 43b0 593d
00000020: 56af 08bd 44c7 9a3d 7e6c 113d 4404 1cbc
00000030: 5132 b43d d0c6 e63c 6f3a 893d 7cd6 aa3d
00000040: 5cbe aabc 99d3 3bbd 0d1d d3bd 29ea 9f3c
00000050: 7968 2e3d ab04 67bc 8d1d 84bc 2529 74bc
00000060: 808e 29bd c809 4f3b f074 6f3c 7275 283b
00000070: 6e1a 923d 3b6f 9b3d f0ef 88bc ecad afbc
00000080: 63f6 053c a8c8 9b3b 5d16 d73c c07d ec3c
00000090: 5fb2 533d 6566 613e fb0c 91bc df82 16bd
000000a0: b61b 28bd 5835 27bd 4001 c5bc 8889 a7bc
000000b0: bce3 823d 500d 76bc 7f1f 6d3c 2f1d f2bd
000000c0: a7e2 063c 7245 4cbb 8bef e73c 4d83 45bd
000000d0: 93ec b9bc 3e94 453d 540a 4d3d 48a6 9abb
000000e0: 550e c9bc 0d67 253d 6488 c13d 4f00 523d
000000f0: babb 5e3d 61de d43c 16b3 96bc e874 b13c
00000100: d15e 9fbc ce28 a0bc 1a7a 963d 23ae 6abc
00000110: a984 fe3c a671 c4bc dc08 31bd 6db9 753d
00000120: 7f85 af3a 926e 873d fc3e 023d af64 993d
00000130: 3213 983c deaf 38bd c21a e53d 10e9 0abd
00000140: 02db 8e3d bc48 1fbd e36a ffbb b2a5 883d
00000150: 5a88 50bd 203e 8a3d 232b 433d 1dd3 27bf
00000160: ca57 18bd 2b53 5fbc 1674 1dbd fe3a 1c3d
00000170: 8dc2 183c db0b 0ebd c7ea e4bb 4c66 2e3c
00000180: 2a4f b93c 3e74 5bbb fd8d f83c 5c46 8b3d
00000190: 5e58 46bd ffc3 033d 0edb bfbe 385e 8f3d
000001a0: 40c1 923b aab4 19ba 5280 53bc b9fc 8e3d
000001b0: 5708 1dbd 2faf 623d 1874 2abd 2a8e 643c
000001c0: d98e a93c 06fd e4bd 84b2 38bd a0eb 2c3d
000001d0: fb17 49bd e567 da3c 3014 0a3d a054 d4bb
000001e0: 4c10 013d 801c 68bd 6d7b 85bb 0d3a eb3c
000001f0: 961a 0dbe bca1 47bd 9be4 863b e62b aa3d
00000200: a514 c2bb 148c 143d e235 993c b6bb a1bc
00000210: e6b2 30bd fb80 fd3c 0299 03bf 531a 46bd
00000220: d3db 203b 47b8 263d 6b8d 453d c2a2 0dba
00000230: 1051 2f3e c536 873d 1c3d 3fbd dddd 543b
00000240: 957f 4fbd 3eb6 8dbd 1a43 853d 2a9d 913e
00000250: e49d 3c3d feac a7bc ef14 533d c374 2d3d
00000260: b284 fabb c1f1 193d 4bb9 dfbc af1f 45bd
00000270: d8f1 163c ebd5 933d 43d0 d03c d136 293d
00000280: 82e2 5c3d cc62 613d 96cc 45bd d6a5 2e3e
00000290: b2b9 dfbc 500a 433d c18c 84bd 5cff 18bd
000002a0: cab5 52bd b146 8b3d 7936 233d ef77 8e3d
000002b0: f007 cbbb 26e5 7bbc 8c63 fd3c a48e 5b3d
000002c0: 8d9a 00bd 0e8b 833d 0f38 52bc 2930 bfbb
000002d0: 033c 9e3d d844 1abd 87b8 d0bc ba35 bdbe
000002e0: 76ce 33bd 6523 8e3c 4b69 2abd b502 e33d
000002f0: cc31 8f3d d090 c13c e5b0 bf3b 9775 6f3d
00000300: 1b8b 1cbd b7c2 2cbc 7a8b 253d 3809 74bd
00000310: f471 b13c cd1b 59bd 3789 303d b2e3 153d
00000320: cae8 c03d 4d6e 8e3d 4aeb c9bc 6c60 24bd
00000330: 7a6e 20bd d4d4 103d 79cc ca3c 73df 833d
00000340: f975 3b3b e131 9f3c 7084 0fbc e159 253d
00000350: 8f7e 5f3d 59d4 603a 7608 563d 3ed0 06bd
00000360: 5daa 1f3c 36be 4dbd b1bf e33c cdbc 9a3b
00000370: d690 223d aaa7 2abd 7a63 73bd b5df 753d
00000380: 6476 78bc 5eb1 f93c b8ec 50bc 25d9 c3bc
00000390: 7e9d 52bd dba8 c4bb 66e6 67bc 739e cabd
000003a0: d416 bf3c 269b a73c 5fd8 e4bc bf2a 053d
000003b0: 8d2e 403d ef9d c7bc 1385 843d 6fa2 1b3d
000003c0: 3912 79bd 0314 2fbd 8c69 82bc 0ac5 37bd
000003d0: 67a3 32bd c7f7 d3b9 f77f b03c 89ba 5b3d
000003e0: d4dc 4c3d 7d64 21bc 6875 f83b a484 86bc
000003f0: 47c9 e13c ff28 a4bc 9b1a 683d d54b 14bb
0.069528155 0.094202444 -0.014003054 0.049873166 -0.00899768 0.06960458 -0.045982596 0.053146612
-0.03337034 0.07557538 0.035503857 -0.009522501 0.087986596 0.028170973 0.067005984 0.08341691
-0.020842724 -0.045856092 -0.10308275 0.019520836 0.0425801 -0.014100234 -0.016127372 -0.014902388
-0.041395664 0.0031591523 0.014615282 0.0025704768 0.07133947 0.07589575 -0.016715974 -0.021445237
0.008176419 0.0047541447 0.02625578 0.028868556 0.05168378 0.22011717 -0.017706385 -0.036745902
-0.041042052 -0.040822357 -0.024048448 -0.020451322 0.06391093 -0.015017822 0.014472841 -0.118219726
0.008232749 -0.0031169322 0.028312465 -0.04822092 -0.022695815 0.048237078 0.050058678 -0.0047195293
-0.024542967 0.04038148 0.094498426 0.051269826 0.05437825 0.025984945 -0.018395942 0.02166219
-0.019454392 -0.019550707 0.07347508 -0.014323744 0.031069117 -0.023979973 -0.04322134 0.05999129
0.0013391225 0.066128865 0.031798348 0.07489907 0.01856384 -0.045089595 0.11186744 -0.033913672
0.06975366 -0.038887724 -0.0077947243 0.06672229 -0.050911285 0.06750131 0.04764856 -0.6555651
-0.037193097 -0.013630669 -0.038440786 0.038142197 0.009323728 -0.034679275 -0.0069859955 0.010644507
0.022620756 -0.0033486034 0.030341143 0.06800529 -0.048424117 0.03216934 -0.37471813 0.07000393
0.0044786036 -0.0005863408 -0.012909012 0.06981797 -0.03833803 0.05534285 -0.041614622 0.01394991
0.020697998 -0.11181073 -0.04509212 0.042216897 -0.049095135 0.026660869 0.03371066 -0.0064798146
0.031509683 -0.056667805 -0.0040735514 0.028714204 -0.13779673 -0.048738226 0.0041166074 0.08309154
-0.005922871 0.0362664 0.018702451 -0.019742828 -0.04313936 0.030945292 -0.51405346 -0.04836495
0.0024545088 0.040703084 0.04823057 -0.0005402976 0.17120767 0.06602243 -0.046689138 0.0032480874
-0.05065878 -0.069195256 0.06506939 0.2844022 0.046049014 -0.020468231 0.051533636 0.04234768
-0.007645213 0.03758407 -0.027310034 -0.04812592 0.0092129335 0.07218536 0.025489932 0.041312043
0.053926952 0.05502586 -0.04829081 0.17055449 -0.027310226 0.047617257 -0.06472159 -0.037352905
-0.0514429 0.06800593 0.03984687 0.06956469 -0.0061960146 -0.015374457 0.030931257 0.05360283
-0.03139739 0.06423007 -0.012830748 -0.0058345986 0.0772629 -0.03766331 -0.025478614 -0.36955053
-0.04389807 0.017350862 -0.04160432 0.11084501 0.0699192 0.023628622 0.005849945 0.05846175
-0.0382186 -0.0105444705 0.04041622 -0.059579104 0.021660782 -0.05300503 0.04309961 0.0365941
0.09419401 0.06954632 -0.024648327 -0.040131018 -0.03916786 0.03535922 0.024755703 0.06439104
0.0028604253 0.019432964 -0.008759603 0.04036892 0.054564055 0.0008576564 0.052254163 -0.03291344
0.009745208 -0.050230227 0.027801367 0.004722214 0.039688908 -0.041663803 -0.05942104 0.060027797
-0.015164945 0.030480083 -0.012751751 -0.023907254 -0.051419728 -0.0060015745 -0.014154052 -0.09893503
0.023326315 0.020459723 -0.027935205 0.03251147 0.046919394 -0.0243673 0.064706944 0.037996706
-0.060808394 -0.042743694 -0.01591947 -0.044865645 -0.043612864 -0.00040429665 0.021545393 0.05364469
0.050015286 -0.009850618 0.0075823553 -0.01642067 0.027561797 -0.02003908 0.056665998 -0.0022628207
