src/Fun_2/model/model_512_64_64_0.01_400.pt (torch, 309407 bytes, 5 tensors)

weight f4 [64, 1128]
-0.022408258 -0.009878191 -0.009250595 -0.00926093 -0.005803525 0.02330942 0.027862031 -0.037474334
-0.05351788 0.018540254 -0.005359983 -0.018391358 0.036595285 -0.011883204 -0.01123778 0.023713538
0.026926564 -0.023005987 -0.010063283 0.0074554197 -0.0024582632 0.06284128 0.013681095 0.059405353
-0.007576283 0.029331144 -0.04293963 0.07519474 -0.04372731 -0.01730059 0.027506333 0.014484313
-0.058358345 0.07133242 -0.020021476 -0.032041106 0.02161282 0.06763398 -0.06231651 -0.04918578
-0.03599111 -0.018340815 0.01987389 0.021963717 0.014512734 -0.0045592957 0.029819021 0.05572339
0.008146526 -0.028065635 -0.0401226 0.04331032 0.04614231 -0.055552013 -0.0041821706 0.068687506
-0.105823025 -0.08311336 0.022644605 -0.106649525 -0.05627083 -0.018095793 0.036392476 -0.14833689
-0.02537831 -0.045262948 -0.041041534 0.058129776 -0.063912414 0.030346006 0.039419137 0.19666061
-0.09043113 -0.06401451 -0.045489248 0.06952121 0.015715174 -0.03441737 -0.038517 -0.004113071
-0.048479814 0.0648809 -0.040296637 -0.06855978 0.16366969 0.07834845 -0.054382112 0.046685684
-0.0370933 0.06439486 -0.18380255 -0.053590734 0.060774148 -0.039687905 0.021920005 0.16606829
-0.09103593 -0.047174346 -0.02223077 -0.055533014 -0.07466813 -0.09604146 -0.028693536 0.013357252
0.0001251416 -0.012775079 0.021799898 0.014946688 -0.10011769 0.042800274 0.0643707 0.028514266
0.08089926 -0.006756342 -0.035580188 0.09713308 0.004664549 -0.087741055 -0.027563501 -0.043301836
-0.031770546 0.11897273 0.23907296 0.05595722 -0.012455805 -0.05610134 -0.1844942 0.15173802
-0.04273749 0.037720133 -0.048179165 -0.00056207075 0.031032987 -0.11110964 -0.03807216 0.08407816
-0.06523819 -0.05352106 -0.03409785 -0.009315025 -0.037142918 0.04090443 -0.12532723 -0.020388378
0.12907949 0.1719578 0.122763805 -0.13698402 0.061800122 0.12813352 0.056847382 -0.0053256857
-0.06258509 0.06504243 0.0033826737 0.06690802 0.14105967 -0.10184964 -0.05251663 0.011148548
0.05144319 0.045273643 -0.16647786 -0.037122328 0.06134903 -0.06902406 -0.06506471 0.009165294
0.123449236 0.2122883 -0.06613605 -0.03926126 -0.0423256 0.05105903 -0.047665417 -0.08228086
-0.022175608 0.004386159 -0.044467058 0.22824574 0.087740295 0.026140643 -0.029692467 0.088270985
0.030838657 -0.0143227065 -0.22636469 0.007926828 -0.16929322 0.013585431 -0.043855015 -0.14632651
0.027240993 -0.0407636 -0.017824385 -0.034265965 -0.052778456 -0.1210895 -0.058125902 -0.08984644
0.0173094 -0.01835835 0.1612044 0.06784088 -0.050092965 0.054801464 0.014182824 -0.20636831
0.05342377 -0.012892883 0.12987143 -0.01880804 -0.062460233 0.003568466 -0.038984407 -0.14065701
-0.015628552 0.060132336 -0.05137259 -0.048674546 0.051018525 -0.07449126 -0.05294306 -0.061575934
-0.016565865 0.043429583 0.007318348 0.04768403 -0.03530298 -0.09635637 -0.019914715 -0.033548806
-0.15491785 -0.005899036 0.017441558 0.043232016 -0.063913226 0.077818856 -0.07996896 0.025515476
0.03353433 -0.02541733 -0.15185288 0.06560031 -0.020881988 0.014896754 0.060134828 -0.08720394
0.06899978 -0.058998246 -0.11314022 0.08927808 0.16176857 0.044337627 0.0027250971 -0.11920252
00000000: 8691 b7bc 23d8 21bc cf8f 17bc 28bb 17bc
00000010: 7f2b bebb 66f3 be3c ea3e e43c b07e 19bd
00000020: 9135 5bbd bbe1 973c cca2 afbb 79a9 96bc
00000030: f0e4 153d c5b1 42bc aa1e 38bc e542 c23c
00000040: 1995 dc3c 0d77 bcbc 78e0 24bc 984c f43b
00000050: d01a 21bb eeb2 803d ac26 603c 0753 733d
00000060: 7842 f8bb de47 f03c 77e1 2fbd b3ff 993d
00000070: 681b 33bd f8b9 8dbc f654 e13c 9d4f 6d3c
00000080: 2909 6fbd bb16 923d 1404 a4bc 893d 03bd
00000090: 5e0d b13c af83 8a3d 993f 7fbd 0777 49bd
000000a0: 6a6b 13bd 7a3f 96bc 91ce a23c 41ed b33c
000000b0: d1c6 6d3c 2566 95bb 0547 f43c 363e 643d
000000c0: 0279 053c e7e9 e5bc 9857 24bd 2966 313d
000000d0: b8ff 3c3d 828a 63bd 970a 89bb 09ac 8c3d
000000e0: beb9 d8bd 5637 aabd 2e81 b93c 116b dabd
000000f0: 3e7c 66bd a13d 94bc 4710 153d a0e5 17be
00000100: 2ce6 cfbc a465 39bd 2b1b 28bd 7d19 6e3d
00000110: 83e4 82bd 3098 f83c f675 213d 6661 493e
00000120: f533 b9bd 0a1a 83bd ef52 3abd 2361 8e3d
00000130: 1cbd 803c 3af9 0cbd 00c4 1dbd f1c6 86bb
00000140: c592 46bd 47e0 843d 160e 25bd 1269 8cbd
00000150: 0799 273e 2775 a03d c7bf 5ebd 7d39 3f3d
00000160: 25ef 17bd 74e1 833d bc36 3cbe f581 5bbd
00000170: 50ee 783d c98f 22bd 9591 b33c ce0d 2a3e
00000180: 0c71 babd e339 41bd 4e1d b6bc 9676 63bd
00000190: 9beb 98bd 63b1 c4bd b50e ebbc 60d8 5a3c
000001a0: 7138 0339 914e 51bc b395 b23c f4e2 743c
000001b0: 810a cdbd 574f 2f3d c9d4 833d c096 e93c
000001c0: 83ae a53d 4e64 ddbb 88bc 11bd b5ed c63d
000001d0: 13d9 983b 95b1 b3bd dacc e1bc 445d 31bd
000001e0: d521 02bd faa7 f33d 8bcf 743e 6633 653d
000001f0: 6f13 4cbc 85ca 65bd 0cec 3cbe 3661 1b3e
00000200: 820d 2fbd 6d80 1a3d 8457 45bd ee57 13ba
00000210: e438 fe3c 738d e3bd 8ef1 1bbd 2c31 ac3d
00000220: 9a9b 85bd e638 5bbd 30aa 0bbd 0c9e 18bc
00000230: 2c23 18bd 678b 273d c855 00be 8705 a7bc
00000240: 6a2d 043e b515 303e 976b fb3d 8a45 0cbe
00000250: 2022 7d3d 6f35 033e cdd8 683d 1783 aebb
00000260: 9d2c 80bd f734 853d d9af 5d3b 1207 893d
00000270: f271 103e 8b96 d0bd ae1b 57bd 66a8 363c
00000280: 18b6 523d db70 393d 2c79 2abe 950d 18bd
00000290: 1f49 7b3d 7d5c 8dbd a640 85bd 072a 163c
000002a0: f4d2 fc3d 1b62 593e 5672 87bd 6ad0 20bd
000002b0: 9c5d 2dbd 4623 513d d03c 43bd de82 a8bd
000002c0: 9fa9 b5bc c5b9 8f3b 1723 36bd 40b9 693e
000002d0: 2fb1 b33d e724 d63c 9e3d f3bc 6bc7 b43d
000002e0: 5aa1 fc3c c9a9 6abc 25cc 67be 87df 013c
000002f0: 345b 2dbe 6d95 5e3c 51a1 33bd 9ed6 15be
00000300: 8128 df3c bcf7 26bd 7204 92bc 785a 0cbd
00000310: 392e 58bd c6fd f7bd 6d15 6ebd 6901 b8bd
00000320: 71cc 8d3c 4064 96bc c412 253e 29f0 8a3d
00000330: 482e 4dbd 8077 603d 135f 683c 3752 53be
00000340: e2d2 5a3d ac3c 53bc 04fd 043e 5213 9abc
00000350: 4dd6 7fbd eddc 693b 1dae 1fbd 6408 10be
00000360: 7307 80bc 534d 763d 116c 52bd f65e 47bd
00000370: cdf8 503d e08e 98bd d2da 58bd 0c37 7cbd
00000380: 23b5 87bc 38e3 313d c1ce ef3b 5450 433d
00000390: dc99 10bd 7d56 c5bd 2f24 a3bc 796a 09bd
000003a0: c9a2 1ebe b34c c1bb 99e1 8e3c 0e14 313d
000003b0: f0e4 82bd 7e5f 9f3d c4c6 a3bd d505 d13c
000003c0: 4b5b 093d 0138 d0bc 527f 1bbe 7559 863d
000003d0: b410 abbc 8411 743c f04f 763d fb97 b2bd
000003e0: c24f 8d3d 25a8 71bd 0fb6 e7bd 6dd7 b63d
000003f0: a9a6 253e 5f9b 353d 8b97 323b 7320 f4bd

bias f4 [64]
-0.29108077 0.1555019 0.05074941 -0.13260739 -0.10783712 -0.24236767 -0.23100713 0.12426587
-0.029708136 -0.22976485 0.041773695 0.1765116 -0.12054206 0.099270575 -0.16757 0.10819979
-0.026359472 -0.2088236 -0.12672551 -0.1664515 0.36252335 -0.21808285 0.13657607 -0.19657083
-0.010290374 0.22874358 0.26987553 -0.44843552 -0.1292487 0.17733373 -0.3052243 0.24482216
0.15451409 -0.26517963 0.12754664 0.42884806 -0.21223503 0.07350582 0.17301705 0.14656715
0.00964732 -0.036605883 0.28889084 0.09170821 -0.19544925 -0.85736716 0.07193624 -0.24407779
0.022409862 0.12712812 0.08531786 -0.02602697 -0.11834175 0.2983659 -0.20031452 0.20571814
0.13330312 -0.10142704 0.113631874 0.18309678 -0.2836228 -0.22642414 0.1761883 0.2839286
00000000: 8a08 95be e43b 1f3e 9dde 4f3d 3bca 07be
00000010: b5d9 dcbd 3b2f 78be 228d 6cbe 1b7f fe3d
00000020: 7a5e f3bc 7a47 6bbe e51a 2b3d 75bf 343e
00000030: c1de f6bd 5f4e cb3d 7897 2bbe da97 dd3d
00000040: d2ef d7bc dbd5 55be 55c4 01be 4372 2abe
00000050: a99c b93e 1c51 5fbe 99da 0b3e dd49 49be
00000060: f598 28bc c23b 6a3e 202d 8a3e 5799 e5be
00000070: c559 04be f996 353e 5c46 9cbe a9b2 7a3e
00000080: f138 1e3e a0c5 87be 969b 023e f991 db3e
00000090: 2454 59be 388a 963d 622b 313e b315 163e
000000a0: cb0f 1e3c 0df0 15bd 80e9 933e 84d1 bb3d
000000b0: d923 48be 6a7c 5bbf 4f53 933d 87ef 79be
000000c0: e394 b73c e02d 023e 21bb ae3d 8336 d5bc
000000d0: 295d f2bd 6ac3 983e 401f 4dbe c7a7 523e
000000e0: 9d80 083e fbb8 cfbd d4b7 e83d b97d 3b3e
000000f0: 0237 91be bbdb 67be b56a 343e 175f 913e

weight f4 [64, 64]
-0.0010393687 -0.17859122 -0.17303255 0.0077545447 -0.09845271 -0.15344599 -0.08613592 -0.16767235
-0.07848098 -0.12605236 0.015117376 -0.16498871 0.031393178 -0.10391059 -0.08347449 -0.0010470548
-0.16693476 -0.15443836 0.04971059 -0.015833968 0.03699679 -0.036787827 -0.033101473 0.017521761
0.006610301 -0.07365455 -0.13457166 -0.10119287 0.05851595 -0.1811689 -0.0870998 -0.080532044
-0.0043479563 0.039088786 0.020349996 -0.07044258 0.029237844 -0.1508671 -0.09314724 -0.086956516
0.038095552 -0.0669104 -0.038661413 0.021322234 0.0290256 -0.16682687 -0.047733355 -0.07741063
-0.14635064 -0.13375175 0.042741563 0.03418934 -0.11932081 -0.09462468 -0.07552714 -0.12585568
-0.16643113 0.03806871 -0.07554249 0.00297928 -0.020376053 -0.0048250235 -0.14043772 -0.06588779
-0.06786032 0.01933838 0.079753764 0.016498223 0.039467853 0.0035906148 0.047882233 0.065649346
-0.07005255 -0.11512836 -0.018199325 -0.13225366 -0.073402956 -0.11224402 0.018377522 -0.021619212
-0.003899766 0.008866115 0.012141097 -0.06416671 0.013099983 0.09494674 -0.060200743 0.09552048
-0.07322234 -0.02236491 0.020720486 -0.089520924 0.06234175 -0.12346139 -0.10033026 0.022020804
0.044321228 -0.036293946 0.048646573 0.01701977 -0.044576768 -0.12676038 -0.008575801 -0.0771916
0.062292602 -0.10285965 -0.050652288 0.06677982 -0.09393479 -0.115478374 0.09494942 0.048258517
-0.0009910516 0.01329013 0.0040387833 -0.018282125 -0.004879126 -0.07905498 -0.013231689 0.013514546
-0.03689954 0.029260289 0.045054104 0.040320385 0.077233404 0.10059606 0.06290099 0.07656746
0.038673077 -0.14698021 -0.047210727 -0.12948447 -0.066264324 -0.022324454 -0.1992499 -0.039120585
-0.11149731 -0.066467255 -0.08586045 -0.052013535 -0.083848245 -0.09265681 -0.01196126 -0.114044055
0.05376504 -0.14189535 -0.12829342 -0.010587271 0.015245184 -0.03071649 -0.01016474 -0.09176308
-0.021183731 -0.19959122 -0.02289627 -0.08114403 -0.13290755 -0.08658864 -0.08890642 0.00480517
-0.06328166 -0.0710624 -0.04667857 -0.032136682 0.0021228988 -0.18070462 -0.0035334232 -0.14216052
-0.06914477 -0.16678105 -0.13819705 -0.12369202 0.008043674 -0.08976985 -0.19448473 -0.10786093
0.03856218 -0.20208684 -0.12851076 -0.20433837 -0.13204315 -0.14720364 0.0328806 -0.017353335
-0.18687107 -0.14291355 -0.04896909 -0.11828275 0.032369945 -0.04059181 0.024311353 -0.14767642
0.029877063 -0.019565737 -0.16323695 -0.13885634 -0.007489311 -0.13486387 -0.04042131 -0.159004
-0.0012620022 -0.04550562 -0.04817204 -0.021023322 0.015629128 -0.1422976 -0.051607847 -0.021982485
-0.05810937 -0.13251822 -0.046426877 -0.1707135 -0.159257 -0.008599699 -0.10514033 -0.11890888
0.023670025 -0.07480556 -0.12313755 -0.117918074 -0.11987347 -0.09736258 -0.055630192 -0.1770647
-0.01817064 -0.12895095 -0.03553378 -0.08841697 -0.058241315 0.04428552 -0.11908673 -0.041216712
-0.0945795 -0.044093926 -0.060495164 -0.032125175 0.021650448 -0.024927408 -0.10261947 -0.04528533
-0.113153845 -0.089597985 0.008895645 -0.020621806 0.03890641 0.011386332 -0.18206868 0.0068898736
-0.057635263 -0.076739535 -0.023167606 -0.011814401 -0.10762111 -0.12494029 0.00024873752 -0.067223206
00000000: 6d3b 88ba 9ee0 36be 722f 31be d619 fe3b
00000010: 93a1 c9bd f220 1dbe 0768 b0bd 4db2 2bbe
00000020: a3ba a0bd df13 01be dfae 773c cdf2 28be
00000030: 2296 003d 13cf d4bd acf4 aabd 543d 89ba
00000040: f2f0 2abe 1725 1ebe 559d 4b3d 3db6 81bc
00000050: f289 173d d5ae 16bd 6995 07bd cc89 8f3c
00000060: 399b d83b 32d8 96bd 27cd 09be 353e cfbd
00000070: 6cae 6f3d 5784 39be 6161 b2bd fced a4bd
00000080: 4d79 8ebb 901b 203d 09b5 a63c 3344 90bd
00000090: 3484 ef3c e87c 1abe fbc3 bebd 4216 b2bd
000000a0: 150a 1c3d 5208 89bd 6e5b 1ebd f7ab ae3c
000000b0: 18c7 ed3c aad4 2abe 0d84 43bd 7789 9ebd
000000c0: f1dc 15be 38f6 08be c711 2f3d 1f0a 0c3d
000000d0: 785e f4bd 96ca c1bd f9ad 9abd 50e0 00be
000000e0: ec6c 2abe f0ed 1b3d 05b6 9abd 0640 433b
000000f0: aeeb a6bc 3b1b 9ebb e8ce 0fbe 2df0 86bd
00000100: 5afa 8abd 866b 9e3c f155 a33d 4827 873c
00000110: 0ba9 213d 8550 6b3b 2920 443d 2a73 863d
00000120: b677 8fbd 6bc8 ebbd c016 95bc 816d 07be
00000130: 4a54 96bd 31e0 e5bd 758c 963c c61a b1bc
00000140: 3793 7fbb 2e43 113c 74eb 463c d669 83bd
00000150: 50a1 563c 7073 c23d 0e95 76bd 3ea0 c33d
00000160: 98f5 95bd 9e36 b7bc 02be a93c bf56 b7bd
00000170: 105a 7f3d 53d9 fcbd f479 cdbd f964 b43c
00000180: 2d8a 353d f6a8 14bd a141 473d 0b6d 8b3c
00000190: 2196 36bd 79cd 01be 8481 0cbc a116 9ebd
000001a0: 8726 7f3d 15a8 d2bd c678 4fbd dcc3 883d
000001b0: e260 c0bd ed7f ecbd d774 c23d b9aa 453d
000001c0: 2ce6 81ba d8be 593c c557 843b 65c4 95bc
000001d0: 13e1 9fbb 94e7 a1bd bac9 58bc 1d6c 5d3c
000001e0: f923 17bd 46b3 ef3c a78a 383d fd26 253d
000001f0: 8c2c 9e3d 4f05 ce3d 3cd2 803d 67cf 9c3d
00000200: a967 1e3d fb81 16be 0960 41bd 9497 04be
00000210: 97b5 87bd c6e1 b6bc 2a08 4cbe e83c 20bd
00000220: b458 e4bd fc1f 88bd 9bd7 afbd 250c 55bd
00000230: a1b8 abbd dbc2 bdbd 29f9 43bc ee8f e9bd
00000240: bb38 5c3d 044d 11be 5a5f 03be 3c76 2dbc
00000250: f0c6 793c 26a1 fbbc 028a 26bc 48ee bbbd
00000260: 8189 adbc a461 4cbe f590 bbbc d72e a6bd
00000270: eb18 08be 6355 b1bd 9214 b6bd b074 9d3b
00000280: d199 81bd 2a89 91bd 0732 3fbd c1a1 03bd
00000290: 5520 0b3b a20a 39be 0191 67bb 8792 11be
000002a0: c69b 8dbd a7c8 2abe 8783 0dbe 3e52 fdbd
000002b0: 9dc9 033c 41d9 b7bd 0127 47be 31e6 dcbd
000002c0: 60f3 1d3d daef 4ebe 5398 03be 143e 51be
000002d0: 5236 07be 8dbc 16be cfad 063d 9528 8ebc
000002e0: 215b 3fbe ee57 12be d093 48bd 3a3e f2bd
000002f0: 5996 043d 9943 26bd 9a28 c73c 7d38 17be
00000300: bec0 f43c 5348 a0bc 9627 27be 5b30 0ebe
00000310: e568 f5bb c119 0abe d190 25bd f2d1 22be
00000320: c469 a5ba 1a64 3abd 0c50 45bd 1a39 acbc
00000330: a808 803c 76b6 11be c062 53bd 9d14 b4bc
00000340: 1704 6ebd dbb2 07be 1c2a 3ebd 85cf 2ebe
00000350: 4414 23be c0e5 0cbc d053 d7bd 8086 f3bd
00000360: a4e7 c13c a833 99bd 8a2f fcbd 087f f1bd
00000370: 3980 f5bd 0866 c7bd 7cdc 63bd 7350 35be
00000380: 98da 94bc b80b 04be de8b 11bd f513 b5bd
00000390: 728e 6ebd bc64 353d bee3 f3bd dbd2 28bd
000003a0: e6b2 c1bd d59b 34bd c7c9 77bd b095 03bd
000003b0: 485c b13c 9034 ccbc 282a d2bd 1c7d 39bd
000003c0: 34bd e7bd 267f b7bd 0abf 113c 10ef a8bc
000003d0: 545c 1f3d bd8d 3a3c 3670 3abe 73c4 e13b
000003e0: f412 6cbd 9e29 9dbd fec9 bdbc 3091 41bc
000003f0: 7568 dcbd b2e0 ffbd fc68 8239 52ac 89bd

bias f4 [64]
-0.07392739 0.52572405 0.011200048 -0.114292756 -0.02740847 0.86869675 1.0313436 -0.011242694
0.78094757 -0.056910772 0.847713 -0.015404564 -0.01763324 -0.4257655 0.016175915 -0.039496586
-0.060660917 -0.24094416 -0.03694739 -0.17621307 0.8252385 -0.059966184 -0.30484882 -0.07740658
-0.09438717 0.9050626 -0.022358252 -0.040671747 0.718637 -0.07224541 0.8582218 -0.12776507
-0.20164882 0.7089258 -0.054736774 0.116659105 -0.20178463 -0.049792755 0.006083347 0.8222157
-0.018756276 0.45061013 0.06253095 -0.023879286 -0.18606737 0.08822136 0.0055528474 -0.06539712
-0.10121421 0.3174611 -0.032628078 0.015872277 0.936139 -0.19800891 -0.034093507 0.070362635
-0.16848631 -0.11139475 0.46024725 0.0020027566 0.91682684 0.7433394 -0.15036479 -0.1929613
00000000: 3e67 97bd da95 063f 6880 373c 5212 eabd
00000010: ba87 e0bc e962 5e3f 1103 843f 4733 38bc
00000020: 2eec 473f 451b 69bd b803 593f 6d63 7cbc
00000030: 9673 90bc f0fd d9be 5a83 843c 2cc7 21bd
00000040: 9577 78bd 11ba 76be 2556 17bd 3371 34be
00000050: d542 533f 1a9f 75bd 2515 9cbe 5787 9ebd
00000060: 104e c1bd 2fb2 673f a728 b7bc 6b97 26bd
00000070: 98f8 373f 67f5 93bd 6db4 5b3f d9d4 02be
00000080: 077d 4ebe 297c 353f ab33 60bd f8ea ee3d
00000090: a1a0 4ebe 7df3 4bbd d056 c73b ba7c 523f
000000a0: c3a6 99bc 5fb6 e63e 3a10 803d 7e9e c3bc
000000b0: 7288 3ebe 67ad b43d a9f4 b53b edee 85bd
000000c0: 6549 cfbd 438a a23e 05a5 05bd 9406 823c
000000d0: cea6 6f3f d9c2 4abe a2a5 0bbd 491a 903d
000000e0: ad87 2cbe ee22 e4bd 87a5 eb3e ae40 033b
000000f0: 2ab5 6a3f 7e4b 3e3f 3af9 19be a697 45be

weight f4 [1, 64]
-0.0019833925 0.03781504 0.06930295 0.0016798759 -0.018746885 0.18322778 0.18344086 -0.0077430103
0.15883605 0.04743199 0.19823667 0.014837143 0.013638065 -0.17401405 0.06747337 0.0109112905
0.021391856 0.024086356 -0.006697464 0.08671708 0.11858959 -0.05274516 -0.1990717 0.008746556
0.015211986 0.2514743 -0.04797728 0.05932278 0.13227238 -0.096495345 0.13056944 0.049860697
0.036826394 0.104918726 -0.012588413 0.008796798 0.041262034 -0.0059767184 0.01850456 0.09177652
0.03409832 -0.006221235 0.011611975 0.06285886 -0.05412694 0.016085995 0.017766016 -0.0020313684
0.004778901 0.019922538 -0.011232828 0.07364662 0.21303964 0.037686057 -0.008625904 0.011301183
-0.049105085 0.031789068 0.012522559 0.001025873 0.18136248 0.16160093 -0.019174976 0.29939014
00000000: cefb 01bb f2e3 1a3d b4ee 8d3d 482f dc3a
00000010: 1193 99bc 10a0 3b3e ecd7 3b3e 14b9 fdbb
00000020: eba5 223e 0c48 423d 8efe 4a3e 7d17 733c
00000030: 3172 5f3c bd30 32be 7a2f 8a3d 45c5 323c
00000040: f93d af3c c050 c53c 6676 dbbb b998 b13d
00000050: 19df f23d 4f0b 58bd 74d9 4bbe b74d 0f3c
00000060: b23b 793c 3dc1 803e d383 44bd 72fc 723d
00000070: 6972 073e 5a9f c5bd ffb3 053e bb3a 4c3d
00000080: 46d7 163d a1df d63d a23f 4ebc 7220 103c
00000090: 6102 293d 59d8 c3bb e096 973c 54f5 bb3d
000000a0: aeaa 0b3d 80db cbbb 2740 3e3c 25bc 803d
000000b0: 36b4 5dbd c7c6 833c 098a 913c b520 05bb
000000c0: 5498 9c3b 9734 a33c e509 38bc 0ad4 963d
000000d0: 1027 5a3e b25c 1a3d aa53 0dbc 9928 393c
000000e0: 6a22 49bd 4135 023d 6b2b 4d3c 9676 863a
000000f0: 16b7 393e b77a 253e d714 9dbc aa49 993e
