src/Fun_2/model/model_256_64_128_0.01_200.pt (torch, 326311 bytes, 5 tensors)

weight f4 [64, 1128]
000000 11 97 52 bd 97 bb f0 bd fa cf 31 3e 18 d1 85 bd
       -0.0514136 -0.1175453 0.17364493 -0.06534022
000010 65 e9 23 be fa bb 16 bd 64 70 ce 3d e9 d5 e0 bc
       -0.16007002 -0.036800362 0.100800306 -0.02744575
000020 f6 70 22 be ab 12 18 be d8 a9 10 bc fa f7 8f be
       -0.15863404 -0.14850871 -0.008829556 -0.2811888
000030 04 b1 66 bd 37 3f ef bd 21 79 96 3e 1c b0 32 3e
       -0.05632116 -0.11681979 0.2938929 0.17449993
000040 b9 a9 0a 3c 44 33 11 be 11 7b bf bd d3 a8 95 be
       0.008463317 -0.14179713 -0.09349645 -0.29230365
000050 82 4a 03 3d 14 12 4f 3d c5 c6 49 3e 23 5d 58 bd
       0.032053478 0.05055435 0.19704731 -0.052823197
000060 18 20 c1 3d 0d 8a d3 bd 57 48 d6 3d 57 57 67 3d
       0.094299495 -0.103290655 0.104630165 0.05647978
000070 30 87 81 3d 09 f6 b4 bd 39 87 23 3d 7e 60 4d bd
       0.06324613 -0.0883599 0.03992388 -0.05014085
000080 b8 ac 16 3e 31 f9 12 bd fe 70 53 be dc 60 8a be
       0.14714324 -0.03588218 -0.20648572 -0.27027023
000090 06 2e 45 3e 11 ae 6c bd 3a 20 2e 3e f7 e8 74 be
       0.19255838 -0.05778319 0.17004481 -0.23916994
0000a0 7f ef 4e bd 4d c4 37 be aa bf aa bd 42 bd 06 3e
       -0.05052137 -0.17945977 -0.08337338 0.13158134
0000b0 96 9f 0e bd af c2 10 3d 99 49 7c be 0b 02 ca bd
       -0.03482016 0.035341915 -0.2463745 -0.09863671
0000c0 a3 52 ff 3b 36 79 a6 bc 4d 0b 03 bd 48 7e 79 3d
       0.0077918335 -0.02032147 -0.0319932 0.060911447
0000d0 b4 93 84 3d 83 55 73 3e 44 9d ff bc ca 3f 03 be
       0.06473485 0.23763089 -0.03120292 -0.12817302
0000e0 48 73 dd 3c 1d 8b b4 bc e8 b7 06 3d 62 99 eb 3d
       0.02703251 -0.02203899 0.03289023 0.11503865
0000f0 9f 8a 30 3e 4f db d0 bd 71 1c c0 3d a7 cd d2 bd
       0.1724038 -0.1019808 0.09380425 -0.10293131
000100 e7 66 70 be 74 af dd bd fe 09 90 3e b5 40 55 bd
       -0.23476754 -0.10824481 0.28132623 -0.052063663
000110 44 73 dc bd 50 d4 ef 3d 72 0c 0c 3d fd 99 94 be
       -0.10764173 0.11710417 0.034191556 -0.29023734
000120 a0 8a 98 3d 5c ea a5 bc a6 8a 03 be 2a 89 28 be
       0.074483156 -0.020253353 -0.12845859 -0.16458574
000130 18 7c 07 be f0 2c 5f 3d ac 38 62 be 39 2e 86 be
       -0.13230932 0.054486215 -0.22091931 -0.2620714
000140 02 70 ff bd 3f 64 9e be fb df 33 be 41 32 12 bd
       -0.12472536 -0.30935857 -0.1756591 -0.035692457
000150 98 1a 6a be 6a a1 0c 3e 4a 50 a5 3d 92 95 af bd
       -0.22861707 0.1373345 0.080719545 -0.0857345
000160 6f 6a 8b be f9 62 ff bd 91 b9 0c bd 40 e7 7a 3d
       -0.2722964 -0.124700494 -0.034356657 0.061255693
000170 1f 43 67 bd 33 42 bc ba 15 c6 0b be 74 e4 0a 3d
       -0.056460496 -0.0014362991 -0.13649781 0.033909276
000180 30 30 d6 3c 59 8b fb 3d ed 0b a5 bd eb ce 81 bd
       0.026146024 0.12282438 -0.08058915 -0.063382946
000190 c1 58 07 be 7c ef 1a 3d ee 90 16 3d 61 bc 19 be
       -0.1321745 0.037826046 0.03675931 -0.15013267
0001a0 a3 6d 55 3e 65 5a 53 3d 50 90 22 3b fa 12 8d 3a
       0.20842604 0.05159988 0.0024805255 0.0010763102
0001b0 46 b8 9c 3c 9e 2a e9 bc 59 1a d6 3d 35 74 d2 3d
       0.019130837 -0.028462704 0.10454244 0.10276071
0001c0 36 f2 d6 3e e2 ac 4b be 66 c1 a1 bd d0 ba 89 be
       0.41981667 -0.19890168 -0.07898216 -0.2690034
0001d0 d7 7b 87 bd 48 40 fb be 67 d1 2f 3d 9c ca 20 be
       -0.066154175 -0.4907248 0.04292431 -0.1570229
0001e0 07 ee fb bd 83 af 4b 3e 5f a8 47 3d 9b f5 ae 3d
       -0.123012595 0.19891171 0.048744556 0.08542939
0001f0 41 8b e9 3e dd 6a 17 be 33 4d 7d 3c 9d 22 22 3d
       0.45614055 -0.14786859 0.0154603 0.03958379
000200 73 db d8 bd d8 8b 04 3e bb 5e 52 3e 69 4f c0 bd
       -0.105887316 0.12943971 0.2054395 -0.09390146
000210 3c 68 4f 3d 90 81 d6 bd a4 52 39 3e 9c a2 89 bd
       0.050636515 -0.10473931 0.18097931 -0.067204684
000220 6b d8 f6 bc a9 23 ea 3d 97 9a a9 3d 0f 4a 93 3d
       -0.030132493 0.11432583 0.08281439 0.0719186
000230 08 17 f3 bc c8 80 b1 be 2a c1 bd bd 29 ec 27 be
       -0.029674068 -0.34668565 -0.09265359 -0.16398682
000240 10 a2 f9 bd f9 e3 8c bd 84 4e 05 bd a8 6c 66 3d
       -0.12189114 -0.0687942 -0.03254558 0.056255966
000250 08 42 01 bb d2 2b 67 bd 5d 1b 65 3e 6f 62 cd 3d
       -0.0019723196 -0.056438275 0.2237372 0.1002854
000260 22 e5 1a 3d b6 37 8d bd a1 21 1d be 58 fe 44 3e
       0.037816174 -0.06895392 -0.1534486 0.1923765
000270 8e 75 2d 3e 6d c1 69 be 7c 29 3a be a2 a3 02 be
       0.16939375 -0.22827692 -0.18179888 -0.12757733
000280 8c 3d 29 be 7c a5 17 3e 4d 56 57 3e 38 ad fa bd
       -0.16527385 0.14809221 0.21029015 -0.1224007
000290 9f 82 92 bb c8 51 ea 3c 51 92 52 be bd d0 20 3d
       -0.0044711377 0.02860345 -0.20563628 0.03926157
0002a0 e5 41 6e 3d 6e c4 a2 3e bd 42 9e 3c e5 f1 01 3c
       0.05816831 0.3179049 0.019318933 0.007931207
0002b0 cc 7d 5f bc 8a cc 1f 3e 17 9d ea bd fd 0a f1 3d
       -0.013640832 0.15605369 -0.11455744 0.11769674
0002c0 ec 69 c6 3d 42 c9 95 bd 38 6b 10 bc 4c 06 ae bd
       0.09688172 -0.073137775 -0.008814625 -0.08497295
0002d0 08 7b 16 be 27 e3 8e 3d a0 f4 b9 3c 8c a5 23 bd
       -0.1469537 0.069769196 0.022699654 -0.0399528
0002e0 f9 ed 1f 3e 10 a3 13 be f8 20 0d 3e ca b6 0b 3e
       0.15618123 -0.14417672 0.13782108 0.13643947
0002f0 98 1b d5 bd 97 d3 64 3e 1b db 2c 3e 49 7a c7 3e
       -0.10405654 0.2234634 0.16880457 0.38960484
000300 87 39 0c be ba 19 e5 bd 39 93 48 3e 5d 8a 83 3e
       -0.1369382 -0.111865476 0.19587411 0.256915
000310 4e b4 89 bd 07 cf 36 3e 9d 6c af be 1d 4b 4d 3d
       -0.067238435 0.17852412 -0.34262553 0.05012046
000320 de bf 3b be 70 fa f7 bc da 7e dd bd 5e 5d d1 be
       -0.1833491 -0.030270785 -0.10815211 -0.40891546
000330 cc 1c 97 3d 81 91 d6 be ca 50 19 3e ee a1 94 3b
       0.073785394 -0.41907886 0.14972225 0.004535905
000340 53 90 3b bc ab 1a fb 3c 0d c8 ec 3d 04 5d ab 3e
       -0.011447984 0.030652365 0.11561594 0.33469403
000350 5b bd 7e 3d ce f3 b3 be 19 c6 93 be e6 94 9f 3e
       0.062192302 -0.35146946 -0.28862074 0.31168288
000360 29 7c 16 be f6 7e 00 3e fd c6 56 bd 70 56 d6 be
       -0.14695801 0.12548432 -0.052435864 -0.41862822
000370 4e 91 80 be a2 ca d0 3d 54 be 09 3e bb 90 83 3d
       -0.2511086 0.10194899 0.1345151 0.064240895
000380 0f 75 d1 3d 57 65 63 3e 42 00 e8 bc 23 71 40 be
       0.10227405 0.22206627 -0.028320435 -0.18793158
000390 1a 66 2e 3e 95 1c c4 bd a0 fa 26 3c a7 fd 8a 3d
       0.17031136 -0.09575764 0.01019159 0.067866616
0003a0 d0 5e 8b 3e 0d 7c 8f bd 3e 16 88 3e 8c bc 0a be
       0.27220774 -0.07006083 0.2657947 -0.13548487
0003b0 43 05 02 3e 86 3f 1c bb 99 74 b0 3e 56 c6 4b 3d
       0.1269732 -0.0023841574 0.34463957 0.049749695
0003c0 0c 6b 40 be bb 5f 3c 3d 4e 17 52 3d 7e dc 2c be
       -0.18790835 0.045989733 0.051291756 -0.16880986
0003d0 28 a8 1c 3e 10 76 83 bb 6d 7b 5d 3d e9 1d dc bd
       0.15298522 -0.004011877 0.054072786 -0.107478924
0003e0 14 67 f5 bc 84 f8 67 bd b7 47 2a 3e 09 2c a7 3b
       -0.029956378 -0.056633487 0.1662892 0.005101685
0003f0 c3 c2 9e bc 4a d3 3c 3e 97 f7 ab bc 4c 62 1b bd
       -0.019379979 0.18439975 -0.020992083 -0.03793554

bias f4 [64]
000000 5b eb 6b be 5b 12 8a be a8 68 c5 be fe a1 80 be
       -0.23039 -0.2696713 -0.3855641 -0.2512359
000010 58 d0 96 be f9 5d ce be cb b6 39 3d e9 3d d0 3d
       -0.2945583 -0.4030607 0.04534034 0.101680584
000020 aa 15 f0 be 9d c3 e3 3d 87 71 c5 be d1 2a c0 be
       -0.46891528 0.11121295 -0.38563177 -0.37532666
000030 28 80 96 be 67 04 9b be 1d 70 96 be 8d b5 95 be
       -0.2939465 -0.30276796 -0.2938241 -0.29240075
000040 2a 2a fd be 47 ce 0b be 60 48 9c be bd 43 95 be
       -0.4944623 -0.13652907 -0.30523968 -0.29153243
000050 99 9b a1 be d8 26 fc be 32 53 9c be 21 0a a3 be
       -0.31564024 -0.49248385 -0.30532223 -0.31843665
000060 f2 40 f4 be 46 cc dc be 06 d7 00 be 91 c5 02 bf
       -0.477058 -0.43124598 -0.12582025 -0.5108271
000070 a5 89 07 bf 9f 68 bc be 40 ce 1e be 9f a2 a4 be
       -0.52944404 -0.3679857 -0.15508366 -0.3215532
000080 20 33 a6 3d 61 3e af be f5 5f e8 3d 01 09 d0 bc
       0.0811522 -0.3422728 0.11346427 -0.025394918
000090 1a 18 b9 be 53 af 18 bf 73 e7 53 bf 97 2e 11 bf
       -0.361512 -0.59642524 -0.8277504 -0.56711715
0000a0 6b b9 93 be e6 2c bc be 87 00 03 bd 3c ad 9a be
       -0.288524 -0.36753005 -0.031982925 -0.30210292
0000b0 8f 20 06 be 66 55 8d be fb 6d 05 be 8d f5 0a be
       -0.13098358 -0.27604216 -0.13030235 -0.13570233
0000c0 44 dc c2 be d6 e5 bc be c1 a0 b5 be 2f 46 d0 bd
       -0.38058674 -0.368941 -0.35474208 -0.101696365
0000d0 8a 22 d1 bd b2 69 7d be 4b 6b 56 be 5c 02 20 be
       -0.10211666 -0.24747351 -0.20939367 -0.156259
0000e0 bc 24 ea be a2 93 26 be 48 4e 86 be f6 3d c0 be
       -0.4573115 -0.16267255 -0.262316 -0.37547272
0000f0 d3 60 0b be 5d 82 99 be b2 0d 61 be ac ac a6 be
       -0.13611154 -0.29982272 -0.2197788 -0.32553613

weight f4 [128, 64]
000000 9d 7b a4 bd b6 cd e0 3d 62 17 9e bd fb 4b c8 3d
       -0.0803139 0.10976736 -0.07719304 0.09780117
000010 e0 3e 03 bc 3a d1 26 3c 72 b6 88 bd 27 ec 00 3e
       -0.008010596 0.010181719 -0.06675424 0.12590085
000020 ec 0e db bc cb 65 7d 3d da e4 de 3d ff 61 6f bd
       -0.026740514 0.061864655 0.10883494 -0.058443066
000030 43 b9 38 bc 7b 86 c3 3d 91 02 97 bd 29 0e 80 3c
       -0.011274639 0.095471345 -0.073735364 0.015631752
000040 5b 4e b7 3a a8 47 95 bc 8a fb 99 3d ee b6 aa bd
       0.0013985144 -0.018222645 0.075186804 -0.08335672
000050 fa 3f ce 3d c2 fc 5e 3d 55 6c a2 bc b5 96 9a bd
       0.10070796 0.054440267 -0.019827047 -0.07548276
000060 6d d8 96 bd 86 68 9f bd cf e0 a1 3c fe 8b 33 bd
       -0.07365499 -0.07783608 0.019760517 -0.04383468
000070 e0 ae bd ba 05 bc 03 bd 99 de 0e 3e e2 27 81 bd
       -0.0014471672 -0.03216173 0.13952102 -0.06306435
000080 5a ed 34 bc d5 2b 14 bd 09 f4 62 bc 90 19 1c 3d
       -0.011042917 -0.036174614 -0.013852128 0.038110316
000090 10 c2 58 3d c1 98 22 bd c4 c5 9d bb 6c 00 4e bd
       0.052919447 -0.03969646 -0.0048148353 -0.05029337
0000a0 bc b5 fd 3d 77 7e 98 bd 9a c1 1a 3d 2f c0 75 bd
       0.12388179 -0.07445996 0.03778229 -0.059997734
0000b0 ca a2 b8 bc 36 b7 b1 3d 9e 54 83 3d 79 86 4b 3d
       -0.022538561 0.08677523 0.06412624 0.04968879
0000c0 45 f7 6d 3d 33 e1 93 bd 33 ac ac 3d ea dd db 3c
       0.058097143 -0.07220688 0.08431282 0.026839215
0000d0 8c 29 f3 3d 91 d9 9a 3b 73 64 a4 bc 3d 70 3f 3d
       0.11873159 0.004725643 -0.02006743 0.0467379
0000e0 67 51 7b bd 7f 80 ac 3d 61 a0 bb bd 40 c0 8b 3c
       -0.06135693 0.08422946 -0.09161449 0.017059445
0000f0 76 cf a9 bd 69 a7 9b 3a dd d5 10 3c 62 ca c7 bd
       -0.08291523 0.0011875454 0.0088400515 -0.09755398
000100 5d 8e 58 3d 92 8c 04 be 5d ae c7 bd 3d 40 10 bd
       0.052870143 -0.12944248 -0.09750054 -0.035217512
000110 d2 b5 78 3d 46 d6 3f 3d 7a 5b 39 be ae 1d 1a be
       0.060720272 0.046835206 -0.18101302 -0.15050384
000120 4b 93 b8 3c 3e f5 30 be b8 8c 88 bc ca 3c ce bd
       0.022531172 -0.17281052 -0.016668662 -0.10070188
000130 c4 1b 75 3c c0 bc bd bd f0 4a a4 bd 3c b3 da bd
       0.014960233 -0.09264517 -0.08022106 -0.106787175
000140 4f ea 17 be 0c 4a 1b be 87 2f 21 bd b0 cf 41 3d
       -0.14835475 -0.15164965 -0.039351966 0.047317207
000150 db fe d9 bd 3b 39 36 3c b5 e8 34 3c a9 ac 45 be
       -0.10644313 0.011122043 0.01104181 -0.19304146
000160 af d2 37 bc e8 63 e8 bb 76 f3 49 3d ac 8b ee bd
       -0.0112196645 -0.007091988 0.049304448 -0.11647734
000170 a5 5f 98 bb b1 ac 8e 3c 35 ea 6d 3d bc f8 f3 bd
       -0.0046500736 0.01741633 0.058084685 -0.11912677
000180 8a 6a 3e 3d f0 48 35 be 4f 0a de bd bc 77 05 be
       0.046488322 -0.17703605 -0.1084181 -0.13033956
000190 c9 8d af bc f7 c9 02 be d4 4d 97 bd ee f1 3f be
       -0.021429913 -0.12772356 -0.073878914 -0.18744633
0001a0 b4 5a 09 bd e6 90 f7 bc e4 6d 69 3d 06 21 48 3c
       -0.033533767 -0.03022046 0.056989565 0.012214905
0001b0 c5 c7 8c bd d8 76 ef bd c9 44 28 bb 90 c6 32 3d
       -0.068740405 -0.116925895 -0.0025675765 0.043646395
0001c0 b2 99 d1 bd f0 a1 26 be 4e 5c a1 3c d0 ad d8 bd
       -0.10234393 -0.16272712 0.019697335 -0.10580027
0001d0 f0 ca e9 bb b2 b0 02 bd c1 10 07 be 4c a9 4b bd
       -0.0071347877 -0.03190679 -0.13189985 -0.049722
0001e0 ea d0 e2 bd 20 e1 c6 bd a8 48 a8 bd 83 af 65 bd
       -0.110750034 -0.09710908 -0.08216983 -0.056075584
0001f0 bc 5b 04 be 91 48 e4 bd 84 ac 11 bd dc e5 a0 bd
       -0.12925619 -0.111466534 -0.035564914 -0.07856342
000200 66 87 3f 3c 33 90 61 be 6c 87 1c 3c 6f a0 24 bd
       0.011689996 -0.22027664 0.0095537715 -0.040192064
000210 2f c0 89 ba a4 04 1d 3d ae 2c 1b bd 8d f8 34 be
       -0.0010509546 0.038334504 -0.037884407 -0.1767294
000220 1e 30 4a be 1a 44 55 be 06 4c 41 be 4c 43 3b be
       -0.19744918 -0.2082676 -0.18876657 -0.1828739
000230 6f f4 5e bd 81 1d 83 bd 9f 45 4d be ef e7 3c bd
       -0.05443233 -0.06402112 -0.2004609 -0.046119627
000240 76 34 dc bc 47 5b 46 be c3 88 49 be 57 9c 1c 3a
       -0.026880484 -0.19370757 -0.19681077 0.0005974224
000250 38 6c 30 be a8 82 11 3d 32 f9 86 bd af 27 f1 3c
       -0.17228782 0.035524994 -0.06590499 0.029437868
000260 5d ec 35 be 24 de 87 bd 5b 72 21 be 29 88 f0 bd
       -0.17765947 -0.06634167 -0.1576628 -0.117447205
000270 e5 24 c6 bc 01 47 2b be cd a3 2c be 55 94 b2 bd
       -0.024187515 -0.16726305 -0.1685936 -0.08719698
000280 97 2c 10 be 4f ec 28 3d d1 a5 36 be 52 d8 3e be
       -0.1407951 0.041240986 -0.17836691 -0.18637207
000290 41 90 1b be f6 67 9e bc 59 cb 9c ba 22 86 d6 bd
       -0.15191747 -0.019336682 -0.0011962458 -0.104748026
0002a0 b1 16 14 be 66 55 19 bd 75 be 9c bd 5d f0 43 be
       -0.14461781 -0.037434958 -0.07653514 -0.1913466
0002b0 18 e2 18 be 73 b6 18 3c 2b 37 1a be 0d bf e7 3c
       -0.14929998 0.009320843 -0.15060107 0.028289342
0002c0 4e 36 aa bd 2d cb 49 be f3 ce fa 3c 25 1f 40 3c
       -0.08311139 -0.19706412 0.03061626 0.011726175
0002d0 6e 23 4c be 82 47 e1 bd 7a 72 68 bd a2 2c 91 bd
       -0.1993539 -0.10999967 -0.0567498 -0.07088591
0002e0 66 b4 7b bd e7 24 56 be 57 55 5c be b4 bf 29 bd
       -0.06145134 -0.20912515 -0.2151693 -0.041442588
0002f0 48 4c 28 be 68 27 32 be c7 de 19 be 11 bc fd bd
       -0.16435349 -0.17397845 -0.15026389 -0.123893864
000300 25 3b 61 bd b5 f4 1a bc 54 c8 33 be 43 c4 37 be
       -0.054988045 -0.009457757 -0.17556888 -0.17945962
000310 e2 bc 11 bb 98 4c 1a bd f1 94 3b be 13 43 2b bc
       -0.0022237827 -0.0376707 -0.18318535 -0.010453003
000320 8a 9b 20 bc 8f 97 30 be 31 91 04 be e0 02 19 be
       -0.009802708 -0.17245315 -0.12946011 -0.14942503
000330 a5 e4 03 bd 34 d7 5f be 05 b8 0f be aa da f1 bd
       -0.032200474 -0.21859437 -0.14035042 -0.11809285
000340 22 2f b7 ba 42 46 de bd 9f a5 16 be 31 13 6e bc
       -0.0013975839 -0.10853244 -0.14711617 -0.014530943
000350 d8 14 79 bd 19 e5 c1 bd fe 60 0d be cb 33 38 be
       -0.060810894 -0.09467525 -0.13806531 -0.17988507
000360 fe 00 47 be c2 b4 ec 3c cf 48 1d be fd df f6 bd
       -0.19433972 0.028894786 -0.15359806 -0.12054441
000370 b0 d6 1e be 14 9d 44 be e9 25 2c be c5 1c 09 3c
       -0.15511584 -0.19200546 -0.16811337 0.008368676
000380 d9 f1 98 ba 6e 72 4e be 86 96 23 be 5a 2c 2c be
       -0.0011668756 -0.20160839 -0.15975389 -0.16813794
000390 3c 1c 93 3c a0 b8 0c be 53 20 46 be 58 fb 28 bc
       0.0179578 -0.13742304 -0.19348268 -0.010313831
0003a0 00 8c b8 bc 15 ed af bd 18 1b 4b be 58 f9 a5 bd
       -0.022527695 -0.08590142 -0.19834554 -0.08104199
0003b0 e1 b7 30 bd b6 e4 d5 bd 44 94 40 be 47 f7 23 be
       -0.04314411 -0.10444014 -0.18806559 -0.16012298
0003c0 3c 6c ee bc b3 98 1e bd c0 d3 e8 bd 31 8c b6 bd
       -0.029104345 -0.038719844 -0.11368513 -0.08913458
0003d0 dc 7d c4 bc d0 07 14 be bd db e7 bc 80 fe ef bd
       -0.023985796 -0.14456105 -0.028303022 -0.11718464
0003e0 41 dc 15 be 01 d1 2e be 83 b1 1c be 1b 0e 54 be
       -0.14634801 -0.17071916 -0.1530209 -0.20708506
0003f0 3c 4d dc bd ce 3a 48 be ba e1 13 be 53 7b 09 be
       -0.10756919 -0.19553682 -0.14441577 -0.1342595

bias f4 [128]
000000 20 15 47 3f 93 70 01 be 38 41 d5 3a a4 74 2d bb
       0.7776661 -0.126406 0.0016270047 -0.0026467228
000010 cd 81 3b bf 2c b6 c4 3e b6 eb 50 bd 9d f1 e1 3e
       -0.73244935 0.38420236 -0.05100604 0.4412965
000020 bc a6 08 be d5 82 e7 3e be 23 42 bd 34 45 04 3b
       -0.13344854 0.45217004 -0.047397368 0.002018285
000030 f9 ea 0f be fe 0b 2f bd 12 24 32 bd 7e e0 51 be
       -0.14054479 -0.042736046 -0.04349143 -0.20495793
000040 d6 0d 17 be 86 38 96 3e 4f c0 b2 bc cd ea 73 bf
       -0.14751372 0.2934 -0.021820216 -0.9528015
000050 6a 7f 20 3f 7d 1d b5 3b 65 c3 17 bb a5 6d 99 be
       0.6269442 0.005527197 -0.0023157236 -0.29966465
000060 77 0e 45 3f 81 7b 22 bd 4d 87 de 3e 33 22 c5 3e
       0.76975197 -0.039668564 0.434626 0.38502654
000070 1b a2 21 be 85 07 fa bd ea 44 54 bd 18 a4 43 3f
       -0.15784495 -0.122084655 -0.051823534 0.7642226
000080 b2 af 0c be 37 d2 32 3f 1a ac 2f 39 68 04 fc 3d
       -0.13738897 0.6985201 0.00016753413 0.12305528
000090 6d 0b ed bd 0f 4a 8c 3e 2a ba 97 be ae c5 ec bc
       -0.11574445 0.27400252 -0.2963422 -0.028902855
0000a0 92 79 8a 3d 67 4d 3c 3f b0 08 a2 3e a7 dd 2a 3f
       0.06761469 0.73555607 0.31647253 0.66744465
0000b0 dd 7e af 3e 7c 7a f5 3e dd 34 95 3e da 19 13 bd
       0.34276477 0.4794501 0.29141894 -0.035913326
0000c0 b2 d5 a1 bc de 82 41 be 1c 4b 1c 3f e5 84 58 3e
       -0.019755218 -0.18897578 0.6105211 0.21144445
0000d0 db 11 32 3f 10 94 dd bd 41 e8 4f be e9 26 f1 be
       0.69558495 -0.10819256 -0.20303442 -0.471
0000e0 72 b3 13 3f 8b 35 d5 bd db 36 d4 bd 97 d3 ec 3e
       0.57695687 -0.10410603 -0.10362025 0.4625518
0000f0 10 b8 f0 bd e2 6a 6e bc 91 a8 30 3f 38 a1 99 bc
       -0.11753857 -0.01455185 0.6900721 -0.018753633
000100 fd 89 e5 bd cc 45 69 bd 15 e4 14 bd e6 5d 2d be
       -0.1120796 -0.05695133 -0.03635033 -0.1693035
000110 ea 37 06 3f e1 04 27 be 00 f7 3e be 10 58 4b 3f
       0.5242907 -0.16310455 -0.1864891 0.7943125
000120 82 dc 30 3f 10 21 0c be 90 a5 15 be 3e 58 05 3f
       0.6908647 -0.13684487 -0.14613938 0.5208777
000130 39 de b7 bd 7f 90 83 3e c3 3b 4c 3f b1 f7 13 3f
       -0.089779325 0.2569618 0.7977869 0.5779982
000140 84 d9 ce 3d c8 cd e1 bc c0 c8 3f bd 09 d4 47 be
       0.101000816 -0.027563944 -0.04682231 -0.19514479
000150 6e 9a 1e 3f 22 8d c3 bd d3 7f ab 3e 56 c4 bc 3e
       0.6195439 -0.09548403 0.3349596 0.36868542
000160 68 0b 32 3f 49 92 5c 3c 1f e2 6a 3d 2c ed f9 3e
       0.69548655 0.0134626115 0.057344552 0.4881376
000170 b3 1f 18 3e ca 34 44 3f 9d f2 38 3f 9f ee f8 3e
       0.14855842 0.7664305 0.722452 0.48619553
000180 25 29 1f bd 61 fa a7 bd fd c8 0b 3f 2f 06 c6 bd
       -0.038857598 -0.08202053 0.5460356 -0.09669148
000190 28 c7 74 bd 66 75 1f 3f df 1d 28 3f d6 05 91 bd
       -0.059760243 0.6228851 0.6567058 -0.07081191
0001a0 3f 40 0d 3f d6 9d ea bc 5e 24 17 be cb cf 5c be
       0.55176157 -0.028639715 -0.14759967 -0.21563642
0001b0 db 8a 7f bd 1b 12 d0 3e d8 3e 2f be 99 57 56 3e
       -0.062388282 0.40638813 -0.17113817 0.20931853
0001c0 20 a0 3d bd ee b9 b8 bd 5d 3a 58 be 91 5b 6b bd
       -0.046295285 -0.09019838 -0.21116014 -0.05746037
0001d0 8b db 75 bd 6d 60 21 3f c4 66 09 be a0 b6 42 3f
       -0.060023826 0.6303776 -0.13418108 0.76059914
0001e0 24 38 6c 3c 19 fb c3 bd 20 1a b7 bd 3a 16 e3 bd
       0.014417682 -0.095693775 -0.0894053 -0.11088224
0001f0 57 4c 07 3f 1d 76 41 3f 0e 20 88 bd 6c 99 29 3f
       0.5285086 0.7557085 -0.06646739 0.6624973

weight f4 [1, 128]
000000 53 94 34 3e e0 5c 80 bc 50 56 75 3c 71 15 9d 3a
       0.17634706 -0.015669286 0.014974192 0.001198454
000010 96 b7 49 3e a2 1a e5 ba ca ee 30 bb 13 4b c8 3c
       0.19698939 -0.0017479251 -0.0026997798 0.02444986
000020 c6 10 69 3c d7 c3 76 3c fb 6e 89 3d ea 83 54 3d
       0.0142251905 0.01506134 0.06710621 0.051883616
000030 4e b5 a4 3c 7d b5 f9 3c 98 0a 32 3d 75 ab d8 3c
       0.020105984 0.030482048 0.043467134 0.026448945
000040 02 20 c5 bb f9 35 54 3c 0e d3 7f 3d e7 90 1f be
       -0.0060157785 0.012952321 0.062457137 -0.1558262
000050 66 ac b5 3d d3 67 80 3d e4 4f 97 bd d8 5d fb 3d
       0.08870773 0.06269803 -0.07388285 0.12273759
000060 b5 b9 57 3e f8 d2 24 3c 68 14 bc 3c b2 d3 1e 3d
       0.21066935 0.0100600645 0.02295895 0.038776107
000070 27 a4 50 3c d0 8a b1 3c bf 90 71 bc db 40 5d 3e
       0.0127344495 0.021672636 -0.014743983 0.21606772
000080 b5 a9 3a bc b0 6d 21 3e 07 5d 66 3d 65 ce 89 3c
       -0.011393 0.15764499 0.05624106 0.01682205
000090 17 e7 bf 3c c0 f8 b9 3b a1 f3 84 3d c7 55 94 bd
       0.023425622 0.0056754053 0.06491781 -0.07242923
0000a0 d2 a9 ca bc 50 10 4c 3e d9 33 18 3c d8 34 cc 3d
       -0.02473918 0.19928098 0.009289705 0.09971017
0000b0 3e a7 ca bd 33 3c 21 3d 6e 79 1b bc 38 9e 60 bd
       -0.0989518 0.03936405 -0.0094894 -0.05483839
0000c0 7e 00 d6 3c 44 29 6a 3d 63 36 09 3d 12 87 7c ba
       0.026123282 0.05716826 0.033499133 -0.0009633164
0000d0 c0 b4 05 3e fb a3 62 3d 2b 51 45 3d ae cc 73 be
       0.13057232 0.055332165 0.04817311 -0.23808548
0000e0 d9 7a c3 3c 3e 13 7e 3b f0 72 e7 bc 42 68 e4 3c
       0.02386229 0.0038768793 -0.028253049 0.027881745
0000f0 b6 ab 05 3c fe cc 37 3d 03 6d ac 3d 3d 8f 2c 3c
       0.008158615 0.04487323 0.0841923 0.010532198
000100 74 0c 85 bb 89 1c aa 3c 45 d2 8c 3c 5d 6b c7 bc
       -0.0040603224 0.02076556 0.017190108 -0.024343187
000110 e8 c1 45 3d e1 24 5f 3c 61 61 74 3b 51 85 cc 3d
       0.048280627 0.013619632 0.0037289488 0.099863656
000120 b1 86 1e 3e b1 ae 33 bd b0 83 6a 3c 9c 6f b8 3c
       0.15481068 -0.04386777 0.014313623 0.022514157
000130 85 00 7e 3c d2 d7 36 3c c5 f2 00 3e d0 f2 3f 3d
       0.015503054 0.011159854 0.12592609 0.046862423
000140 32 3f af bd 4f 73 76 bc 98 cd a4 3c f0 5b e2 3c
       -0.085569754 -0.01504214 0.020117566 0.02763173
000150 7f b9 c5 3d ef 58 54 3c 20 69 13 3c fb 18 f8 3b
       0.09654521 0.012960657 0.008997232 0.0075713373
000160 5d 03 3c 3e 8f fd 8e 3d 1d e3 95 3c 9c ac 0c 3d
       0.18360658 0.06981956 0.018296773 0.0343443
000170 2a d0 bb 3c 8d cf 20 3e 3d 47 2f 3e 0f fa 56 3c
       0.022926409 0.15704174 0.17117019 0.013121142
000180 2a e9 18 3d c1 4f 91 3c f6 64 76 3d a6 cd 68 bd
       0.037331738 0.017738225 0.060154878 -0.056836747
000190 e6 c4 73 bb c2 b7 90 3d f2 64 fd 3d e6 30 a2 bc
       -0.0037196218 0.07066299 0.123727694 -0.019798707
0001a0 46 d7 7e 3d dc 1e a2 bc ff 7f ba 3c 79 08 e2 3c
       0.06221702 -0.019790106 0.022766111 0.02759193
0001b0 7b 41 b8 3c 63 04 8a 3c 20 22 26 bd 30 33 2b 3c
       0.022492161 0.016847795 -0.040559888 0.010449216
0001c0 36 a5 09 bc 70 8e 3f bb e8 56 05 be 11 18 29 3d
       -0.008401206 -0.0029229186 -0.13021433 0.041282717
0001d0 fd d4 86 bc 0c d8 ee 3d 69 7a 01 bd 2c 2f 31 3e
       -0.016458983 0.116623014 -0.03161088 0.17303151
0001e0 d0 fe 80 3d b4 04 b4 3c 7e 09 ac 3b 59 03 69 3d
       0.062986016 0.021974899 0.005250155 0.05688796
0001f0 46 7c 91 3c 54 bb c6 3d 2c 92 06 3d d9 99 7b 3d
       0.017759454 0.09703699 0.032854244 0.061426017
