src/Fun_2/model/pca_model_128_64_256_0.001_600.pt (torch, 360143 bytes, 5 tensors)

weight f4 [64, 1128]
-0.14001235 -0.027911557 0.025504747 0.01808136 -0.0831483 -0.1042906 0.106665425 -0.047420107
0.019219888 -0.036379114 -0.06580225 -0.012658717 -0.028736856 -0.15921496 0.05091267 -0.04757808
-0.025954908 0.02957406 0.06849226 0.017651727 -0.020119622 -0.012043103 0.07458289 0.04842878
0.08503904 -0.028432254 0.03893993 0.03898843 0.015101056 -0.07798927 0.12455075 0.094942555
-0.02053391 0.016146835 0.21477446 0.0017637956 0.14231253 -0.0430889 0.113984376 -0.009398784
0.004224878 -0.032390576 -0.04975923 0.08588033 -0.09623876 -0.020386517 0.17691064 0.012939807
-0.14173907 0.05945337 0.053714972 0.10799185 -0.07589956 0.098355815 -0.16601184 0.062386792
-0.011490608 -0.0020103909 -0.06136031 0.09743941 -0.14742328 0.07491434 -0.021468513 -0.030455329
0.013253344 -0.12074058 -0.074107714 0.012831733 0.04527529 0.14632328 -0.022925876 0.09823769
-0.008774618 -0.013200168 -0.06992281 -0.111760624 0.017778147 0.09051652 -0.013060293 -0.24212858
-0.19058952 0.08955915 0.07284814 -0.0075681056 -0.1265976 -0.0032577887 0.0033403414 -0.19797452
-0.058911085 -0.07384367 0.033946984 -0.23105612 -0.056078378 -0.089365065 -0.0890961 -0.027274743
0.011154402 0.18939501 0.26090658 0.082430616 0.036153164 -0.09595582 -0.06881347 -0.018263046
-0.19890946 0.01357204 0.123597756 -0.115921244 -0.004268918 -0.0033647828 0.033356626 -0.033725668
-0.049742825 -0.13256732 -0.17728752 0.06482325 0.19595407 0.09280695 0.0068967557 -0.1003149
-0.03917283 -0.01752875 -0.09678285 -0.101520084 0.022814907 -0.113572724 -0.0003894293 0.030741613
0.07366138 -0.062410496 -0.1335906 -0.11827247 0.041775733 0.035309125 0.040211145 0.05772896
0.03241834 -0.01464738 0.2121756 0.014550375 0.047878515 0.113359936 -0.17817232 -0.071066
0.061269864 0.21122049 -0.26461896 0.041027304 0.10882206 -0.07064351 0.11307719 0.24635527
0.001899937 0.048996985 0.032747228 -0.04418225 -0.17324232 -0.022280568 0.015074882 -0.13632777
-0.034019347 0.116487704 -0.005071516 0.0060452647 0.10188903 -0.043608423 -0.010970068 0.103384346
0.066756025 0.04354346 -0.03105927 0.055177666 -0.037574723 -0.062566735 0.017732281 0.13885511
-0.02400252 -0.08417544 0.11395788 0.010326346 0.1536154 -0.18728895 -0.0743889 0.30781177
0.085601 0.1406102 0.02785225 0.078786045 -0.090946905 0.2109111 -0.03663115 0.020452272
0.14009175 -0.26671937 -0.0016302764 -0.05439611 -0.0120607 -0.018721567 -0.2561102 -0.2692826
0.09535478 0.1837385 0.13263443 -0.03283712 -0.05215763 0.2955318 0.08141301 0.05129916
-0.039224274 0.020538593 -0.12871425 0.07715072 -0.12824127 -0.087863654 -0.06530114 0.0916086
0.13729106 -0.0027368963 -0.12340103 -0.08297625 -0.06287328 0.073242664 0.069350414 0.08060962
0.017028034 0.038541656 -0.13489932 -0.13527204 0.011669842 0.08210041 0.009957223 0.043690838
0.25248557 -0.1470211 0.23986946 -0.0648466 0.07505203 -0.1081587 -0.15737577 0.052480426
0.121369064 0.03318904 -0.14049624 -0.0549089 0.04156729 -0.037208583 0.06785703 -0.15625633
0.12645867 -0.071857676 0.070868745 0.046191208 0.102100864 0.03200155 -0.007651636 0.115323596
00000000: 665f 0fbe c7a6 e4bc 55ef d03c 5c1f 943c
00000010: a849 aabd 4f96 d5bd 6773 da3d 963b 42bd
00000020: 0773 9d3c 4402 15bd 54c3 86bd 8266 4fbc
00000030: 8e69 ebbc 3f09 23be ce89 503d 3ce1 42bd
00000040: 639f d4bc 4d45 f23c ac45 8c3d 5b9a 903c
00000050: e8d1 a4bc 6f50 45bc eabe 983d 425d 463d
00000060: f328 ae3d c2ea e8bc 7a7f 1f3d 55b2 1f3d
00000070: 6b6a 773c d7b8 9fbd 7714 ff3d 3e71 c23d
00000080: bb36 a8bc 5e46 843c d6ed 5b3e 292f e73a
00000090: 60ba 113e fd7d 30bd a470 e93d 5bfd 19bc
000000a0: d870 8a3b fbab 04bd 56d0 4bbd 07e2 af3d
000000b0: d418 c5bd a001 a7bc 1028 353e 7c01 543c
000000c0: 0c24 11be 6085 733d 3b04 5c3d d52a dd3d
000000d0: 3a71 9bbd c66e c93d 02ff 29be 4b89 7f3d
000000e0: 1a43 3cbc c3c0 03bb f354 7bbd 508e c73d
000000f0: 21f6 16be b16c 993d bcde afbc 747d f9bc
00000100: 8e24 593c d646 f7bd c9c5 97bd 303c 523c
00000110: 9572 393d c5d5 153e 0ccf bbbc d830 c93d
00000120: 6ac3 0fbc 8445 58bc b133 8fbd c1e2 e4bd
00000130: 7aa3 913c ba60 b93d d7fa 55bc 8ef0 77be
00000140: e629 43be ca6a b73d 6831 953d dffd f7bb
00000150: cda2 01be a080 55bb a1e9 5a3b d5b9 4abe
00000160: c04c 71bd 5a3b 97bd fe0b 0b3d fa99 6cbe
00000170: 71b2 65bd 0805 b7bd 0478 b6bd 486f dfbc
00000180: f4c0 363c c4f0 413e 8c95 853e 62d1 a83d
00000190: 5715 143d 7c84 c4bd 14ee 8cbd 629c 95bc
000001a0: ecae 4bbe 435d 5e3c d220 fd3d 1e68 edbd
000001b0: 48e2 8bbb b083 5cbb f5a0 083d ed23 0abd
000001c0: 22bf 4bbd babf 07be dc8a 35be 0dc2 843d
000001d0: 2fa8 483e 9211 be3d 2efe e13b e671 cdbd
000001e0: b073 20bd 7498 8fbc 1636 c6bd c3e9 cfbd
000001f0: 54e6 ba3c d198 e8bd 512c ccb9 d6d5 fb3c
00000200: c7db 963d 26a2 7fbd f9cb 08be d638 f2bd
00000210: 081d 2b3d 4da0 103d 71b4 243d 3475 6c3d
00000220: 18c9 043d 91fb 6fbc 8f44 593e b264 6e3c
00000230: 431c 443d 4129 e83d ce72 36be 0d8b 91bd
00000240: 1cf6 7a3d 2f4a 583e 237c 87be 3f0c 283d
00000250: 1ade de3d 8bad 90bd 0495 e73d 8e44 7c3e
00000260: 4f07 f93a 10b1 483d f521 063d 72f8 34bd
00000270: 6f66 31be bd85 b6bc a3fc 763c 8299 0bbe
00000280: df57 0bbd 1b91 ee3d f62e a6bb 5b17 c63b
00000290: 32ab d03d bf9e 32bd cdbb 33bc 2cbb d33d
000002a0: 62b7 883d a15a 323d 0370 febc fa01 623d
000002b0: f4e7 19bd fd22 80bd 4a43 913c 0930 0e3e
000002c0: efa0 c4bc 2c64 acbd c062 e93d d62f 293c
000002d0: 5b4d 1d3e adc8 3fbe 3559 98bd 8199 9d3e
000002e0: 944f af3d 1ffc 0f3e 672a e43c 945a a13d
000002f0: 5f42 babd 14f9 573e 8b0a 16bd 868b a73c
00000300: 3674 0f3e 718f 88be 00af d5ba 75ce 5ebd
00000310: 3e9a 45bc f95d 99bc e020 83be 69df 89be
00000320: 5e49 c33d f225 3c3e 52d1 073e 3780 06bd
00000330: 3da3 55bd f24f 973e ddbb a63d 111f 523d
00000340: a2a9 20bd 8d40 a83c abcd 03be 3201 9e3d
00000350: ae51 03be dcf1 b3bd 9bbc 85bd 4a9d bb3d
00000360: 0796 0c3e 805d 33bb aeb9 fcbd 74ef a9bd
00000370: b5c3 80bd 4000 963d 9707 8e3d a816 a53d
00000380: 607e 8b3c dbdd 1d3d 0c23 0abe c184 0abe
00000390: dd32 3f3c 4224 a83d 9f23 233c 2af5 323d
000003a0: ca45 813e b38c 16be 57a0 753e 4bce 84bd
000003b0: e1b4 993d 4f82 ddbd 1d27 21be b7f5 563d
000003c0: 5890 f83d 3bf1 073d 3fde 0fbe 28e8 60bd
000003d0: 7642 2a3d 0768 18bd a0f8 8a3d a901 20be
000003e0: 627e 013e 1e2a 93bd a223 913d fe32 3d3d
000003f0: 421a d13d 0f14 033d 93ba fabb c72e ec3d

bias f4 [64]
-0.21457168 -0.27377972 -0.57833767 0.18957433 -0.41960275 0.023584891 -0.22226664 -0.00015029704
-0.16500483 0.20276946 -0.1061049 -0.11960667 0.012629809 -0.25575945 -0.64569 -0.6962143
-0.11252114 0.050518744 -0.12043158 -0.6474194 0.12310153 -0.20198229 -0.05726357 -0.24963166
-0.17422427 0.17599043 -0.34947443 0.050877847 0.13746284 0.06635369 -0.3016696 -0.5491361
0.09097398 -0.0798748 0.15205674 -0.037876233 -0.6337186 -0.01885614 -0.10706614 -0.08178857
0.26594606 0.00829323 -0.01789024 -0.07253245 -0.11310295 -0.18017882 0.26611397 0.24134524
-0.09420589 -0.4191361 -0.037334494 -0.11289907 -0.38642663 0.1930709 -0.16401856 -0.63145983
-0.07965222 -0.19532175 0.16299097 -0.3414819 -0.056549672 -0.20628425 -0.015896985 -0.12308736
00000000: aeb8 5bbe db2c 8cbe f00d 14bf c61f 423e
00000010: 2cd6 d6be 1a35 c13c de99 63be 0e99 1db9
00000020: 07f7 28be cca2 4f3e 874d d9bd 58f4 f4bd
00000030: 42ed 4e3c e7f2 82be f14b 25bf 1a3b 32bf
00000040: 7c71 e6bd beec 4e3d d5a4 f6bd 47bd 25bf
00000050: a81c fc3d 72d4 4ebe 358d 6abd 719f 7fbe
00000060: d967 32be d636 343e 50ee b2be 4a65 503d
00000070: 0fc3 0c3e 72e4 873d 7074 9abe 2f94 0cbf
00000080: 9150 ba3d 6695 a3bd c3b4 1b3e 1c24 1bbd
00000090: 623b 22bf 3178 9abc 7e45 dbbd c480 a7bd
000000a0: 152a 883e 54e0 073c 8d8e 92bc e58b 94bd
000000b0: 85a2 e7bd cc80 38be 1740 883e 3523 773e
000000c0: 05ef c0bd 0299 d6be 0eec 18bd a137 e7bd
000000d0: b6d9 c5be 61b4 453e 7bf4 27be 5aa7 21bf
000000e0: b420 a3bd 6d02 48be 1be7 263e b7d6 aebe
000000f0: a1a0 67bd 2e3c 53be 653a 82bc 3a15 fcbd

weight f4 [256, 64]
0.06572027 -0.02578092 0.13083106 0.07745641 0.05967455 -0.03929655 -0.021001542 0.07240182
0.10134976 -0.096489966 -0.06534541 -0.084853955 0.022834415 0.045201514 0.11005603 0.11455923
0.061817672 0.11283709 0.02620869 0.0014705458 -0.084587835 0.05880031 -0.08430423 -0.060224816
0.10115151 0.04523029 0.11109283 0.11356886 0.0076826382 -0.056032524 0.14498264 0.024453258
-0.064878725 0.041363873 0.10107881 -0.09572092 0.07407941 -0.029306725 -0.051607616 -0.03740428
0.12894891 0.020499727 0.03803015 -0.021127647 0.02751925 0.05865555 0.043914266 0.10948753
-0.060605377 0.14292803 0.08213502 0.0044273445 0.002098229 -0.07822986 0.1285027 0.13339882
-0.050560854 0.15748157 0.14204925 0.1455918 -0.015504832 0.13716154 -0.049216233 0.08475598
0.0554973 0.0857103 -0.1158904 -0.0779343 0.02038835 -0.038006857 -0.11883951 -0.06364598
0.026951535 -0.087267295 -0.0072118277 -0.03302821 -0.0075048506 0.050585207 -0.06175066 -0.05639045
-0.08682208 -0.11932638 -0.07431756 -0.08993675 -0.059659384 0.038471654 -0.13519594 0.051809553
-0.0733989 -0.09297226 0.08817002 -0.06249104 0.028926373 -0.10995162 -0.1442228 -0.1415096
-0.045226417 -0.0086447885 -0.05987639 0.069419615 0.07065728 0.07804283 -0.08626815 0.012038049
-0.12734702 -0.02892343 -0.09638303 0.027983604 -0.12772174 -0.01773226 -0.102544844 -0.05709666
-0.007758106 -0.07802664 0.02467641 0.020362958 -0.114660144 -0.12407441 -0.048144728 -0.07597254
-0.1127131 0.052575428 -0.13985531 -0.13062768 0.075302325 0.010516757 0.03897073 -0.10207321
0.06605406 0.12011362 0.0074935067 -0.00995701 0.11017554 0.0050759944 -0.061548084 0.009819928
-0.0066611473 0.14777777 0.0516277 0.113674924 0.10727726 0.06969507 0.055789135 -0.062085304
0.07199689 0.080175884 0.10884076 -0.033907596 0.07271026 0.11459586 -0.03538502 -0.07834022
0.06249588 0.11930292 0.07578134 0.113165416 0.08362225 -0.0067318776 0.012022983 0.0655436
0.03437252 0.053583775 -0.032479763 -0.0887957 0.12341063 -0.021289533 0.045518413 0.042883996
-0.035164982 0.13117042 0.15848172 0.09474536 0.08368706 0.15289985 -0.054034267 0.14726672
-0.019143477 -0.04047588 0.0911224 0.14159627 0.15402965 0.038075972 0.14188407 0.014310691
-0.072969355 0.090854995 0.14236435 -0.025515432 -0.07006109 0.13214362 0.1017064 0.099710025
-0.10116055 -0.01330344 -0.007721697 -0.033918608 0.094795 0.0048127496 -0.07365071 -0.17992377
-0.27442014 -0.0545632 0.034655135 0.077514164 -0.1253226 0.083354905 0.04461789 -0.016748818
-0.06707954 -0.035578623 -0.41260043 -0.16971035 -0.04427645 -0.11426612 0.04193326 -0.3154743
-0.017759055 -0.03223024 -0.045892302 -0.16213024 -0.20964773 0.040252924 -0.014279995 -0.30254012
-0.22520773 0.033777688 -0.12682368 -0.063969895 -0.24082115 0.0010196032 0.037624165 -0.07175493
-0.12482369 0.047238726 0.16447948 -0.025991008 -0.053372372 -0.22830825 0.020979216 0.013024136
0.09209715 -0.021529282 -0.08573224 -0.00806251 -0.19324827 -0.025970593 0.07335943 -0.16657802
-0.2501882 -0.026304867 -0.1398063 -0.06290825 -0.0919136 0.053890664 -0.02528428 -0.28050035
00000000: 5998 863d 8232 d3bc 94f8 053e 77a1 9e3d
00000010: 4d6d 743d 6bf5 20bd 6d0b acbc 6847 943d
00000020: 7790 cf3d 889c c5bd d0d3 85bd e9c7 adbd
00000030: 3d0f bb3c 3925 393d 0e65 e13d 089e ea3d
00000040: 8734 7d3d 2217 e73d 9bb3 d63c 54bf c03a
00000050: 633c adbd 98d8 703d b2a7 acbd 4cae 76bd
00000060: 8628 cf3d 6643 393d a384 e33d ca96 e83d
00000070: a4be fb3b 5c82 65bd 5476 143e 3352 c83c
00000080: 23df 84bd 2a6d 293d 6802 cf3d 5409 c4bd
00000090: f2b6 973d a814 f0bc 8262 53bd 3b35 19bd
000000a0: 2f0b 043e 0bef a73c 81c5 1b3d e313 adbc
000000b0: 0d70 e13c cd40 703d 72df 333d 003b e03d
000000c0: 583d 78bd ba5b 123e 6836 a83d 4213 913b
000000d0: 7182 093b fa36 a0bd 3696 033e b399 083e
000000e0: e618 4fbd d942 213e 5c75 113e 0416 153e
000000f0: fb07 7ebc 1374 0c3e f696 49bd 8b94 ad3d
00000100: 2351 633d e288 af3d f257 edbd 059c 9fbd
00000110: 7805 a73c 14ad 1bbd 2162 f3bd d358 82bd
00000120: 77c9 dc3c 32b9 b2bd 3251 ecbb 9748 07bd
00000130: 40eb f5bb 6f32 4f3d 43ee 7cbd acf9 66bd
00000140: c6cf b1bd 6461 f4bd ce33 98bd c230 b8bd
00000150: 665d 74bd 7494 1d3d ce70 0abe 4136 543d
00000160: 2a52 96bd 3e68 bebd 7c92 b43d 9bf6 7fbd
00000170: 00f7 ec3c 512e e1bd 24af 13be e5e7 10be
00000180: 563f 39bd dfa2 0dbc f240 75bd df2b 8e3d
00000190: c4b4 903d ebd4 9f3d 5bad b0bd 3d3b 453c
000001a0: 4267 02be d4f0 ecbc 7764 c5bd df3d e53c
000001b0: 7dc9 02be 3f43 91bc 0803 d2bd 30de 69bd
000001c0: b637 febb 6ecc 9fbd 2f26 ca3c 38d0 a63c
000001d0: f0d2 eabd b91a febd 6833 45bd 7e97 9bbd
000001e0: 20d6 e6bd 5559 573d 3b36 0fbe 43c3 05be
000001f0: 1b38 9a3d 7a4e 2c3c c69f 1f3d c20b d1bd
00000200: 5a47 873d 21fe f53d 178c f53b ba22 23bc
00000210: b7a3 e13d 8754 a63b d819 7cbd c3e3 203c
00000220: c145 dabb 0e53 173e 9177 533d 66ce e83d
00000230: 2eb4 db3d 4abc 8e3d 2683 643d 294d 7ebd
00000240: 1b73 933d 4133 a43d e8e7 de3d b1e2 0abd
00000250: 1ee9 943d 3cb1 ea3d e2ef 10bd d670 a0bd
00000260: aefb 7f3d 1755 f43d 3f33 9b3d 45c3 e73d
00000270: 2442 ab3d 1597 dcbb 0cfc 443c b93b 863d
00000280: 33ca 0c3d a97a 5b3d 8009 05bd 85da b5bd
00000290: b6be fc3d 6367 aebc 8471 3a3d 21a7 2f3d
000002a0: 2809 10bd 8a51 063e 0849 223e db09 c23d
000002b0: 1f64 ab3d c791 1c3e 0953 5dbd 16cd 163e
000002c0: c8d2 9cbc 09ca 25bd 619e ba3d 9dfe 103e
000002d0: f3b9 1d3e 8df5 1b3d 0f4a 113e 6377 6a3c
000002e0: f570 95bd 2f12 ba3d f6c7 113e bd05 d1bc
000002f0: 307c 8fbd a850 073e 724b d03d c534 cc3d
00000300: 432d cfbd acf6 59bc 4a06 fdbb 3dee 0abd
00000310: e223 c23d 45b4 9d3b 2fd6 96bd f03d 38be
00000320: cc80 8cbe a97d 5fbd 8bf2 0d3d bfbf 9e3d
00000330: 9154 00be fab5 aa3d 40c1 363d d134 89bc
00000340: ff60 89bd e4ba 11bd 5d40 d3be 8dc8 2dbe
00000350: 395b 35bd 5b04 eabd 36c2 2b3d d985 a1be
00000360: 707b 91bc db03 04bd 91f9 3bbd 7805 26be
00000370: e5ad 56be 40e0 243d a4f6 69bc 8ae6 9abe
00000380: db9c 66be 795a 0a3d 11de 01be a602 83bd
00000390: d299 76be 35a4 853a cc1b 1a3d 40f4 92bd
000003a0: 90a3 ffbd 657d 413d 4f6d 283e 18eb d4bc
000003b0: fd9c 5abd a3c9 69be 9bdc ab3c 3063 553c
000003c0: 6e9d bc3d 2d5e b0bc 6294 afbd 9e18 04bc
000003d0: e0e2 45be 48c0 d4bc 783d 963d 6e93 2abe
000003e0: ab18 80be 4e7d d7bc 6229 0fbe 0ad6 80bd
000003f0: 333d bcbd 75bc 5c3d fa20 cfbc be9d 8fbe

bias f4 [256]
0.094659716 -0.052860107 0.13047254 -0.16490619 0.1287743 -0.26922473 0.23894934 0.24995267
0.26996505 0.16924906 -0.27002466 0.16616537 0.031334918 0.21670097 -0.039860453 -0.11213877
0.0134715 -0.34730688 -0.23019184 -0.3057845 -0.11465428 -0.092062175 0.08795708 -0.0063372534
-0.10159412 -0.099156074 -0.13796498 0.008431501 0.13117744 0.01787774 0.21636908 -0.117748804
0.22301726 -0.17874503 -0.11350339 0.14629298 0.2558181 -0.063933216 -0.055808228 -0.10543781
0.21327764 0.18619752 0.28709856 0.04013008 0.23391698 0.11791953 0.15974198 0.0747421
-0.1664673 0.13216825 -0.3217814 -0.30715713 -0.0032420876 0.27001303 0.09181968 0.27357572
0.1767586 0.40202832 0.26317498 0.13987933 0.25207907 0.03817732 0.27338082 0.1474739
-0.15459919 0.27805695 0.21844348 0.11788779 0.28817326 0.18106964 -0.2208568 0.28806332
0.118562624 0.24325536 -0.34765708 -0.122919284 0.24697636 -0.22531106 -0.15901522 -0.19177514
0.17327699 -0.18682207 0.26171854 -0.08768395 0.28736007 -0.15225448 0.26686892 -0.061395217
-0.09629093 0.09863951 -0.36552882 -0.0060356134 0.13582721 -0.077348836 0.25718883 0.055097096
0.15681858 0.11772281 -0.04658447 -0.1613749 0.24990697 0.24286205 0.25300688 0.17458445
-0.044991598 0.25448084 -0.03179918 0.23212947 0.14661908 -0.17280595 0.27773568 0.108483106
-0.09064162 0.15770894 0.26129013 0.2202217 -0.06019525 0.20157386 0.19663426 -0.09538521
0.18877317 -0.13127968 -0.034881547 -0.095338054 -0.017435497 0.21173961 -0.07306006 -0.2876514
0.16101757 0.23428108 -0.07244903 0.06352862 -0.14523806 0.20802784 0.14089131 0.15046063
-0.19980687 0.18496646 0.1064835 -0.41233242 -0.101447046 -0.011276152 0.1697571 -0.32846582
-0.2040538 -0.051066425 -0.08331285 -0.15978716 0.18733394 0.2296257 0.215171 0.18114772
0.19992763 0.22748004 -0.020503465 0.15111856 0.28104186 -0.30520272 -0.41938847 0.26961175
0.19220534 0.19994475 0.24643041 -0.061339308 0.34590468 -0.063234486 -0.085153446 0.36818802
-0.07670524 -0.123905346 0.20124047 -0.07867525 -0.06520764 -0.17851399 -0.02353686 -0.35592666
0.20858228 -0.035580404 0.21488185 0.27283138 -0.34079346 -0.13535485 0.25468785 0.2227745
0.27306154 0.22479068 -0.018318092 0.17365171 0.07074781 -0.18058367 0.16667144 0.22757179
0.27456248 -0.32371795 0.02520233 0.24148375 -0.34719488 0.12880121 0.10600289 0.14392093
0.24791916 0.21011329 -0.14652081 0.21641508 -0.09071503 0.18048334 0.34125596 -0.019517383
0.10181817 0.17960383 0.2088192 0.26440114 -0.36696962 0.05980305 0.16147998 0.1599451
-0.1692272 0.17402408 -0.20812874 0.2917361 0.03797161 -0.07364727 0.1527471 -0.16111639
-0.106280416 -0.26647624 0.29190516 -0.15871017 0.18283276 0.061280813 -0.00064983557 0.0024887957
-0.09663521 -0.058954876 -0.021488944 0.26773244 0.24895076 -0.09816696 0.30261716 0.2444859
0.27304175 0.13187477 0.18641658 -0.16984743 -0.07998028 0.20688355 0.07757446 -0.118622616
0.38916773 0.25220248 0.2333305 0.23003545 0.16625947 0.26114568 0.13010429 -0.055626478
00000000: f4dc c13d d783 58bd 989a 053e 2bdd 28be
00000010: 69dd 033e d3d7 89be 23af 743e 98f3 7f3e
00000020: dc38 8a3e a04f 2d3e ac40 8abe 4127 2a3e
00000030: 0b59 003d dce6 5d3e b744 23bd 03a9 e5bd
00000040: 91b7 5c3c 35d2 b1be 69b7 6bbe c98f 9cbe
00000050: ddcf eabd 188b bcbd d722 b43d bca8 cfbb
00000060: 9410 d0bd 5712 cbbd b146 0dbe 4724 0a3c
00000070: 6153 063e 5774 923c db8f 5d3e 4926 f1bd
00000080: a35e 643e f008 37be 7774 e8bd d4cd 153e
00000090: 97fa 823e 6bef 82bd 2b97 64bd c7ef d7bd
000000a0: 7465 5a3e 90aa 3e3e 95fe 923e 705f 243d
000000b0: ef87 6f3e cb7f f13d 6793 233e 6312 993d
000000c0: 6776 2abe 1d57 073e 88c0 a4be b343 9dbe
000000d0: 3479 54bb 263f 8a3e f50b bc3d 1e12 8c3e
000000e0: 3500 353e a8d6 cd3e dfbe 863e 873c 0f3e
000000f0: 8210 813e d25f 1c3d 92f8 8b3e 6603 173e
00000100: 404f 1ebe 7b5d 8e3e a6af 5f3e 276f f13d
00000110: 728b 933e 526a 393e 4928 62be 097d 933e
00000120: f6d0 f23d ef17 793e 1c00 b2be 1bbd fbbd
00000130: 5fe7 7c3e f1b7 66be e3d4 22be b460 44be
00000140: 866f 313e 494e 3fbe f9ff 853e a593 b3bd
00000150: dc20 933e 99e8 1bbe 0ba3 883e 8d79 7bbd
00000160: 2e34 c5bd 8303 ca3d 9826 bbbe 65c6 c5bb
00000170: 4a16 0b3e 1169 9ebd 41ae 833e 7ead 613d
00000180: 0d95 203e a818 f13d 5bcf 3ebd 763f 25be
00000190: 9de7 7f3e d4b0 783e 1e8a 813e 44c6 323e
000001a0: 1c49 38bd 504b 823e db3f 02bd 59b3 6d3e
000001b0: 5023 163e 0bf4 30be 5f33 8e3e 642c de3d
000001c0: 50a2 b9bd 747e 213e d2c7 853e cc81 613e
000001d0: 4b8f 76bd 6169 4e3e 7e5a 493e 5259 c3bd
000001e0: c14d 413e 2e6e 06be f4df 0ebd 9940 c3bd
000001f0: e3d4 8ebc 45d2 583e 83a0 95bd 0b47 93be
00000200: cae1 243e 61e7 6f3e 2860 94bd 4b1b 823d
00000210: 49b9 14be 4005 553e d045 103e 5a12 1a3e
00000220: 2c9a 4cbe d967 3d3e 0514 da3d 3c1d d3be
00000230: 78c3 cfbd 9cbf 38bc ced4 2d3e ac2c a8be
00000240: 7bf3 50be 072b 51bd ed9f aabd 3f9f 23be
00000250: 78d4 3f3e 0023 6b3e c955 5c3e ca7e 393e
00000260: d4b9 4c3e 87f0 683e e2f6 a7bc d3be 1a3e
00000270: b8e4 8f3e 8843 9cbe 16ba d6be 8d0a 8a3e
00000280: 7ad1 443e 51be 4c3e 4158 7c3e ed3e 7bbd
00000290: 6b1a b13e 1581 81bd ee64 aebd 2483 bc3e
000002a0: a317 9dbd 16c2 fdbd fb11 4e3e 7d20 a1bd
000002b0: 958b 85bd 5fcc 36be 5fd0 c0bc 053c b6be
000002c0: 9896 553e c2bc 11bd fd09 5c3e 8eb0 8b3e
000002d0: 7b7c aebe 769a 0abe 7266 823e 001f 643e
000002e0: b9ce 8b3e 872f 663e d30f 96bc c1d1 313e
000002f0: 3ae4 903d edea 38be ebab 2a3e 9408 693e
00000300: 7493 8c3e 5cbe a5be 1e75 ce3c 8447 773e
00000310: 87c3 b1be 77e4 033e 0b18 d93d 0260 133e
00000320: 85de 7d3e f027 573e 8d09 16be ea9b 5d3e
00000330: cdc8 b9bd a0d0 383e 1ab9 ae3e ebe2 9fbc
00000340: 0b86 d03d 11ea 373e b3d4 553e 965f 873e
00000350: 71e3 bbbe 0bf4 743d 025b 253e a6c8 233e
00000360: e549 2dbe 5e33 323e b31f 55be 6f5e 953e
00000370: 1e88 1b3d 61d4 96bd bc69 1c3e b2fb 24be
00000380: 8ca9 d9bd 936f 88be 9874 953e eb84 22be
00000390: 8338 3b3e 9701 7b3d ba59 2aba 101b 233b
000003a0: aee8 c5bd ab7a 71bd 9509 b0bc 3a14 893e
000003b0: f3ec 7e3e c20b c9bd a3f0 9a3e 835a 7a3e
000003c0: 21cc 8b3e 2e0a 073e fde3 3e3e 7cec 2dbe
000003d0: b3cc a3bd 48d9 533e 5cdf 9e3d 6af0 f2bd
000003e0: fe40 c73e af20 813e 31ee 6e3e 6a8e 6b3e
000003f0: ec3f 2a3e e3b4 853e 0f3a 053e 97d8 63bd

weight f4 [1, 256]
0.028884158 0.025221933 0.073604606 -0.0012488799 0.067549445 0.09299683 0.021000752 0.10159183
0.034705196 0.043391645 -0.012036483 0.056590095 0.008905582 0.08945362 0.012868662 -0.012868175
-0.0013040497 -0.23817757 0.0057613994 -0.23193301 0.050404143 -0.010066589 0.00011340228 -0.011741827
-0.005163221 -0.0020458242 0.011906525 -0.00072232186 0.0061397357 0.004717558 0.05166403 0.026776273
0.02100086 -0.0014616766 -0.010304478 0.042440556 0.10732468 -0.13293974 -0.0061468217 -0.009088647
0.07255528 0.09794043 0.1013048 -0.037484046 0.03815994 0.024523295 0.016932553 -0.0009612368
-0.004562889 0.044455823 -0.22495209 -0.22126557 0.0006954459 0.049811568 0.0005986966 0.022205444
0.09535636 -0.6277175 0.06663788 0.05748747 0.07998119 -0.0005030091 0.096558 0.03360751
-0.04251199 0.018914634 0.08649648 0.041894723 0.09981836 -0.09790259 0.0025837002 -0.19930293
-0.0012151204 0.013655892 -0.29137987 -0.0022398438 0.083191715 -0.025440587 -0.0042724228 -0.07076821
0.06719913 -0.028544575 0.049478885 -0.0021829233 0.109361745 -0.0011641694 0.051676665 0.025941141
-0.0047305175 -0.06281104 -0.3581505 0.0026606792 0.059882175 -0.0017337317 0.047597177 -0.0005213596
0.06317183 0.05830801 -0.029309811 0.0052155177 0.08769294 -0.18099803 -0.1549719 0.07310376
-0.0060135266 0.10889365 0.0038652464 0.056865316 0.037309743 -0.025960889 0.06255889 0.0023535748
-0.0078114616 0.07007627 0.1113795 0.08527094 -0.15042153 0.076950036 0.07132821 -0.016266637
0.08471577 0.016283471 -0.0003676357 -0.0059553194 0.026661858 0.08391185 -0.0025852881 -0.07803072
0.08895071 0.06597797 0.01053449 0.021277359 0.014500947 0.07059011 0.06390202 0.08756413
0.002380788 0.101048484 0.00011238172 -0.4616941 -0.022049895 -0.01815163 0.024818743 -0.29507172
-0.00028603827 0.004892274 -0.11126451 0.012670876 0.061339848 0.10659409 0.08081731 -0.18340369
0.013822669 -0.15598404 -0.003291506 0.045304857 0.078548975 -0.07873785 -0.4375088 0.0981531
0.056833256 -0.11701643 0.07835494 0.016652573 0.08080873 -0.0036180022 0.001494635 -0.42142358
0.00076954835 -0.018913452 0.057036366 0.008427088 -0.00040971348 -0.020906482 -0.023245754 -0.29660872
0.075272374 -0.00018546262 0.005797152 0.029467685 -0.32166684 0.0016449266 0.10632873 0.093321346
0.10799166 0.079730935 0.003784972 0.08994835 0.050583567 -0.018925963 0.08952074 0.08024286
-0.17604618 -0.25956112 0.0017072707 0.07277371 -0.34467787 0.039982446 -0.015184933 0.04103081
0.037208814 0.06102949 0.010025958 0.042497452 -0.030181691 0.06803383 -0.37461615 -0.07877202
0.037723806 0.06790966 0.050105065 0.058580916 -0.14257094 -0.070487216 0.044961534 0.095381156
0.008411292 0.08544871 -0.0337866 0.062792465 0.0062319078 0.01811711 -0.07206839 0.0004432578
-0.0025492318 -0.07257066 -0.291851 0.012854416 0.049384423 -0.0009548156 -0.0011813979 0.022683652
0.011470703 0.0032636025 -0.01918871 0.07362655 0.10364682 -0.010688819 -0.31886753 0.011041833
-0.13099065 0.034626443 0.069315575 -0.027688317 -0.022816582 0.09357362 -9.626315e-05 -0.022388065
-0.38966247 0.062006995 -0.11156172 -0.09026891 0.060645387 0.10014852 0.024682216 0.004333816
00000000: 789e ec3c 3a9e ce3c 03be 963d 75b1 a3ba
00000010: 5d57 8a3d 1f75 be3d c509 ac3c 610f d03d
00000020: 0927 0e3d 70bb 313d ab34 45bc 04cb 673d
00000030: b8e8 113c 7633 b73d 15d7 523c 0ad5 52bc
00000040: a6ec aaba d2e4 73be 1fca bc3b d97f 6dbe
00000050: 9374 4e3d 56ee 24bc 63d2 ed38 cb60 40bc
00000060: 3d30 a9bb 3c13 06bb 9613 433c 335a 3dba
00000070: d62f c93b bf95 9a3b a99d 533d ea59 db3c
00000080: ff09 ac3c ba95 bfba 1dd4 28bc 26d6 2d3d
00000090: 0bcd db3d 5b21 08be 476b c9bb 8ce8 14bc
000000a0: dd97 943d fe94 c83d e478 cf3d df88 19bd
000000b0: 994d 1c3d 14e5 c83c 23b6 8a3c 82fb 7bba
000000c0: 4a84 95bb 4f17 363d d759 66be 7193 62be
000000d0: 964e 363a 3707 4c3d d9f1 1c3a 31e8 b53c
000000e0: 324a c33d 18b2 20bf 7179 883d fb77 6b3d
000000f0: 2ecd a33d 5fdc 03ba 33c0 c53d 07a8 093d
00000100: 0d21 2ebd ddf2 9a3c 1125 b13d cd99 2b3d
00000110: 916d cc3d 2781 c8bd 4c53 293b 1116 4cbe
00000120: ad44 9fba f6bc 5f3c be2f 95be 58ca 12bb
00000130: 6b60 aa3d c768 d0bc aeff 8bbb ecee 90bd
00000140: b39f 893d 50d6 e9bc 5faa 4a3d 600f 0fbb
00000150: 0df9 df3d 0b97 98ba e9aa 533d 8482 d43c
00000160: 7502 9bbb 13a3 80bd 815f b7be ca5e 2e3b
00000170: 0347 753d 623e e3ba 42f5 423d daab 08ba
00000180: 3b60 813d 61d4 6e3d 211b f0bc efe6 aa3b
00000190: 5b98 b33d 8c57 39be f4b0 1ebe 6db7 953d
000001a0: 1e0d c5bb a203 df3d 1350 7d3b 9beb 683d
000001b0: 1ad2 183d eeab d4bc e01e 803d 6f3e 1a3b
000001c0: 4af7 ffbb 2684 8f3d ef1a e43d 88a2 ae3d
000001d0: 1a08 1abe fb97 9d3d 8614 923d 9c41 85bc
000001e0: 767f ad3d ea64 853c 3abf c0b9 d724 c3bb
000001f0: f869 da3c fad9 ab3d f06d 29bb 92ce 9fbd
00000200: ca2b b63d 751f 873d db98 2c3c db4d ae3c
00000210: 6195 6d3c 8c91 903d 10df 823d d354 b33d
00000220: ff06 1c3b 82f2 ce3d 7aae eb38 2b63 ecbe
00000230: fba1 b4bc bab2 94bc ad50 cb3c a413 97be
00000240: 68f7 95b9 5e4f a03b a6de e3bd 8299 4f3c
00000250: 7e3f 7b3d 014e da3d 8c83 a53d 2dce 3bbe
00000260: 7a78 623c 48ba 1fbe 4fb6 57bb 9691 393d
00000270: 49de a03d 4f41 a1bd 2701 e0be 7e04 c93d
00000280: fdc9 683d 4fa6 efbd 8e78 a03d fa6a 883c
00000290: 0c7f a53d 011c 6dbb a1e7 c33a d5c4 d7be
000002a0: 84bb 493a 62f0 9abc f79e 693d c511 0a3c
000002b0: d0ce d6b9 1244 abbc e16d bebc 19dd 97be
000002c0: 6728 9a3d be78 42b9 09f6 bd3b 3766 f13c
000002d0: 84b1 a4be 949a d73a e1c2 d93d 431f bf3d
000002e0: bb2a dd3d f949 a33d 4b0d 783b d736 b83d
000002f0: b730 4f3d 9f0a 9bbc a656 b73d 5e56 a43d
00000300: 7345 34be 32e5 84be 80c6 df3a 620a 953d
00000310: 9e79 b0be a2c4 233d 3aca 78bc ec0f 283d
00000320: 4568 183d 0ffa 793d ea43 243c cf11 2e3d
00000330: 983f f7bc 5255 8b3d b0cd bfbe 3a53 a1bd
00000340: 4784 1a3d 3814 8b3d f83a 4d3d 8bf2 6f3d
00000350: 1efe 11be 9a5b 90bd 9629 383d 3257 c33d
00000360: 84cf 093c bcff ae3d d163 0abd 5699 803d
00000370: 0835 cc3b 556a 943c 9898 93bd 0e65 e839
00000380: 0311 27bb ed9f 94bd 7f6d 95be 549b 523c
00000390: 5247 4a3d 974c 7aba 23d9 9aba 11d3 b93c
000003a0: 9eef 3b3c 2ae2 553b a431 9dbc 84c9 963d
000003b0: c944 d43d 2820 2fbc 9b42 a3be cee8 343c
000003c0: 6a22 06be 75d4 0d3d 53f5 8d3d 9cd2 e2bc
000003d0: d7e9 babc 87a3 bf3d e3e0 c9b8 2d67 b7bc
000003e0: d781 c7be 0cfb 7d3d 797a e4bd e8de b8bd
000003f0: 4c67 783d ab1a cd3d 5c32 ca3c af02 8e3b
