src/Fun_2/model/pca_model_128_64_64_0.001_400.pt (torch, 309447 bytes, 5 tensors)

weight f4 [64, 1128]
0	0xbe147fad	-0.1450183
1	0xbe034543	-0.1281939
2	0x3e8a6712	0.2703176
3	0xbdebd3d3	-0.11515012
4	0x3d9b86bc	0.07594058
5	0x3e340368	0.17579424
6	0x3e83a7c8	0.25713944
7	0xbe10067d	-0.14064975
8	0xbe850afa	-0.25984937
9	0xbd9b4349	-0.07581193
10	0xbd48d6fb	-0.049033146
11	0xbdd34a4f	-0.103169076
12	0x3d439be9	0.04775611
13	0x3dd9cf68	0.10635263
14	0x3eaced7b	0.33774933
15	0x3e3108a1	0.17288448
16	0xbe0d528d	-0.13801022
17	0xbe836465	-0.25662532
18	0xbdaa7593	-0.08323207
19	0xbe532ab0	-0.20621753
20	0x3e34c1a2	0.1765199
21	0xbdd4a462	-0.10382916
22	0xbe0aafc4	-0.13543612
23	0xbda3d661	-0.07999874
24	0x3e9caf63	0.3060256
25	0xbe1b6e75	-0.15178855
26	0x3d80b7aa	0.06285031
27	0x3cdec27b	0.027192345
28	0x3da610d8	0.081086814
29	0x3e274307	0.16334163
30	0xbcd78bad	-0.02631172
31	0xbe1fe77e	-0.15615651
32	0xb9f41ba9	-0.00046559915
33	0x3e00c0c9	0.12573542
34	0xbe585d93	-0.21129446
35	0xbe19cce0	-0.1501956
36	0x3e758fd6	0.2398065
37	0xbd639884	-0.055565372
38	0x3e34fe45	0.17675121
39	0xbe54b01b	-0.20770304
40	0x3e2705cf	0.1631081
41	0x3d9b1b44	0.0757356
42	0xbd57b15d	-0.05265938
43	0x3b97a9f9	0.0046284166
44	0xbcf04502	-0.02932978
45	0x3dee6119	0.11639614
46	0x3d96fc2c	0.07372317
47	0xbcb5b5cf	-0.02218142
48	0xbe4ff39a	-0.2030777
49	0xbe5b93d1	-0.21443106
50	0xb89d90d5	-7.5133205e-05
51	0xbd714e80	-0.058912754
52	0x3d5572b9	0.05211136
53	0x3e330ff3	0.17486553
54	0xbb959ab4	-0.004565561
55	0x3cbdb0c1	0.023155572
56	0x3dbf7bdd	0.09349797
57	0x3dd25b9b	0.102713786
58	0x3c09e97c	0.008417483
59	0x3e2c8a5d	0.16849656
60	0xbcfd2e06	-0.030905735
61	0xbc813f3a	-0.01577722
62	0xbd90da66	-0.07072906
63	0x3d1407aa	0.03614012
64	0xbd10ddf6	-0.03536793
65	0x3cf8b5f2	0.030360196
66	0x3e530767	0.20608293
67	0xbd5d25f3	-0.05399127
68	0x3d84f0b5	0.06491224
69	0x3cfe83fc	0.031068794
70	0x3ca717fe	0.020397183
71	0x3da3a0b2	0.079896346
72	0x3e4de9a8	0.20108664
73	0x3e2af247	0.16693984
74	0x3d4c65f6	0.049901925
75	0x3cfdf04c	0.030998372
76	0x3dac958c	0.08426961
77	0x3e3074e9	0.17232098
78	0xbd4ec7cf	-0.05048352
79	0xbd9cc8d5	-0.07655493
80	0xbdc35af7	-0.095388345
81	0xbe2d2ad9	-0.16910876
82	0xbd1a8ae1	-0.0377301
83	0x3d52bb92	0.051448412
84	0xbe01721c	-0.12641186
85	0xbc579cbd	-0.013159928
86	0xbdbe7122	-0.09298922
87	0x3e0e252f	0.13881372
88	0xbd8c7fd8	-0.06860322
89	0x3da532a3	0.08066299
90	0x3e3ae3cc	0.1825096
91	0xbd69caf6	-0.057078324
92	0xbddf0e28	-0.10891372
93	0x3da046b2	0.07825984
94	0x3af76dad	0.001887729
95	0x3e26adc9	0.16277231
96	0x3d8d693b	0.06904837
97	0x3e4c12ee	0.19929096
98	0x3d6c5c86	0.057705425
99	0x3dac6460	0.084175825
100	0xbd22f3cc	-0.039783284
101	0xbe36f456	-0.17866644
102	0xbd8aa961	-0.06770588
103	0x3b6716d8	0.0035261419
104	0x3be13233	0.0068724393
105	0x3db16d27	0.08663397
106	0xbd20bf0f	-0.039244708
107	0xbd7ade53	-0.06124718
108	0xbbf2a035	-0.007404352
109	0xbe326825	-0.1742254
110	0x3de41e5c	0.11138603
111	0xbb4e1863	-0.003144764
112	0x3e071974	0.13193303
113	0xbc4c8396	-0.012482544
114	0xbcb065d2	-0.021532927
115	0x3de3e467	0.11127549
116	0x3e29ba97	0.16575085
117	0xbe53aa99	-0.20670547
118	0xbcfbadf3	-0.030722594
119	0x3d4a01a8	0.049317986
120	0x3dd0b583	0.101908706
121	0xbbe7fb1a	-0.007079494
122	0x3cc526c7	0.024066342
123	0xbd3e11ca	-0.046403684
124	0x3e24159b	0.16023867
125	0xbe70dfdc	-0.23522896
126	0x3d8dc826	0.06922941
127	0xbd98caaf	-0.07460534
128	0x3d0b9357	0.03407606
129	0x3cf3980e	0.029735591
130	0x3dee6d90	0.11641991
131	0xbdae574b	-0.085127436
132	0x3c9341c3	0.017975694
133	0x3d2e7804	0.042594925
134	0xbcd917f8	-0.026500687
135	0x3e79e41c	0.24403423
136	0xbe394a20	-0.18094683
137	0xbd2ba515	-0.04190548
138	0xbcc7cc98	-0.02438955
139	0x384e441c	4.917766e-05
140	0x3dd72081	0.105042465
141	0xbad700e5	-0.0016403465
142	0xba5c54fd	-0.0008404998
143	0xbd0e112c	-0.034684345
144	0xbe27b442	-0.16377357
145	0xbcd8df9b	-0.02647381
146	0x3e01db7d	0.12681384
147	0xbcf865f7	-0.030322058
148	0xbc55e9f1	-0.013056264
149	0xbe28260e	-0.16420767
150	0xbdddf80d	-0.108383276
151	0x3d37e687	0.044897582
152	0x3d2672f6	0.04063698
153	0x3d8e516d	0.069491245
154	0xbe2ce1f7	-0.16883074
155	0xbca58f39	-0.020209895
156	0xb929e959	-0.00016204025
157	0x3c103130	0.00880079
158	0xbd2a685b	-0.041603427
159	0x3def6f9e	0.11691211
160	0xbd885da2	-0.06658484
161	0xbdd9f84c	-0.10643062
162	0x3d938a45	0.07204107
163	0x3c0925f8	0.008370869
164	0xbe09a5ed	-0.13442202
165	0xbdfff8ce	-0.124986276
166	0xbe384e0e	-0.17998526
167	0x3d22202b	0.03958146
168	0xbd68cb20	-0.05683434
169	0xbd3307e8	-0.04370871
170	0xbd8d3bc3	-0.06896164
171	0x3d3b4e1a	0.04572878
172	0x3d11079e	0.035407655
173	0x3e0725a3	0.13197951
174	0xbc91e287	-0.017808212
175	0xbc670214	-0.014099617
176	0xbda638d2	-0.08116306
177	0x3dd21be9	0.1025923
178	0x3e48c307	0.19605647
179	0x3dd56387	0.10419374
180	0xbde2ed57	-0.11080425
181	0xbd393a67	-0.045221712
182	0xbddf4bd9	-0.10903139
183	0x3ce54909	0.027988927
184	0x3d2711f4	0.040788606
185	0x3e1b8041	0.15185644
186	0x3c7dbd47	0.015487022
187	0x3e565301	0.20930101
188	0x3cc7ee51	0.02440563
189	0x3c583736	0.013196757
190	0xbd9eb8f7	-0.07750123
191	0xbd553a32	-0.052057452
192	0x3d824250	0.06360304
193	0xbd32ec95	-0.043682653
194	0x3e7b9f31	0.24572445
195	0x3d3736cf	0.044730004
196	0x3e017c37	0.1264504
197	0x3de58c40	0.11208391
198	0xbdf5b49b	-0.119973384
199	0xbdce0643	-0.10059788
200	0xbe24ecf7	-0.1610602
201	0xbe316aa4	-0.17325836
202	0xbd85216f	-0.065005176
203	0xbecd25c2	-0.4006787
204	0xbd00b6f7	-0.03142449
205	0xbe1b8600	-0.15187836
206	0x3e3be242	0.1834803
207	0x3e395bbe	0.18101403
208	0x3d4469ce	0.047952466
209	0xbcc87a5d	-0.02447241
210	0x3c9a5ac8	0.018842116
211	0x3dc2e00a	0.09515388
212	0x3dcc8ff7	0.099883966
213	0xbd778e60	-0.060438514
214	0x3d066c0d	0.03281789
215	0x3daf2037	0.08551066
216	0x3e15d074	0.146303
217	0xbe2be321	-0.16785862
218	0x3d75d441	0.060016874
219	0xbd61304c	-0.0549777
220	0xbdaae41e	-0.08344291
221	0x3df8505d	0.12124703
222	0x3dc3a265	0.09552459
223	0x3b8abef3	0.0042341887
224	0xbd9a2316	-0.07526223
225	0x3d8eae5b	0.069668494
226	0xbe09616f	-0.13416074
227	0xbd42ad5e	-0.047528617
228	0xbdcc45b5	-0.09974233
229	0xbcc4d0d2	-0.024025355
230	0x3ba7d632	0.0051219696
231	0x3e29643a	0.1654214
232	0x3e8cad74	0.27476084
233	0x3dfb2d05	0.12264446
234	0x3ddf4fc7	0.10903888
235	0x3dec3de6	0.11535244
236	0x3e59e7ea	0.21279874
237	0x3c31e60a	0.010858068
238	0x3d8da6b7	0.06916564
239	0x3db7573d	0.08952186
240	0xbb563fdb	-0.003269187
241	0x3c3bf00a	0.011470804
242	0x3d9681a5	0.073489465
243	0xbda0438d	-0.07825384
244	0xbcae4079	-0.021270977
245	0x3db21b07	0.08696561
246	0x3e0b1579	0.1358241
247	0x3d2499f0	0.04018587
248	0xbdca8353	-0.09888329
249	0xbdb44526	-0.088022515
250	0x3e700c05	0.23442085
251	0x3de656df	0.11247038
252	0x3cd29729	0.025706844
253	0x3dc8d02f	0.09805333
254	0x3d7acd74	0.06123109
255	0x3e5a49fe	0.21317288

bias f4 [64]
0	0x3e9a63c1	0.3015423
1	0xbd2820fb	-0.041047078
2	0x3e14d174	0.14533025
3	0x3e94d00e	0.29064983
4	0x3dc131f3	0.09433355
5	0x3ceb7d25	0.028746197
6	0x3e0a981f	0.13534592
7	0x3e853b99	0.26022032
8	0x3ddb38ab	0.10704168
9	0x3e83e64d	0.25761643
10	0x3e7a22e2	0.24427369
11	0xbe023ef2	-0.12719324
12	0x3dabd405	0.08390049
13	0x3e0537c8	0.1300956
14	0x3e728916	0.23685107
15	0xbcb087a8	-0.021549061
16	0x3e3b6eb4	0.18303949
17	0x3e916dd3	0.28404102
18	0xbe7fd986	-0.24985322
19	0xbd4b63ae	-0.04965561
20	0x3b13561c	0.0022481745
21	0xbd05a48d	-0.03262763
22	0x3e44eaba	0.19230166
23	0x3e831e86	0.25609225
24	0x3eae1b9c	0.3400544
25	0x3e59a4ad	0.21254225
26	0x3e5ceeaa	0.21575418
27	0x3e8b4cf7	0.27207157
28	0xbd2f6b84	-0.042827144
29	0x3e7ea774	0.24868566
30	0xbe48bb93	-0.19602804
31	0xbe292a1c	-0.1651997
32	0x3e9261a7	0.28590128
33	0x3eb3451e	0.3501367
34	0x3dfcc5c5	0.12342409
35	0x3d5e7496	0.054310404
36	0xbe6e88ce	-0.23294374
37	0x3c6fa13a	0.014625842
38	0x3db59a71	0.08867348
39	0xbce0ee96	-0.027457517
40	0x3dfcb91d	0.12339995
41	0x3e741a5d	0.23838182
42	0xbe489e8c	-0.19591731
43	0x3e9e8e83	0.30968103
44	0xbdb712f6	-0.089391634
45	0x3e37e2fc	0.17957681
46	0x3e363851	0.1779492
47	0x3d257ad3	0.040400337
48	0x3e9e56cb	0.30925593
49	0x3e83d9d3	0.25752124
50	0x3e5c77b5	0.2153004
51	0x3e8a6199	0.27027586
52	0x3cc8e13e	0.024521466
53	0xb98fc934	-0.00027424993
54	0xbc9a1211	-0.018807443
55	0x3dba0578	0.09083074
56	0x3d5a1e0e	0.05325132
57	0x3eaac646	0.33354396
58	0x3de579c7	0.11204868
59	0xbdedf0b1	-0.11618174
60	0x3e155bc6	0.1458579
61	0x3e88ade7	0.26695177
62	0x3e912ec9	0.28356007
63	0x3e4538c3	0.19259934

weight f4 [64, 64]
0	0xbc367bf1	-0.011137948
1	0x3ddf9cc8	0.109185755
2	0xbd0186e3	-0.03162278
3	0x3d606681	0.054785255
4	0xbc71cf70	-0.01475893
5	0x3d42f6d9	0.047598694
6	0x3e1d0203	0.15332799
7	0x3d6f95af	0.05849236
8	0x3de71026	0.11282377
9	0xbd5b300c	-0.053512618
10	0x3d937ec1	0.07201911
11	0xbdb373ab	-0.08762296
12	0x3c8fb0d1	0.017540367
13	0x3dc3307c	0.09530732
14	0x3e0347ca	0.12820354
15	0x3e162faf	0.14666627
16	0x3e2a8a1b	0.16654246
17	0xbc2fda5a	-0.010733211
18	0x3d54ed2c	0.051983997
19	0x3e21e846	0.15811262
20	0x3d0f42a5	0.034975667
21	0x3e0725c4	0.13198
22	0x3dd45faf	0.10369813
23	0x3dbe8186	0.093020484
24	0xbd30c764	-0.043158904
25	0x3d0400aa	0.032227196
26	0x3e225a83	0.1585484
27	0x3dce6978	0.1007871
28	0x3d17bdbe	0.037046187
29	0x3e167529	0.1469313
30	0x3e062c41	0.13102819
31	0xbce54089	-0.027984874
32	0x3e01544e	0.12629816
33	0x3e27c671	0.16384293
34	0x3daf237e	0.085516915
35	0x3dc1cf72	0.09463395
36	0xbdb96633	-0.09052696
37	0x3d59e581	0.053197388
38	0xbd953451	-0.07285369
39	0x3d9597bf	0.07304334
40	0xbd5ff579	-0.05467746
41	0x3df8c81d	0.121475436
42	0xbd2e2486	-0.0425153
43	0x3dce045f	0.100594275
44	0xbcf376fd	-0.029719824
45	0xbcea2a51	-0.028584631
46	0x3e0ff0a9	0.14056648
47	0x3dfe6cd5	0.12423102
48	0xbcfefc05	-0.031126032
49	0xbd417140	-0.047227144
50	0x3dcef573	0.101054095
51	0x3e346109	0.17615141
52	0xbd8c065d	-0.06837151
53	0x3c92abca	0.017904181
54	0x3e063b6b	0.13108604
55	0x3aa30c47	0.0012439572
56	0xba304023	-0.00067234243
57	0x3d67a658	0.056555122
58	0x3bf38828	0.0074320026
59	0x3d180844	0.037117258
60	0x3d13e006	0.036102317
61	0xbb9bbd3c	-0.004752783
62	0xbd7864b4	-0.060642913
63	0x3db95711	0.0904981
64	0xbec0a239	-0.37623766
65	0xbe93e7c3	-0.28887758
66	0xbebc6446	-0.36795253
67	0xbe895fbf	-0.2683086
68	0xbebcde17	-0.3688819
69	0x3d8c37cd	0.06846581
70	0xbe8b5152	-0.2721048
71	0xbdb56832	-0.08857764
72	0xbe9d3052	-0.30700928
73	0xbf262250	-0.64896107
74	0xbe15a27d	-0.14612766
75	0xbcc407bb	-0.023929467
76	0xbd5fb1a0	-0.054612756
77	0xbe0d4fb0	-0.1379993
78	0xbe8945da	-0.26811105
79	0x3d7c5e7d	0.06161355
80	0xbdd9169d	-0.10600016
81	0xbf3125aa	-0.69198096
82	0xbe0daa51	-0.13834502
83	0xbed8882c	-0.4229139
84	0xbea0d8b8	-0.31415343
85	0x3d74023c	0.059572443
86	0xbdd92f27	-0.10604697
87	0xbea10fc0	-0.3145733
88	0xbdcab362	-0.09897496
89	0xbf086af5	-0.53288203
90	0xbe5076d8	-0.20357835
91	0x3e2efc6a	0.17088476
92	0x3da50fd8	0.080596626
93	0xbdd35644	-0.10319188
94	0x3d6afb1e	0.05736839
95	0xbdcee491	-0.10102189
96	0xbc44a52f	-0.012002273
97	0xbe9341a7	-0.28761026
98	0x3cb3f83e	0.021968957
99	0xbd2b603e	-0.04183983
100	0x3c365b4e	0.011130167
101	0xbed12386	-0.40847415
102	0x3eda09d8	0.42585635
103	0x3e76c373	0.24097995
104	0xbf1c0a50	-0.60953236
105	0xbe75dfb2	-0.24011114
106	0xbe6ea5ac	-0.23305386
107	0x3d012469	0.031528864
108	0xbe89b8ec	-0.26898897
109	0xbe0ef465	-0.13960417
110	0xbe18b9e8	-0.14914668
111	0xbd31185d	-0.043236125
112	0xbe0dd845	-0.13852032
113	0x3d9b4820	0.07582116
114	0xbed17550	-0.40909815
115	0xbdb3c3fe	-0.08777617
116	0xbe860f43	-0.2618352
117	0xbe3c5cc2	-0.1839476
118	0xbeacdcbd	-0.3376216
119	0xbddd68e6	-0.108110234
120	0xbf130c0c	-0.5744026
121	0xbd5062b7	-0.05087539
122	0xbdb86407	-0.09003454
123	0x3db7b338	0.0896973
124	0x3dca1b43	0.09868481
125	0xbe1ee07c	-0.15515321
126	0xbe0f621d	-0.14002271
127	0xbee8688f	-0.45392272
128	0xbd190534	-0.037358478
129	0x3e06667a	0.13125029
130	0x3dd60c4a	0.10451563
131	0x3d34f3dd	0.04417788
132	0x3dfc6a00	0.123249054
133	0xbc6ba1f9	-0.014381879
134	0x3dfff42f	0.12497746
135	0x3b0809ee	0.0020757872
136	0x3dd54ace	0.104146585
137	0x3e240864	0.16018826
138	0x3c6bc9af	0.014391347
139	0x3b7c38a2	0.0038485904
140	0x3e2f5ae9	0.17124523
141	0x3de7b7e1	0.11314369
142	0x3d90ef16	0.07076852
143	0x3ddce16e	0.10785185
144	0xbc91c073	-0.017791962
145	0x3e0c610e	0.13708898
146	0xbd46d6bd	-0.048544634
147	0x3df1bc33	0.11803474
148	0x3df3ae17	0.118984394
149	0xbd45f9bc	-0.04833387
150	0x3e2615ff	0.16219328
151	0x3cae5ae6	0.021283578
152	0x3ba52fde	0.0050411066
153	0x3d08f3cb	0.033435624
154	0x3e13b147	0.14423095
155	0x3e2311ef	0.1592481
156	0x3e1b5e8e	0.15172789
157	0x3e116a96	0.14200816
158	0xbda6f084	-0.081513435
159	0xbcdfa9fc	-0.027302735
160	0x3d3cf95d	0.04613625
161	0x3e013dbe	0.12621209
162	0x3e146e56	0.14495215
163	0x3d969499	0.073525615
164	0xbd862aa2	-0.065511
165	0x3e24a1dd	0.16077371
166	0xbbf5eb93	-0.0075048893
167	0x3db10961	0.08644367
168	0x3cb47b4f	0.022031454
169	0x3db734f0	0.08945644
170	0xbd6031a3	-0.054734837
171	0x3bce57d2	0.00629709
172	0x3e2a086d	0.16604777
173	0x3e089c77	0.13340937
174	0x3dbaa45f	0.091133825
175	0x3e0b2d60	0.13591528
176	0x3de0fb00	0.109853745
177	0x3dd7c723	0.10536029
178	0x3d88f31c	0.066869944
179	0xbd3860a9	-0.045014057
180	0x3e0c26dd	0.136867
181	0x3dcdffb4	0.10058537
182	0x3ce31ea3	0.02772457
183	0x3d6a2ae3	0.057169806
184	0x3df1cb3e	0.118063435
185	0x3d9e8a99	0.07741279
186	0x3d1b94b7	0.037983622
187	0x3df072d6	0.11740653
188	0x3e12ffa5	0.14355333
189	0x3bb0b686	0.0053928522
190	0x3b7fc20a	0.0039025568
191	0xbbeaff60	-0.0071715564
192	0x3d81983d	0.06327865
193	0x3dafa8cf	0.085771196
194	0x3c4cab3b	0.012491996
195	0x3e0e78cf	0.13913272
196	0x3d2c6699	0.042090032
197	0xbd8db74e	-0.06919728
198	0xbd48fa40	-0.049066782
199	0xbd89fbb1	-0.067374595
200	0xbc91e6ea	-0.017810304
201	0x3de60240	0.11230898
202	0x3de34d4e	0.11098729
203	0xbd22c256	-0.039736114
204	0x3dd34f0f	0.103178136
205	0xbc35a872	-0.011087524
206	0x3d4afd11	0.04955775
207	0xbd5e5d45	-0.054288168
208	0x3e05f534	0.13081819
209	0x3db5823a	0.08862729
210	0x3e44b7b9	0.1921071
211	0x3d26a753	0.040686917
212	0x3d8155fe	0.0631523
213	0xbda4444d	-0.0802084
214	0xbd82ead6	-0.06392448
215	0xbb0a7c66	-0.0021131276
216	0xbcf182a4	-0.02948124
217	0x3db73a87	0.0894671
218	0xbd71d3b0	-0.05903977
219	0xbd546977	-0.05185839
220	0x3e29c397	0.16578518
221	0xbb9a119c	-0.004701806
222	0x3e0f82de	0.14014766
223	0x3d5b72d1	0.053576294
224	0xbb1c4773	-0.0023846298
225	0xb9b7d321	-0.00035061783
226	0xbd6aad2b	-0.057294052
227	0xbb0b3b2c	-0.0021244986
228	0x3e1d06d9	0.15334643
229	0x3e086607	0.1332017
230	0x3e059493	0.13044958
231	0x3de821c6	0.11334567
232	0x3cbd082b	0.023075184
233	0x3dbaf247	0.09128242
234	0x3e11ad57	0.1422628
235	0x3ca979d8	0.020687982
236	0x3d249507	0.040181186
237	0xbd7684bb	-0.060185175
238	0x3bf945da	0.007607204
239	0x3dc4a34d	0.0960146
240	0xbd145fb4	-0.036224082
241	0x3ca8ee4d	0.020621443
242	0xbda91f77	-0.082579546
243	0xbc863313	-0.016381776
244	0xbcefddf1	-0.029280635
245	0xbccb27c9	-0.024799244
246	0xbd8ea146	-0.06964354
247	0x3da74a96	0.08168523
248	0x3d9aae86	0.07552819
249	0x3d89cf29	0.06728966
250	0x3c1112e0	0.008854598
251	0x3d79e55e	0.061009757
252	0xbd20fca3	-0.039303433
253	0x3dc496bf	0.09599065
254	0x3d556302	0.052096374
255	0x3d104220	0.03521931

bias f4 [64]
0	0x3e6a6d69	0.22893299
1	0x3dc8b6d9	0.098005004
2	0x3e48cef8	0.19610202
3	0x3e7d07fd	0.24710079
4	0xbde6c282	-0.11267568
5	0x3e9cca76	0.30623215
6	0x3e60c4e4	0.21950108
7	0x3e7d4aa8	0.2473551
8	0x3e990be8	0.29891896
9	0x3e28c799	0.1648239
10	0x3ea7fc84	0.32809842
11	0x3e8b8315	0.27248445
12	0xbf101b2f	-0.5629148
13	0x3e4a85af	0.19777559
14	0x3e98321f	0.2972574
15	0x3ea170b4	0.31531298
16	0x3e3d7fab	0.18505733
17	0xbdbfd811	-0.09367383
18	0xbe079e21	-0.13243915
19	0x3e3c2196	0.18372187
20	0x3e8429f1	0.2581325
21	0xbee17bae	-0.44039673
22	0x3e9f229f	0.310811
23	0x3cf13582	0.02944446
24	0x3ea0736c	0.3133806
25	0xbda4e6f0	-0.0805186
26	0x3eaebcea	0.34128505
27	0x3e940828	0.28912473
28	0x3e8f75db	0.28019604
29	0x3ed6fb0a	0.41988403
30	0x3eaea3e4	0.34109414
31	0x3dd9405a	0.10607977
32	0xbe136611	-0.14394404
33	0xbe24bb19	-0.16086997
34	0xbd7c9da0	-0.06167376
35	0xbec3c85d	-0.38238803
36	0x3eba03a4	0.36330903
37	0xbe1459fe	-0.14487454
38	0x3e9b811d	0.30371943
39	0x3e389f32	0.18029478
40	0xbde068fb	-0.109575234
41	0x3e32962c	0.17440099
42	0x3ea5e9d8	0.3240497
43	0xbd6a9bce	-0.057277493
44	0x3e51ad63	0.20476298
45	0x3e8968e6	0.26837844
46	0x3eae7fde	0.3408193
47	0x3d9384f1	0.07203091
48	0x3ea69891	0.32538274
49	0xbd13d62f	-0.036092933
50	0x3e99ba9c	0.30025184
51	0x3eb16c3a	0.34652883
52	0x3e77223c	0.24134153
53	0x3e4d1b42	0.2002993
54	0x3e225c95	0.1585563
55	0xbc8ed81d	-0.017437035
56	0x3e8c74d5	0.27432886
57	0xbdee7b08	-0.1164456
58	0x3e909bd1	0.28243878
59	0x3eacf307	0.33779165
60	0xbe3e14a5	-0.18562563
61	0x3e7f01eb	0.24903075
62	0x3c87dc6f	0.016584603
63	0xbf2e78e6	-0.68153226

weight f4 [1, 64]
0	0x3e319652	0.17342499
1	0xbe988033	-0.29785308
2	0x3dc8539a	0.09781571
3	0x3e25e27d	0.1619968
4	0xbcdb5b19	-0.026776837
5	0x3dc3cadf	0.09560179
6	0x3ddd3c7d	0.10802553
7	0x3dddb512	0.10825552
8	0x3e0ab32a	0.13544908
9	0xbefbdfe2	-0.49194247
10	0x3e3a6427	0.18202268
11	0x3dfd310d	0.12362871
12	0xbf042a3e	-0.51626956
13	0x3dd19a46	0.102345034
14	0x3dd5ee2e	0.1044582
15	0x3e085200	0.1331253
16	0xbe8eff22	-0.27929026
17	0x3b92f1b0	0.004484378
18	0xbd452bbd	-0.048137415
19	0xbede6af3	-0.4344097
20	0x3df5cf76	0.12002461
21	0xbeb4f8e3	-0.35346135
22	0x3d4bd21d	0.049760927
23	0xbe21de6c	-0.15807503
24	0x3de54ce4	0.11196306
25	0xbc458828	-0.012056388
26	0x3da8b060	0.08236766
27	0x3e3f4915	0.18680222
28	0x3e41db6b	0.18931358
29	0x3e2ebd36	0.17064366
30	0x3e4a773e	0.1977205
31	0x3bc5b533	0.0060335635
32	0x3d7ca89e	0.061684243
33	0xbcf8c952	-0.030369435
34	0xbce9c35f	-0.028535543
35	0xbe353231	-0.17694928
36	0x3e22eb08	0.1590997
37	0x3ace439e	0.0015736704
38	0x3e0c4cc1	0.13701154
39	0xbee6b091	-0.45056584
40	0xbdac293c	-0.08406302
41	0x3ca29343	0.01984561
42	0x3dc2a0b0	0.09503305
43	0x3c18e619	0.009332203
44	0x3d9ecc19	0.07753772
45	0xbf0c2a20	-0.5475178
46	0x3e2783f4	0.1635893
47	0xbd9fce3d	-0.07803009
48	0x3db5de59	0.088803
49	0xbdf1d3b0	-0.11807954
50	0x3e264130	0.16235805
51	0x3e4d3870	0.2004106
52	0x3e0907fd	0.13381954
53	0x3d6bfecf	0.05761605
54	0xbed77125	-0.4207851
55	0xbd31d363	-0.043414485
56	0x3debc34b	0.115118586
57	0xbe2fe0e5	-0.17175634
58	0x3e4b6f79	0.19866742
59	0x3dc4cca4	0.096093446
60	0xbadb7192	-0.0016742221
61	0x3e0fb0a2	0.14032224
62	0xbe28aa17	-0.16471134
63	0xbf122ca1	-0.5709935
