src/Fun_2/model/pca_model_128_64_128_0.01_200.pt (torch, 326343 bytes, 5 tensors)

weight f4 [64, 1128]
000000 9f d2 0b be 68 1a 63 be 28 a4 1b 3e db df 4c bd
       -0.13654564 -0.22178042 0.1519934 -0.050018173
000010 00 e8 02 bd c1 5c f8 3d d0 8a 2b 3e e2 c8 02 3e
       -0.031959534 0.121270664 0.16752172 0.12771943
000020 d7 93 85 3d e6 23 d4 be 7a 84 2f 3e a5 0e 88 be
       0.06522339 -0.41433638 0.1714038 -0.26573673
000030 cc 7e 65 bc e6 16 6a be 76 2b a2 bc d7 1b 08 be
       -0.0140072815 -0.22860298 -0.019796114 -0.1329187
000040 f0 23 ed 3d 2c ae 82 3e d7 76 95 3e ad 78 f8 be
       0.1157912 0.25523508 0.2919223 -0.48529568
000050 fe 5d 06 be eb 8c fb 39 14 d0 31 3e ee 96 86 3e
       -0.13121793 0.00047979443 0.17364532 0.26287025
000060 20 85 94 3d 66 44 a2 3e 75 e3 d6 3d 86 ff 08 be
       0.07251954 0.3169281 0.10492603 -0.13378724
000070 12 87 8b 3d 04 a0 99 3d af 40 e7 bd 7b a3 c5 bd
       0.06812872 0.07501224 -0.11291634 -0.09650322
000080 74 cf cd 3d a1 f1 25 bc 16 0f bb be 72 37 e8 bc
       0.10049334 -0.01012841 -0.36534947 -0.02834675
000090 2d d9 69 bd 3f 91 90 3e 32 0a 11 be 4f be e2 bd
       -0.05709188 0.28235814 -0.14164045 -0.11071455
0000a0 09 a0 7b be 36 3c 04 be fc e5 41 3e 0f 70 4e 3e
       -0.24572767 -0.12913594 0.18935388 0.20159934
0000b0 d0 df 78 bd 59 e9 a9 be 53 7e 9a 3d f1 67 ab bd
       -0.06076032 -0.33185843 0.07543626 -0.083694346
0000c0 98 77 1b be 02 db 90 bc 1f 5d 76 3b 0a 57 a3 bc
       -0.1518234 -0.017682556 0.0037592126 -0.019938964
0000d0 bd f2 21 bf 04 0f 21 be e0 17 8f be 4b 36 9b 3e
       -0.63261014 -0.15728384 -0.27947903 0.3031486
0000e0 c4 a1 05 be 91 67 ab bc 67 bc 4a 3e de 6a 71 3e
       -0.1304999 -0.020923408 0.19798432 0.23575923
0000f0 ef 21 b1 3e c6 8c e4 3d 34 28 58 3e 12 3e 00 3e
       0.34596202 0.11159663 0.21109086 0.12523678
000100 8f f9 b8 bc 78 40 33 bd 98 8c f9 bd 10 10 c3 be
       -0.022579936 -0.043762654 -0.12185019 -0.38098192
000110 a3 aa 2e bf 91 f9 0f 3f 1c 59 88 be 77 ac b2 be
       -0.6822912 0.56240183 -0.26630485 -0.34897205
000120 c4 7f 1d bf 56 0b 4f bd 8a 89 b8 3b c4 21 ae be
       -0.6152308 -0.05054792 0.0056316303 -0.34010136
000130 cf bd 00 bf 8d f9 e0 3e f3 bd 84 3e cc 99 3c be
       -0.50289625 0.43940392 0.2592617 -0.18418044
000140 73 85 a3 be 13 1c 4e 3d bf 9e 77 3e 20 02 94 bd
       -0.3193775 0.050319742 0.2418165 -0.07226968
000150 78 06 82 be d3 d6 8f 3e 05 c4 68 bd 4a c6 ef bc
       -0.2539556 0.28093585 -0.056827564 -0.029269356
000160 b2 76 c2 bd d7 14 0c 3e 57 6c f0 3c f1 13 2a 3e
       -0.094952956 0.13679825 0.029348535 0.1660917
000170 b9 08 2f be b8 af ff be 42 53 04 be d3 61 cb 3d
       -0.17093171 -0.4993875 -0.12922385 0.09930768
000180 94 59 ae be 2f b7 83 3d ef b9 44 3f b3 85 d0 be
       -0.34052718 0.06431424 0.7684621 -0.40727004
000190 2a 9e b0 3e 4e c3 99 3d 98 65 91 3e 94 34 42 be
       0.3449567 0.075079545 0.28397822 -0.1896537
0001a0 64 5d 18 3e 4e b9 08 be 83 e0 dc bd ea 4e c2 3c
       0.14879376 -0.13351938 -0.1078501 0.02371927
0001b0 70 a1 c1 bd 64 76 9c be 7c a2 a7 3e 4a 84 19 3e
       -0.0945462 -0.30559075 0.32741153 0.1499187
0001c0 f4 44 b5 3c b2 38 ba 3c da 6d a4 be d5 4f 2c 3e
       0.022127606 0.022732113 -0.3211506 0.16827329
0001d0 b1 3d 74 3c 62 b9 e3 bd 6c d1 8f bd 65 4c 0f bf
       0.0149072865 -0.11119343 -0.07022366 -0.55975944
0001e0 4d 83 91 3e a0 69 a0 3e 3e c2 83 3e 29 cf b9 bd
       0.28420487 0.31330585 0.25734133 -0.09072716
0001f0 1a d8 85 3e 3b 33 4e be 0a e7 40 3e ff 63 17 bf
       0.26141435 -0.2013673 0.18838134 -0.59136957
000200 e3 be 29 be 5e a4 bc 3e 63 6d 64 3e 18 80 81 3b
       -0.16576724 0.36844152 0.22307353 0.0039520375
000210 c4 09 67 3d 52 6a 0f be e7 9f 85 be 7c 14 88 3e
       0.056405798 -0.14005402 -0.26098558 0.26578128
000220 59 1d 54 3e a9 9e 8a 3e 56 80 fb bd 4e 53 8d bd
       0.2071432 0.27074173 -0.122803375 -0.06900655
000230 dc b2 58 3c 29 b1 f4 3c 5c 04 cf be 3c 1c 09 3f
       0.013226237 0.029869633 -0.40433013 0.5355871
000240 55 2c bb bd 1d 82 1e 3f 93 03 25 be b8 63 b0 3c
       -0.09139315 0.6191729 -0.16114645 0.021531925
000250 75 cf d5 3e 2b 25 31 bf df cc d7 3e 82 35 70 3e
       0.4175984 -0.6919734 0.42148492 0.23457912
000260 e7 57 91 be e5 ca 04 3e ee fb 8b bd 67 a2 b9 3e
       -0.28387377 0.12968023 -0.06835161 0.36256716
000270 a9 46 ec 3e c7 d1 4c bb ee 80 1a bf 3c 6d d8 be
       0.4614766 -0.0031252967 -0.6035298 -0.4227084
000280 a6 cb 47 3e 78 f1 ac 3e 57 cb 5c be 4c 62 c8 3e
       0.1951128 0.33777976 -0.21561943 0.39137495
000290 5e bd be 3d 7d 0d fb be ae ed 70 3d 31 85 73 bb
       0.09313463 -0.49033728 0.05882042 -0.0037158246
0002a0 6f 9e b3 be 97 91 11 3d db e2 2a be 0f c7 e2 3e
       -0.35081813 0.035539236 -0.16688101 0.44292495
0002b0 12 61 cf bd 68 5b 68 bf 86 fd bc be e0 76 28 bc
       -0.101259366 -0.90764475 -0.36912173 -0.010282248
0002c0 13 40 31 be c5 2f 3b 3e 61 ed a0 be b1 1d 4e 3e
       -0.17309599 0.18279941 -0.31431106 0.20128514
0002d0 a4 5f b7 bc b1 2f c5 3e b1 63 3c 3e 8f be 0c 3f
       -0.022384472 0.38512948 0.18397404 0.5497827
0002e0 1f a0 ef be 81 01 b9 be 4c 09 34 3e 20 89 16 be
       -0.4680185 -0.3613396 0.17581671 -0.14700747
0002f0 ce b0 14 bf 1b 71 13 3f 79 f0 4f be 47 39 5e be
       -0.5808228 0.5759446 -0.20306577 -0.21701537
000300 45 fd 7c be 1d 96 04 bf 89 1f c7 3e 7c 36 76 3e
       -0.2470599 -0.51791555 0.38891247 0.24044222
000310 47 ae 91 be 24 3b e5 3e 37 c1 dd be 53 73 3f 3e
       -0.28453276 0.44771683 -0.43311474 0.18696336
000320 ac 2f ae be 2a 29 24 3f 8c 01 3c 3e 79 9b fd bd
       -0.34020746 0.6412531 0.18359965 -0.1238317
000330 2d b5 c9 be e5 02 c5 bd e2 91 52 3f 17 bf 65 3e
       -0.3939604 -0.09619693 0.8225385 0.22436176
000340 9b e8 a3 be 28 b2 fe be cf 41 0b 3d 89 ec ec be
       -0.320134 -0.49745297 0.033998307 -0.46274212
000350 85 a0 f1 bc f9 1e a6 bc fe bf fa 3d 50 78 92 3e
       -0.029495487 -0.02027844 0.12243651 0.28607416
000360 ac d1 02 bf cb 7f e2 bd d7 19 99 be 1d 16 fb 3c
       -0.51101184 -0.11059531 -0.29902527 0.030650193
000370 70 77 23 3d 16 96 15 3c 13 29 64 be e1 20 21 bf
       0.039908826 0.009130022 -0.22281294 -0.62940794
000380 48 42 7c 3e d4 1b fe be 4b 82 86 3e 00 9c 9f be
       0.2463466 -0.49630606 0.2627128 -0.31173706
000390 41 6c 15 bd 96 c2 26 3f ce d8 56 3e da 52 92 3e
       -0.036480192 0.65140665 0.20981142 0.28578836
0003a0 d7 5d a6 3e c8 49 f4 3c f3 f7 12 be 98 8a 80 3d
       0.3249347 0.029820338 -0.14352398 0.06276435
0003b0 ab 0c b5 3e 79 f9 09 3f 8b c3 85 be f4 ac 9d be
       0.35361227 0.5389629 -0.2612575 -0.30796015
0003c0 52 20 92 3e c0 d8 83 be 41 90 82 3d c1 ad 0e bd
       0.28540283 -0.25751305 0.063751705 -0.034833673
0003d0 3c 3f 24 3e ca 4b 07 3f 66 f5 36 be d0 20 2e bf
       0.16039747 0.5285002 -0.1786705 -0.6801882
0003e0 b4 05 a4 3e 13 e7 a6 be c0 3f 87 3e d2 16 2d 3e
       0.320356 -0.3259817 0.26415825 0.16903237
0003f0 ef 84 9b 3e 08 64 e4 be 91 ee a0 bd 09 f1 d1 bd
       0.30374858 -0.44607568 -0.07858003 -0.10251052

bias f4 [64]
000000 69 9f e2 bf 39 7e 19 c0 10 24 e2 bf d3 dd 07 c0
       -1.7704898 -2.398329 -1.7667255 -2.122914
000010 92 5c fa bf 43 44 ce bf f6 cd 06 c0 39 f8 0e 3f
       -1.95595 -1.6114582 -2.1063209 0.5584751
000020 73 0a a4 bf f0 17 c8 be d8 60 8d bf e7 6f b8 bf
       -1.2815689 -0.39080763 -1.1045179 -1.440915
000030 1e 06 0b c0 8f 3d 2b c0 08 f4 cf bf 61 94 a9 bf
       -2.1722484 -2.6756322 -1.6246347 -1.3248407
000040 ae 1b 02 c0 5e 32 c0 be a8 1c d3 bf 8b 15 1f c0
       -2.0329394 -0.37538427 -1.649312 -2.4856899
000050 18 da c4 bf 73 64 f0 bf 81 41 1c c0 ee da cc bf
       -1.5379057 -1.8780655 -2.441498 -1.6004312
000060 af 0f 1d c0 cb 36 0d c0 9a d1 88 bf c5 be bf bf
       -2.4540823 -2.2064693 -1.0688965 -1.4980093
000070 84 c2 99 bc 60 12 7b bf 6c e2 c6 bf 7e 10 01 c0
       -0.01876951 -0.98074913 -1.5537848 -2.0166316
000080 3e c6 18 be b7 d5 ca bf a6 17 16 3f a2 73 42 bf
       -0.14919373 -1.584647 0.58629835 -0.7595769
000090 5d 83 11 c0 d0 b3 e9 bf d1 15 0c c0 6e 61 14 c0
       -2.2736428 -1.8258 -2.1888316 -2.3184466
0000a0 22 5a 0e c0 d2 23 23 c0 87 1c 69 bf fc be ef bf
       -2.2242513 -2.5490613 -0.91059154 -1.8730159
0000b0 40 9c 90 bf 41 ea ad bf 61 05 e9 bf 0c 6d 98 bf
       -1.1297684 -1.3587114 -1.8204767 -1.1908278
0000c0 7b 69 13 c0 20 aa 32 c0 49 f2 b4 bf fd 4e f9 bf
       -2.303313 -2.7916336 -1.413644 -1.947723
0000d0 90 46 da bf 2f 72 18 c0 2a 82 bb bf 51 b0 96 bf
       -1.7052784 -2.3819692 -1.4649098 -1.1772557
0000e0 ef 85 c9 bf a0 a8 a6 bf 88 3c df bf bb f8 ab bf
       -1.5743998 -1.302021 -1.7440348 -1.3435282
0000f0 a2 b3 b8 bf 83 28 ff bf b2 82 06 c0 05 7e 13 c0
       -1.442982 -1.9934238 -2.101727 -2.3045666

weight f4 [128, 64]
000000 bd 3c aa bc 04 5c 90 3d 0e 17 ab bd d3 8f a7 3a
       -0.020780915 0.070488006 -0.08354007 0.0012783952
000010 ec c8 b4 3c 3d 56 7c bd 59 5e 25 be b7 3f 39 3d
       0.022068463 -0.06160568 -0.16149272 0.04522678
000020 4e cf 78 3d 2b 8a b3 bb 91 f5 bd 3c 24 e0 0e be
       0.060744576 -0.0054791174 0.023188384 -0.1395269
000030 f3 dd 0a be a0 8f dd 3c 9d 40 e1 bd 67 5b 89 3c
       -0.1356123 0.027046025 -0.10998652 0.016767217
000040 84 d6 41 bd fe 62 c2 bd e4 ee ee bc 21 ca 87 bd
       -0.04732372 -0.094915375 -0.029166646 -0.0663035
000050 03 68 78 3d 58 d9 4e 3c a4 28 32 bd 79 a3 98 bd
       0.06064607 0.012625061 -0.04349579 -0.07453055
000060 ac 5e 3c be fd e7 3e bd 0d 99 8d bc 11 59 c4 bd
       -0.1839549 -0.04660796 -0.017284894 -0.095873006
000070 c7 6f 27 be 27 c9 c2 bd 17 20 fa 3d 8d 63 0d be
       -0.16351233 -0.09511023 0.12213152 -0.13807507
000080 23 6b 6f bd 51 c9 fc bc bf 9c 89 bd 56 59 e7 bc
       -0.058451783 -0.030857714 -0.0671935 -0.02824084
000090 2b 7c 34 3d c4 b6 41 bd 3d 83 e9 3d bd 1f 7b bd
       0.04406373 -0.04729344 0.11401985 -0.061309565
0000a0 38 1b 0d 3e 8f e4 85 3e 09 a0 5e bc e9 1f e0 bd
       0.13779914 0.2615094 -0.01358796 -0.109435864
0000b0 b5 19 ec bc 77 1a 19 3d 04 1d a1 3c 0a ba 8c 3c
       -0.028820852 0.037378754 0.019667156 0.017178554
0000c0 96 60 1b 3d da be 7f bd e4 90 fc 3c 01 bf 10 3d
       0.03793391 -0.06243787 0.030830808 0.035338406
0000d0 27 79 25 3b 71 39 8e bd d4 c5 dc bb e1 bc 17 bd
       0.0025249214 -0.0694455 -0.00673745 -0.037045363
0000e0 9a 7f 90 bd 76 76 20 3c e8 e2 a6 bd 1b 85 43 bd
       -0.07055588 0.009793868 -0.08148748 -0.04773436
0000f0 1a b4 b6 bd e1 09 09 bd 73 a4 54 3d dc 8d d6 bb
       -0.089210704 -0.033456687 0.051914643 -0.0065476727
000100 b9 45 0d 3d 13 7e 56 be 4f 47 ec bd 97 1c 92 be
       0.03449032 -0.20946531 -0.115370385 -0.28537437
000110 0a 26 43 3d ab e6 9b bd 53 14 90 3c 94 2d 1d be
       0.0476437 -0.07612356 0.017587816 -0.15349418
000120 64 84 54 3d 85 b1 1e be 2c a9 19 be 2d 9a ff bb
       0.05188407 -0.15497406 -0.1500594 -0.0078003616
000130 32 de b7 3b ee 65 18 be 8b 18 d2 bd 68 4d c0 bd
       0.0056112045 -0.14882633 -0.102585874 -0.09389764
000140 f1 9a cc be ad 09 20 be f8 c2 cb bc 41 8a 32 3d
       -0.3996196 -0.15628691 -0.024873242 0.04358888
000150 33 a3 de be 58 49 94 bd 42 1d 15 be dc a2 63 be
       -0.43483886 -0.07240552 -0.14561942 -0.22230095
000160 d3 7f 91 bc 3f b6 00 bd d3 2b a8 3b bb 0d 0e be
       -0.017761147 -0.031423803 0.0051321774 -0.13872425
000170 58 15 01 bf c0 d1 d4 3c 19 89 49 3b 9a 87 66 be
       -0.5042319 0.025978923 0.0030751883 -0.22512665
000180 a0 1c 40 3d 8e 2d 34 be 91 c2 f7 bd 06 68 08 be
       0.0469023 -0.17595503 -0.120976575 -0.13320932
000190 5d 57 e4 b8 56 96 10 be 26 7a 29 be e7 05 ba be
       -0.0001088816 -0.14119849 -0.16550502 -0.36332628
0001a0 2a 54 10 be 64 3f 98 be be 30 28 3d e2 86 46 bc
       -0.14094606 -0.29735863 0.04106211 -0.0121171195
0001b0 3b 70 80 bd 09 47 d8 bd 09 33 81 bc cf 50 0b 3d
       -0.06271406 -0.10560424 -0.015771406 0.034012612
0001c0 f8 88 20 bf 9c 92 25 be c9 bb a3 bd 64 60 27 be
       -0.62709 -0.16169208 -0.079948016 -0.16345364
0001d0 b2 08 16 bd 41 7d df bd 8d cb 11 be 83 b8 f2 bd
       -0.036629386 -0.10912562 -0.14237805 -0.11851599
0001e0 8c 37 9f be b9 a3 1e be 17 1d 83 be 67 d5 1f be
       -0.31097066 -0.15492143 -0.2560813 -0.1560875
0001f0 47 b3 09 be 54 3d 00 be 3c e6 c8 bd cf 85 d7 be
       -0.13447295 -0.12523395 -0.09809539 -0.42094275
000200 28 82 b6 bb ca 1d 5c be de dd d8 3b ab 91 a6 bd
       -0.005569715 -0.21495739 0.0066182455 -0.08133253
000210 b3 4b 03 3b 08 69 1c 3d 14 fd 62 be 9a 47 89 be
       0.0020034134 0.038186103 -0.22166854 -0.2681244
000220 46 3e ec be 91 73 4d be 75 cd 46 be 2e f6 3b be
       -0.4614126 -0.20063616 -0.19414313 -0.18355629
000230 da 58 82 bd a8 2f 63 bd dc 8a 4b be 77 16 28 bd
       -0.06364603 -0.05546537 -0.1987719 -0.04103705
000240 ad 6f be bc fe bc 80 be 1a 4f 48 be 4c 0d f5 b7
       -0.02324661 -0.2514419 -0.19561425 -2.9212468e-05
000250 5e 15 33 be 09 9d 0b 3d 90 2d 6b bd b4 6d be bd
       -0.1748862 0.034085307 -0.0574165 -0.09298268
000260 2e a9 36 be 81 27 5d bd 3a 52 63 be 26 8d ee bd
       -0.17837974 -0.053992752 -0.22199336 -0.11648016
000270 ee ac b2 be b7 1f 32 be 13 3e 3b be 49 2a b9 bd
       -0.3489756 -0.17394911 -0.18285398 -0.090412684
000280 14 0c b7 bd c3 1c 14 3d 10 75 37 be f0 1d 45 be
       -0.089378506 0.03616024 -0.1791575 -0.19249701
000290 ec 5e 1e be 99 40 a9 bc cd 5b 53 be 5c bf cb bd
       -0.15465897 -0.020660685 -0.20640488 -0.09948608
0002a0 05 0a 16 be 8d 90 16 bd 75 a0 d1 bd 92 bf 47 be
       -0.1465226 -0.036758948 -0.10235683 -0.19506672
0002b0 bb a6 16 be f3 2e f7 bb b9 2a 17 be d4 83 a6 3b
       -0.1471204 -0.0075434386 -0.14762391 0.005081633
0002c0 7f 09 aa bd f1 e8 48 be e8 b2 74 bd 56 6e 20 3c
       -0.083025925 -0.1962011 -0.05974093 0.009791931
0002d0 2c 1a 5e be cf fb e2 bd a1 f3 66 bd 77 f4 b7 bd
       -0.21689671 -0.11083185 -0.056384686 -0.08982175
0002e0 39 c0 86 be a6 6a 67 be f2 5e 58 be 67 c2 04 bd
       -0.2631853 -0.22599277 -0.21129969 -0.03241196
0002f0 7b 5c 25 be ca 90 31 be 6e 17 1e be c2 87 f6 bd
       -0.1614856 -0.17340389 -0.15438625 -0.120376125
000300 c0 85 4e bd 9e 18 ff b7 b0 00 3a be d8 3f 35 be
       -0.050420523 -3.0409832e-05 -0.18164325 -0.17700136
000310 3e 13 85 3b 6d a2 1c bd a9 9f 3f be aa 88 d2 bb
       0.0040611317 -0.03824084 -0.1871325 -0.006424983
000320 d4 b4 a9 bc a5 96 2a be 5a f2 02 be 3a b9 1d be
       -0.020716108 -0.16659029 -0.12787762 -0.1540269
000330 e9 16 0d bd a9 d3 5a be 72 0b 14 be 59 84 e8 bd
       -0.034445677 -0.21369804 -0.14457491 -0.11353368
000340 49 45 4b ba e8 8b e7 bd 42 16 10 be 49 78 10 bc
       -0.000775416 -0.11305982 -0.1407099 -0.008817741
000350 c2 93 88 bd 09 54 c3 bd 60 8e 07 be 4b 37 38 be
       -0.066688076 -0.09537513 -0.13237906 -0.17989843
000360 d5 96 41 be cf 69 97 bc bf 13 1d be f9 b2 f2 bd
       -0.18905194 -0.01848307 -0.15339564 -0.118505426
000370 2e 5e 30 be 73 5a 46 be 4c 0f 2c be f3 15 06 3c
       -0.17223427 -0.19370441 -0.1680271 0.008183944
000380 0f f8 6d bb 6a 5b 50 be 58 ca 22 be 2d 8f 2f be
       -0.0036311185 -0.20347372 -0.158975 -0.17144461
000390 81 51 75 3c 44 ec 11 be 84 10 47 be 8d d0 14 bc
       0.014973045 -0.14250284 -0.19439894 -0.0090829255
0003a0 d0 3a c4 bc 0a a7 b1 bd 16 b1 46 be 76 96 9e bd
       -0.023953825 -0.08674438 -0.1940349 -0.07743542
0003b0 09 53 23 bd 94 71 c9 bd 4e 69 38 be 30 a2 20 be
       -0.03987411 -0.098361164 -0.1800892 -0.1568687
0003c0 00 28 d6 bc ca fa 09 bd b3 0f e6 bd ee e2 bd bd
       -0.02614212 -0.033686437 -0.11233463 -0.09271799
0003d0 a6 63 c5 bc 78 0d 10 be c9 77 e5 bc 23 84 eb bd
       -0.024095368 -0.14067638 -0.02801122 -0.114998125
0003e0 6c b1 17 be 5f 3d 2d be 60 de 1f be 9a a0 52 be
       -0.14813775 -0.16917942 -0.15612173 -0.20569077
0003f0 a9 62 cd bd 12 31 49 be 75 5a 15 be 0f 1a 09 be
       -0.100285836 -0.19647625 -0.14585288 -0.13388847

bias f4 [128]
000000 8d 48 a2 3f 28 35 41 be 9d 79 cd bc 8d 24 58 bb
       1.2678391 -0.18867934 -0.025082404 -0.003298077
000010 8f be d6 be 85 90 ab bc b7 ce 51 bd 39 40 16 3e
       -0.4194226 -0.020942936 -0.05122253 0.14672936
000020 b2 58 ce be 27 8f 89 3d dc ce fb be e7 ae 53 ba
       -0.40302044 0.06716757 -0.4918126 -0.0008075074
000030 06 0d fe be f0 b6 dc bd d3 f6 37 bd fb 39 3e be
       -0.4961931 -0.1077708 -0.044913124 -0.18576805
000040 db 96 dc be 3f 38 86 3b df eb eb bc 5e 49 78 be
       -0.43083844 0.0040960605 -0.028798996 -0.24246737
000050 1d 33 cf 3e f0 4f 91 bc ee 31 ee be 54 b0 20 bf
       0.40468684 -0.017738312 -0.46522468 -0.62769055
000060 b1 7a b4 3f f5 d6 2a bd fd 7a 1a 3e c1 e2 9b 3e
       1.4099942 -0.041708905 0.15085979 0.30446437
000070 68 50 39 bf fe ff 03 bf 74 2d 80 bd ca a2 b4 3f
       -0.72388315 -0.5156249 -0.062586695 1.4112179
000080 e1 86 2c be 99 2f 94 3f 37 4d 90 bc 52 4f ec bb
       -0.16848327 1.1577026 -0.017614944 -0.007211604
000090 dd ae 0e be 73 7e 4f 3d d2 62 d4 be dd 58 0a bd
       -0.13933893 0.0506577 -0.41481644 -0.033776153
0000a0 d3 a6 1d bb 61 16 ac 3f 1b 0e d9 3c 54 83 20 3f
       -0.0024055734 1.344433 0.026495984 0.6270039
0000b0 88 69 46 3e 10 c2 16 3e 26 ef f8 3f 25 e8 d0 bd
       0.19376194 0.14722466 1.9447982 -0.10200528
0000c0 3c 0c b6 bc 7e 5c da be 63 9e 5e 3d d5 4e aa 3d
       -0.02222263 -0.4264869 0.054350268 0.08315817
0000d0 1b 86 4c 3f b8 21 ce be 70 a1 d4 be f6 5f 68 be
       0.7989213 -0.402601 -0.41529417 -0.22692856
0000e0 ae f9 f5 3c 2c b7 db bd 3e 05 1c bf ee 7a 25 bc
       0.030026283 -0.10728297 -0.609455 -0.0101001095
0000f0 78 a7 30 be 18 7e 91 bd 6b 63 bd 3e 23 93 8f bc
       -0.17251384 -0.071041286 0.36989912 -0.017526215
000100 d1 0c bf be 36 ed 28 be ee cb 1a bd d0 88 41 be
       -0.37314466 -0.16496739 -0.03779214 -0.18899846
000110 9b e3 c1 3e 7e d0 30 bf 3e e7 0c bf a2 a6 93 3e
       0.37868962 -0.69068134 -0.5504035 0.28838068
000120 0a 7d 8d 3f 82 5e b5 be 7f 7f 5d bf 55 14 e6 3d
       1.1053784 -0.35423666 -0.8652267 0.11234347
000130 47 ac b7 bd 03 3c 5d be 6c 10 26 3f fe 95 62 3e
       -0.08968406 -0.21604924 0.6486881 0.2212753
000140 f2 8c 08 be f0 8d a6 bd 33 2d cc be 5b 52 71 be
       -0.13335016 -0.08132541 -0.39878234 -0.23566572
000150 11 65 e4 3e 40 b1 ca bd c7 2b 6d bd f9 aa 39 3d
       0.44608358 -0.09897089 -0.057903077 0.045329068
000160 ce 28 a3 3f 51 78 12 bd ea 53 58 bb 13 24 19 3e
       1.2746828 -0.035759274 -0.0033009 0.14955167
000170 f4 72 59 bd cc f8 89 3f 3a d7 8b 3f b7 15 9b 3d
       -0.053088143 1.0779052 1.0925057 0.07572501
000180 79 c5 a5 bd b8 ce b6 bd a1 28 60 3e 1e fb cb be
       -0.080943055 -0.08926147 0.21890499 -0.39840025
000190 c7 de a5 be 49 5b 8b 3e 38 b2 55 3f e2 3f 0c be
       -0.32396528 0.27218083 0.83475065 -0.13696244
0001a0 48 8f 85 3e 88 5c ee bd 58 e2 b7 bd c1 82 01 bf
       0.26085877 -0.11638743 -0.089787185 -0.5059014
0001b0 4e c6 d8 be 95 73 0a 3e ff 5e c0 bf 72 4c fa 3c
       -0.42338794 0.13520654 -1.502899 0.03055403
0001c0 6b 26 47 be 05 a5 db bd 77 51 ed be 17 c3 35 bf
       -0.19448249 -0.10724834 -0.46351215 -0.7100081
0001d0 3f e6 48 bf 51 a0 0a 3f 1f db 15 bf a9 24 95 3f
       -0.7847633 0.54150873 -0.5853748 1.1651813
0001e0 b3 66 b9 bb 2a 8f 18 be 15 1f 2a be 57 12 b4 be
       -0.0056579947 -0.14898363 -0.1661342 -0.35170242
0001f0 1d 6d 8d 3d b4 9e d3 3e fb 00 35 be ac 88 66 3e
       0.06905577 0.41332018 -0.17676155 0.22513074

weight f4 [1, 128]
000000 68 63 93 3d b1 26 2c 3d 4c e8 fe bc 3a 4e cd 3a
       0.071966946 0.042029087 -0.031116627 0.0015663572
000010 fa 37 86 be 02 b3 2a bc 4f b6 d1 39 08 93 c4 bb
       -0.26214582 -0.010418655 0.00039999417 -0.005998973
000020 ea a4 61 3c 2f a6 c8 bb 07 68 42 3e c2 fa 4f 3d
       0.013772229 -0.0061233263 0.18984996 0.05077625
000030 e4 28 8c 3d d2 ce 62 3c 9e df 32 3d 53 d8 ac 3c
       0.06843737 0.013843255 0.04367029 0.021099245
000040 5b d0 8c be ca fb 65 3b a0 14 7d 3d 97 24 af bd
       -0.27502713 0.0035092705 0.061787248 -0.08551901
000050 b3 67 53 bc 16 dc 84 3d 47 5d 1e be 5e f5 50 3e
       -0.012903142 0.064872906 -0.1546527 0.204061
000060 24 e7 2e 3e 42 90 1e 3c 59 ea 18 bb 83 da af bc
       0.1708036 0.009677948 -0.0023333041 -0.0214665
000070 b3 63 83 be 10 3f ee 3c c6 a7 9a 3e 6d 47 35 3e
       -0.25662002 0.029082805 0.30206126 0.17703028
000080 71 cc 84 3c a5 af 50 3d 71 66 80 3d 80 56 0f bb
       0.016210767 0.050948758 0.06269539 -0.0021871626
000090 00 6b 2b bc f1 a1 31 ba 7e a1 76 be 2c 97 d4 bc
       -0.0104625225 -0.00067761453 -0.24085042 -0.02595099
0000a0 b7 57 47 bb e3 79 13 3e b4 11 94 bb 51 ea a3 3c
       -0.0030417272 0.14401965 -0.004518712 0.020009192
0000b0 46 b0 14 bd 42 e1 2f bc 84 b9 b6 3e 8f ea 6f bd
       -0.03630092 -0.010734858 0.35688412 -0.058573302
0000c0 82 3b d1 3c 1f b5 08 be 59 07 29 bc 2b a0 9b 3c
       0.02554107 -0.13350342 -0.010316693 0.018997272
0000d0 0d 44 a3 3c c5 41 62 bc 16 f9 62 bd d5 77 ea bd
       0.01992991 -0.013809626 -0.055413328 -0.114486374
0000e0 09 c7 22 bb f2 f4 0a 3d 4a 91 63 bd c7 f1 25 3b
       -0.0024837872 0.033925004 -0.05555848 0.0025321112
0000f0 f2 53 19 3d 06 18 1c 3d 96 17 25 3c d0 39 2a 3c
       0.037433572 0.038108848 0.010076424 0.01038976
000100 cf 1c 5c 3e 7f 1a 04 be 48 1a 98 3c 26 d9 cf 3c
       0.21495365 -0.12900732 0.01856722 0.0253721
000110 9f bb 4b bd 96 b2 bd bb ea f2 f7 bc c5 83 86 bc
       -0.049739476 -0.0057891114 -0.030267198 -0.016420254
000120 f1 cb 08 3d 26 b9 aa 3d 64 99 4d 3e 89 bb ad 3c
       0.03339762 0.083360955 0.20078045 0.021207588
000130 90 70 74 3c 8f 33 a1 3d 1e ee e8 3c 72 89 a9 3b
       0.014919415 0.07871162 0.028433856 0.0051738555
000140 ec 0a 2f bd f1 46 d9 bc e8 b2 c3 3b f5 2f 6e be
       -0.042735025 -0.026523085 0.005972255 -0.23260482
000150 a9 cf 5f 3c 6a bd d8 bb 9c d6 03 bd 6c 86 e3 3a
       0.01366035 -0.006614377 -0.03218709 0.0017358786
000160 d0 53 f2 3d 7a 6b 5a 3d e0 6f 89 bb 86 9c 34 3c
       0.11832392 0.053325154 -0.0041942447 0.011023646
000170 66 79 0b 3e f0 0d e3 3c ab fd ea 3c 72 9d 0c 3c
       0.13620529 0.027716607 0.028685411 0.00858246
000180 e7 8e 09 3d 57 92 a3 bc 80 cf 52 3b e9 8e 6b 3c
       0.033583548 -0.019967241 0.0032167137 0.014377334
000190 7c 02 3e be ea c5 d2 3b 38 95 78 3c 54 e3 b4 3c
       -0.18555635 0.0064322846 0.015172295 0.022081055
0001a0 d4 64 9c 3a 04 24 a9 3d 0b 9d 03 bd ec e8 86 be
       0.0011931905 0.082588226 -0.03213219 -0.2634958
0001b0 5a 0a 08 3e b4 41 32 bc 8d fc 75 bd b3 47 07 3b
       0.13285199 -0.010879923 -0.060055304 0.0020642101
0001c0 4e b3 1d be 7e 6e 98 3d 3c 7d 55 3c fb 06 a9 3c
       -0.1540043 0.0744295 0.0130303465 0.020633211
0001d0 32 a6 0e 3b 57 4b 5a 3c 65 0f 65 be 92 72 1d 3d
       0.002176654 0.0133236265 -0.22369154 0.03843934
0001e0 de 9e 38 3d 16 31 09 bd f8 9a 02 3e 9b 47 5e 3d
       0.045073383 -0.033494078 0.12754428 0.054267507
0001f0 5c 38 5a 3b bd c3 a3 bc 8c 41 36 3e 34 8e d9 3c
       0.0033297753 -0.019990796 0.17798442 0.026557066
