src/Fun_2/model/pca_model_128_64_64_0.001_200.pt (torch, 309447 bytes, 5 tensors)

weight f4 [64, 1128]
0	0x3ccf26ae	0.025286999
1	0x3dbae552	0.09125771
2	0xbd603588	-0.05473855
3	0xbd436e55	-0.047712643
4	0xbca8e6e8	-0.020617917
5	0x3dd4078d	0.10353003
6	0xbdea06b0	-0.11427057
7	0x3e077df4	0.13231641
8	0xbe0790c5	-0.13238819
9	0xbd8e9c23	-0.069633745
10	0x3d946d27	0.07247382
11	0xbcfe2ffb	-0.031028738
12	0xbdc1fbd2	-0.09471859
13	0x3c989f44	0.018630631
14	0x3d8dcd54	0.06923929
15	0xbe14d0a4	-0.14532715
16	0xbde3c5be	-0.11121701
17	0xbd336f55	-0.043807346
18	0x3d83467a	0.06409927
19	0xbe01ec9a	-0.12687913
20	0x3d532bec	0.05155556
21	0x3d70f728	0.058829457
22	0x3dcf96d9	0.10136194
23	0x3cee4927	0.029087616
24	0x3d9f0d1f	0.077661745
25	0xbe39ab8f	-0.1813185
26	0xbd777717	-0.060416307
27	0x3dd31949	0.10307557
28	0xbd31331a	-0.043261625
29	0xbcce4c0f	-0.025182752
30	0x3d942d78	0.07235235
31	0xbd3d1ae7	-0.046168234
32	0x3d9948e0	0.07484603
33	0xbd841a48	-0.06450325
34	0xbdeb319b	-0.11484071
35	0x3e398db3	0.1812046
36	0xbdc0ba52	-0.09410538
37	0xbd939ea6	-0.07207994
38	0xbe0930e7	-0.13397561
39	0xbc87aedd	-0.016562873
40	0xbb985408	-0.004648689
41	0x3c949e42	0.01814187
42	0x3c42404a	0.011856148
43	0xbd8a511d	-0.067537524
44	0xbe2744c5	-0.16334827
45	0x3d77381f	0.060356256
46	0x3d8f2619	0.069896884
47	0x3d2b545c	0.0418285
48	0x3dc37536	0.095438406
49	0xbcb0a741	-0.021564128
50	0xbdec7395	-0.11545483
51	0xbd8113d7	-0.06302612
52	0xbdb15fc5	-0.08660845
53	0x3d96686b	0.07344135
54	0x3dd83eda	0.10558863
55	0xbd0c0b6a	-0.034190573
56	0x3d45a340	0.04825139
57	0x3cd5ff31	0.026122661
58	0x3d819e22	0.063289896
59	0xbd2b5697	-0.041830625
60	0xbd405f75	-0.046966035
61	0xbc81b147	-0.015831603
62	0x3d093af8	0.033503503
63	0xbd0dc610	-0.034612715
64	0xbcfee69d	-0.031115824
65	0x3e1f122a	0.15534273
66	0x3d9f1178	0.07767004
67	0xbd640bab	-0.05567519
68	0x3df46cf3	0.11934843
69	0xbd0a06dd	-0.03369795
70	0xbd5e609d	-0.054291356
71	0xbe54177d	-0.20712085
72	0xbd65fbfa	-0.056148507
73	0x3c5ac729	0.013353148
74	0x3cda2afe	0.026631828
75	0xbc76249b	-0.015023376
76	0x3d45e78d	0.048316527
77	0xbdfb3fd1	-0.122680314
78	0x3d28ae24	0.0411817
79	0xbe0914f7	-0.13386904
80	0xbd8d397f	-0.06895732
81	0x3d5e49bc	0.054269537
82	0xbcfb2e49	-0.030661719
83	0xbd50d098	-0.05098018
84	0xbd8af5f6	-0.067851946
85	0x3e317966	0.17331466
86	0x3d811b5c	0.063040465
87	0x3d09b4f7	0.033619847
88	0xbd89358e	-0.06699668
89	0x3e0cf578	0.13765514
90	0x3c7229f7	0.014780513
91	0x3cf7b958	0.030239746
92	0xbe228b6b	-0.15873496
93	0x3d926c91	0.07149614
94	0x3dd25574	0.10270205
95	0xbd643d8c	-0.05572276
96	0xbc5db75c	-0.013532486
97	0xbd817c3d	-0.06322525
98	0xbd3a7b16	-0.04552754
99	0xbe1bed4f	-0.15227245
100	0x3e34498a	0.17606178
101	0x3d1dd60e	0.038534217
102	0xbde09a30	-0.10966909
103	0x3c588f10	0.0132177025
104	0xbc0b8f0a	-0.00851799
105	0x3cda9bbc	0.026685588
106	0x3d34061e	0.043951146
107	0x3e4c0817	0.19924961
108	0x3de0cbfc	0.10976407
109	0x3cceee38	0.025260076
110	0xbdd432f7	-0.10361283
111	0x3dc8aaf7	0.09798234
112	0x3c94ad75	0.018149117
113	0xbd6e2c80	-0.058147907
114	0x3cc68da7	0.024237467
115	0xbc900f18	-0.017585322
116	0xbe116d39	-0.14201821
117	0x3d5e4f13	0.05427463
118	0x3d251434	0.04030247
119	0x3d76fff9	0.06030271
120	0xbd7f050c	-0.062260672
121	0x3bd12524	0.0063826013
122	0x3d22b369	0.03972188
123	0x3db1a210	0.08673489
124	0x3db19778	0.086714685
125	0x3af0440d	0.0018330828
126	0xbe16ef94	-0.1473983
127	0xbd8ea8bb	-0.069657765
128	0xbdbc5413	-0.091957234
129	0x3d952b56	0.07283656
130	0x3dfcc8c0	0.123429775
131	0xbdecd009	-0.11563117
132	0xbc48d337	-0.012257389
133	0x3dd1f9f1	0.10252751
134	0x3d199b36	0.037501536
135	0xbd716f6f	-0.058944162
136	0xbca912c1	-0.020638825
137	0x3e164523	0.14674811
138	0x3d834050	0.06408751
139	0xbcbc67b5	-0.02299867
140	0xbcbe3d75	-0.023222664
141	0x3de4956f	0.11161315
142	0xbdeac0ed	-0.11462579
143	0x3d73930a	0.0594664
144	0x3d0b2811	0.033973757
145	0xbcbc56c9	-0.022990601
146	0x3c2ddc9f	0.010611682
147	0xbbd68a34	-0.006547237
148	0xbc084895	-0.008318086
149	0x3db09112	0.0862142
150	0x3dfaca7a	0.122456506
151	0xbd5dc38d	-0.05414157
152	0xbc142fda	-0.009044612
153	0x3d28398d	0.04107051
154	0xbe0d3074	-0.13788015
155	0x3dc1d98f	0.09465324
156	0x3e093cc1	0.13402082
157	0xbe0cb814	-0.13742095
158	0xbde4f3a2	-0.11179282
159	0xbd074350	-0.03302318
160	0x3e7c1861	0.24618675
161	0xbb8da2a1	-0.0043223654
162	0x3e086c95	0.13322671
163	0x3d6ac2ff	0.05731487
164	0xbd081704	-0.033225074
165	0xbd02bb50	-0.031916916
166	0xbcb9ac66	-0.022665214
167	0x3dca3fdb	0.09875461
168	0xbcb9cc5a	-0.02268045
169	0xbdf3a284	-0.11896232
170	0xbd4780a9	-0.048706684
171	0xbd58b47a	-0.05290649
172	0xbc0fa02f	-0.008766218
173	0x3bb8ef63	0.0056437715
174	0x3c6f8367	0.014618731
175	0xbd6a2cb8	-0.057171553
176	0x3c592bd1	0.013255076
177	0x3c3d9b00	0.011572599
178	0x3ab2e131	0.0013647435
179	0xbdd803a5	-0.1054757
180	0x3c0522e6	0.008125996
181	0x3cb440f1	0.022003623
182	0xbd69b1fe	-0.057054512
183	0x3bd12662	0.0063827494
184	0x3ceb9b7b	0.028760662
185	0x3d219759	0.039450977
186	0xbc8d839b	-0.017274668
187	0x3de56699	0.112012096
188	0x3cd16631	0.025561424
189	0x3e022a06	0.12711343
190	0x3bcbbc25	0.006217497
191	0xbdc9db32	-0.09856261
192	0x3cc1938c	0.023629926
193	0x3e134880	0.14383125
194	0x3d8662b6	0.06561796
195	0xbcd33040	-0.025779843
196	0x3dd688a8	0.10475284
197	0xbe1a3ff8	-0.15063465
198	0x3cf111fe	0.029427525
199	0x3cb4ff8d	0.022094512
200	0xbe0dd44d	-0.13850518
201	0xbe15c5f0	-0.14626288
202	0x3c10c994	0.0088371225
203	0x3d56e82b	0.052467506
204	0xbdc6cf8c	-0.09707555
205	0xbd8b034b	-0.067877375
206	0x3d89548a	0.06705578
207	0xbdbc2e7c	-0.09188554
208	0x3d4b61a1	0.049653653
209	0x3dec5dbb	0.11541315
210	0x3e60076e	0.21877834
211	0x3d934563	0.07190969
212	0xbe1a2d08	-0.1505624
213	0x3ab69cb3	0.0013932198
214	0xbd5c51e0	-0.05378902
215	0x3d85e759	0.06538267
216	0xbd510f34	-0.05103989
217	0x3bd84b16	0.006600748
218	0xbc4dbca1	-0.01255718
219	0xbdeeb4f3	-0.11655607
220	0xb9877b1c	-0.0002584093
221	0x3ce322ac	0.027726494
222	0x3c8b68d6	0.017017763
223	0xbcf5fa9d	-0.030026728
224	0x3d81bbbc	0.063346356
225	0x3c3dcf25	0.011585032
226	0x3d4a14bb	0.049336176
227	0x3db4ee48	0.08834511
228	0x3c04b786	0.008100396
229	0xbd6d9634	-0.058004573
230	0x3e28bc71	0.16478135
231	0x3b9d9222	0.00480868
232	0x3d223493	0.03960092
233	0x3d273ec7	0.040831354
234	0x3ddcdcd2	0.10784306
235	0xbd2367be	-0.039893858
236	0x3d8b647a	0.06806274
237	0x3cbf6ecf	0.023368267
238	0x3e0444b9	0.1291684
239	0xbc94497b	-0.018101444
240	0xbe602cde	-0.21892115
241	0x3d9b2a99	0.07576484
242	0x3d82a079	0.06378264
243	0xbd6bd860	-0.0575794
244	0xbd8e8900	-0.069597244
245	0x3d11c0cf	0.035584267
246	0xbca439d8	-0.020047113
247	0xbd97a7f2	-0.0740508
248	0x3e05551e	0.13020751
249	0x3d1812b9	0.03712723
250	0xbde74571	-0.11292542
251	0xbe0b3d6f	-0.13597654
252	0xbd9fd05f	-0.078034155
253	0xbd57a111	-0.05264384
254	0xbc5601de	-0.013061969
255	0x3d2f5fc2	0.04281593

bias f4 [64]
0	0x3dbce884	0.09224036
1	0x3e0bf951	0.13669325
2	0x3ddd2648	0.10798317
3	0x3e1c4d40	0.15263844
4	0x3e43b461	0.19111778
5	0x3e0dcd61	0.13847877
6	0x3e2100d6	0.15722975
7	0x3e248094	0.16064674
8	0x3e06740c	0.13130206
9	0x3e4d1505	0.2002755
10	0x3e34be9e	0.1765084
11	0xbe472a3d	-0.19449706
12	0x3e82b15e	0.25525945
13	0x3d99932e	0.074987754
14	0x3de297af	0.110640876
15	0x3e1e39a2	0.15451673
16	0x3e3a9ee4	0.18224674
17	0x3daed0f4	0.085359484
18	0x3de2ad9f	0.11068272
19	0x3e3d4928	0.18484938
20	0x3e51ec1d	0.20500226
21	0x3e5f4d88	0.2180692
22	0x3e5a8ca8	0.21342719
23	0x3d6acef3	0.05732627
24	0x3d679331	0.056536857
25	0x3dcdd8c3	0.1005111
26	0x3e260556	0.16212973
27	0x3e619554	0.2202962
28	0x3e62c0f8	0.22143924
29	0x3e0b5e89	0.13610281
30	0x3e6ac575	0.22926886
31	0x3dd673e7	0.10471325
32	0x3e23637c	0.15955919
33	0x3e7b1f93	0.24523763
34	0xbd69e3bc	-0.05710195
35	0x3e7ee83d	0.2489328
36	0x3e06883a	0.13137904
37	0x3e3b29e3	0.18277697
38	0x3e317e8b	0.17333429
39	0x3e2dc45b	0.16969435
40	0x3e36910f	0.17828773
41	0x3e572176	0.21008858
42	0x3e76ac6f	0.24089216
43	0x3deb0eb8	0.11477417
44	0x3e3bd995	0.1834472
45	0x3e2a33d5	0.16621335
46	0x3e049de3	0.12950854
47	0x3e70cb49	0.23515047
48	0x3d7bc17d	0.06146382
49	0x3e6221a1	0.22083141
50	0x3e7f32f5	0.24921782
51	0x3e798c28	0.24369872
52	0x3e0d0da9	0.13774742
53	0x3e8ba07a	0.2727087
54	0x3e3a4c55	0.18193181
55	0x3e085b9a	0.13316193
56	0x3e38655e	0.18007419
57	0x3db086cb	0.0861946
58	0x3e68a60b	0.2271959
59	0x3e1df03b	0.15423672
60	0x3e626f8f	0.22112869
61	0x3e23d0fe	0.15997693
62	0x3e3ca460	0.18422079
63	0x3e5c90cf	0.21539615

weight f4 [64, 64]
0	0x3d7a5110	0.061112463
1	0x3d45cca9	0.048290882
2	0x3ddbfd8d	0.1074172
3	0x3e2b7d1f	0.16746949
4	0x3e096e8e	0.1342108
5	0xbc3eada4	-0.011638079
6	0xbd72b5db	-0.059255462
7	0x3d37b31b	0.044848543
8	0x3dcd487b	0.1002359
9	0x3d2f5dc0	0.042814016
10	0xbd6e907a	-0.058243252
11	0xbd333a48	-0.043756753
12	0xbd7f92c8	-0.06239584
13	0xbd89bd4b	-0.06725558
14	0x3ddae785	0.1068869
15	0x3e1f38f2	0.15549067
16	0xbd388b7c	-0.045054898
17	0x3db71a87	0.089406066
18	0x3e1d0ec7	0.15337668
19	0x3cfea3f7	0.031084044
20	0x3e24e8b8	0.161044
21	0x3e29d0dd	0.16583581
22	0xbd039e63	-0.03213347
23	0x3ac75ede	0.0015210768
24	0x3e3ed6db	0.18636648
25	0x3c841fcd	0.016128445
26	0xbd407c5b	-0.046993595
27	0x3df82f86	0.121184394
28	0xbc236a77	-0.009974114
29	0x3d4009ff	0.046884533
30	0xbd6d860e	-0.057989173
31	0x3da685e5	0.08131007
32	0x3dde273d	0.10847328
33	0x3b35863e	0.0027698423
34	0x3df4bd8e	0.11950217
35	0x3c9659ac	0.018353306
36	0xbcf488fd	-0.029850477
37	0x3d93d223	0.07217815
38	0xbd88ef36	-0.06686251
39	0xbc733f9b	-0.014846708
40	0xbc48b284	-0.012249593
41	0x3db10707	0.086439185
42	0x3e0b93f0	0.13630652
43	0x3c684ac5	0.014177983
44	0x3d5f7910	0.054558814
45	0xbd24f818	-0.040275663
46	0x3dedf90b	0.11619767
47	0x3d26a218	0.04068193
48	0x3dfeedc1	0.12447692
49	0x3d9393f7	0.072059564
50	0xbbb050bd	-0.0053807185
51	0xbd41f47e	-0.047352307
52	0xbd8bd9c0	-0.06828642
53	0x3cd1b0b2	0.02559695
54	0x3b967bb3	0.004592383
55	0xbd1b21c0	-0.037873983
56	0x3df9255f	0.12165331
57	0x3d2367c0	0.039893866
58	0x3c91019d	0.017700965
59	0xbd898ccc	-0.06716308
60	0x3db46df6	0.08810036
61	0xbd1f586b	-0.03890268
62	0x3e00b2be	0.12568185
63	0x3d89bacd	0.067250825
64	0x3d8241b9	0.06360192
65	0xbd2c85fa	-0.042119958
66	0x3d0f8ef4	0.03504844
67	0xbbf5a863	-0.00749688
68	0xbd88c2ac	-0.06677756
69	0xbd88b1c2	-0.066745296
70	0xbd305d06	-0.043057464
71	0x3dbf83ae	0.09351288
72	0xbd651224	-0.055925503
73	0x3ce7cb53	0.028295195
74	0xbcbcbfb1	-0.023040624
75	0xbb72aad1	-0.0037028084
76	0xbd19ddbf	-0.03756499
77	0x3d00449a	0.031315424
78	0x3c4956e2	0.012288781
79	0xbdd35e9e	-0.10320781
80	0x3da9137a	0.08255668
81	0xbc9010ec	-0.017586194
82	0xbdc249d2	-0.09486736
83	0xbde37c2c	-0.11107668
84	0x3dc6fe59	0.09716482
85	0xbc995cd5	-0.018721024
86	0x3da02aea	0.07820685
87	0xbd9b6f5c	-0.075895995
88	0xbd89e4e3	-0.0673311
89	0xbe0299c1	-0.12753965
90	0xbda37c3f	-0.079826824
91	0xbd58d8b7	-0.05294105
92	0xbe0b8b19	-0.1362728
93	0x3cd1f856	0.025631111
94	0x3d48b3fa	0.048999764
95	0x3d25c9a4	0.040475503
96	0xbd98fd68	-0.074702084
97	0xbdaf758e	-0.08567344
98	0xbc227c16	-0.00991728
99	0x3c8b1192	0.016976152
100	0x3bebef95	0.0072001913
101	0x3d9136d4	0.07090536
102	0x3d7f4352	0.06232006
103	0x3d9a4545	0.07532743
104	0x3d6ffe47	0.058592107
105	0xbda82d1f	-0.08211731
106	0xbd7747b7	-0.060371127
107	0x3ceb0ec0	0.028693557
108	0xbd875d05	-0.06609539
109	0xbdaf1d6d	-0.085505344
110	0xbdd159a0	-0.10222173
111	0xbe045df4	-0.12926465
112	0xbdb3a752	-0.08772148
113	0x3ca94182	0.02066112
114	0x3cbb1b83	0.022840267
115	0xbde8b337	-0.113623075
116	0xbd080ba9	-0.033214245
117	0xbe134ef5	-0.14385588
118	0xbd3b19db	-0.045678955
119	0x3d0166e2	0.031592257
120	0x3c8db946	0.01730026
121	0xbdcb447c	-0.09925172
122	0xbe15f3d5	-0.14643796
123	0xbde9102b	-0.11380037
124	0x3ce57ec4	0.028014548
125	0x3d926b61	0.07149387
126	0x3d7cb9ae	0.061700515
127	0xbd7c87fb	-0.06165312
128	0x3d4dd1c9	0.050248895
129	0x3e2d0130	0.16894984
130	0xbd80dd18	-0.0629217
131	0x3e23c87c	0.15994447
132	0x3e004dff	0.12529753
133	0x3df42cb7	0.11922591
134	0x3e1e8ebc	0.15484136
135	0x3d174def	0.036939558
136	0xbd9ed731	-0.07755888
137	0x3e315d6c	0.17320794
138	0xbc38dcc7	-0.011283106
139	0xbc4b8069	-0.012420752
140	0xbd2b3dee	-0.041807108
141	0x3d2fb32c	0.04289548
142	0x3b5bc195	0.0033532132
143	0x3c8f43c7	0.017488373
144	0x3e0cbd38	0.13744056
145	0x3ad02cdb	0.0015882509
146	0xbba13fd6	-0.00492094
147	0xbd5da1c9	-0.05410937
148	0xbcfb3547	-0.030665053
149	0x3c34832a	0.0110176
150	0x3cf520ba	0.029922832
151	0x3d04d110	0.03242594
152	0x3c64fa2b	0.01397566
153	0xbd3d9876	-0.046287976
154	0x3dc4dfea	0.09613021
155	0x3d194dd5	0.037427742
156	0xbd989323	-0.07449939
157	0xbbbd8699	-0.0057838676
158	0x3e1ce9ee	0.15323612
159	0xbd4d572f	-0.050131973
160	0x383da882	4.5218047e-05
161	0x3d313743	0.043265592
162	0xbd7b59a2	-0.061364777
163	0xbcfe8a98	-0.031071946
164	0xbd53f836	-0.051750384
165	0x3dc9fc3c	0.09862563
166	0xbdba49ff	-0.09096145
167	0xbce27da6	-0.027647804
168	0x3e03b6ba	0.12862673
169	0x3e08cda7	0.133597
170	0xbcf53dc9	-0.029936688
171	0x3b9a7924	0.004714148
172	0x3d9dc592	0.07703699
173	0x3be952a2	0.0071204463
174	0xbc61b6bb	-0.0137764765
175	0x3da82ed5	0.082120575
176	0x3d4a96cc	0.049460217
177	0xbcffd3f7	-0.031229002
178	0xbd51543f	-0.051105734
179	0xbd18d23b	-0.037309866
180	0x3e02f759	0.12789668
181	0x3d901632	0.070354834
182	0x3e19bdfa	0.15013877
183	0x3e061a7f	0.13096045
184	0x3dfe0ae5	0.12404422
185	0x3e176c33	0.14787368
186	0x3e2abf3c	0.16674513
187	0x3df91c45	0.12163595
188	0xbcb0bd50	-0.021574646
189	0xbcab4e79	-0.020911442
190	0xbd579184	-0.05262901
191	0xbc7e2554	-0.015511829
192	0x3e130641	0.14357854
193	0x3e0b3d76	0.13597664
194	0x3e2189d1	0.15775229
195	0x3dfa0aba	0.12209077
196	0x3d1048ec	0.035225794
197	0x3e4946b8	0.19655883
198	0x3e4f7515	0.20259507
199	0x3dadcd85	0.08486465
200	0x3ddaa906	0.1067677
201	0x3e11fb05	0.14255913
202	0x3d503edf	0.05084121
203	0x3e14f1fe	0.14545438
204	0x3d22e275	0.039766748
205	0x3e05987b	0.13046448
206	0x3e376dc9	0.17912973
207	0x3e292de0	0.16521406
208	0x3e155aac	0.1458537
209	0x3e6e6a1f	0.2328267
210	0x3de55738	0.11198276
211	0x3e3b1721	0.18270542
212	0x3dd8ce4a	0.105862215
213	0x3d5e77f2	0.054313608
214	0x3dcd6002	0.10028078
215	0x3dd18b23	0.10231616
216	0x3de77ab9	0.11302704
217	0x3d9064cf	0.07050478
218	0x3db4edf0	0.088344455
219	0x3e3e4b3b	0.18583386
220	0x3e03aa7a	0.12858
221	0x3e24d172	0.16095522
222	0x3d06b6cc	0.032889172
223	0x3e75d8d7	0.24008499
224	0x3cb62ac7	0.022237195
225	0xbc794697	-0.015214584
226	0x3e383e59	0.17992534
227	0x3e1bfe6b	0.15233772
228	0x3dad64d3	0.08466496
229	0x3cd1d356	0.025613468
230	0x3d9c81d3	0.076419495
231	0x3c70c3c0	0.014695108
232	0x3e0c38ac	0.13693494
233	0x3e03c4ad	0.12867995
234	0xbd366d00	-0.044537544
235	0x3d5e67b8	0.054298133
236	0x3da85112	0.08218588
237	0x3ca9851a	0.02069335
238	0x3e164ac9	0.14676966
239	0xbc949b87	-0.018140567
240	0x3e62af2f	0.2213714
241	0x3da29e6c	0.07940373
242	0x3d984d96	0.07436673
243	0x3d44ab64	0.048015013
244	0x3e337060	0.17523336
245	0x3d84c87d	0.064835526
246	0x3cbfb306	0.023400795
247	0x3e2000d5	0.15625317
248	0x3e0ffe7f	0.14061926
249	0x3e67acb4	0.22624475
250	0x3dd43a5a	0.10362692
251	0x3e1246ca	0.14284816
252	0x3d72dd9b	0.05929337
253	0x3e4c2b14	0.19938308
254	0x3dd7fb4e	0.105459794
255	0x3dff501f	0.12466454

bias f4 [64]
0	0x3ec5bf2c	0.38622415
1	0xbddc3fe8	-0.10754377
2	0x3eb7a7a9	0.35870102
3	0xbf1544db	-0.5830819
4	0x3e5537cc	0.20822066
5	0x3ec06a94	0.37581313
6	0x3dd5d8e0	0.10441756
7	0xbe2f5e00	-0.17125702
8	0x3ea1631a	0.3152092
9	0x3d8c0186	0.06836228
10	0x3da2d570	0.07950866
11	0x3e691a53	0.22763948
12	0xbd34fdea	-0.044187464
13	0x3ddcf5a3	0.10789039
14	0x3eb3c1eb	0.35108885
15	0x3e53b542	0.20674613
16	0xbd860784	-0.06544402
17	0x3d890278	0.06689924
18	0x3e7e51e6	0.2483593
19	0x3dfd5d6e	0.12371336
20	0x3e0cad87	0.1373807
21	0x3eaa0416	0.33206242
22	0x3e146f66	0.1449562
23	0x3eb0e9dd	0.34553424
24	0xbe02f863	-0.12790065
25	0x3e8abe96	0.2709853
26	0xbcce3615	-0.025172273
27	0x3e6e2d57	0.23259483
28	0x3e9ac6c1	0.30229762
29	0xbf179362	-0.59209263
30	0x3e84a258	0.25905108
31	0x3e15fa38	0.14646232
32	0x3e8039e4	0.25044167
33	0x3e8d036b	0.2754167
34	0x3e861a76	0.26192063
35	0x3e6eb551	0.23311354
36	0x3d3960a8	0.045258194
37	0x3e8b3080	0.2718544
38	0xbdd7ed77	-0.1054334
39	0x3dc88e9b	0.09792825
40	0x3e1885e7	0.1489483
41	0x3da630e6	0.081147954
42	0xbec5cc89	-0.3863261
43	0x3e6b3429	0.22969116
44	0x3e7a684f	0.24453853
45	0x3eb6fa44	0.35737813
46	0x3e02948a	0.12751976
47	0x3e988559	0.29789236
48	0xbdfd7e93	-0.12377658
49	0x3d81cf0a	0.06338318
50	0x3e8c9fc2	0.27465636
51	0x3d887723	0.066633485
52	0x3e0f56cb	0.13997953
53	0xbe200bf0	-0.15629554
54	0x3e51016b	0.20410697
55	0x3e719371	0.235914
56	0x3e8361ee	0.25660652
57	0xbbbe2e66	-0.005803871
58	0x3cc82caf	0.02443537
59	0xbdd3125c	-0.10306236
60	0xbe081919	-0.13290824
61	0x3e18d5ef	0.14925359
62	0x3e6a8d60	0.22905493
63	0x3e5382b7	0.20655333

weight f4 [1, 64]
0	0x3e07c551	0.13258864
1	0xbdbe2514	-0.09284416
2	0x3e1a0b33	0.15043335
3	0xbef2e98a	-0.474438
4	0x3e383e0f	0.17992423
5	0x3dd33e72	0.10314645
6	0xbe3b17e6	-0.18270835
7	0xbd85a399	-0.065253444
8	0x3e07d1ad	0.13263579
9	0xbde903e6	-0.11377697
10	0xbddcb723	-0.10777118
11	0x3e354eac	0.17705792
12	0xbc4c20f9	-0.012459033
13	0xbdec5e72	-0.115414515
14	0x3dd2ceae	0.10293327
15	0x3dad9264	0.084751874
16	0xbd89390e	-0.067003354
17	0xbd958736	-0.0730118
18	0x3e0fc53e	0.14040086
19	0xbe3f6253	-0.18689851
20	0x3def4e55	0.116848625
21	0x3e4555d3	0.1927102
22	0xbeb73f18	-0.35790324
23	0x3e570f98	0.21002042
24	0xbd8fd6f6	-0.070234224
25	0x3e0bfde2	0.13671067
26	0xbcf6ccf2	-0.030127022
27	0x3dc76e0a	0.09737785
28	0x3e3f9578	0.18709362
29	0xbf01308e	-0.50464714
30	0x3e2a1e74	0.1661318
31	0x3d77bca3	0.060482632
32	0x3d992624	0.07477978
33	0x3dd5e1b5	0.10443441
34	0x3de88015	0.11352555
35	0x3e3a788c	0.18210047
36	0xbdde88ba	-0.10865922
37	0x3e140b1f	0.14457367
38	0xbc241fe6	-0.010017371
39	0xbd8756df	-0.06608366
40	0xbec19b9a	-0.37814027
41	0xbdc4c9f6	-0.096088335
42	0xbe9e4361	-0.3091078
43	0x3e11ee8e	0.14251158
44	0x3df33d56	0.11876933
45	0x3dce684f	0.10078489
46	0x3c4ef57e	0.012631772
47	0x3e261bb7	0.1622151
48	0xbb8bf326	-0.004270929
49	0xbd87c6fb	-0.066297494
50	0x3e0f10ad	0.13971205
51	0xbe163ed0	-0.14672399
52	0x3daae99f	0.08345341
53	0x3bcd8a84	0.006272616
54	0x3e1ec703	0.15505604
55	0x3dcb4f12	0.09927191
56	0x3e24ba11	0.16086604
57	0xb8a849f9	-8.024643e-05
58	0xbe42d380	-0.19025993
59	0xbc21bbf2	-0.00987147
60	0xbc86efab	-0.016471704
61	0xbe872835	-0.26397863
62	0x3e096a43	0.13419442
63	0x3da35896	0.07975881
