src/Fun_2/model/pca_model_128_64_64_0.0001_200.pt (torch, 309455 bytes, 5 tensors)

weight f4 [64, 1128]
0.061059084 -0.05577623 0.06846132 0.039092395 0.07899538 -0.040167306 0.012862544 -0.07084382
0.037675466 -0.07085495 -0.07387762 0.029006042 0.005528802 -0.04194834 0.06783473 0.029011097
0.023906006 0.02393008 0.037118584 -0.050456487 -0.023233576 0.03833621 -0.043045126 -0.062234398
0.065409735 -0.029299863 -0.005614277 0.033655077 0.0050546397 0.03395979 0.015973989 -0.05182159
0.0018754886 0.046741225 -0.049249183 -0.007307626 -0.013749777 -0.0046286955 -0.029955465 0.020119665
-0.05795126 -0.041628703 0.015707875 -0.0038599782 -0.045035362 -0.015058062 -0.04147489 0.043136075
0.038435157 -0.032903638 -0.04407252 0.020103473 -0.022721961 -0.05481993 -0.026863452 -0.011699203
0.01724205 -0.023662614 0.015715787 0.019468823 0.015094082 0.006614441 0.039226707 -0.056947466
0.040520977 0.040336464 0.02485455 0.014975506 -0.030711439 0.019136472 0.013606574 -0.0057701105
0.02071659 0.055091556 0.01477268 -0.041825365 0.016887689 0.023849567 -0.037991624 0.00035273127
-0.008158524 -0.022744924 0.018925097 -0.035790615 -0.024080282 0.0045857835 0.06197922 -0.045158442
-0.057054292 -0.03084229 -0.012470492 -0.022337798 -0.019304514 0.002901778 0.028209103 -0.035916243
-0.019740235 0.014989324 -0.006601134 0.0022620296 0.029808529 -0.0109624 0.027656216 -0.007447333
0.00594125 0.0394866 -0.024101246 0.02643413 0.054382913 0.0061145853 -0.051957853 -0.016063223
0.0024769497 0.05588062 0.040110826 0.039367825 -0.01978794 -0.00026662234 0.043006793 -0.018908294
0.015656577 0.04361055 -0.012075367 -0.028755967 -0.033225592 0.008335439 -0.017915428 0.03693441
-0.018167602 -0.02991994 -0.026145075 0.054652754 -0.012571858 -0.016733194 0.076284744 -0.025861101
0.014776949 -0.013232316 0.004619881 0.011960805 0.032927476 -0.008939226 0.0021861917 0.060095
-0.03945645 -0.005648174 -0.0013379683 0.02870869 -0.026302269 0.036410462 0.022746978 -0.060839348
0.0638064 -0.020815633 -0.004379483 0.009351471 0.033780098 0.00020723762 -0.029420817 0.046958994
-0.007707715 0.066528276 -0.02966972 0.0038074122 -0.011517495 0.015219688 0.011770382 -0.011035467
0.008272796 -0.022738488 0.031314824 -0.036078695 -0.00517852 -0.025575018 0.06950431 0.030705536
-0.015029156 -0.009360362 0.027224643 0.04074399 -0.031637687 0.008221155 0.003633579 0.009185518
0.022747051 0.013020412 -0.042380992 -0.02516037 0.0038710139 -0.015592894 0.009882142 -0.042211212
0.01896843 -0.012170605 0.025600515 -0.042910088 0.0016322891 -0.019472294 0.013418267 -0.0076275948
0.0007556852 -0.023308722 -0.044331312 0.032166358 0.03670285 -0.0058953483 0.0037350522 0.0042295945
-0.016591297 -0.0237349 0.03007639 0.024778074 -0.006300756 -0.024886377 0.003612459 0.016995337
-0.010089948 -0.011570996 0.022573775 0.010662131 0.04579072 -0.035782244 -0.0146700535 0.006595355
0.056557253 0.017038427 -0.03211227 -0.05201165 0.0035303405 -0.008576804 0.04992269 -0.021442983
-0.015488701 -0.020793144 0.03442697 0.0024630826 -0.0003489502 0.016499422 -0.033102002 -0.043395977
0.047251742 -0.033410937 0.02698589 0.04163886 0.0393034 0.046916217 -0.036540516 0.043159235
-0.008565535 -0.033476777 -0.044116247 0.0012544474 0.023918467 -0.0187244 -0.012131774 0.022586001
00000000: 1719 7a3d 9e75 64bd 7335 8c3d 591f 203d
00000010: 54c8 a13d 7986 24bd 6bbd 523c 9116 91bd
00000020: 9751 1a3d 661c 91bd 264d 97bd 149e ed3c
00000030: f42a b53b 06d2 2bbd efec 8a3d aea8 ed3c
00000040: 87d6 c33c 0409 c43c a809 183d 76ab 4ebd
00000050: 5754 bebc 6e06 1d3d 1650 30bd 7fe9 7ebd
00000060: 8af5 853d 4406 f0bc f8f7 b7bb e8d9 093d
00000070: 64a1 a53b 6c19 0b3d e2db 823c e042 54bd
00000080: f4d2 f53a ba73 3f3d 83b9 49bd cf74 efbb
00000090: bf46 61bc 50ac 97bb 2a65 f5bc ffd1 a43c
000000a0: 4d5e 6dbd dc82 2abd cdad 803c b0f7 7cbb
000000b0: 0077 38bd 17b6 76bc 93e1 29bd 74af 303d
000000c0: 2f6e 1d3d f7c5 06bd 6385 34bd 0ab0 a43c
000000d0: 6823 babc dd8a 60bd be10 dcbc 04ae 3fbc
000000e0: 333f 8d3c 19d8 c1bc 65be 803c 157d 9f3c
000000f0: 2b4d 773c f4bd d83b 2fac 203d bf41 69bd
00000100: 53f9 253d d937 253d c59b cb3c d35b 753c
00000110: 8e96 fbbc 17c4 9c3c 1cee 5e3c 3213 bdbb
00000120: d7b5 a93c afa7 613d 1c09 723c 1351 2bbd
00000130: 0d58 8a3c 2b60 c33c 1b9d 1bbd caee b839
00000140: 54ab 05bc 9053 babc ce08 9b3c 2e99 12bd
00000150: 0344 c5bc 5744 963b ecdd 7d3d 0ff8 38bd
00000160: c3b1 69bd f8a8 fcbc 0951 4cbc c2fd b6bc
00000170: 8024 9ebc c22b 3e3b c716 e73c e91c 13bd
00000180: 46b6 a1bc c895 753c 534e d8bb 8f3e 143b
00000190: 0431 f43c a39b 33bc 4a8f e23c c208 f4bb
000001a0: d1ae c23b b3bc 213d fa6f c5bc 638c d83c
000001b0: 9ec0 5e3d dc5c c83b c2d1 54bd 0597 83bc
000001c0: 5254 223b 14e3 643d 404b 243d 2840 213d
000001d0: 511a a2bc 72c9 8bb9 e427 303d 91e5 9abc
000001e0: 3942 803c faa0 323d c3d7 45bc a291 ebbc
000001f0: 8f17 08bd 5d91 083c 60c3 92bc 8948 173d
00000200: 39d4 94bc a91a f5bc 322e d6bc 91db 5f3d
00000210: 32fa 4dbc 0d14 89bc 2d3b 9c3d a9da d3bc
00000220: 041b 723c 5bcc 58bc 5f62 973b 41f7 433c
00000230: f6de 063d d575 12bc 3646 0f3b 2d26 763d
00000240: 169d 21bd 5114 b9bb c45e afba 7d2e eb3c
00000250: db77 d7bc 2323 153d df57 ba3c ae32 79bd
00000260: eeac 823d 8c85 aabc c481 8fbb ea36 193c
00000270: 005d 0a3d ed4d 5939 ed03 f1bc 1358 403d
00000280: 0091 fcbb fa3f 883d ea0d f3bc c785 793b
00000290: e0b3 3cbc 005c 793c 8fd8 403c 1ace 34bc
000002a0: 9f8a 073c 1146 babc f943 003d 41c7 13bd
000002b0: 93b0 a9bb b382 d1bc 4758 8e3d 2d8a fb3c
000002c0: d93c 76bc 345c 19bc 3706 df3c 2ce3 263d
000002d0: 8596 01bd 06b2 063c 5721 6e3b db7e 163c
000002e0: 0658 ba3c 9153 553c b197 2dbd 1f1d cebc
000002f0: d6b0 7d3b 5679 7fbc b5e8 213c aae5 2cbd
00000300: ae63 9b3c 3867 47bc 2cb8 d13c 7dc2 2fbd
00000310: 89f2 d53a 5c84 9fbc 4ad8 5b3c e7f0 f9bb
00000320: 2d19 463a eff1 bebc c094 35bd dfc0 033d
00000330: ba55 163d c42d c1bb c7c7 743b 6998 8a3b
00000340: 79ea 87bc b16f c2bc c362 f63c 63fb ca3c
00000350: 9276 cebb 84de cbbc 01bf 6c3b ce39 8b3c
00000360: 4f50 25bc 4694 3dbc a3ec b83c 38b0 2e3c
00000370: 0d8f 3b3d 6790 12bd aa5a 70bc d91d d83b
00000380: 94a8 673d 2c94 8b3c 2888 03bd 2b0a 55bd
00000390: 495d 673b b985 0cbc bc7b 4c3d 32a9 afbc
000003a0: 52c4 7dbc 6256 aabc 4b03 0d3d ab6b 213b
000003b0: 4ef3 b6b9 cc29 873c f795 07bd fbbf 31bd
000003c0: 0b8b 413d e8d9 08bd 8311 dd3c 828d 2a3d
000003d0: 9afc 203d 382b 403d 82ab 15bd bdc7 303d
000003e0: 7556 0cbc f21e 09bd 3db3 34bd 456c a43a
000003f0: a9f0 c33c ea63 99bc 59c4 46bc 4706 b93c

bias f4 [64]
0.08163585 0.08193631 0.10331412 0.10794086 0.050330136 0.04798497 0.10835143 0.09928352
0.09205469 0.1082504 0.076220855 0.08373512 0.049517173 0.101293236 0.045350913 0.033449586
0.091241576 0.08496727 0.042690713 0.09136241 0.123005055 0.055783734 0.06482696 0.08503654
0.081603624 0.07104329 0.087939285 0.11620029 0.059128717 0.0975396 0.122152455 0.051806986
0.04175477 0.11143116 0.08079365 0.06390449 0.09714383 0.102489024 0.094739236 0.08142428
0.0630941 0.07604945 0.04898538 0.07353251 0.06385281 0.06980274 0.0923475 0.06836657
0.09772564 0.10749241 0.103550784 0.11390989 0.088995084 0.075148754 0.10841409 0.060799617
0.12085521 0.075193256 0.08597708 0.11521119 0.10997279 0.07448281 0.11566392 0.064144105
00000000: b230 a73d 39ce a73d 5a96 d33d 1910 dd3d
00000010: f926 4e3d e38b 443d 5be7 dd3d 2855 cb3d
00000020: 2b87 bc3d 63b2 dd3d ae19 9c3d 527d ab3d
00000030: 85d2 4a3d d472 cf3d e1c1 393d 6f02 093d
00000040: dddc ba3d 5203 ae3d 75dc 2e3d 371c bb3d
00000050: 13ea fb3d 7c7d 643d ffc3 843d a327 ae3d
00000060: cd1f a73d 257f 913d 8319 b43d 6bfa ed3d
00000070: f430 723d d8c2 c73d 112b fa3d 9033 543d
00000080: 0d07 2b3d 0536 e43d 2477 a53d 5be0 823d
00000090: 58f3 c63d c4e5 d13d a506 c23d c6c1 a63d
000000a0: 7b37 813d d0bf 9b3d e5a4 483d 3698 963d
000000b0: 43c5 823d bdf4 8e3d b020 bd3d c603 8c3d
000000c0: 6124 c83d fb24 dc3d 6f12 d43d 9749 e93d
000000d0: 0e43 b63d 97e7 993d 3508 de3d 0509 793d
000000e0: f082 f73d ecfe 993d c014 b03d d8f3 eb3d
000000f0: 6a39 e13d 728a 983d 35e1 ec3d fc5d 833d

weight f4 [64, 64]
0.001349759 -0.027212253 -0.099371016 -0.08231988 -0.013750524 0.053491645 -0.10185683 0.055643663
0.03419027 0.07693014 -0.047561504 -0.08443252 0.09205064 0.090504795 -0.06218477 0.00808707
0.071173385 0.07742338 -0.03212569 -0.06166704 0.09278832 -0.11748146 0.044372775 0.10187979
0.07089632 -0.07385879 -0.015420249 -0.088271566 0.008381774 -0.087490186 -0.11413729 0.011072873
-0.0936357 0.02314502 0.102146216 0.04082003 0.06889029 -0.054582763 -0.10724906 0.09504576
-0.057216313 -0.018680844 0.08122738 -0.094119914 0.03096308 -0.07485742 -0.042685367 -0.10933299
0.044598818 -0.003564521 -0.00660751 0.014845413 -0.082047105 0.0030635006 -0.12363231 0.08207429
-0.046099074 -0.0008173962 -0.053833235 -0.025597846 -0.104790226 0.043514125 -0.021531241 -0.14162461
0.019965295 0.06779272 0.17613485 0.05695735 -0.023021022 -0.007981593 0.038904164 0.19502167
0.06781418 0.15860121 0.027007177 0.19446044 0.19038382 -0.028871266 0.13974959 0.18357
-0.015407615 0.108515404 0.028436845 0.1181911 0.12009147 0.034653842 0.21350953 0.13076502
0.15204348 0.1472387 0.05105492 0.054128937 0.1493057 0.19969468 -0.012162126 0.13954118
0.14832583 0.014988288 0.10405455 0.17623043 0.1585049 0.019220695 0.11885985 0.04693116
-0.021623828 0.031834457 0.1921997 0.172142 0.17415373 0.10626147 0.12455967 0.036612555
-0.0047083776 0.14360766 0.06463356 -0.000909261 -0.03185754 0.11708742 0.12492054 0.17740661
0.087789096 0.11699751 0.15208083 0.12689592 0.06291507 -0.037588995 0.06451474 0.1882249
0.09703497 0.13963644 0.0217051 0.097271554 0.13176656 0.018545117 -0.009261732 0.109485924
0.20463245 -0.006509029 0.067407876 0.08543434 0.10398143 0.14685841 0.13691343 0.013303764
-0.029876856 0.1943179 0.09915553 0.16586332 0.13286716 -0.0048095346 0.13165283 0.001485934
0.12757607 5.519031e-05 0.08223943 0.12941694 -0.034654412 0.05101056 0.104119554 -0.015247644
0.0009434935 0.06674305 0.15914801 0.10210136 0.11346556 0.04491115 0.07162519 0.049650803
0.17929448 -0.025479624 0.16515774 0.058386855 0.16505009 0.16308525 0.15871577 0.09724289
0.18003993 0.17463969 0.07839008 -0.008216771 -0.0014241288 0.18410407 -0.0313748 0.1698269
0.058937326 -0.010891702 0.13879877 0.05495258 0.1375868 0.11452778 0.19204381 0.11074747
0.033862077 -0.010603034 0.11392514 -0.02479432 0.071432784 0.052847482 0.17983143 0.06805934
0.012360259 0.13245025 0.25639856 0.11154311 0.12885444 0.027989827 0.044308312 0.19685014
0.11220457 0.055077355 0.07015185 0.15776609 0.19666697 -0.012545332 0.04407667 0.14563514
0.12489442 -0.0017133622 -0.031195428 0.2040692 0.09058772 0.13476035 0.05069412 0.030590074
0.12899648 0.009625216 -0.014180195 -0.029133534 0.20644507 0.10157256 0.0061563 0.076862924
-0.041856527 0.12512255 0.1292223 0.028220603 -0.022861881 -0.056157894 0.0007086956 0.14988722
0.016297165 0.17792091 0.07159755 0.15969539 0.054371078 0.17907327 0.11147877 0.029447777
0.07156361 0.008748463 -0.03693065 -0.040705677 0.051845837 0.16995774 0.0021661613 0.03097928
00000000: 66ea b03a 3bec debc 0883 cbbd 5397 a8bd
00000010: e149 61bc 0e1a 5b3d 509a d0bd 9cea 633d
00000020: 190b 0c3d 8d8d 9d3d dacf 42bd f5ea acbd
00000030: 0c85 bc3d 945a b93d 75b5 7ebd a17f 043c
00000040: 5ac3 913d 2690 9e3d 3a96 03bd 9496 7cbd
00000050: cd07 be3d 1f9a f0bd 3ac0 353d 5aa6 d03d
00000060: 1732 913d 4743 97bd 36a5 7cbc b9c7 b4bd
00000070: b553 093c 0e2e b3bd d0c0 e9bd ff6a 353c
00000080: 13c4 bfbd a09a bd3c 0932 d13d e732 273d
00000090: 5a16 8d3d 2d92 5fbd 65a5 dbbd 5aa7 c23d
000000a0: a75b 6abd 9208 99bc 8a5a a63d f1c1 c0bd
000000b0: 49a6 fd3c d94e 99bd dad6 2ebd fae9 dfbd
000000c0: 40ad 363d bd9a 69bb d083 d8bb 2d3a 733c
000000d0: 5008 a8bd 03c5 483b f032 fdbd 9116 a83d
000000e0: 62d2 3cbd 8846 56ba 3d80 5cbd 93b2 d1bc
000000f0: 429c d6bd de3b 323d 4962 b0bc 0b06 11be
00000100: 428e a33c e9d6 8a3d b25c 343e 1c4c 693d
00000110: 9596 bcbc 3ac5 02bc f959 1f3d c3b3 473e
00000120: 29e2 8a3d 5b68 223e 283e dd3c a320 473e
00000130: faf3 423e 6f83 ecbc 841a 0f3e c6f9 3b3e
00000140: 3970 7cbc 533d de3d 63f4 e83c 2d0e f23d
00000150: 84f2 f53d 30f1 0d3d 3ea2 5a3e 44e7 053e
00000160: 49b1 1b3e bec5 163e f71e 513d 4eb6 5d3d
00000170: 98e3 183e c37c 4c3e a743 47bc e2e3 0e3e
00000180: bae2 173e 7091 753c 8d1a d53d c075 343e
00000190: 1c4f 223e b874 9d3c cb6c f33d e33a 403d
000001a0: 7424 b1bc d964 023d 00d0 443e fe45 303e
000001b0: 5b55 323e 9d9f d93d 2419 ff3d 0cf7 153d
000001c0: bc48 9abb e30d 133e 9a5e 843d 795b 6eba
000001d0: 0d7d 02bd 87cb ef3d 57d6 ff3d 14aa 353e
000001e0: c5ca b33d 649c ef3d 14bb 1b3e 01f1 013e
000001f0: 9ed9 803d ebf6 19bd 4e20 843d 07be 403e
00000200: 45ba c63d dbfc 0e3e e5ce b13c 4f36 c73d
00000210: d0ed 063e eeeb 973c 85be 17bc 283a e03d
00000220: 2b8b 513e b149 d5bb 240d 8a3d 33f8 ae3d
00000230: 37f4 d43d 0d62 163e 0933 0c3e 08f8 593c
00000240: 4fc0 f4bc 46fb 463e 0e12 cb3d 13d8 293e
00000250: 540e 083e 4d99 9dbb 00d0 063e acc3 c23a
00000260: 4da3 023e 257c 6738 256d a83d e085 043e
00000270: c9f1 0dbd 73f0 503d a23c d53d 41d1 79bc
00000280: c754 773a 95b0 883d b2f7 223e 851a d13d
00000290: a260 e83d c1f4 373d 3ab0 923d a45e 4b3d
000002a0: f998 373e a5ba d0bc 1c1f 293e 0e27 6f3d
000002b0: e402 293e d2ff 263e 6386 223e 4827 c73d
000002c0: 635c 383e bfd4 323e fa8a a03d a39f 06bc
000002d0: d5a9 baba c785 3c3e dd82 00bd 1ae7 2d3e
000002e0: 4468 713d 1c73 32bc 4421 0e3e f515 613d
000002f0: 8ee3 0c3e 8a8d ea3d 22a7 443e 92cf e23d
00000300: f6b2 0a3d 59b8 2dbc 9551 e93d 751d cbbc
00000310: 5a4b 923d 9a76 583d bb25 383e b262 8b3d
00000320: af82 4a3c 0aa1 073e ac46 833e b770 e43d
00000330: 6bf2 033e ec4a e53c a27c 353d 1593 493e
00000340: 82cb e53d cb98 613d c6ab 8f3d 6f8d 213e
00000350: 1163 493e f08a 4dbc bd89 343d 6121 153e
00000360: a5c8 ff3d e592 e0ba 8e8d ffbc 84f7 503e
00000370: 0e86 b93d 9efe 093e a3a4 4f3d 0998 fa3c
00000380: a717 043e 15b3 1d3c 0c54 68bc 73a9 eebc
00000390: 5666 533e 4605 d03d caba c93b 4f6a 9d3d
000003a0: c071 2bbd 2020 003e da52 043e e52e e73c
000003b0: d748 bbbc d205 66bd c2c7 393a 097c 193e
000003c0: a281 853c e630 363e bca1 923d 3087 233e
000003d0: 35b4 5e3d fc5e 373e fb4e e43d 773c f13c
000003e0: f18f 923d b755 0f3c 9844 17bd ffba 26bd
000003f0: 4d5c 543d 6709 2e3e 28f6 0d3b 42c8 fd3c

bias f4 [64]
0.02980851 -0.011718888 0.023853444 -0.01827314 0.102416165 0.09370162 0.071428716 -0.23709534
-0.14569762 0.10547321 0.073620796 0.09144015 0.13261206 0.14883591 0.033797298 -0.22106342
-0.0038706237 0.1420505 -0.10432048 -0.08462526 0.072977565 -0.0011447817 -0.04582601 -0.21979532
0.072941564 0.10228289 0.016044876 0.18314745 0.15676743 0.009193179 0.16426775 -0.010719832
0.06463044 -0.081002384 -0.016682643 0.17588034 -0.061955914 -0.15543538 0.15511455 -0.025390303
-0.1159591 0.051197056 0.13176776 -0.1850277 -0.042392224 -0.18432884 -0.11495557 0.17273624
-0.008923919 0.07765292 -0.015540188 0.0913841 0.11408778 -0.055873916 0.10710195 0.087002695
-0.13270839 0.025056947 0.16214702 0.1794323 -0.047738332 0.023749078 0.10721852 -0.051374726
00000000: fa30 f43c 9400 40bc 4c68 c33c 8db1 95bc
00000010: 91bf d13d a3e6 bf3d 3849 923d 1fc9 72be
00000020: c231 15be 5702 d83d 80c6 963d f944 bb3d
00000030: 75cb 073e 7168 183e 096f 0a3d 735e 62be
00000040: 4aaa 7dbb b075 113e faa5 d5bd 0250 adbd
00000050: 4375 953d 800c 96ba 0eb4 3bbd 0612 61be
00000060: 6362 953d b179 d13d 8b70 833c 018b 3b3e
00000070: a487 203e fd9e 163c ce35 283e 3ca2 2fbc
00000080: f75c 843d 94e4 a5bd 0aaa 88bc fa19 343e
00000090: 7cc5 7dbd 742a 1fbe 59d6 1e3e 53ff cfbc
000000a0: f77b edbd 01b4 513d 21ee 063e e777 3dbe
000000b0: 78a3 2dbd b3c0 3cbe d36d ebbd c5e1 303e
000000c0: a135 12bc 7e08 9f3d 469c 7ebc 9627 bb3d
000000d0: dba6 e93d 0cdc 64bd 4458 db3d 782e b23d
000000e0: b5e4 07be 3a44 cd3c de09 263e 1abd 373e
000000f0: 4589 43bd 6d8d c23c 6295 db3d 4e6e 52bd

weight f4 [1, 64]
-0.081909426 0.17988434 0.20904076 0.110155284 0.08827536 -0.0870424 -0.06355205 -0.37374175
-0.2417341 -0.10494946 -0.048486102 -0.005683186 0.08909048 0.18988189 0.11118418 -0.26627886
0.20523123 0.11402436 0.06075017 -0.08637168 0.16947341 0.10879575 -0.16491243 -0.2628533
-0.09174313 0.0842744 0.17011224 0.14818187 0.10439942 -0.07094444 0.1756015 -0.013017437
0.17499182 -0.1981871 -0.1771902 0.1323711 -0.065054335 -0.2366935 0.14559755 0.10468507
-0.026204536 0.19052182 0.07766608 -0.25980583 0.008110592 -0.27948493 -0.21510512 0.1711631
0.12303716 0.0857088 0.15660127 0.15213905 0.11051702 -0.09198725 0.17356727 0.13290699
-0.25507823 0.11387032 0.100839026 0.13590708 -0.20655683 -0.02989137 0.091839194 -0.18586038
00000000: 21c0 a7bd 9a33 383e c80e 563e 1899 e13d
00000010: b6c9 b43d 4943 b2bd 9427 82bd 145b bfbe
00000020: 2589 77be beef d6bd 5d99 46bd 053a babb
00000030: 1275 b63d 6670 423e 88b4 e33d b455 88be
00000040: 2328 523e 9b85 e93d 2cd5 783d a3e3 b0bd
00000050: 708a 2d3e 4ed0 de3d cede 28be b594 86be
00000060: d2e3 bbbd 0e98 ac3d e731 2e3e fdbc 173e
00000070: 5dcf d53d 524b 91bd e1d0 333e 1747 55bc
00000080: 0e31 333e 8ff1 4abe 5971 35be 4a8c 073e
00000090: 353b 85bd c85f 72be 8617 153e 2065 d63d
000000a0: e5aa d6bc 2718 433e 650f 9f3d 4505 85be
000000b0: 4ae2 043c a618 8fbe 8444 5cbe 6145 2f3e
000000c0: e8fa fb3d 1888 af3d 155c 203e 57ca 1b3e
000000d0: bf56 e23d d063 bcbd 9ebb 313e c518 083e
000000e0: 9d99 82be d834 e93d b184 ce3d 3a2b 0b3e
000000f0: a283 53be bfde f4bc 3016 bc3d 2f52 3ebe
